savedmodel/model-4.ckpt (torch, 3495 bytes, 2 tensors)

linear.weight f4 [14, 43]
0	0xbe0843c2	-0.13307098
1	0x3d0f67c8	0.035011083
2	0x3f2aac1e	0.6666888
3	0xbdac6861	-0.08418346
4	0xbddd6ab9	-0.10811371
5	0xbf0a6df8	-0.5407405
6	0xbeb430d1	-0.35193494
7	0xbf50166c	-0.81284213
8	0xbebcdaa1	-0.3688555
9	0x3ea796ee	0.32732338
10	0xbea968ef	-0.3308787
11	0xbe2d7e60	-0.1694274
12	0xbdeb1c98	-0.11480063
13	0xbc9ee900	-0.019398212
14	0xbdc5f620	-0.09666085
15	0xbe5712a3	-0.21003203
16	0xbf8d37d5	-1.1032664
17	0xbfe2a3b3	-1.7706207
18	0x3ef39ead	0.47581998
19	0x3fb0ebeb	1.3821996
20	0xbdaceae7	-0.084432416
21	0xbe99bfc6	-0.30029124
22	0x3f85edb8	1.0463171
23	0x3d94a341	0.07257701
24	0xbee7610b	-0.45191225
25	0xbe27c5fd	-0.1638412
26	0x3d810520	0.06299806
27	0x3ce1fe10	0.027586967
28	0x3e0dd762	0.13851693
29	0xbe12be2e	-0.1433036
30	0x3f103b0b	0.5634009
31	0x3e8e8f26	0.2784359
32	0x3cb257a0	0.021770298
33	0x3f97cc7b	1.1859277
34	0x3d0aca25	0.033884186
35	0x3f4e5381	0.80596167
36	0xbf0e0ed7	-0.55491394
37	0x3d9975ea	0.074931934
38	0x3e882c08	0.26596093
39	0xbe42a6e5	-0.19008978
40	0xbe0bcfd8	-0.13653505
41	0x3ddcc864	0.10780409
42	0xbca1d2b8	-0.019753799
43	0xc02daef0	-2.7138023
44	0x3ed72e53	0.4202753
45	0x417d177d	15.818234
46	0xc06950f3	-3.6455657
47	0x4103c548	8.235664
48	0xc0536cfd	-3.303527
49	0xbfd4248a	-1.6573651
50	0xc019eedd	-2.405204
51	0xbf56f233	-0.83963317
52	0x3f905254	1.1275125
53	0xbfe1b8dc	-1.763454
54	0x3f733b70	0.9501257
55	0x3d0c963c	0.034322962
56	0xbe19daf6	-0.15024933
57	0x3d33738c	0.043811366
58	0xbf0f37b0	-0.5594435
59	0x4025de5f	2.5916975
60	0x3f2b08da	0.6681038
61	0xc00fe016	-2.2480521
62	0x41501ce9	13.007058
63	0x40351582	2.8294377
64	0x412ffb00	10.998779
65	0xc0216306	-2.521669
66	0x4023f8b1	2.562054
67	0x3f2e213c	0.6801946
68	0x3f873bf9	1.0565177
69	0xbd0d3296	-0.03447207
70	0xbe04accd	-0.12956543
71	0xbd0f61ee	-0.035005502
72	0x3f4e030c	0.804734
73	0xbfe777f5	-1.8083483
74	0x3f5546a0	0.8331089
75	0x3e4fbb4c	0.20286292
76	0xc09683a6	-4.7035704
77	0x40930944	4.594881
78	0xbf586fec	-0.8454578
79	0xbeab3290	-0.33437014
80	0x3fcb9684	1.5905309
81	0x3fda7ef5	1.7069994
82	0x3f61b911	0.88173014
83	0x3c198a10	0.009371296
84	0xbde07b62	-0.109610334
85	0xbde17392	-0.110083714
86	0xbf8685fb	-1.0509638
87	0xbf9e5edd	-1.23727
88	0xc000c7f6	-2.0122046
89	0x400bbd00	2.1834106
90	0x4052b4c6	3.2922835
91	0xbd77ed82	-0.06052924
92	0x3f977a3c	1.1834178
93	0x3eb7ca60	0.35896587
94	0x3e8a1fb0	0.269773
95	0x3f2a6061	0.6655331
96	0x3f8da385	1.1065527
97	0xc14a0bcb	-12.627879
98	0x3e5f0f91	0.21783282
99	0x3db7de7d	0.08977983
100	0x3e927f7e	0.28612894
101	0xc023632c	-2.552928
102	0x40226e74	2.5379915
103	0xbdaa6561	-0.08320118
104	0xbfafb758	-1.3727827
105	0xbfac20af	-1.3447474
106	0x40ad0100	5.406372
107	0x4015db0a	2.341494
108	0xbfba9234	-1.4575868
109	0x3c25be81	0.01011622
110	0xbf7457d1	-0.954465
111	0xc14b469b	-12.704738
112	0xbd6d8214	-0.05798538
113	0x3dfce4ac	0.12348303
114	0x3ce9ff38	0.02856408
115	0x40b66d1e	5.70082
116	0x403f8767	2.9926393
117	0xbfb6f118	-1.4292326
118	0xc0138222	-2.3048177
119	0xc027b49c	-2.6203985
120	0x3fd967e7	1.6984833
121	0xc028a695	-2.6351674
122	0xbead5956	-0.3385722
123	0xbef84d3a	-0.4849642
124	0xbf2293a3	-0.63506526
125	0xc14a0c4f	-12.628005
126	0x3decc060	0.1156013
127	0xbd3c6662	-0.045996077
128	0x3dce4998	0.10072631
129	0xbf1aa203	-0.6040346
130	0xbeadd1dd	-0.33949175
131	0x3edda4e4	0.43289864
132	0x3ec572a8	0.38564038
133	0xbe42bb95	-0.1901687
134	0x3f1dd39c	0.61651015
135	0x3f5db9fd	0.8661192
136	0xbcde50aa	-0.027138073
137	0x3e3dad83	0.1852322
138	0x3d128085	0.035767097
139	0x3eaafec5	0.333975
140	0x3baa3248	0.0051939823
141	0x3e581657	0.21102272
142	0x3e8fc136	0.28077096
143	0x3e60a917	0.21939503
144	0xbf35e2ce	-0.710492
145	0xbef89d7d	-0.48557654
146	0xbf6fdbad	-0.93694574
147	0x3b3d77aa	0.0028910437
148	0x3f1209b5	0.5704606
149	0xbe2d2697	-0.16909252
150	0xbf47e179	-0.7807842
151	0x3ebaf1c1	0.3651257
152	0x3f13c22a	0.57718146
153	0xbea8ae70	-0.32945585
154	0xbf2d0440	-0.6758461
155	0x3da07f7e	0.07836817
156	0xbd0dcde8	-0.034620196
157	0x3db52eac	0.088467926
158	0xbf1cd71a	-0.6126572
159	0x3e53395b	0.20627348
160	0x3ee9c4ae	0.45657867
161	0xbe4e8c7e	-0.20170781
162	0x3fa58573	1.293135
163	0xbfb2bf4d	-1.396463
164	0xbec3c993	-0.38239726
165	0xbf336762	-0.70079625
166	0x3fab7941	1.3396379
167	0x3edaef7d	0.4276084
168	0xbf0dd750	-0.55406666
169	0xbd356e48	-0.044294626
170	0x3db88e7e	0.09011553
171	0x3d827558	0.06370038
172	0xbe6f558d	-0.23372479
173	0xbfec0f3d	-1.844215
174	0xc1244b7b	-10.268428
175	0x3f73c853	0.95227545
176	0x3fd8e2a3	1.6944164
177	0x406bb31a	3.6828065
178	0xc0b87f3e	-5.7655325
179	0x40f2d30a	7.5882616
180	0xbeb918ec	-0.36151826
181	0x3c2e8732	0.01065235
182	0xbf13ed5a	-0.57784045
183	0x414678ac	12.404461
184	0xbd659c06	-0.056057
185	0x3e124014	0.14282256
186	0xbd938950	-0.07203925
187	0x3d7c8063	0.061645877
188	0xbef8e72d	-0.48613873
189	0xc0275d08	-2.6150532
190	0x40ddf870	6.936577
191	0xc118b4fc	-9.544186
192	0x40db77ec	6.858389
193	0xc165ac17	-14.354514
194	0xbf837a82	-1.0271761
195	0xbc2ac0a9	-0.01042191
196	0xbe8fcea7	-0.2808735
197	0x4143991b	12.224879
198	0xbd6fa076	-0.058502637
199	0xbe0c6227	-0.13709317
200	0xbdeca776	-0.11555378
201	0xc0afc135	-5.492335
202	0xbfde9710	-1.7389851
203	0x3f1a6c9e	0.60321987
204	0x40665ba4	3.5993433
205	0xc00363a3	-2.0529563
206	0xc01e45ad	-2.4730027
207	0xbf8040b6	-1.0019748
208	0x3e51141d	0.20417829
209	0x3f055d93	0.5209591
210	0x3edfeb52	0.43734223
211	0x414689be	12.408628
212	0x3d2c3b44	0.042048708
213	0x3c6c26b0	0.014413521
214	0xbe07fcf6	-0.1328009
215	0xbecaf6f6	-0.3964154
216	0xbef23083	-0.47302637
217	0x3ec2fc67	0.38083193
218	0x3e999fde	0.3000478
219	0xbeac302f	-0.3363051
220	0x3e5df3a1	0.21674968
221	0x3ebe8c7d	0.3721656
222	0xbe6e0a34	-0.2324608
223	0xbe625aff	-0.22105025
224	0xbea92cb5	-0.3304192
225	0x3e90ffba	0.28320104
226	0xbef5869c	-0.4795426
227	0xbcab9cd8	-0.020948812
228	0xbdd45b32	-0.103689566
229	0xbde013cc	-0.10941276
230	0xbe8bca3f	-0.2730274
231	0xbeb7902f	-0.3585219
232	0xbec034cd	-0.37540284
233	0x3e3e1ec7	0.18566428
234	0x3ef43e45	0.47703758
235	0xbe7dfe77	-0.24804102
236	0x3e9cd97a	0.3063467
237	0x3ec019f4	0.375198
238	0x3d90a83a	0.07063337
239	0x3ec30480	0.3808937
240	0xbeb10f42	-0.34581953
241	0xbe05f9cb	-0.1308357
242	0xbda645c6	-0.08118777
243	0xbd359b1e	-0.044337384
244	0xbf01d729	-0.50718933
245	0x3e9e92b7	0.3097131
246	0x3eae8a4e	0.34089893
247	0x3db2811c	0.08716032
248	0xbaa62ecc	-0.0012678741
249	0xbe6d9b42	-0.23203757
250	0xbecba011	-0.39770558
251	0xbe9402e0	-0.28908443
252	0x3e22e23c	0.15906614
253	0x3ebd370b	0.36956057
254	0xbef5c4fd	-0.48001853
255	0xbd4e1962	-0.050317176

linear.bias f4 [14]
0	0x3d455331	0.04817504
1	0x3f5f3d7c	0.8720319
2	0xc148dccd	-12.553906
3	0xbf2ef6d3	-0.68345374
4	0x4142f4fc	12.184811
5	0xbf0f1d5f	-0.5590419
6	0x40a274a7	5.07674
7	0xc131f8a6	-11.123205
8	0xc1a21be2	-20.263615
9	0x41429203	12.160647
10	0xc10f971b	-8.974391
11	0xbf0951cf	-0.53640455
12	0xbf61346d	-0.8797062
13	0xc0769514	-3.852849
