savedmodel/model-5.ckpt (torch, 261655 bytes, 9 tensors)

LSTM.weight_ih_l0 f4 [400, 31]
-0.3176559 -0.31104144 0.42000967 0.080058955 -0.36809483 0.38739514 -0.24938643 -0.24059361
-0.29119897 0.07561965 0.33788723 -0.4086832 -0.41313747 -0.17647634 0.5142623 0.2603696
-0.4618091 -0.22274478 0.4191413 0.054010455 0.025035098 -0.3002351 0.39908537 0.3639238
-0.25493965 -0.2176044 0.21653627 -0.30709967 0.16755585 0.2893683 0.36272576 -0.31433314
-0.38632965 -0.2792751 -0.34797895 -0.3096923 -0.2969191 0.2552925 0.25072578 0.39149678
0.37159646 0.3602814 -0.26091263 -0.32380667 -0.3833652 0.3899725 0.33463052 0.21115276
0.28430724 0.3453335 0.34889954 -0.20529938 -0.32845792 0.24034642 0.38172263 -0.26132274
0.36750293 -0.34733903 0.28228167 -0.29213554 -0.36911047 0.2314812 -0.3590997 -0.3688106
-0.3163425 -0.26827005 -0.32840487 -0.2779625 0.20437436 0.20185633 -0.21395968 0.37110305
0.21998882 -0.35250255 -0.30520943 -0.26639584 0.21595228 0.35709125 -0.20159432 -0.2964477
0.38044775 -0.14132304 -0.30529544 -0.33138078 0.20055144 -0.35476574 -0.39474893 0.19367924
0.27259013 0.23158984 -0.21731704 -0.32200086 0.28077707 -0.37894946 -0.35934448 -0.2945806
-0.3314633 -0.2626979 -0.374938 -0.6789097 0.4437212 0.24068739 0.35687053 0.3194066
-0.3217571 -0.3264251 -0.32305366 0.34222612 0.119647965 -0.2925406 -0.12943819 0.23373723
-0.3855693 0.06108235 -0.36157793 0.4470835 -0.4335263 -0.35518268 0.07839767 0.2810869
-0.38699645 -0.31766415 0.22289908 0.21228077 0.68002707 0.6501641 0.29524785 0.6382427
0.35865524 -0.27793276 -0.5762165 -0.9215389 -0.6990932 -0.6843065 -0.8803755 0.5886122
0.09793942 -0.23949379 -0.2239885 -0.15568297 0.5637177 0.21189086 -0.06979485 -0.19481832
-0.71869624 0.59693176 0.5619568 -0.58527356 0.06368121 1.0410249 -1.1826636 -0.2552395
-0.8377715 -0.11591845 0.20264596 0.2473239 0.26299194 -0.35148588 0.33250105 0.3648286
-0.47213957 -0.2405725 0.47297293 0.24622254 -0.17926766 -0.34873825 0.32027322 0.29856208
0.25337297 -0.2545189 0.40714124 0.2740847 -0.36515462 -0.3489883 0.432332 0.36043215
0.35457063 -0.19969201 0.3069137 0.31281555 -0.45285892 0.29800963 -0.33881757 0.3170287
-0.39809397 -0.23444062 0.46227354 0.45127803 0.12395484 0.35017467 0.42781284 0.47187114
-0.5036001 0.4315204 0.10129152 -0.07471654 -0.3512568 0.44026956 0.43886775 -0.20669296
0.38644627 -0.33809823 0.42914593 0.5501683 -0.11907371 -0.32317853 -0.12731 0.34566838
-0.12763706 0.38547477 0.41069958 -0.03774743 -0.42846683 0.19375835 0.11196599 -0.35806793
-0.40027776 0.15032704 0.3223781 -0.4057473 0.42726848 0.16647051 0.1540149 -0.2218428
0.17105004 0.4266276 -0.53764445 -0.032556813 0.26097843 0.43592238 -0.031068593 -0.202151
-0.3458405 -0.041250672 -0.31405362 -0.44141492 0.48991737 0.47285017 0.20739219 -0.52405703
0.34836686 0.25245506 -0.14373158 -0.3116941 -0.075523995 0.13291031 -0.44488496 -0.09391517
-0.26579642 0.27889636 0.9659662 -0.2865411 0.36666957 0.06771145 -0.9274352 -0.16744226
00000000: cba3 a2be d340 9fbe 820b d73e f3f5 a33d
00000010: ed76 bcbe a858 c63e 285f 7fbe 2c5e 76be
00000020: 0818 95be 7ade 9a3d 8eff ac3e ed3e d1be
00000030: c186 d3be 37b6 34be b2a6 033f 2a4f 853e
00000040: 3e72 ecbe 3517 64be b099 d63e 113a 5d3d
00000050: 6816 cd3c 6ab8 99be eb54 cc3e 3854 ba3e
00000060: 7387 82be b0d3 5ebe afbb 5d3e 2b3c 9dbe
00000070: c393 2b3e 1528 943e 31b7 b93e 46f0 a0be
00000080: 00cd c5be 25fd 8ebe 4c2a b2be fd8f 9ebe
00000090: c805 98be b3b5 823e 215f 803e 4472 c83e
000000a0: e441 be3e ce76 b83e 5796 85be fdc9 a5be
000000b0: 7248 c4be 7aaa c73e b154 ab3e 6e38 583e
000000c0: b890 913e 8dcf b03e f6a2 b23e 003a 52be
000000d0: a32b a8be 5f1d 763e 2671 c33e 18cc 85be
000000e0: 5829 bc3e 6cd6 b1be 3987 903e ca92 95be
000000f0: 0cfc bcbe 6809 6d3e eadb b7be bed4 bcbe
00000100: a5f7 a1be b15a 89be af24 a8be 1a51 8ebe
00000110: 8347 513e 6db3 4e3e 3f18 5bbe 3801 be3e
00000120: c044 613e 377b b4be 6944 9cbe 0965 88be
00000130: 9822 5d3e aad4 b63e be6e 4ebe fec7 97be
00000140: 0cca c23e fdb6 10be af4f 9cbe beaa a9be
00000150: 5b5d 4d3e dba3 b5be 881c cabe da53 463e
00000160: ef90 8b3e e325 6d3e 5c88 5ebe 4cdd a4be
00000170: 03c2 8f3e aa05 c2be 00fc b7be 45d3 96be
00000180: 8fb5 a9be 5780 86be e0f7 bfbe 07cd 2dbf
00000190: 6d2f e33e c176 763e bcb7 b63e 4389 a33e
000001a0: 59bd a4be 3121 a7be 4a67 a5be 4338 af3e
000001b0: fe09 f53d e2c7 95be 728b 04be d058 6f3e
000001c0: 5769 c5be 7c31 7a3d be20 b9be 21e8 e43e
000001d0: 29f7 ddbe 81da b5be f58e a03d 9fea 8f3e
000001e0: 6624 c6be e0a4 a2be a83f 643e 2160 593e
000001f0: 4116 2e3f 2871 263f ba2a 973e e063 233f
00000200: a9a1 b73e 344d 8ebe ed82 13bf f9e9 6bbf
00000210: c6f7 32bf b62e 2fbf 4a60 61bf 4aaf 163f
00000220: 7694 c83d dc3d 75be 3e5d 65be 5b6b 1fbe
00000230: ce4f 103f ebf9 583e 9af0 8ebd 747e 47be
00000240: 7afc 37bf 85d0 183f 67dc 0f3f 7dd4 15bf
00000250: 4b6b 823d 4e40 853f 8561 97bf c0ae 82be
00000260: 3178 56bf a766 edbd 6c82 4f3e 7a42 7d3e
00000270: e1a6 863e f5f5 b3be 943d aa3e d0ca ba3e
00000280: 47bc f1be a358 76be 8229 f23e c321 7c3e
00000290: f191 37be d28d b2be dafa a33e 21dd 983e
000002a0: 1aba 813e 4d50 82be d174 d03e d454 8c3e
000002b0: 8cf5 babe 98ae b2be 9f5a dd3e 908a b83e
000002c0: 488a b53e 107c 4cbe cb23 9d3e 5c29 a03e
000002d0: 20dd e7be b894 983e 7f79 adbe 9651 a23e
000002e0: f9d2 cbbe 3411 70be 1eaf ec3e ea0d e73e
000002f0: 09dc fd3d 184a b33e 490a db3e 1899 f13e
00000300: f0eb 00bf 3ef0 dc3e ee71 cf3d fc04 99bd
00000310: eed7 b3be 036b e13e 46b3 e03e 52a7 53be
00000320: 49dc c53e 361b adbe 04b9 db3e d4d7 0c3f
00000330: ebdc f3bd a877 a5be 8d5d 02be 72fb b03e
00000340: 4ab3 02be f35c c53e 3747 d23e 0d9d 1abd
00000350: 0160 dbbe 9768 463e 6d4e e53d ae54 b7be
00000360: 35f1 ccbe 55ef 193e be0e a53e 1cbe cfbe
00000370: efc2 da3e 3f77 2a3e 15b6 1d3e c22a 63be
00000380: be27 2f3e ef6e da3e 11a3 09bf 4b5a 05bd
00000390: f79e 853e 3831 df3e 9083 febc ac00 4fbe
000003a0: 0212 b1be 77f6 28bd a3cb a0be 2301 e2be
000003b0: 73d6 fa3e 6b19 f23e 9e5e 543e 9a28 06bf
000003c0: 245d b23e ca41 813e 5f2e 13be 5e96 9fbe
000003d0: 53ac 9abd a419 083e f6c7 e3be 9956 c0bd
000003e0: 7816 88be 81cb 8e3e 9049 773f 84b5 92be
000003f0: 1dbc bb3e 4dac 8a3d 656c 6dbf fc75 2bbe

LSTM.weight_hh_l0 f4 [400, 100]
-0.24938357 0.24996512 0.37143636 0.31629774 -0.3367123 0.33014092 0.1717733 0.15089406
-0.2567345 -0.30718777 -0.35995746 -0.3675044 0.37967592 -0.30759487 -0.2775315 0.27358016
0.27665547 0.22307466 -0.26914725 0.27361423 -0.38453516 -0.29314318 -0.3628238 -0.20706101
-0.43329093 0.36714014 0.3268128 -0.2869019 -0.06673287 0.32842767 0.022176888 0.26884475
0.32912207 -0.24643937 0.42462024 -0.36983252 0.08148675 -0.37376133 -0.30959684 0.4113704
-0.30482352 0.22403726 0.39304775 0.22608927 -0.29037547 -0.39924133 0.25670266 -0.38104653
-0.3534339 -0.20831804 -0.35732123 0.581179 -0.19575329 -0.2157763 0.287597 -0.35197663
-0.23374571 -0.3812183 0.2329252 0.41286814 0.33947867 -0.212614 0.27129504 -0.21323179
-0.17514452 0.28652453 -0.38462305 -0.34575644 0.29069722 -0.18493389 0.3186134 0.1882986
-0.08820814 0.2925391 -0.2411857 0.27603382 -0.3544373 0.39690143 0.3014968 0.083075315
0.4125965 -0.20828821 -0.085944764 0.06684491 0.20456961 0.21658924 -0.21719804 -0.38611645
-0.03865301 0.2580953 -0.16325219 -0.4499876 0.35943455 -0.21668136 -0.49396238 0.032959692
0.13576774 0.26680285 -0.27419254 0.15857773 -0.2254743 0.24311225 -0.26831892 -0.2888979
-0.33600104 0.3085755 -0.29538822 0.35811636 -0.21719395 -0.32420936 -0.38454315 0.36058706
0.37933788 0.2511988 -0.22894363 0.38044205 0.38045686 -0.24629498 -0.36803854 0.2981814
-0.34770033 0.2697511 -0.3211323 -0.3659364 -0.22242673 -0.33037296 0.21806201 0.16466142
0.16840056 -0.32826713 -0.24419214 -0.22731055 0.24579005 0.28093678 -0.3061757 -0.51009804
0.30717483 -0.2589697 -0.27587712 -0.26256728 0.34230977 -0.24405135 0.25713012 0.39680347
-0.36334944 -0.32657254 0.4509865 -0.22690399 -0.2273116 0.26059118 -0.32040495 -0.3965756
0.13040705 -0.2834381 0.32333016 -0.23367248 -0.20319554 0.26210675 -0.34282023 0.23117998
0.23244499 0.037408784 -0.35056695 -0.3833091 0.30180278 -0.28355262 0.3469868 -0.37645972
-0.2174087 0.19167124 0.30416617 -0.28709817 0.29336515 0.36318523 -0.22576478 0.31986675
-0.30737293 0.31768975 0.26069453 0.22348371 0.28513685 0.2912524 0.29093456 0.28722435
-0.355574 0.27230415 -0.07571846 0.28537008 0.39056677 -0.25590613 0.39591876 0.39309162
-0.21130109 -0.3750844 0.3098992 -0.30381164 0.37311122 -0.25629562 -0.3473655 -0.3356849
-0.25392848 0.2624825 -0.36236262 0.26202208 -0.40548173 0.23955008 -0.45088357 -0.30616704
-0.20907512 0.37497133 -0.21411625 0.20732151 0.19757336 -0.31455708 -0.32706538 0.25788206
0.27362114 -0.28528643 -0.21069112 -0.30239436 -0.20057058 -0.2240371 -0.3132591 -0.32898888
0.22725086 0.25128126 -0.24972187 0.20172603 -0.40092066 0.26652566 0.24896401 0.30899125
0.29103753 0.20402755 -0.2608349 -0.33336848 -0.27422234 -0.22037357 0.37124446 0.38105562
-0.28111702 -0.2837853 0.30872032 -0.2745131 -0.34963727 -0.21649927 0.28522494 -0.26623124
-0.3000968 0.34148905 0.18092297 -0.24264976 -0.0079921475 -0.21219319 0.37772784 -0.33619285
00000000: 685e 7fbe dbf6 7f3e e82c be3e c7f1 a13e
00000010: 8e65 acbe 3b08 a93e 57e5 2f3e f983 1a3e
00000020: b472 83be b747 9dbe 584c b8be 8929 bcbe
00000030: e264 c23e 137d 9dbe 9c18 8ebe b312 8c3e
00000040: c9a5 8d3e af6d 643e abcd 89be 2a17 8c3e
00000050: cbe1 c4be dd16 96be 0bc4 b9be cd07 54be
00000060: 4fd8 ddbe cbf9 bb3e 0254 a73e cee4 92be
00000070: 3eab 88bd ac27 a83e 4eac b53c 05a6 893e
00000080: b082 a83e 9a5a 7cbe d367 d93e b05a bdbe
00000090: 86e2 a63d a55d bfbe 7a83 9ebe 249f d23e
000000a0: d411 9cbe 066a 653e 8e3d c93e f283 673e
000000b0: 18ac 94be 5c69 ccbe 886e 833e 8818 c3be
000000c0: 4af5 b4be 5351 55be cff2 b6be 26c8 143f
000000d0: 8d73 48be 76f4 5cbe ea3f 933e 4836 b4be
000000e0: 095b 6fbe 0c2f c3be f283 6e3e 7463 d33e
000000f0: 26d0 ad3e 7cb7 59be 2fe7 8a3e 6f59 5abe
00000100: 1659 33be 58b3 923e 50ed c4be fd06 b1be
00000110: 44d6 943e 4f5f 3dbe 4c21 a33e 59d1 403e
00000120: 78a6 b4bd afc7 953e 62f9 76be 4e54 8d3e
00000130: ce78 b5be aa36 cb3e ca5d 9a3e 6423 aa3d
00000140: d93f d33e 8149 55be cf03 b0bd fce5 883d
00000150: b27a 513e 92c9 5d3e 2a69 5ebe 0eb1 c5be
00000160: 9e52 1ebd 1125 843e 952b 27be c664 e6be
00000170: ce07 b83e b8e1 5dbe a3e8 fcbe be00 073d
00000180: b306 0b3e 629a 883e f762 8cbe 3362 223e
00000190: bce2 66be 6bf2 783e 1961 89be 6dea 93be
000001a0: 5408 acbe 9cfd 9d3e 203d 97be 075b b73e
000001b0: 1768 5ebe c5fe a5be d7e2 c4be de9e b83e
000001c0: 9338 c23e 219d 803e 3370 6abe 4dc9 c23e
000001d0: 3ecb c23e c034 7cbe 8c6f bcbe 3cab 983e
000001e0: c705 b2be d11c 8a3e 746b a4be 045c bbbe
000001f0: d5c3 63be a526 a9be a64b 5f3e 019d 283e
00000200: 3271 2c3e a112 a8be 810d 7abe 19c4 68be
00000210: 63b0 7b3e f2d6 8f3e 10c3 9cbe c995 02bf
00000220: 0546 9d3e ad97 84be c43f 8dbe 386f 86be
00000230: 3a43 af3e 99e8 79be 8fa6 833e d329 cb3e
00000240: f008 babe 8434 a7be b4e7 e63e 8559 68be
00000250: 5fc4 68be 356c 853e 1e0c a4be f50b cbbe
00000260: 6d89 053e cc1e 91be 888b a53e d747 6fbe
00000270: 7e12 50be db32 863e 2286 afbe 72ba 6c3e
00000280: 0f06 6e3e f439 193d 837d b3be 1741 c4be
00000290: e585 9a3e cf2d 91be 41a8 b13e 54bf c0be
000002a0: 63a0 5ebe 7745 443e abbb 9b3e 88fe 92be
000002b0: f533 963e 6af3 b93e e22e 67be 93c5 a33e
000002c0: fc5f 9dbe 3ba8 a23e c179 853e ead8 643e
000002d0: 75fd 913e 091f 953e 60f5 943e 120f 933e
000002e0: cc0d b6be 736b 8b3e 4812 9bbd 071c 923e
000002f0: 5ef8 c73e 2106 83be ddb5 ca3e 4e43 c93e
00000300: 505f 58be 100b c0be 1cab 9e3e 338d 9bbe
00000310: 6f08 bf3e 2e39 83be e4d9 b1be e4de abbe
00000320: ea02 82be 1b64 863e 9887 b9be c227 863e
00000330: 4d9b cfbe 9e4c 753e 36da e6be edc1 9cbe
00000340: ca17 56be 3efc bf3e 4a41 5bbe 174c 543e
00000350: ac50 4a3e a00d a1be 1d75 a7be 1e09 843e
00000360: 1218 8c3e 1011 92be 6abf 57be 6fd3 9abe
00000370: 6062 4dbe fb69 65be 7f63 a0be 3b71 a8be
00000380: 73b4 683e f0a7 803e 17b7 7fbe 4591 4e3e
00000390: 7945 cdbe 0d76 883e 6cf0 7e3e 1a34 9e3e
000003a0: df02 953e 99ec 503e 278c 85be 46af aabe
000003b0: df66 8cbe 9ca9 61be c113 be3e b919 c33e
000003c0: 92ee 8fbe 4f4c 91be 9710 9e3e fb8c 8cbe
000003d0: a803 b3be fcb1 5dbe 0109 923e 764f 88be
000003e0: 4aa6 99be a7d7 ae3e df43 393e 2e79 78be
000003f0: 7ff1 02bc 2c49 59be 8b65 c13e 7821 acbe

LSTM.bias_ih_l0 f4 [400]
-0.4449533 -0.28294772 -0.2916185 -0.21271664 0.62860125 0.22960326 0.5016498 0.13457684
0.19347452 0.30872616 0.22786155 -0.2766057 -0.2957688 -0.38334742 -0.14612177 0.28890815
-0.11332833 -0.3063951 0.113343276 0.33241296 -0.44952893 0.18376902 -0.108884536 -0.27426568
0.32790843 0.2694446 0.3674737 -0.56083435 0.38930592 0.38594544 0.46361122 0.021389484
-0.6022055 -0.4656898 0.2989285 0.011586252 -0.09048965 0.17673343 0.32340795 -0.03340463
0.39535066 -0.36663893 -0.3891935 -0.10852689 0.39733455 -0.3595506 0.45590088 -0.28899568
0.33897838 -0.34746104 0.30156997 0.08877319 -0.16626275 -0.23556869 0.20163293 -0.3551722
0.35690758 -0.30026302 -0.37998453 0.3490758 0.21584685 0.018806595 0.05040688 0.4950835
-0.2933917 -0.3571034 0.33897114 -0.23771276 -0.31512082 0.13931455 -0.3790627 -0.2724416
0.1346638 0.28782868 0.014378809 0.23075657 -0.19904998 0.6063754 0.30706772 -0.22412433
0.22068715 0.2709817 0.4256221 0.36187798 -0.33467922 -0.30294034 -0.10978693 -0.3083668
0.25879982 -0.11732075 -0.15402427 0.40089077 0.21399792 -0.44605038 0.012596528 -0.03697339
0.28673956 -0.32388783 -0.38415372 0.694279 -0.15958035 -0.23508838 -0.2694921 -0.22857337
-0.04011407 0.076934494 0.57414883 0.07799798 0.6306883 0.34817183 -0.47820324 -0.26885808
-0.33476648 -0.09448826 -0.20912454 0.3761737 0.3137696 -0.33336857 0.24222457 -0.2336535
-0.009265532 -0.32724226 0.21637645 0.60370076 0.32858184 0.21480846 0.3316864 0.26653302
0.33914873 0.36745423 0.44116554 -0.0813204 0.081017956 -0.28743577 0.45922795 0.36034596
0.43338376 0.250602 -0.12845564 -0.079926424 0.1948237 -0.38199383 -0.2563004 0.10876104
-0.47806165 -0.39569846 0.54540825 -0.39783528 0.230058 -0.29019728 -0.4404543 0.30120295
0.24928805 -0.20744556 0.20888661 -0.300406 0.38930544 -0.18963546 -0.2559357 -0.34892437
0.2231787 -0.16338977 -0.24578393 -0.26411518 -0.31062993 -0.08960995 0.3094123 -0.35831782
0.020696921 -0.034986872 -0.31770194 -0.42231402 0.21673168 0.25468352 0.50902915 -0.5938614
-0.2943296 0.27227932 0.36557224 -0.34930313 0.34056735 0.39281216 0.27796656 0.18242581
-0.3163039 -0.20745938 0.21572877 -0.4216868 0.36624253 -0.27550057 0.031257097 -0.29407585
0.23957175 0.26833722 0.12958607 0.3397551 -0.28991938 -0.407409 -0.21509622 0.10283644
-0.23445758 0.3003975 -0.20825574 0.37549397 -0.36189553 -0.3457146 0.043861493 0.11279503
0.34877518 -0.08841 0.123773515 -0.09570287 -0.38415787 -0.22083142 0.21061963 -0.3403077
0.48827872 0.38511747 0.44566655 0.19580737 -0.20157097 -0.32815963 0.37629265 -0.32633227
0.37414774 0.32419476 0.20855023 0.44661382 0.38713697 -0.24145721 0.16802646 -0.29239413
-0.36996827 0.39145094 -0.43031463 -0.5477057 0.32443443 0.23647664 -0.23642807 -0.124427736
-0.25351685 0.3275381 0.28323615 -0.32703748 0.09700353 -0.25686058 -0.31822836 -0.3234802
0.35845256 -0.24422553 0.4155637 -0.23577607 0.3176477 0.32186788 0.3766091 0.3040994
00000000: ebd0 e3be 86de 90be 054f 95be 64d2 59be
00000010: 03ec 203f 1e1d 6b3e 1f6c 003f 83ce 093e
00000020: 2f1e 463e 5b11 9e3e 8a54 693e 439f 8dbe
00000030: 026f 97be 1d46 c4be f2a0 15be c5eb 933e
00000040: af18 e8bd d2df 9cbe 8520 e83d 0832 aa3e
00000050: a828 e6be f22d 3c3e dbfe debd 8d6c 8cbe
00000060: 9de3 a73e a5f4 893e 8325 bc3e d792 0fbf
00000070: 1b53 c73e a49a c53e 735e ed3e 0039 af3c
00000080: 242a 1abf e56e eebe 280d 993e 43d4 3d3c
00000090: a352 b9bd 9cf9 343e ba95 a53e 4bd3 08bd
000000a0: 676b ca3e 19b8 bbbe 5f44 c7be 5943 debd
000000b0: 6f6f cb3e 0417 b8be d76b e93e 3ef7 93be
000000c0: 938e ad3e 6ae6 b1be 6167 9a3e b8ce b53d
000000d0: c840 2abe eb38 71be dd78 4e3e 21d9 b5be
000000e0: 97bc b63e 13bc 99be 558d c2be 10ba b23e
000000f0: f506 5d3e 4a10 9a3c 7277 4e3d 967b fd3e
00000100: 7037 96be 42d6 b6be a08d ad3e f96a 73be
00000110: 8457 a1be 79a8 0e3e 8214 c2be 777d 8bbe
00000120: 4fe5 093e 485e 933e 1995 6b3c 734b 6c3e
00000130: c2d3 4bbe 6b3b 1b3f fb37 9d3e d980 65be
00000140: d0fb 613e 1dbe 8a3e 24eb d93e 1248 b93e
00000150: 135b abbe ff1a 9bbe f8d7 e0bd 41e2 9dbe
00000160: 6981 843e dd45 f0bd 8ab8 1dbe 8e41 cd3e
00000170: 4522 5b3e b760 e4be ab61 4e3c 6971 17bd
00000180: 87cf 923e a0d4 a5be ccaf c4be 45bc 313f
00000190: 0869 23be 02bb 70be defa 89be 230f 6abe
000001a0: a74e 24bd d58f 9d3d 6bfb 123f 68bd 9f3d
000001b0: ca74 213f 9443 b23e 0ed7 f4be c4a7 89be
000001c0: 8366 abbe 1083 c1bd be24 56be d799 c03e
000001d0: 69a6 a03e 49af aabe b809 783e dd42 6fbe
000001e0: 75ce 17bc 4c8c a7be ca91 5d3e 228c 1a3f
000001f0: e13b a83e c0f6 5b3e cdd2 a93e 0477 883e
00000200: e7a4 ad3e f622 bc3e 73e0 e13e 4f8b a6bd
00000210: beec a53d c82a 93be ed1f eb3e 447f b83e
00000220: 7ae4 dd3e e84e 803e e089 03be 77b0 a3bd
00000230: dd7f 473e b294 c3be ce39 83be 1cbe de3d
00000240: 7fc4 f4be fd98 cabe e09f 0b3f 11b1 cbbe
00000250: 5394 6b3e bd94 94be 3a83 e1be 4637 9a3e
00000260: 5e45 7f3e 9c6c 54be 5fe6 553e d1ce 99be
00000270: 0b53 c73e cc2f 42be 010a 83be 37a6 b2be
00000280: f588 643e a64f 27be c8ae 7bbe 1b3a 87be
00000290: e30a 9fbe 6c85 b7bd 4a6b 9e3e 6f75 b7be
000002a0: 978c a93c 654e 0fbd d4a9 a2be 8b39 d8be
000002b0: e9ee 5d3e e165 823e bc4f 023f 4d07 18bf
000002c0: 5fb2 96be 3268 8b3e 492c bb3e dcd7 b2be
000002d0: d85e ae3e ad1e c93e a251 8e3e d5cd 3a3e
000002e0: 96f2 a1be 3b70 54be 01e8 5c3e 55e7 d7be
000002f0: 2484 bb3e 690e 8dbe 7107 003d 1c91 96be
00000300: 4c52 753e 7f63 893e 36b2 043e 61f4 ad3e
00000310: 5070 94be ea97 d0be 2f42 5cbe e99b d23d
00000320: a615 70be b3cd 993e fe40 55be bf40 c03e
00000330: 5f4a b9be 8101 b1be 1ca8 333d 1501 e73d
00000340: a992 b23e 4d10 b5bd f87c fd3d deff c3bd
00000350: 57b0 c4be a221 62be acac 573e d03c aebe
00000360: abff f93e 1e2e c53e 682e e43e ba81 483e
00000370: 9f68 4ebe 8a04 a8be 6ea9 c03e 0615 a7be
00000380: 4b90 bf3e dbfc a53e 318e 553e 91aa e43e
00000390: d136 c63e 8f40 77be 210f 2c3e afb4 95be
000003a0: 7b6c bdbe 426c c83e 3352 dcbe 7136 0cbf
000003b0: 451c a63e ef26 723e 331a 72be f8d3 febd
000003c0: f6cc 81be 13b3 a73e 5404 913e 7571 a7be
000003d0: c9a9 c63d 3b83 83be d4ee a2be 329f a5be
000003e0: 1887 b73e 4216 7abe c4c4 d43e 486f 71be
000003f0: b8a2 a23e decb a43e e8d2 c03e ebb2 9b3e

LSTM.bias_hh_l0 f4 [400]
-0.39958477 -0.20155296 -0.28148675 -0.3443904 0.70947444 0.3839856 0.5002 0.17806824
0.28485492 0.3949115 0.24568965 -0.27890885 -0.24292448 -0.36417192 -0.04295045 0.34282902
-0.20351236 -0.33315995 0.1350734 0.34691274 -0.51148146 0.18818362 -0.16431758 -0.30842865
0.36372042 0.34979883 0.23146605 -0.5619491 0.44406703 0.38277593 0.49045232 0.0036985765
-0.62918514 -0.59134024 0.23836142 -0.03726058 -0.14649537 0.21579318 0.21867019 0.014483256
0.39346993 -0.39170682 -0.42293426 -0.013133391 0.35436687 -0.24249595 0.4524005 -0.29662973
0.37440008 -0.34023896 0.3262793 0.026363583 -0.16386373 -0.26087472 0.36049384 -0.37857875
0.31828535 -0.28388458 -0.21619727 0.33764595 0.36932838 -0.086216845 0.022545027 0.52835107
-0.30414155 -0.4515143 0.1723041 -0.2851359 -0.3109921 0.07153185 -0.28797 -0.20786062
0.14923592 0.24618888 -0.13702923 0.24284673 -0.35551313 0.5042533 0.20408103 -0.2499255
0.30917224 0.36154965 0.37886596 0.21367048 -0.3362642 -0.37553415 0.008115785 -0.34215185
0.3763046 -0.09721931 -0.06565546 0.3785369 0.32880464 -0.41360745 0.022832584 0.045923475
0.32807428 -0.35928783 -0.33667132 0.65567815 -0.051615875 -0.2553486 -0.22814183 -0.1996345
-0.06921164 0.05311316 0.5792742 0.10206941 0.50287694 0.41997856 -0.4932029 -0.2708533
-0.2396377 -0.0646783 -0.28786603 0.3212828 0.37463462 -0.21564937 0.29992813 -0.33750072
-0.002542882 -0.23835401 0.2206312 0.5303543 0.26257482 0.347878 0.21580899 0.19536565
0.39563945 0.3964132 0.40358895 -0.09283386 0.05962627 -0.23812072 0.48142698 0.32060963
0.34181345 0.29091465 -0.1875518 -0.062576175 0.246762 -0.3675634 -0.28215402 0.119241245
-0.33931217 -0.29461783 0.47957397 -0.2688773 0.30333102 -0.39240134 -0.36959156 0.12777518
0.3308059 -0.3316505 0.2523711 -0.2757561 0.37143722 -0.09288908 -0.24863711 -0.2767225
0.30984887 -0.24683 -0.3072778 -0.38959938 -0.34997267 -0.11904139 0.38924757 -0.22142799
-0.13708682 -0.11884658 -0.26350325 -0.36709628 0.34546068 0.2111597 0.3815225 -0.7459681
-0.1864528 0.24643235 0.26951554 -0.29047787 0.22464491 0.23332833 0.22703339 0.25636873
-0.3929983 -0.29489034 0.23519501 -0.50833917 0.21180645 -0.32717603 -0.003354487 -0.1714055
0.28029084 0.2314614 0.16245864 0.2149503 -0.4231481 -0.35666645 -0.19964576 0.10347257
-0.37036365 0.26759976 -0.25247714 0.33944878 -0.37377328 -0.16976674 -0.03447082 0.057292093
0.25717837 -0.11314238 0.12237909 -0.10701971 -0.34727952 -0.25500774 0.37547594 -0.3960621
0.35721096 0.26659143 0.39066225 0.14839613 -0.20781796 -0.35189724 0.34330946 -0.27491853
0.25735024 0.37505394 0.3480789 0.60053724 0.38741764 -0.32805112 -0.021956954 -0.26381958
-0.39418733 0.32958156 -0.2986298 -0.6113189 0.3305832 0.19877161 -0.30987152 -0.16233133
-0.2525086 0.22331198 0.23327279 -0.31392172 0.07621033 -0.29444075 -0.22305888 -0.34517854
0.24897893 -0.3683916 0.3978208 -0.29217824 0.23926997 0.31626564 0.3068935 0.38320154
00000000: 6096 ccbe e663 4ebe 081f 90be f053 b0be
00000010: 1ea0 353f c399 c43e 1b0d 003f 8557 363e
00000020: 81d8 913e d731 ca3e 1196 7b3e 24cd 8ebe
00000030: 32c1 78be be74 babe d0ec 2fbd 4987 af3e
00000040: 8b65 50be f193 aabe ae50 0a3e 8c9e b13e
00000050: 73f0 02bf 35b3 403e de42 28be 5cea 9dbe
00000060: 9039 ba3e d518 b33e 7005 6d3e e5db 0fbf
00000070: c15c e33e 35fb c33e 911c fb3e d163 723b
00000080: 4712 21bf 1362 17bf 0415 743e 8d9e 18bd
00000090: e202 16be e3f8 5c3e 14eb 5f3e 2e4b 6d3c
000000a0: e474 c93e cc8d c8be d78a d8be 6f2d 57bc
000000b0: 936f b53e dc50 78be 0aa1 e73e dadf 97be
000000c0: 5eb1 bf3e cd33 aebe 150e a73e 71f8 d73c
000000d0: e5cb 27be 5f91 85be a692 b83e 13d5 c1be
000000e0: 4cf6 a23e 5259 91be d162 5dbe eedf ac3e
000000f0: 9c18 bd3e 7592 b0bd 59b0 b83c 0442 073f
00000100: 71b8 9bbe e22c e7be 7c70 303e 55fd 91be
00000110: 5b3a 9fbe 4a7f 923d ce70 93be 6ad9 54be
00000120: 4dd1 183e f018 7c3e 6451 0cbe d0ac 783e
00000130: d105 b6be bf16 013f 9efa 503e 78ec 7fbe
00000140: d34b 9e3e 091d b93e b8fa c13e 6fcc 5a3e
00000150: d22a acbe 0346 c0be 12f8 043c 872e afbe
00000160: ffaa c03e eb1a c7bd 5f76 86bd 97cf c13e
00000170: 1559 a83e 5bc4 d3be 660b bb3c 411a 3c3d
00000180: 5af9 a73e 93f4 b7be 2f60 acbe 86da 273f
00000190: 2b6b 53bd 0dbd 82be 039e 69be fd6c 4cbe
000001a0: d5be 8dbd 2f8d 593d 504b 143f c409 d13d
000001b0: 8bbc 003f 6e07 d73e 1785 fcbe 49ad 8abe
000001c0: 9663 75be 0e76 84bd 2d63 93be 2e7f a43e
000001d0: 1cd0 bf3e 30d3 5cbe 2e90 993e e5cc acbe
000001e0: 7ba6 26bb 1313 74be 25ed 613e 4dc5 073f
000001f0: 3570 863e 111d b23e 08fd 5c3e ef0d 483e
00000200: 4191 ca3e acf6 ca3e 36a3 ce3e ae1f bebd
00000210: ad3a 743d ebd5 73be 997d f63e f226 a43e
00000220: 2c02 af3e c4f2 943e 940d 40be f027 80bd
00000230: 2daf 7c3e 4531 bcbe 7e76 90be c134 f43d
00000240: 53ba adbe 26d8 96be b88a f53e 49aa 89be
00000250: 344e 9b3e d4e8 c8be 1b3b bdbe 7fd7 023e
00000260: 645f a93e 18ce a9be c936 813e e72f 8dbe
00000270: 052d be3e a13c bebd ba9a 7ebe 92ae 8dbe
00000280: 83a4 9e3e 01c1 7cbe 8453 9dbe 9279 c7be
00000290: 9e2f b3be f9cb f3bd 754b c73e 05be 62be
000002a0: 7d60 0cbe d665 f3bd e6e9 86be 0bf4 bbbe
000002b0: 39e0 b03e 403a 583e eb56 c33e c4f7 3ebf
000002c0: 7ced 3ebe c358 7c3e f1fd 893e 84b9 94be
000002d0: 5109 663e 9fed 6e3e 717b 683e c342 833e
000002e0: 1337 c9be defb 96be f6d6 703e 8422 02bf
000002f0: cae3 583e 9e83 a7be f4d6 5bbb ec84 2fbe
00000300: 4882 8f3e 3804 6d3e 8f5b 263e ee1b 5c3e
00000310: dea6 d8be fc9c b6be f06f 4cbe 6de9 d33d
00000320: 4ea0 bdbe d602 893e af44 81be 3bcc ad3e
00000330: 365f bfbe 55d7 2dbe 4631 0dbd 1dab 6a3d
00000340: e2ac 833e 31b7 e7bd e3a1 fa3d 262d dbbd
00000350: 9fce b1be 6090 82be 623e c03e a7c8 cabe
00000360: 5be4 b63e ac7e 883e e204 c83e 28f5 173e
00000370: 3bce 54be e02b b4be 42c6 af3e 1fc2 8cbe
00000380: 69c3 833e 1207 c03e 6637 b23e cfbc 193f
00000390: 9b5b c63e 51f6 a7be 12df b3bc 5c13 87be
000003a0: ecd2 c9be eabe a83e 01e6 98be 657f 1cbf
000003b0: 3442 a93e c98a 4b3e 7ba7 9ebe 2f3a 26be
000003c0: cf48 81be e5ab 643e 10df 6e3e 59ba a0be
000003d0: 2914 9c3d f0c0 96be 8c69 64be 3ebb b0be
000003e0: 55f4 7e3e d39d bcbe 2baf cb3e 6398 95be
000003f0: 3003 753e 92ed a13e 2521 9d3e fe32 c43e

attn.attn.0.weight f4 [100, 100]
-0.27403173 -0.42529556 -0.39443246 0.58080345 -0.60422 -0.35951632 0.17979732 -0.08490798
0.37535113 -0.518928 -0.5925162 0.8964862 -0.100341305 -0.54218423 -0.73547906 -0.7052039
0.45550975 -0.530027 -0.20060535 0.013931668 -0.41745734 0.23701306 -0.15545048 0.49945128
0.60358244 -0.27504733 0.34341902 0.861311 0.17119937 0.5813614 0.5124858 0.23279585
-0.43009186 0.39868107 -0.3118687 0.37086892 0.4242958 0.34813946 0.46050534 -0.7334861
-0.79416233 -0.37900212 0.47743544 -0.82860833 0.08151548 -0.4362395 0.3459976 -0.68714094
0.3640978 0.43101957 0.55095696 0.5031065 -0.029804308 0.015594088 0.060319904 0.055302832
-0.41851273 -0.44930187 -0.5267807 -0.30916923 0.48395005 0.37845707 -0.38359314 -0.3870855
0.2188019 -0.188763 0.22034736 0.17677629 0.75491315 0.34203237 0.73850775 0.09464539
-0.7807396 0.604762 0.22373644 0.07272257 0.11278254 1.1560962 0.35274872 0.031177085
0.0077082682 0.4326016 -0.7696589 -0.02796591 0.24533677 0.641178 -0.67694926 -0.027320856
0.19379623 -0.4560744 -0.50949144 0.21139792 0.115127936 -0.8828044 -0.668873 0.3742115
-0.38016146 -0.03038422 -0.20284125 0.9902227 0.2602754 0.17819859 -0.18335746 0.61383665
0.021849392 -0.5264086 -0.10453165 0.021311395 -0.7460932 0.09376337 0.3064445 0.35550714
-0.146536 -0.12726726 -0.15697981 0.9991539 -0.4117055 -0.12753701 -0.12899771 -0.45094615
-0.23247756 0.81095487 -0.1681728 -0.019805279 0.28409204 0.020075684 0.90276664 0.79913133
0.25158507 0.120590955 -0.11132872 -0.33895457 -0.81346023 0.4648448 -0.35716808 0.8568086
0.7312644 0.048034713 -0.041080926 0.010621071 -0.2693436 -0.40614104 0.7740217 -0.3441987
-0.011449015 0.2824838 -0.46091846 -0.36116895 -0.08528785 -0.004604335 -0.79755586 0.2931854
0.87185127 -0.38886148 -0.4487138 0.830695 0.44348773 -0.004339803 -1.0236108 0.040969912
0.05733903 1.6437201 0.22601116 0.585712 -0.11806426 0.024130614 -1.2582455 0.84595394
-0.3625918 -0.24815297 0.57995963 0.14133516 0.36804324 0.12056077 0.22379506 0.45654267
-0.25701168 0.5232584 0.4921028 0.5547709 0.5338766 -0.0039644674 -0.72576386 -0.31735116
0.46862563 0.7437333 -0.42563537 -0.00015508362 0.408885 -1.119005 0.011444656 0.07959036
0.6602713 -0.42610863 1.2832476 -0.57917154 -0.41082832 -0.004928913 0.47752792 -0.3751213
-0.29629958 -0.28348783 -0.39931196 0.19556667 -0.6646694 -0.6868683 -0.6081555 0.23409991
-0.90815276 0.12559862 -0.42696905 0.36891028 0.061385747 -0.06886055 -0.028976072 -0.4242347
-0.24535647 -0.43560213 0.57447714 0.1167664 -0.27277914 0.2764246 0.3255927 0.6548074
0.40034464 -0.27794307 0.8718022 0.12536281 0.7368271 0.04811331 -0.39357942 -0.22696981
-0.62370276 0.46792933 -0.5668401 -0.17691462 0.5187991 0.16613801 -0.08360846 0.05480282
-0.4417206 -0.35911867 0.26685607 -0.7913252 -0.29220948 -0.35460168 -0.033879835 -0.18922041
-0.055571184 -0.16875198 0.61082613 -0.9259508 0.18259199 -0.27521095 0.13108097 -0.27214628
00000000: e34d 8cbe 57c0 d9be 0df3 c9be 89af 143f
00000010: 29ae 1abf 8612 b8be ca1c 383e 3ce4 adbd
00000020: 062e c03e 77d8 04bf 24af 17bf 1f80 653f
00000030: be7f cdbd 96cc 0abf 5b48 3cbf 3e88 34bf
00000040: 9338 e93e d9af 07bf 7d6b 4dbe a741 643c
00000050: f8bc d5be 8db3 723e 692e 1fbe 14b8 ff3e
00000060: 6184 1a3f 01d3 8cbe 9ed4 af3e e17e 5c3f
00000070: e34e 2f3e 1ad4 143f 4532 033f 0962 6e3e
00000080: 0035 dcbe ed1f cc3e 41ad 9fbe 88e2 bd3e
00000090: 4d3d d93e 563f b23e 5bc7 eb3e bfc5 3bbf
000000a0: 394e 4bbf 910c c2be 6b72 f43e ad1f 54bf
000000b0: 97f1 a63d c95a dfbe 9926 b13e 78e8 2fbf
000000c0: 076b ba3e 99ae dc3e 840b 0d3f 96cb 003f
000000d0: 2a28 f4bc 587e 7f3c 0112 773d 3985 623d
000000e0: 4d47 d6be e50a e6be 1adb 06bf 6e4b 9ebe
000000f0: 4dc8 f73e 20c5 c13e 5266 c4be 1230 c6be
00000100: 9b0d 603e 164b 41be bda2 613e d804 353e
00000110: fd41 413f de1e af3e d80e 3d3f 71d5 c13d
00000120: 8dde 47bf afd1 1a3f 2a1b 653e 92ef 943d
00000130: 88fa e63d f6fa 933f 7b9b b43e 1667 ff3c
00000140: a495 fc3b f57d dd3e 5e08 45bf c418 e5bc
00000150: 9039 7b3e 3e24 243f 8c4c 2dbf fdcf dfbc
00000160: 8572 463e 9582 e9be 086e 02bf b278 583e
00000170: 32c8 eb3d 78ff 61bf 433b 2bbf a698 bf3e
00000180: 86a4 c2be 54e8 f8bc 9eb5 4fbe 3c7f 7d3f
00000190: d142 853e b179 363e 0fc2 3bbe 6624 1d3f
000001a0: 7ffd b23c b7c2 06bf b114 d6bd 3c95 ae3c
000001b0: f7ff 3ebf 0207 c03d 4be6 9c3e 0805 b63e
000001c0: 880d 16be 5952 02be 51bf 20be 8dc8 7f3f
000001d0: 10cb d2be 1099 02be fa17 04be 6ae2 e6be
000001e0: 990e 6ebe bd9a 4f3f 7e35 2cbe ae3e a2bc
000001f0: 8374 913e c375 a43c b71b 673f df93 4c3f
00000200: c2cf 803e 64f8 f63d 5000 e4bd 748b adbe
00000210: ee3e 50bf 2300 ee3e bcde b6be cf57 5b3f
00000220: 2534 3b3f 0cc0 443d 7944 28bd 0004 2e3c
00000230: 68e7 89be b8f1 cfbe 4926 463f d03a b0be
00000240: a694 3bbc b7a1 903e 81fd ebbe 23eb b8be
00000250: 65ab aebd f6df 96bb 9f2c 4cbf 661c 963e
00000260: a531 5f3f da18 c7be d1bd e5be 6da8 543f
00000270: d310 e33e e834 8ebb ae05 83bf 11d0 273d
00000280: 55dc 6a3d 6c65 d23f 786f 673e 39f1 153f
00000290: adcb f1bd 91ad c53c 300e a1bf 7090 583f
000002a0: a2a5 b9be d01b 7ebe 3c78 143f 2aba 103e
000002b0: 2a70 bc3e 91e8 f63d 882a 653e f6bf e93e
000002c0: 0997 83be 43f4 053f e6f4 fb3e 7705 0e3f
000002d0: 23ac 083f 5de8 81bb a9cb 39bf da7b a2be
000002e0: b3ef ef3e 4e65 3e3f e1ec d9be f19d 22b9
000002f0: 6059 d13e 8e3b 8fbf 5e82 3b3c 4500 a33d
00000300: 8a07 293f e92a dabe 7541 a43f 9644 14bf
00000310: 1758 d2be b882 a1bb 8a7e f43e e60f c0be
00000320: 94b4 97be 5125 91be 9e72 ccbe a142 483e
00000330: c627 2abf 9ad6 2fbf 14b0 1bbf e3b7 6f3e
00000340: b37c 68bf ed9c 003e b09b dabe cfe1 bc3e
00000350: 9f6f 7b3d c306 8dbd 3a5f edbc 4a35 d9be
00000360: ba3e 7bbe 3e07 dfbe ef10 133f 3923 ef3d
00000370: b5a9 8bbe 8687 8d3e 16b4 a63e 75a1 273f
00000380: f9f9 cc3e 8e4e 8ebe 6e2e 5f3f 1c5f 003e
00000390: b3a0 3c3f 7612 453d 3e83 c9be c66a 68be
000003a0: fcaa 1fbf 6f94 ef3e 6f1c 11bf 1b29 35be
000003b0: 05d0 043f 1520 2a3e ea3a abbd ec78 603d
000003c0: 3429 e2be 67de b7be 5ca1 883e 4a94 4abf
000003d0: 7b9c 95be 5a8e b5be 95c5 0abd ffc2 41be
000003e0: 9c9e 63bd 52cd 2cbe 1a5f 1c3f 1d0b 6dbf
000003f0: 65f9 3a3e 73e8 8cbe 173a 063e c256 8bbe

attn.attn.0.bias f4 [100]
-0.05452761 -0.3490967 0.070503384 0.09834976 -0.6004503 0.69686216 -0.45420474 0.735873
-0.8160403 0.13222776 0.54868495 0.08458029 -0.25170627 0.64656264 0.14537583 -0.18468885
-0.1358572 -0.40714058 0.591822 -0.6030513 0.76883936 0.21773322 -0.23455065 -0.3893788
-0.04988316 0.8627725 0.65244055 -0.32302028 0.53081876 -0.26371765 -0.28993237 0.35449705
0.24574952 -0.5167546 0.9555145 0.44300768 -0.39602864 -0.7836699 -0.7151162 -0.57086605
-0.17579272 -0.20024823 0.6634353 0.39775586 0.59827477 -0.24093448 -0.37657288 0.34717077
0.9280135 -0.02773814 0.24205351 -0.09544164 1.2031741 -0.7730887 -0.77842385 0.44417146
-0.9311965 -0.48550606 -0.33903503 0.15623628 -0.22402558 -0.33893365 0.35373962 0.4826606
-0.23788193 -0.6642002 -0.42173263 -0.3121118 -0.07501497 0.3439436 0.05959092 0.9054148
-0.32159567 0.73734355 -0.18611906 0.848252 -0.13474691 0.63148314 -0.40512094 -0.51396513
0.00027220507 -0.8127705 -0.4358861 0.5210039 -0.44106948 0.49198845 0.24403735 0.60564893
-0.25341257 -0.020404255 0.32353574 0.41281232 -0.065865226 0.8787751 -0.33784455 -0.58589643
-0.10900646 -0.02455493 0.19764145 -0.82612425
00000000: 5858 5fbd cdbc b2be 1464 903d 996b c93d
00000010: 1cb7 19bf 8f65 323f 868d e8be 2c62 3c3f
00000020: 04e8 50bf b766 073e 9e76 0c3f 6e38 ad3d
00000030: a5df 80be 2185 253f 67dd 143e 131f 3dbe
00000040: 261e 0bbe bb74 d0be a681 173f 9261 1abf
00000050: a8d2 443f 75f5 5e3e 0c2e 70be a85c c7be
00000060: 4952 4cbd a9de 5c3f 5806 273f ea62 a5be
00000070: bde3 073f 0006 87be 0472 94be a380 b53e
00000080: c3a5 7b3e 084a 04bf 999c 743f e7d1 e23e
00000090: 44c4 cabe 979e 48bf db11 37bf 4724 12bf
000000a0: 0203 34be df0d 4dbe e5d6 293f a8a6 cb3e
000000b0: 8928 193f 87b7 76be 29ce c0be 5ec0 b13e
000000c0: 4b92 6d3f 193b e3bc e0dc 773e e876 c3bd
000000d0: 9c01 9a3f 24e9 45bf c946 47bf 716a e33e
000000e0: e562 6ebf 4094 f8be 0096 adbe 67fc 1f3e
000000f0: f666 65be b688 adbe 5c1d b53e 4a1f f73e
00000100: 5297 73be 0609 2abf 57ed d7be 1ecd 9fbe
00000110: 73a1 99bd 6019 b03e 9c15 743d 44c9 673f
00000120: 30a8 a4be 8cc2 3c3f ff95 3ebe 0b27 593f
00000130: 18fb 09be e1a8 213f 036c cfbe 3893 03bf
00000140: bfb6 8e39 ba11 50bf 772c dfbe 8360 053f
00000150: dcd3 e1be e9e5 fb3e ede4 793e cf0b 1b3f
00000160: 4bbf 81be d326 a7bc 7aa6 a53e 235c d33e
00000170: 59e4 86bd 68f7 603f f6f9 acbe 4ffd 15bf
00000180: c73e dfbd 6c27 c9bc 8562 4a3e e17c 53bf

attn.attn.2.weight f4 [1, 100]
0.11600448 0.83217126 0.261639 -0.58871216 0.66736895 0.09202544 0.26162696 -0.17765336
0.3969544 0.58760315 -0.081124105 0.02741118 -0.4067151 -0.7201848 -0.74910563 0.47038758
0.3575947 1.1072619 -0.009276194 0.6175489 -0.6015091 -0.4069153 -0.12837523 0.44471964
-0.08266528 -0.54626876 -0.03588095 -0.04784549 -0.4686379 0.1548715 0.36606768 0.5480579
0.0678205 0.2541135 0.0363855 0.16660647 -0.017751763 0.24526031 0.66221154 0.7513255
-0.40425426 0.72039044 -0.47103193 0.33273116 0.25473505 0.58145255 0.11029429 -1.1958771
-0.49042684 0.53383654 -0.22634391 0.80148053 -0.38782275 0.55317956 0.684771 -0.5412383
0.43943706 0.43804747 0.24300575 -0.27694923 -0.22337396 0.6118151 -0.49446818 -0.16399698
0.7322236 0.5287205 0.55982876 0.3115191 0.12269183 -0.25893992 -0.74765795 -0.66697407
-0.46524492 0.25832093 -0.06129295 -0.25341222 0.14704739 0.29494014 0.017593011 0.55662894
0.6948473 -1.0018474 0.6467138 0.19701645 0.017947162 0.4964156 0.17720261 0.019293074
-0.13541023 0.4686195 -0.036715537 0.082068704 0.12454731 -0.2324282 -0.08257722 0.21859367
-0.1928919 0.85274816 -0.45633113 -0.25636467
00000000: c293 ed3d 2d09 553f 8cf5 853e d7b5 16bf
00000010: b1d8 2a3f d577 bc3d f8f3 853e c3ea 35be
00000020: 9b3d cb3e 296d 163f 6524 a6bd 698d e03c
00000030: f63c d0be 085e 38bf 63c5 3fbf a4d6 f03e
00000040: a716 b73e c2ba 8d3f 2dfb 17bc af17 1e3f
00000050: 80fc 19bf 3457 d0be cc74 03be 4bb2 e33e
00000060: 6a4c a9bd 45d8 0bbf e7f7 12bd a2f9 43bd
00000070: 4ff1 efbe a296 1e3e 396d bb3e 864d 0c3f
00000080: 79e5 8a3d 2a1b 823e f608 153d e39a 2a3e
00000090: 256c 91bc 8525 7b3e b286 293f de56 403f
000000a0: 6afa cebe 826b 383f 192b f1be bd5b aa3e
000000b0: a26c 823e 13da 143f f9e1 e13d 8012 99bf
000000c0: 3a19 fbbe 83a9 083f b3c6 67be d42d 4d3f
000000d0: b490 c6be 2d9d 0d3f 274d 2f3f 988e 0abf
000000e0: e5fd e03e c247 e03e 80d6 783e 4acc 8dbe
000000f0: 25bc 64be ea9f 1c3f ef2a fdbe d3ee 27be
00000100: 0173 3b3f 3a5a 073f f050 0f3f 6e7f 9f3e
00000110: db45 fb3d c693 84be 8366 3fbf d0be 2abf
00000120: 9534 eebe a442 843e 510e 7bbd 3fbf 81be
00000130: 9793 163e 6502 973e 381f 903c 3c7f 0e3f
00000140: 83e1 313f 893c 80bf 098f 253f aebe 493e
00000150: ed05 933c 2f2a fe3e 9a74 353e 820c 9e3c
00000160: fba8 0abe e5ee ef3e 0863 16bd a313 a83d
00000170: a912 ff3d a801 6ebe 3f1e a9bd 05d7 5f3e
00000180: 7485 45be b44d 5a3f 3ca4 e9be 3b42 83be

fc.weight f4 [14, 100]
0.4261774 0.19989648 -0.80916554 -0.14197122 -0.81538606 -0.27440998 -0.42370492 -0.22586861
0.8863533 -0.6875441 0.05569293 0.3663743 0.6726293 0.47266477 0.6364242 0.36111996
0.3784121 -0.54035157 -0.05813969 -0.7045288 0.033408403 -0.50905776 -0.28200108 0.48519298
-0.55569965 0.32231632 0.7810219 0.28754985 -0.502926 -0.7647571 0.36211628 -0.65350896
0.59972477 0.29561776 -0.47490346 -0.75266397 -0.412099 -0.6582673 -0.5639962 0.74492055
0.14128609 -0.21322286 -0.037208963 0.43467474 0.1809774 -0.8292151 0.39655456 -0.20544106
0.55116385 -0.02605886 0.07537202 -0.78461176 -0.43714523 -0.37649876 0.14363256 -0.2603492
0.4437589 0.56087106 0.3071644 0.1452656 -0.18735209 1.0701439 0.057922825 -0.43652964
0.09155046 -0.71894586 0.2706404 0.38380355 -0.7293042 0.6218744 0.19965167 0.02927812
-0.51401615 -0.24642126 -0.8183451 0.03449215 0.6539808 -0.5022677 0.2951893 0.1028971
0.63145673 0.2728793 -0.32255948 0.23323575 -0.12291728 0.09150541 0.63873047 -0.35493672
-0.640125 -0.07690404 0.5864145 -0.053306647 -0.78948224 0.2001301 -0.44573766 -0.10952729
0.36850792 -0.17603695 0.52891695 0.8712784 -0.14458519 0.28569096 -0.7869397 -0.3130198
0.34749848 -0.55060136 0.06956247 0.5319423 1.3410493 -0.5577963 -0.6359246 0.6079993
0.41098478 0.43697834 -0.21430331 -0.9162199 -0.27012625 -0.45948926 0.23251428 -0.45603448
0.028574718 -0.5146639 -0.56269485 0.9528815 -0.1843696 -0.30076456 0.28781313 0.15427373
0.0055234944 0.7641299 -1.0285659 -0.54470867 0.6302702 0.6697915 -0.41996467 -0.8890995
-0.7050953 0.7368838 0.21841635 -0.7629637 0.45999324 0.3594506 -0.40236038 -1.5434235
0.73120236 -0.85726213 0.17172712 0.14206286 0.7876216 0.21291888 0.61627823 -1.2170045
-0.2788489 -0.017222075 0.30686325 0.20676728 0.3192598 0.35797727 0.4432677 -0.23839901
-0.2538873 -1.8408909 -1.3707843 0.7734098 0.11009574 -0.71962196 0.9041133 0.19759631
0.9700504 0.4670193 0.45688167 0.088796504 -0.76753825 -0.48871785 -1.0712628 -0.5785998
-0.1363223 0.4714293 -0.17840455 0.35979548 -0.6695815 0.23209591 -0.73395914 1.0760318
0.09457593 -0.012730708 -0.0987027 -0.6352659 0.2818468 0.7650196 -0.0145999165 -0.06290364
0.92561 0.42072925 -0.52911705 0.85347766 0.19191569 -0.7159514 0.55693024 0.97907764
0.38051006 -0.6992908 -1.3390025 -0.5587108 0.3270102 -0.03975943 0.43878707 -1.1351485
-0.44851846 0.17862178 0.48493686 0.83539075 0.3839877 -0.21104804 -0.1250714 -0.8753173
-0.025732864 -0.41438812 -0.038593758 0.44580704 -0.119343966 1.1238569 -0.062822014 -0.36859345
0.24641378 -0.3387819 -0.2261659 0.37437353 -0.12481525 -0.17383516 0.8554356 1.4146162
-0.258494 0.17392005 -0.54851824 -1.1797056 -0.92334294 0.40311903 0.159712 0.24572049
0.23387773 -0.2945868 -0.6148178 0.5498219 0.67766434 -0.7250118 -0.09566599 0.25700793
1.580355 0.43292654 0.26887617 0.7834492 -0.9882031 -0.2546441 0.37279537 0.30904278
00000000: ed33 da3e aab1 4c3e 7925 4fbf e760 11be
00000010: 24bd 50bf 777f 8cbe daef d8be 1a4a 67be
00000020: 0de8 623f e402 30bf 451e 643d 6a95 bb3e
00000030: 6f31 2c3f 1e01 f23e b2ec 223f b7e4 b83e
00000040: 3bbf c13e 7b54 0abf e223 6ebd 005c 34bf
00000050: 40d7 083d 9c51 02bf 7262 90be 376b f83e
00000060: 5542 0ebf a506 a53e 0df1 473f bc39 933e
00000070: c2bf 00bf 1fc7 43bf 4e67 b93e 5d4c 27bf
00000080: 9087 193f 365b 973e 8c26 f3be 96ae 40bf
00000090: a4fe d2be 3584 28bf 0e62 10bf 1db3 3e3f
000000a0: 4dad 103e 1857 5abe 6d68 18bd b08d de3e
000000b0: 2452 393e 7147 54bf 3309 cb3e 245f 52be
000000c0: 1319 0d3f 6479 d5bc a55c 9a3d 51dc 48bf
000000d0: 80d1 dfbe 72c4 c0be 6a14 133e 7e4c 85be
000000e0: 5e34 e33e 3f95 0f3f a744 9d3e 81c0 143e
000000f0: 3ad9 3fbe 7afa 883f 7c40 6d3d d080 dfbe
00000100: cf7e bb3d d60c 38bf 6191 8a3e e681 c43e
00000110: aeb3 3abf 2933 1f3f 7d71 4c3e abd8 ef3c
00000120: 9096 03bf db55 7cbe 117f 51bf a447 0d3d
00000130: 496b 273f 9e94 00bf 0d23 973e b7bb d23d
00000140: 26a7 213f d6b6 8b3e 8426 a5be 5ad5 6e3e
00000150: 0ebc fbbd 3067 bb3d d783 233f 44ba b5be
00000160: 3bdf 23bf de7f 9dbd 431f 163f 1258 5abd
00000170: 821b 4abf e8ee 4c3e ba37 e4be d84f e0bd
00000180: 12ad bc3e 0843 34be 1a67 073f 1a0c 5f3f
00000190: 240e 14be 1646 923e e174 49bf 2244 a0be
000001a0: 52eb b13e 36f4 0cbf c576 8e3d 5f2d 083f
000001b0: 81a7 ab3f bdcb 0ebf f4cb 22bf d8a5 1b3f
000001c0: 996c d23e a0bb df3e 5472 5bbe 638d 6abf
000001d0: fd4d 8abe 2d42 ebbe 3918 6e3e 5a7d e9be
000001e0: 8715 ea3c 03c1 03bf c50c 10bf 0bf0 733f
000001f0: 62cb 3cbe d0fd 99be 3e5c 933e eff9 1d3e
00000200: 6efe b43b 049e 433f 0ca8 83bf 0772 0bbf
00000210: 6359 213f 7577 2b3f 9c05 d7be 069c 63bf
00000220: 2081 34bf 6ba4 3c3f 89a8 5f3e 9751 43bf
00000230: 3c84 eb3e e909 b83e 2e02 cebe e78e c5bf
00000240: 1430 3b3f 8875 5bbf 3cd9 2f3e ed78 113e
00000250: 92a1 493f 6807 5a3e 69c4 1d3f cec6 9bbf
00000260: 48c5 8ebe 4f15 8dbc 2e1d 9d3e cdba 533e
00000270: 0576 a33e cc48 b73e fcf3 e23e df1e 74be
00000280: 84fd 81be 50a2 ebbf dc75 afbf 2ffe 453f
00000290: e079 e13d 2539 38bf f873 673f b056 4a3e
000002a0: 3955 783f 271d ef3e 65ec e93e f1da b53d
000002b0: 637d 44bf 3a39 fabe 241f 89bf 1e1f 14bf
000002c0: 1398 0bbe 2e5f f13e afaf 36be 1d37 b83e
000002d0: b169 2bbf 8daa 6d3e bfe4 3bbf 69bb 893f
000002e0: 06b1 c13d 7694 50bc a424 cabd c9a0 22bf
000002f0: 394e 903e 53d8 433f 7d34 6fbc a0d3 80bd
00000300: c7f4 6c3f d369 d73e 3774 07bf 837d 5a3f
00000310: 8c85 443e 9748 37bf fb92 0e3f d5a4 7a3f
00000320: 37d2 c23e b904 33bf 6f64 abbf ac07 0fbf
00000330: e26d a73e c9da 22bd b3a8 e03e 8c4c 91bf
00000340: 36a4 e5be a1e8 363e a549 f83e 2bdc 553f
00000350: 099a c43e fa1c 58be b812 00be cb14 60bf
00000360: bacd d2bc ae2a d4be 7d14 1ebd d240 e43e
00000370: 9c6a f4bd 8bda 8f3f d4a8 80bd 48b8 bcbe
00000380: e553 7c3e d274 adbe 0998 67be e3ad bf3e
00000390: 239f ffbd d801 32be d4fd 5a3f 2512 b53f
000003a0: 5359 84be 1918 323e b16b 0cbf 9800 97bf
000003b0: 3460 6cbf 9e65 ce3e 8b8b 233e 279e 7b3e
000003c0: a57d 6f3e 15d4 96be b364 1dbf 21c1 0c3f
000003d0: 697b 2d3f 609a 39bf 88ec c3bd 8b96 833e
000003e0: 1349 ca3f 8ca8 dd3e 23aa 893e 2090 483f
000003f0: e1fa 7cbf b660 82be 09df be3e db3a 9e3e

fc.bias f4 [14]
-0.04716359 0.22229794 0.089362405 -0.38115382 0.570976 -0.19948144 0.005614749 -0.30865526
-0.24495181 -0.08916586 -0.008239351 0.1250223 -0.37781024 0.02742658
00000000: 9c2e 41bd 12a2 633e a303 b73d 9826 c3be
00000010: 7c2b 123f dd44 4cbe eefb b73b 1008 9ebe
00000020: a6d4 7abe 979c b6bd 58fe 06bc d905 003e
00000030: 5870 c1be b5ad e03c
