savedmodel/model-7.ckpt (torch, 3495 bytes, 2 tensors)

fc.weight f4 [14, 43]
000000 d3 17 98 bf f2 c9 c2 be e6 bf 4c be 42 06 13 be
       -1.188227 -0.38044697 -0.19995078 -0.14357856
000010 6c de af be b3 15 cf be 00 5a 0b be 80 11 14 be
       -0.34349382 -0.40446243 -0.13608551 -0.144598
000020 84 26 b7 be 3f 81 10 be 2e 71 41 be df 22 2a be
       -0.35771573 -0.14111803 -0.18890831 -0.16614865
000030 56 3a d2 be 4f 81 27 be 15 20 d0 be e9 bb 37 bd
       -0.41060132 -0.16357921 -0.40649477 -0.04485694
000040 90 7e 8c bc 07 b2 85 be 5a 83 24 be d2 9a 31 bc
       -0.017150193 -0.26112387 -0.16065732 -0.010840135
000050 d4 e7 1f be c2 4f 32 bc f8 bf 45 bd ce ee e1 bd
       -0.15615779 -0.010883274 -0.04827878 -0.110318765
000060 a5 27 58 be 19 cb 6b be a4 1d cd bd 7e bb 6a be
       -0.21108873 -0.23026694 -0.10015419 -0.22923085
000070 8f 15 4c bd ff 72 ed 3d 30 f7 04 3e a6 11 39 3e
       -0.049825247 0.115941994 0.1298492 0.18073139
000080 a3 6f ce 3d b5 7b 2a 3c 72 b6 49 3e 63 70 6c 3e
       0.10079887 0.010405471 0.19698504 0.23089747
000090 1b e1 9c 3d 96 a9 3e 3e 0c da 78 3e 5e ad 53 3d
       0.07660123 0.1861938 0.24301928 0.051679008
0000a0 77 9c c1 3d 70 53 f0 bc 49 32 86 3d 4d c0 89 bf
       0.094536714 -0.029336661 0.0655256 -1.076181
0000b0 c0 72 2f be 31 92 b4 be 1b d5 4e be 9d 0b 8b be
       -0.17133617 -0.35267785 -0.20198481 -0.27157298
0000c0 53 99 43 be 06 f9 aa be 0c 08 17 be 2b 38 a4 be
       -0.19101457 -0.33393115 -0.14749163 -0.32074103
0000d0 16 24 a6 be 5c 5d 6b be 71 4f 81 be af 3f 92 be
       -0.32449406 -0.22984833 -0.2525592 -0.28564212
0000e0 59 3d c6 be 0e 86 8c be cf 52 a1 bd a3 dd 1f be
       -0.3871868 -0.27446026 -0.078771226 -0.15611891
0000f0 0b 11 84 bb 6c a3 34 be 0d bd 2e be 3c 70 d3 3c
       -0.004030352 -0.17640465 -0.17064305 0.025810353
000100 94 34 84 bd b8 c6 63 be 78 5d 28 be b9 b4 af bd
       -0.06455341 -0.22243774 -0.16441905 -0.08579392
000110 62 b2 9a bb 67 96 66 be 8f 09 63 be 0b c2 bf bd
       -0.004720972 -0.22518311 -0.22171615 -0.09363183
000120 36 5a 36 3e 3c 61 6c 3e 75 12 94 3d 39 ea 12 3d
       0.1780785 0.23083967 0.07230083 0.035867903
000130 94 26 5b 3d 3f d9 51 3e 27 b4 41 3e 46 8c a4 3b
       0.053503588 0.20493029 0.18916379 0.0050216047
000140 d5 a3 cb 3d 1a ef 3e 3e ef 19 3b 3e bd e1 39 3e
       0.09943358 0.18645898 0.18271612 0.18152519
000150 8a 01 15 bd e6 c2 12 3d fc 9f 4b bf 2d ed 8e be
       -0.03637842 0.0358304 -0.7954099 -0.27915326
000160 c2 aa a1 be 1b 1b af be 0c bb 64 be 12 9a 35 be
       -0.3157559 -0.34200367 -0.22336978 -0.17734554
000170 3a 89 1d be c2 04 9d be 5d e9 ec bd 22 d9 43 be
       -0.15384379 -0.30667692 -0.11567948 -0.19125798
000180 e2 37 27 be a5 88 dd bd c3 c0 a9 be 29 0e 81 be
       -0.16329911 -0.108170785 -0.33154878 -0.25206116
000190 f3 3e b6 be 89 e8 01 be 43 41 6e bd f1 10 fe bd
       -0.355949 -0.12686361 -0.058167707 -0.12405575
0001a0 f2 e0 27 be 6e 94 46 be 44 7f f2 bd 16 c1 e8 bd
       -0.16394404 -0.19392559 -0.1184068 -0.11364953
0001b0 3c 01 63 be d7 61 cb bd ba b6 08 be 53 a9 83 be
       -0.2216844 -0.09930771 -0.13350955 -0.25715122
0001c0 3c dc 30 be 87 5d 27 be 0e 0a e5 bd 9d 21 87 3d
       -0.17271513 -0.16344272 -0.111835584 0.06598208
0001d0 58 91 49 3e 89 e5 92 3e 72 d4 d3 3d 8f 20 7f 3e
       0.1968435 0.28690746 0.10343255 0.24914764
0001e0 eb a8 01 3e 2d 57 32 3e b3 e1 c8 3c 59 28 2d 3d
       0.12662093 0.17416067 0.024521684 0.042274807
0001f0 e5 da a8 3d 02 91 70 3e 84 77 04 3e ef ff 25 3d
       0.08244876 0.23492816 0.12936217 0.04052728
000200 fe fc 24 3e 5d 2c 50 bf 5c fd b1 bd 9a b1 31 3e
       0.16112134 -0.81317693 -0.086909026 0.17352906
000210 01 f6 64 3f b2 dc 31 bd 22 21 41 3e d8 85 92 3e
       0.8943787 -0.043423362 0.18860295 0.2861774
000220 af 43 dc 3e 53 dc 49 3e d1 50 76 be ce f0 d5 bd
       0.43020388 0.19712953 -0.24054267 -0.104463205
000230 d8 08 b6 3e ca e7 88 3e 3d 21 b1 3e 63 39 86 3e
       0.35553622 0.2673934 0.3459567 0.26215658
000240 5a 66 7d 3d 05 55 f5 3e 74 36 ae 3e 6e 83 18 3f
       0.06186519 0.47916427 0.3402592 0.59575546
000250 15 1c c7 3e 05 51 6f 3e 0a ab 8a 3e d0 00 8b bd
       0.38888612 0.2337075 0.27083617 -0.06787264
000260 92 4f 09 3e 24 34 32 be 0d 01 ae 3e b7 e8 de 3e
       0.1340926 -0.17402703 0.33985177 0.43536922
000270 f3 5a e1 3e 1f c1 b9 3e 3f 0f da 3d 1a 26 0e 3d
       0.440147 0.36280152 0.10647439 0.034704305
000280 ad 0e f6 3d ee 4c c8 3d cb f0 de 3e 71 68 2d 3e
       0.12014518 0.09780298 0.43543085 0.16934372
000290 5c cb 9a 3e cb cb 05 bd 03 60 f4 3d 4b 7d 44 3d
       0.30233276 -0.032665055 0.11932375 0.04797105
0002a0 02 ea a4 3e 5c 7c 93 3e 72 cf ef 3e 04 a4 90 3e
       0.32209784 0.28805816 0.46837956 0.28250134
0002b0 4d 75 2f be 54 06 05 bc 4b da 58 bf 4a 45 9c 3c
       -0.1713459 -0.0081191845 -0.8470809 0.019076008
0002c0 7d 84 e0 3e 1b 3c 30 3f ea 38 6b 3f 04 41 87 3e
       0.4385108 0.68841714 0.9188372 0.2641679
0002d0 9e 04 e5 3d a9 15 1f be f4 32 0c 3d c4 08 5f 3f
       0.11182521 -0.15535606 0.03422828 0.8712275
0002e0 93 60 1b 3f a8 14 1e 3f b4 a1 30 3f 66 00 a1 bd
       0.60694236 0.6175027 0.6899674 -0.07861404
0002f0 c4 c8 2b be a0 32 8a be b1 39 00 bd 44 12 16 be
       -0.16775805 -0.2699175 -0.03130502 -0.14655405
000300 60 22 04 bd 92 cb 55 be f1 c5 42 bd 48 a7 ca bd
       -0.032259345 -0.20878437 -0.047552053 -0.098951876
000310 7f 2a 36 be c9 14 8d be 82 c3 95 bd 18 ba f6 bd
       -0.17789648 -0.2755492 -0.07312681 -0.12047213
000320 d9 71 4f be d4 1b a9 be 6e 7e 59 be c0 6c 1d be
       -0.20258273 -0.33029044 -0.21239635 -0.15373516
000330 36 fa 3e be 1d 9e 9e be 1e d0 7e be 90 be 1e be
       -0.18650135 -0.30980006 -0.24884078 -0.15502381
000340 da 80 ea bd cb 62 6c bd b2 d9 b2 bd 97 45 b3 be
       -0.11450358 -0.057711404 -0.08732928 -0.3501403
000350 e0 97 a6 be bd a1 b4 bd 51 1d 8d be bf 08 26 be
       -0.32537746 -0.08819912 -0.2756143 -0.16214274
000360 4b b7 9a be 65 00 1a 3f 8c 22 9b 3f 9b e9 32 3f
       -0.30217966 0.6015685 1.2119918 0.69887704
000370 29 fc 0a 3e a2 e2 7e 3e 3d a2 81 3d 5c 4a fb bc
       0.13572754 0.24891141 0.063297726 -0.030675106
000380 91 d7 0e bf 7d b9 33 3e 0b a1 9c 3e d6 d6 84 3e
       -0.5579768 0.17551227 0.30591616 0.25945157
000390 e2 65 aa 3e 35 9e b8 3e ac ec b5 3d 97 d4 82 3e
       0.33280855 0.36058202 0.08883032 0.25552818
0003a0 30 45 83 3d 7b b3 13 3e 7c 30 cf 3d 16 04 af 3e
       0.06409681 0.14423935 0.101166695 0.34182805
0003b0 b0 9b 96 3e ea 72 66 3c 46 e1 81 be a4 21 44 3d
       0.29415655 0.014065484 -0.25367182 0.047883645
0003c0 59 ce 9d 3e be 23 d2 3e 92 d5 c5 3e a9 00 b4 3e
       0.30821493 0.41042894 0.38639504 0.35156754
0003d0 b2 34 52 be 36 45 fd bd 88 8d 5e be 90 05 5f be
       -0.20527914 -0.123667166 -0.21733677 -0.21779466
0003e0 3b aa 45 bd 53 88 2d be 5b f7 37 be 26 9b 49 be
       -0.048258048 -0.16946535 -0.17965452 -0.1968809
0003f0 53 07 5a bd 40 8d c3 bd be e8 9e be eb 2e a2 be
       -0.05322964 -0.09548426 -0.31036943 -0.3167642

fc.bias f4 [14]
000000 92 ef b6 42 21 62 9e 42 91 da 83 42 59 00 20 42
       91.46791 79.19166 65.92689 40.00034
000010 10 d4 b4 40 79 7d 6b bf 21 54 5b c2 6e 18 3f c2
       5.6508865 -0.9198833 -54.832157 -47.773857
000020 c6 95 5f c2 59 6d 2c 42 bf 54 88 c1 5e b6 15 c2
       -55.896263 43.106785 -17.04138 -37.428093
000030 79 ac be c2 30 e5 fc c2
       -95.33686 -126.44763
