savedmodel/model-5.ckpt (torch, 1639 bytes, 2 tensors)

linear.weight f4 [15, 9]
0	0xc0b0d806	-5.52637
1	0xc0973552	-4.725259
2	0x3f76ed23	0.9645559
3	0x4013d893	2.3100936
4	0xc11ca89f	-9.791167
5	0x410e7c61	8.905366
6	0xc18ed7b2	-17.85532
7	0xc21baa19	-38.91611
8	0xc10d36f5	-8.825917
9	0x4093cbd6	4.6186323
10	0x401d223a	2.455214
11	0xc05264b7	-3.2873971
12	0x4117f99a	9.498438
13	0x411a1c20	9.631866
14	0x412a5c22	10.647493
15	0xc0b7755d	-5.7330766
16	0x41987d35	19.061136
17	0xc1394c5f	-11.581145
18	0xc1178c9c	-9.471828
19	0x3f0f1c1c	0.55902267
20	0x3d8dd183	0.06924727
21	0x404bd0da	3.1846223
22	0xbfa1e614	-1.2648339
23	0x4031c14f	2.7774236
24	0x41adf1c0	21.743042
25	0x41c8e8c5	25.113657
26	0xbea1905c	-0.3155545
27	0xbf6efb9c	-0.93352675
28	0x3f7f75ec	0.9978931
29	0xc02cdfa5	-2.7011502
30	0x3f1d4a35	0.61441356
31	0x3f9768d8	1.1828871
32	0x3ec97196	0.39344472
33	0x40f27661	7.5769506
34	0xc07e7174	-3.9756746
35	0x40ed4dd6	7.4157515
36	0x3f9586dc	1.1681781
37	0x4040425b	3.00405
38	0x3f28a8af	0.6588239
39	0xbe55bf20	-0.2087369
40	0x3d403028	0.046920925
41	0xbed6f741	-0.41985515
42	0x41d90081	27.125246
43	0x4192b860	18.340027
44	0x41f84643	31.034307
45	0x3e92f0b0	0.28699255
46	0xbd957224	-0.07297161
47	0xbfd13e6d	-1.6347176
48	0xbe91f203	-0.28504953
49	0xbda06eb2	-0.078336135
50	0x3dd4d820	0.10392785
51	0x40b7c1e0	5.7424164
52	0xc1fe9117	-31.820845
53	0xc10d6749	-8.837716
54	0x4089fcb9	4.3121
55	0xbf13c54c	-0.57722926
56	0xbfb4ab7e	-1.4114835
57	0xbf02f373	-0.51152724
58	0x406757f3	3.614743
59	0x3f92a9d4	1.1458077
60	0x41bcc042	23.593876
61	0xc15f5653	-13.958575
62	0x4135d9ee	11.3657055
63	0x40054b09	2.0827048
64	0xbffa6d54	-1.9564614
65	0xbe5b7a9c	-0.2143349
66	0xbd949c97	-0.0725643
67	0x3fe600e8	1.7969027
68	0xbf557d4e	-0.83394325
69	0x41a8ae7f	21.085203
70	0xc1a80138	-21.000595
71	0x41687899	14.529443
72	0x3f024186	0.5088123
73	0x3e1a4dcf	0.15068744
74	0xbe938e82	-0.28819662
75	0xbd3dacc2	-0.046307333
76	0xbfb7a294	-1.434649
77	0xbe854c5c	-0.2603482
78	0xc200f887	-32.242702
79	0x41194fbe	9.581968
80	0x3ebdae9a	0.37047273
81	0x3f3fa77d	0.7486494
82	0x3ece8139	0.40332964
83	0x3fd06436	1.6280582
84	0xbeb637dd	-0.35589495
85	0xbfb00bd4	-1.375361
86	0x3f6142c0	0.8799248
87	0xc106a8e8	-8.416237
88	0x419726e2	18.893986
89	0xc056796a	-3.3511605
90	0xbe384bc6	-0.17997655
91	0x3f89c39e	1.0762823
92	0x3fcfe113	1.6240562
93	0xbdb07895	-0.08616749
94	0xbf0c8756	-0.54894006
95	0x3f103bba	0.56341136
96	0xc0e5e171	-7.1837697
97	0x41ca9666	25.323437
98	0xc0cdc01b	-6.4297004
99	0x3c8f527f	0.017495392
100	0xbd400023	-0.04687513
101	0xbf2043d8	-0.6260352
102	0xbf03b0a2	-0.51441395
103	0x3e1cf469	0.1532761
104	0x3da42fed	0.080169536
105	0x400b6941	2.1782992
106	0x41b71c71	22.888887
107	0xc192ecc1	-18.365602
108	0x3ff84172	1.9394972
109	0xbecde44e	-0.40213245
110	0x3ec87555	0.39152017
111	0x3dfa02ad	0.122075416
112	0x3ea357d2	0.3190294
113	0xbebd1c05	-0.3693544
114	0x41b854d3	23.041418
115	0x40a736bd	5.225432
116	0xc1b3d1b2	-22.47739
117	0xbf24f6fc	-0.6443937
118	0xbf58796f	-0.8456029
119	0xbde64f43	-0.11245587
120	0xbb8f63d4	-0.004375914
121	0x3eb27a84	0.34859097
122	0x3dc6f2fa	0.09714313
123	0x403ea553	2.9788406
124	0x415d522b	13.832561
125	0xc1a83d61	-21.02997
126	0xbf981818	-1.1882353
127	0xbef3c524	-0.47611344
128	0x3f38e348	0.72221804
129	0x3ed071c0	0.40711784
130	0x3ec1ac8f	0.37826964
131	0x3f173b37	0.5907473
132	0xc1caa6f7	-25.331526
133	0xc134d0de	-11.300993
134	0xc1893652	-17.151524

linear.bias f4 [15]
0	0xc1835265	-16.415232
1	0xc2033692	-32.80329
2	0xc12ad4c8	-10.676949
3	0xc11abca2	-9.671053
4	0x4023b7f3	2.5581024
5	0x3f33cc5b	0.70233697
6	0xc19f1307	-19.88429
7	0xc0e3eadd	-7.12242
8	0xc1bba8c9	-23.457415
9	0xc1d7a129	-26.953691
10	0xc1b31174	-22.383522
11	0xc1adf531	-21.744722
12	0xc1a42c88	-20.521744
13	0xc1c038ac	-24.027672
14	0xc1bf52b5	-23.915384
