savedmodel/model-4.ckpt (torch, 261655 bytes, 9 tensors)

LSTM.weight_ih_l0 f4 [400, 31]
0	0xbea1d984	-0.31611264
1	0xbe9e73e7	-0.309478
2	0x3ed640af	0.41846225
3	0x3da34135	0.07971422
4	0xbebbcaaf	-0.36678073
5	0x3ec5a7b3	0.38604507
6	0xbe7e5f05	-0.24840935
7	0xbe751691	-0.2393439
8	0xbe945458	-0.289706
9	0x3d9b5f92	0.07586588
10	0x3eac4718	0.3364799
11	0xbed0719c	-0.40711677
12	0xbed2c415	-0.41165224
13	0xbe34042c	-0.17579716
14	0x3f0325a3	0.51229304
15	0x3e8502e6	0.25978774
16	0xbeeb2cd4	-0.4593264
17	0xbe62b5fd	-0.22139736
18	0x3ed5e14b	0.41773447
19	0x3d598227	0.05310264
20	0x3d20d6d3	0.039267372
21	0xbe98eb42	-0.29866987
22	0x3ecb8ede	0.39757437
23	0x3eb98d8d	0.36240807
24	0xbe81bee7	-0.2534096
25	0xbe5e343b	-0.21699612
26	0x3e5cc621	0.21559955
27	0xbe9ca3f5	-0.3059384
28	0x3e2bb918	0.16769826
29	0x3e93ac22	0.28842264
30	0x3eb8fc72	0.361301
31	0xbea0502f	-0.31311175
32	0xbec52dc0	-0.38511467
33	0xbe8e62af	-0.27809665
34	0xbeb19204	-0.34681714
35	0xbe9df188	-0.30848336
36	0xbe97746c	-0.2958101
37	0x3e821baa	0.2541173
38	0x3e7f8209	0.24951948
39	0x3ec7d6cd	0.39031067
40	0x3ebda556	0.37040204
41	0x3eb7d946	0.35907954
42	0xbe84f70b	-0.2596973
43	0xbea52b2b	-0.32259497
44	0xbec3aab7	-0.38216183
45	0x3ec70ccb	0.38876948
46	0x3eaab7d3	0.33343372
47	0x3e56fa93	0.20994024
48	0x3e90f370	0.28310728
49	0x3eb031a3	0.3441287
50	0x3eb202f7	0.34767887
51	0xbe50fe09	-0.20409407
52	0xbea78c2b	-0.32724127
53	0x3e74dff0	0.2391355
54	0x3ec2e0d0	0.38062143
55	0xbe852dc7	-0.26011488
56	0x3ebb8c2d	0.36630383
57	0xbeb138a9	-0.3461354
58	0x3e8fe9b9	0.28108004
59	0xbe95003b	-0.29101738
60	0xbebc6310	-0.3679433
61	0x3e6bcd25	0.23027475
62	0xbeb73b20	-0.35787296
63	0xbebc3451	-0.36758664
64	0xbea1653e	-0.31522554
65	0xbe88bd3a	-0.26706868
66	0xbea78513	-0.32718715
67	0xbe8da6b3	-0.27666244
68	0x3e500b82	0.2031689
69	0x3e4d7930	0.2006576
70	0xbe59da00	-0.21274567
71	0x3ebd646e	0.36990684
72	0x3e6005a8	0.21877158
73	0xbeb3dab9	-0.3512781
74	0xbe9ba590	-0.30399752
75	0xbe87c438	-0.2651689
76	0x3e5be498	0.2147392
77	0x3eb66042	0.35620314
78	0xbe4cf83e	-0.20016572
79	0xbe9736f7	-0.29534122
80	0x3ec22980	0.37922287
81	0xbe1156ff	-0.14193343
82	0xbe9bb28f	-0.30409667
83	0xbea90a70	-0.33015776
84	0x3e4cc0ae	0.19995376
85	0xbeb5d491	-0.35513738
86	0xbec9afd5	-0.39391962
87	0x3e4487c7	0.1919242
88	0x3e8928b1	0.26788858
89	0x3e6c5237	0.23078237
90	0xbe5d471c	-0.21609157
91	0xbea438cc	-0.32074583
92	0x3e8f1d78	0.2795217
93	0xbec4be5f	-0.38426492
94	0xbeb8d243	-0.36097917
95	0xbe92a77c	-0.28643405
96	0xbeae67a9	-0.3406346
97	0xbe898339	-0.26857927
98	0xbebee51e	-0.37284178
99	0xbeeab71e	-0.45842832
100	0x3e952aee	0.29134315
101	0x3e731d8a	0.23741737
102	0x3eaf7845	0.34271446
103	0x3ea6e8e3	0.32599553
104	0xbea5a291	-0.3235059
105	0xbea7743f	-0.32705876
106	0xbea3828f	-0.31935546
107	0x3ead709d	0.3387498
108	0x3dfa0037	0.12207072
109	0xbe970741	-0.29497722
110	0xbe80a92d	-0.2512907
111	0x3e706cc4	0.23478991
112	0xbec2d7ce	-0.3805527
113	0xbe03fb05	-0.12888725
114	0xbeba079f	-0.3633394
115	0x3ec800b9	0.3906305
116	0xbe9effe2	-0.31054598
117	0xbe9e3a3d	-0.30903807
118	0x3e8c53ad	0.2740759
119	0x3ea59c05	0.32345596
120	0xbe930bf2	-0.2872005
121	0xbea436e7	-0.32073137
122	0x3e610844	0.2197581
123	0x3e5789a1	0.21048595
124	0x3f164c98	0.5871062
125	0x3f0f1a9b	0.5589997
126	0x3ebab79e	0.36468214
127	0x3f0e9578	0.5569682
128	0x3ea427e8	0.32061696
129	0xbe666b4d	-0.2250187
130	0xbf0e1f15	-0.5551618
131	0xbf68f959	-0.91005474
132	0xbf2e7b96	-0.6815733
133	0xbf19cba3	-0.6007635
134	0xbf493283	-0.785927
135	0x3efe9b02	0.49727637
136	0x3c354bd3	0.011065441
137	0xbe897b8d	-0.26852074
138	0xbe12d6b7	-0.1433972
139	0xbe7a8dbd	-0.24468131
140	0x3efc3603	0.49259958
141	0x3e810e25	0.25206104
142	0x3ce9060d	0.028445268
143	0xbe5caa57	-0.21549354
144	0xbf1fe962	-0.6246549
145	0x3f014c6e	0.5050725
146	0x3f071dc7	0.5277981
147	0xbf1443e0	-0.5791607
148	0xbd93ca12	-0.07216276
149	0x3f753b35	0.9579347
150	0xbf87d6c7	-1.061242
151	0xbe260a9d	-0.16214986
152	0xbf482669	-0.7818361
153	0xbd97e91f	-0.07417511
154	0x3e9cfd6b	0.30662093
155	0x3e7bdc15	0.24595673
156	0x3e85f9f4	0.26167262
157	0xbeb33ba4	-0.3500644
158	0x3eaa4f5c	0.3326367
159	0x3eba1ff7	0.36352512
160	0xbef0b029	-0.470094
161	0xbe753dae	-0.2394931
162	0x3ef091f6	0.4698636
163	0x3e78ccab	0.24296825
164	0xbe37220e	-0.17884085
165	0xbeb1f1f1	-0.347549
166	0x3ea34d5c	0.31894958
167	0x3e985b2e	0.29757065
168	0x3e810516	0.25199193
169	0xbe81e7f6	-0.25372285
170	0x3ecfc997	0.40583488
171	0x3e8bb314	0.27285063
172	0xbeba7982	-0.36420828
173	0xbeb23586	-0.3480646
174	0x3edaa68c	0.4270519
175	0x3eb80bde	0.35946554
176	0x3eb4dc93	0.35324535
177	0xbe4b8938	-0.19876564
178	0x3e9d0725	0.30669513
179	0x3e9fa90e	0.31183666
180	0xbee71024	-0.45129502
181	0x3e982f0f	0.29723403
182	0xbeacceb1	-0.33751443
183	0x3ea1c67d	0.31596747
184	0xbecb05fa	-0.39652997
185	0xbe6f5ec5	-0.23375995
186	0x3eebc23f	0.46046636
187	0x3ee61f60	0.44945812
188	0x3dfd0780	0.12354946
189	0x3eb26208	0.34840417
190	0x3eda22b9	0.42604616
191	0x3ef18a4b	0.47175822
192	0xbf005e0e	-0.50143516
193	0x3edc325c	0.4300717
194	0x3dccd57f	0.10001659
195	0xbd97840f	-0.07398235
196	0xbeb2e533	-0.3494049
197	0x3ee07caf	0.43845126
198	0x3edff3d7	0.43740723
199	0xbe5306c1	-0.20608045
200	0x3ec53289	0.38515118
201	0xbeacdbe0	-0.337615
202	0x3eda9ca1	0.42697623
203	0x3f0ca33b	0.5493657
204	0xbdf14f27	-0.11782675
205	0xbea4fa5b	-0.32222256
206	0xbe01f09a	-0.12689438
207	0x3eb00ddb	0.3438557
208	0xbe01dcf8	-0.12681949
209	0x3ec4c9c7	0.38435194
210	0x3ed19f55	0.40941873
211	0xbd1a8aba	-0.037729956
212	0xbeda9754	-0.4269358
213	0x3e45160a	0.19246688
214	0x3ddddbfc	0.10832974
215	0xbeb67d77	-0.35642597
216	0xbecc0da9	-0.39854172
217	0x3e17c49a	0.14821091
218	0x3ea441a3	0.32081327
219	0xbecdd1a7	-0.40199015
220	0x3ed95acc	0.42452085
221	0x3e27d1ff	0.16388701
222	0x3e1c21c1	0.15247251
223	0xbe5bc8d4	-0.21463329
224	0x3e2d565c	0.16927475
225	0x3ed91ea0	0.42406178
226	0xbf08f1b5	-0.53493816
227	0xbd15a78e	-0.036536746
228	0x3e84d0a8	0.25940442
229	0x3eddb07b	0.43298706
230	0xbd008cd3	-0.0313843
231	0xbe4b4cca	-0.19853511
232	0xbeb06d99	-0.34458616
233	0xbd375101	-0.044754986
234	0xbea01b4f	-0.31270835
235	0xbee0a388	-0.43874764
236	0x3ef8c1d1	0.4858537
237	0x3eee8c67	0.46591493
238	0x3e52b7d5	0.20577939
239	0xbf073837	-0.5282015
240	0x3eb9ceea	0.36290675
241	0x3e8001d7	0.25001404
242	0xbe28bc5a	-0.164781
243	0xbe9d74e8	-0.30753255
244	0xbda00019	-0.078125186
245	0x3e05ef1d	0.13079496
246	0xbee2b5b6	-0.4427926
247	0xbdbc8a6b	-0.09206089
248	0xbea12b83	-0.3147851
249	0x3e5909ce	0.21195146
250	0x3f54303d	0.82886106
251	0xbead3d4d	-0.3383583
252	0x3eb8a2c4	0.3606168
253	0x3e693ba8	0.22776663
254	0xbf4446e2	-0.7667066
255	0xbe3b470a	-0.18288818

LSTM.weight_hh_l0 f4 [400, 100]
0	0xbe7e7567	-0.24849473
1	0x3e7ebccb	0.24876706
2	0x3ebd8fc2	0.3702374
3	0x3ea1670a	0.31523925
4	0xbeabc96b	-0.33552107
5	0x3ea8055a	0.32816583
6	0x3e2f4b13	0.17118482
7	0x3e1a47b8	0.15066421
8	0xbe82d155	-0.25550333
9	0xbe9c7acb	-0.30562434
10	0xbeb78ddc	-0.35850418
11	0xbebb8c43	-0.3663045
12	0x3ec1cf48	0.37853456
13	0xbe9cdbb9	-0.30636385
14	0xbe8d5951	-0.27607206
15	0x3e8b7531	0.27237847
16	0x3e8d2c2c	0.27572763
17	0x3e63592f	0.2220199
18	0xbe88fda8	-0.26756024
19	0x3e8ba31e	0.27272886
20	0xbec4483d	-0.38336363
21	0xbe9579b5	-0.29194418
22	0xbeb8fee1	-0.36131957
23	0xbe534ee7	-0.20635568
24	0xbedcd9d9	-0.43134955
25	0x3ebb5e41	0.36595348
26	0x3ea6b74a	0.32561713
27	0xbe926bc9	-0.2859786
28	0xbd859d2a	-0.06524117
29	0x3ea77e0a	0.32713348
30	0x3cb375ba	0.021906722
31	0x3e88eb22	0.26741892
32	0x3ea77464	0.32705986
33	0xbe7b23bb	-0.24525349
34	0x3ed5bc0c	0.4174503
35	0xbebc8f00	-0.3682785
36	0x3da7d124	0.08194187
37	0xbebe6119	-0.37183455
38	0xbe9de6a1	-0.30840018
39	0x3ed1cd05	0.4097673
40	0xbe9b8006	-0.30371112
41	0x3e6430bf	0.2228422
42	0x3ec88c38	0.39169478
43	0x3e6658f1	0.22494866
44	0xbe940cf2	-0.28916126
45	0xbecbcc2f	-0.39804217
46	0x3e824d0e	0.25449413
47	0xbec27b5f	-0.3798475
48	0xbeb458d8	-0.35224032
49	0xbe541a50	-0.20713162
50	0xbeb63580	-0.35587692
51	0x3f10e672	0.5660163
52	0xbe282951	-0.16422011
53	0xbe5bba63	-0.2145782
54	0x3e92a2de	0.28639883
55	0xbeb39901	-0.3507767
56	0xbe6e8eee	-0.23296711
57	0xbec28f36	-0.37999886
58	0x3e6d498c	0.23172587
59	0x3ed26242	0.4109059
60	0x3ead3842	0.33831984
61	0xbe583f38	-0.21117866
62	0x3e8a4a45	0.27009788
63	0xbe591f15	-0.21203263
64	0xbe329cdb	-0.17442648
65	0x3e926721	0.28594306
66	0xbec4234e	-0.38308185
67	0xbeb06f4c	-0.34459913
68	0x3e941d92	0.2892881
69	0xbe415b5c	-0.18882507
70	0x3ea28590	0.31742525
71	0x3e3f755e	0.18697116
72	0xbdb30c13	-0.08742537
73	0x3e9525a5	0.29130283
74	0xbe72f013	-0.23724394
75	0x3e8cc3fe	0.2749328
76	0xbeb4db7a	-0.35323697
77	0x3eca8cd5	0.3956057
78	0x3e99c08b	0.3002971
79	0x3daa3422	0.08310725
80	0x3ed270b8	0.41101623
81	0xbe53a678	-0.20668972
82	0xbdae99c1	-0.0852542
83	0x3d889180	0.06668377
84	0x3e5042ce	0.20337984
85	0x3e5c8eec	0.21538895
86	0xbe5d0b72	-0.21586397
87	0xbec51489	-0.3849223
88	0xbd1c7125	-0.03819384
89	0x3e838a32	0.25691372
90	0xbe25d9aa	-0.16196314
91	0xbee55da0	-0.44797993
92	0x3eb7671f	0.35820863
93	0xbe5ca718	-0.21548116
94	0xbefbd039	-0.491823
95	0x3d0424e5	0.032261748
96	0x3e09aadf	0.13444088
97	0x3e87fce8	0.2656014
98	0xbe8bd2ee	-0.27309364
99	0x3e21a397	0.15785061
100	0xbe65ab93	-0.22428732
101	0x3e77b808	0.24191296
102	0xbe88c44d	-0.26712266
103	0xbe9357db	-0.28777966
104	0xbeab6e29	-0.33482483
105	0x3e9d5d4f	0.3073525
106	0xbe965947	-0.29364988
107	0x3eb6cf21	0.35704902
108	0xbe5d2768	-0.21597064
109	0xbea53f6a	-0.32274944
110	0xbec30241	-0.38087657
111	0x3eb801ee	0.35938972
112	0x3ec1a0ac	0.37817895
113	0x3e80009f	0.25000474
114	0xbe693426	-0.227738
115	0x3ec22b18	0.37923503
116	0x3ec22de8	0.3792565
117	0xbe7afd1a	-0.24510613
118	0xbebbcaff	-0.3667831
119	0x3e980d82	0.29697806
120	0xbeb16876	-0.3465001
121	0x3e897fab	0.26855215
122	0xbea3a645	-0.3196279
123	0xbebac216	-0.364762
124	0xbe627033	-0.22113113
125	0xbea8897e	-0.32917398
126	0x3e5e112b	0.21686237
127	0x3e27dfe1	0.16393997
128	0x3e2c16cb	0.1680557
129	0xbea77558	-0.32706714
130	0xbe78e42b	-0.24305789
131	0xbe67c5ac	-0.22634
132	0x3e7a7146	0.24457273
133	0x3e8f39be	0.2797374
134	0xbe9c53f6	-0.30532807
135	0xbf021d69	-0.50826126
136	0x3e9ca9ac	0.305982
137	0xbe83efdf	-0.25768945
138	0xbe8ca2dd	-0.27468005
139	0xbe85d26b	-0.261371
140	0x3eaea613	0.3411108
141	0xbe78ae37	-0.24285208
142	0x3e830945	0.2559301
143	0x3eca8d1d	0.39560786
144	0xbeb96ae3	-0.3621436
145	0xbea6979f	-0.32537553
146	0x3ee40a11	0.4453893
147	0xbe671f0e	-0.2257044
148	0xbe67901a	-0.22613564
149	0x3e84cf20	0.25939274
150	0xbea21c77	-0.31662342
151	0xbeca71d4	-0.3953997
152	0x3e04ad9b	0.1295685
153	0xbe9081b3	-0.28223953
154	0x3ea4ee3b	0.32213005
155	0xbe6e0d41	-0.23247243
156	0xbe4ee63a	-0.20205012
157	0x3e859595	0.26090685
158	0xbeaee9eb	-0.3416284
159	0x3e6b7be1	0.22996475
160	0x3e6ccb82	0.23124507
161	0x3d1d861e	0.038457982
162	0xbeb2e0fa	-0.34937268
163	0xbec3a3bd	-0.3821086
164	0x3e99e8d3	0.30060443
165	0xbe9092ac	-0.28236902
166	0x3eb10ccc	0.34580076
167	0xbec023e3	-0.3752738
168	0xbe5e3b49	-0.21702303
169	0x3e3c0045	0.18359478
170	0x3e9b1f5d	0.30297366
171	0xbe9248fa	-0.28571302
172	0x3e959a9e	0.29219526
173	0x3eb95634	0.3619858
174	0xbe660438	-0.22462547
175	0x3ea3287b	0.31866822
176	0xbe9cc2b3	-0.30617294
177	0x3ea20945	0.31647697
178	0x3e84dc82	0.25949484
179	0x3e639f94	0.22228843
180	0x3e915eed	0.28392735
181	0x3e9482ec	0.29006135
182	0x3e945768	0.28972936
183	0x3e936e14	0.2879492
184	0xbeb57798	-0.35442805
185	0x3e8ace3d	0.27110472
186	0xbd99c9bc	-0.07509181
187	0x3e917ec9	0.28417042
188	0x3ec75ea1	0.38939384
189	0xbe8268d1	-0.25470594
190	0x3eca1fc2	0.39477354
191	0x3ec8a7b8	0.3919046
192	0xbe57265f	-0.21010731
193	0xbebf6dc8	-0.37388444
194	0x3e9e1b55	0.30880228
195	0xbe9af118	-0.30262065
196	0x3ebe5f09	0.3718188
197	0xbe829c30	-0.25509787
198	0xbeb13ccf	-0.34616706
199	0xbeab4198	-0.33448482
200	0xbe8165b5	-0.2527291
201	0x3e85c7a6	0.26128882
202	0xbeb8ea5a	-0.36116296
203	0x3e85c707	0.26128408
204	0xbececa73	-0.40388831
205	0x3e74065c	0.23830551
206	0xbee52edc	-0.44762313
207	0xbe9a850b	-0.3017963
208	0xbe54ad48	-0.20769227
209	0x3ebf6159	0.37378958
210	0xbe5a14c2	-0.21296981
211	0x3e531188	0.20612156
212	0x3e4921d0	0.19641805
213	0xbea07069	-0.31335762
214	0xbea6d833	-0.32586822
215	0x3e836b45	0.25667778
216	0x3e8b7a64	0.27241814
217	0xbe90d58d	-0.28287926
218	0xbe568428	-0.20948851
219	0xbe9a3110	-0.30115557
220	0xbe4c2811	-0.19937159
221	0xbe642c4d	-0.22282524
222	0xbe9f8469	-0.31155708
223	0xbeaaa0fb	-0.33325943
224	0x3e67875d	0.2261023
225	0x3e801240	0.25013924
226	0xbe7e7215	-0.24848206
227	0x3e4d5ae4	0.20054203
228	0xbecb78d7	-0.3974063
229	0x3e87d773	0.26531562
230	0x3e7dc9b0	0.24783969
231	0x3e9d9330	0.30776358
232	0x3e946208	0.28981042
233	0x3e4fb507	0.202839
234	0xbe85454d	-0.26029435
235	0xbeaa767b	-0.33293518
236	0xbe8bc57c	-0.27299106
237	0xbe606cc6	-0.21916494
238	0x3ebd6367	0.369899
239	0x3ec28b04	0.37996686
240	0xbe8f514e	-0.27991718
241	0xbe90af08	-0.28258538
242	0x3e9d7347	0.30752012
243	0xbe8befce	-0.27331394
244	0xbeb2690a	-0.34845763
245	0xbe5c779a	-0.2153
246	0x3e8b289f	0.2717943
247	0xbe87b1a9	-0.2650273
248	0xbe9909cc	-0.29890287
249	0x3eae3ada	0.34029275
250	0x3e393231	0.18085553
251	0xbe75d799	-0.24008025
252	0x3d560f6a	0.052260794
253	0xbe580f23	-0.21099524
254	0x3ec0c83e	0.37652773
255	0xbeab842b	-0.33499274

LSTM.bias_ih_l0 f4 [400]
0	0xbee30783	-0.44341668
1	0xbe903f45	-0.2817327
2	0xbe94ae64	-0.290393
3	0xbe5bfd5c	-0.21483368
4	0x3f09b79f	0.5379581
5	0x3e69bd84	0.228262
6	0x3effe901	0.49982455
7	0x3e082f26	0.13299236
8	0x3df7d7b0	0.12101686
9	0x3e9d3721	0.30706123
10	0x3e04224f	0.12903713
11	0xbe8ce897	-0.27521202
12	0xbe96d569	-0.29459694
13	0xbec35de0	-0.38157558
14	0xbdfa54af	-0.12223183
15	0x3e9347fd	0.2876586
16	0xbdf719f3	-0.12065496
17	0xbe9c4316	-0.30519933
18	0x3cea3fed	0.028594935
19	0x3ea98ea9	0.33116654
20	0xbee4f0bb	-0.44714913
21	0x3e3ab1c1	0.1823187
22	0xbdf17f7a	-0.11791892
23	0xbe821aa5	-0.25410953
24	0x3ea74ce2	0.32675844
25	0x3e8959a1	0.26826194
26	0x3ebb8832	0.36627346
27	0xbf052eb0	-0.52024364
28	0x3ec689ae	0.38776916
29	0x3eba1d36	0.3635041
30	0x3eec9322	0.46206003
31	0x3d08d776	0.033408605
32	0xbec6123d	-0.3868579
33	0xbeec845f	-0.4619474
34	0x3e984374	0.29738963
35	0x3e038854	0.12844974
36	0xbdbdb5c5	-0.092631854
37	0x3e38f40b	0.18061845
38	0x3ec406dd	0.38286486
39	0xbccf5eeb	-0.025313815
40	0x3ec870e8	0.3914864
41	0xbebb1be6	-0.36544722
42	0xbeca53a6	-0.39516944
43	0xbdac1b95	-0.08403698
44	0x3ec953a8	0.39321637
45	0xbeb76389	-0.35818127
46	0x3ee8659f	0.4539003
47	0xbe9369ec	-0.2879175
48	0x3eaced0c	0.33774602
49	0xbeb2659d	-0.3484315
50	0x3e99ebd5	0.30062738
51	0x3df06f0c	0.117399305
52	0xbde5757d	-0.1120405
53	0xbe6ffe76	-0.23436913
54	0x3e4d3e39	0.20043267
55	0xbeb53b99	-0.35397032
56	0x3eb6207f	0.35571668
57	0xbe993048	-0.29919648
58	0xbec20c02	-0.37899786
59	0x3eb22787	0.34795782
60	0x3e5bcc7e	0.21464726
61	0x3c7984fc	0.01522946
62	0x3d69ea49	0.057108197
63	0x3ee7091b	0.45124134
64	0xbe956669	-0.29179695
65	0xbeb5c044	-0.3549825
66	0x3ead0510	0.33792925
67	0xbe6e345b	-0.2326216
68	0xbe69289d	-0.22769399
69	0x3e22e25e	0.15906665
70	0xbec17738	-0.3778627
71	0xbe5c5105	-0.21515281
72	0x3e096faa	0.13421503
73	0x3e6af49d	0.22944875
74	0x3bcf177f	0.0063199396
75	0x3e6b3546	0.22969541
76	0xbe4cf56c	-0.20015496
77	0x3f174958	0.5909629
78	0x3e9c9aa9	0.30586746
79	0xbe643a93	-0.2228797
80	0x3e60c6fa	0.21950904
81	0x3e8a2015	0.26977602
82	0x3ed91da4	0.42405427
83	0x3eb84e1c	0.35997093
84	0xbeaabdbd	-0.33347884
85	0xbe9a7dbf	-0.30174062
86	0xbde3bb38	-0.111196935
87	0xbe9d2b7a	-0.30697232
88	0x3e83df16	0.2575614
89	0xbdedf7fc	-0.11619565
90	0xbe2245c0	-0.1584692
91	0x3ec9ffc8	0.39452958
92	0x3e59e434	0.21278459
93	0xbee38009	-0.4443362
94	0x3c40cb62	0.01176724
95	0xbccb6c02	-0.024831776
96	0x3e63e534	0.22255403
97	0xbea53c91	-0.3227277
98	0xbec3fffc	-0.38281238
99	0x3f2afc3c	0.6679113
100	0xbe22a46d	-0.15883036
101	0xbe6f7a25	-0.23386438
102	0xbe895d97	-0.26829216
103	0xbe6992c7	-0.22809897
104	0xbd31e5a5	-0.043431897
105	0x3d807df2	0.06274022
106	0x3f0e1b56	0.5551046
107	0x3d9b3dd4	0.07580152
108	0x3f1be7b4	0.60900426
109	0x3eb19fc7	0.34692213
110	0xbef23cbf	-0.4731197
111	0xbe8f530f	-0.27993056
112	0xbeaacf24	-0.3336116
113	0xbdc08b0e	-0.094015226
114	0xbdacc7c6	-0.08436541
115	0x3ec0461e	0.37553495
116	0x3ea00539	0.31253985
117	0xbeaa1411	-0.33218434
118	0x3e9387e3	0.2881461
119	0xbe6dec71	-0.23234726
120	0xbc1aba8e	-0.009443892
121	0xbea6f0da	-0.3260563
122	0x3e6f66d5	0.23379071
123	0x3f18eb8b	0.5973441
124	0x3eaef899	0.3417404
125	0x3e5abc8c	0.21360987
126	0x3ea93586	0.33048648
127	0x3e79804a	0.24365345
128	0x3ead08e7	0.33795854
129	0x3eb959e9	0.36201409
130	0x3ee0b47f	0.43887708
131	0xbda5fa9a	-0.08104439
132	0x3d8cda18	0.068775356
133	0xbe929739	-0.28631
134	0x3ee98c39	0.45614794
135	0x3eb7c341	0.35891154
136	0x3ed85639	0.42253283
137	0x3e7f0f0b	0.24908082
138	0xbdd8d299	-0.10587043
139	0xbd8c6245	-0.06854681
140	0x3e6d943b	0.23201077
141	0xbec2f78f	-0.38079497
142	0xbe82d721	-0.25554755
143	0x3dad60a4	0.08465698
144	0xbef35b6a	-0.4753068
145	0xbec9cf34	-0.39415896
146	0x3f0b1c8c	0.54340434
147	0xbecb13c7	-0.39663526
148	0x3e6a5bf7	0.22886644
149	0xbe93f77c	-0.28899753
150	0xbee04102	-0.43799597
151	0x3e78d3fd	0.24299617
152	0x3e78f002	0.24310306
153	0xbe53323d	-0.20624633
154	0x3e54abe6	0.20768699
155	0xbe99319e	-0.29920667
156	0x3ec69f7c	0.38793552
157	0xbe41ab8b	-0.18913095
158	0xbe826cda	-0.25473672
159	0xbeb1d87d	-0.3473548
160	0x3e634e9c	0.22197956
161	0xbe252c4e	-0.16130182
162	0xbe7c1cee	-0.24620411
163	0xbe869ceb	-0.26291594
164	0xbe9e449c	-0.3091172
165	0xbdb95fec	-0.09051499
166	0x3e6f9efa	0.23400488
167	0xbeb6dad4	-0.35713828
168	0x3c7a2e8d	0.015269888
169	0xbd0257b4	-0.03182192
170	0xbea20c9f	-0.31650254
171	0xbed77433	-0.4208084
172	0x3e5b472d	0.2141387
173	0x3e7865d5	0.24257596
174	0x3f01de11	0.5072947
175	0xbf1501ce	-0.5820588
176	0xbe956c31	-0.29184106
177	0x3e5c180b	0.21493547
178	0x3eba8ef9	0.36437204
179	0xbeb1fcc5	-0.3476316
180	0x3eadbe97	0.3393447
181	0x3ec87d76	0.3915822
182	0x3e8d69d3	0.276198
183	0x3e39a477	0.18129145
184	0xbea15557	-0.31510422
185	0xbe5335b8	-0.20625961
186	0x3e4b00d1	0.1982453
187	0xbed7030c	-0.41994512
188	0x3eb7e8cf	0.35919806
189	0xbe8c509a	-0.27405244
190	0x3cfc947d	0.030832523
191	0xbe960456	-0.29300183
192	0x3e74186c	0.23837441
193	0x3e88f36a	0.2674821
194	0x3e041cb8	0.1290158
195	0x3ea9af1b	0.33141407
196	0xbe937f2f	-0.2880797
197	0xbecf5969	-0.40497902
198	0xbe5b0b00	-0.21390915
199	0x3e0f0ae6	0.13969001
200	0xbe6ee194	-0.23328239
201	0x3e993063	0.2991973
202	0xbe5401e3	-0.20703845
203	0x3ebfa406	0.37429827
204	0xbe19bcb7	-0.15013395
205	0xbeb090e5	-0.34485546
206	0x3d24eeff	0.040266987
207	0x3dec3864	0.11534193
208	0x3ea37398	0.3192413
209	0xbdacedcc	-0.08443794
210	0x3dd4cf1e	0.10391067
211	0xbdc40f70	-0.09573257
212	0xbec4242e	-0.38308853
213	0xbe612eaf	-0.21990465
214	0x3e44dd72	0.192251
215	0xbead00b6	-0.33789605
216	0x3ef88f1f	0.48546693
217	0x3ec491ee	0.38392586
218	0x3edc6cf9	0.4305189
219	0x3e3d42bc	0.18482488
220	0xbe4dd18a	-0.20099464
221	0xbea7b6cb	-0.32756647
222	0x3ec00344	0.3750249
223	0xbea6e114	-0.32593596
224	0x3ebef366	0.37295073
225	0x3ea55a1f	0.3229532
226	0x3e54538d	0.20734997
227	0x3ee09b38	0.43868423
228	0x3ec59b69	0.3859513
229	0xbe75ac1c	-0.23991436
230	0x3e0573b0	0.13032413
231	0xbe933275	-0.28749433
232	0xbebccf3b	-0.36876854
233	0x3ec7cf1b	0.39025196
234	0xbe377123	-0.17914252
235	0xbedb4214	-0.4282385
236	0x3ea57ef1	0.3232341
237	0x3e70f5a4	0.23531204
238	0xbe70b83b	-0.23507778
239	0xbdff4ef3	-0.1246623
240	0xbe812fa3	-0.25231656
241	0x3ea715bc	0.3263377
242	0x3e90743a	0.28213674
243	0xbea6d41f	-0.3258371
244	0x3db4bd77	0.088252
245	0xbe82e841	-0.2556782
246	0xbea214c6	-0.31656474
247	0xbea50225	-0.322282
248	0x3eb6e9d9	0.35725287
249	0xbe78db93	-0.24302511
250	0x3ed41ede	0.414298
251	0xbe706613	-0.23476438
252	0x3e984ac8	0.29744554
253	0x3ea432fa	0.32070142
254	0x3ec03831	0.3754287
255	0x3e9b1700	0.30290985

LSTM.bias_hh_l0 f4 [400]
0	0xbecbccf8	-0.39804816
1	0xbe4d2567	-0.20033799
2	0xbe8f7e67	-0.28026125
3	0xbeb1696a	-0.34650737
4	0x3f1e6bba	0.6188313
5	0x3ec3e9f7	0.3826444
6	0x3eff2af8	0.4983747
7	0x3e34b828	0.17648375
8	0x3e597eab	0.21239726
9	0x3ec9579d	0.39324656
10	0x3e1663d6	0.14686522
11	0xbe8e1678	-0.27751517
12	0xbe778dfc	-0.24175256
13	0xbeb98c81	-0.36240008
14	0xbc9c24cc	-0.019060515
15	0x3eaee381	0.34157947
16	0xbe57e62d	-0.21083899
17	0xbea9f735	-0.33196416
18	0x3d4e21a7	0.050325062
19	0x3eb0fb2d	0.34566632
20	0xbf02547d	-0.5091017
21	0x3e3f3704	0.1867333
22	0xbe31832e	-0.17335197
23	0xbe939873	-0.28827247
24	0x3eb9a2d5	0.36257043
25	0x3eb27dd1	0.34861615
26	0x3e6bcacc	0.2302658
27	0xbf0577be	-0.5213584
28	0x3ee29354	0.44253027
29	0x3eb87dc7	0.3603346
30	0x3efa5140	0.48890114
31	0x3c80c267	0.015717698
32	0xbed3e281	-0.41383746
33	0xbf166ccf	-0.5875978
34	0x3e7281a3	0.23682265
35	0x3da306d7	0.07960289
36	0xbe183471	-0.14863755
37	0x3e60f352	0.2196782
38	0x3e8e66ad	0.2781271
39	0x3cb8ed43	0.022574073
40	0x3ec77a65	0.38960567
41	0xbec7f199	-0.39051512
42	0xbedb9a1e	-0.4289102
43	0x3c3a10d5	0.011356552
44	0x3eb353cc	0.3502487
45	0xbe76e9e7	-0.24112664
46	0x3ee69ad2	0.45039994
47	0xbe975288	-0.29555154
48	0x3ebf0fd7	0.37316772
49	0xbeaeb300	-0.3412094
50	0x3ea69289	0.32533672
51	0x3d613cdf	0.05498969
52	0xbde08bb7	-0.109641485
53	0xbe84f422	-0.2596751
54	0x3eb7f554	0.35929358
55	0xbec1378b	-0.37737688
56	0x3ea25a34	0.31709445
57	0xbe90cd87	-0.28281805
58	0xbe5c602f	-0.21521066
59	0x3eac4d65	0.33652797
60	0x3ebc7b5e	0.36812872
61	0xbdb7e5e7	-0.08979397
62	0x3cef960c	0.029246353
63	0x3ef8118c	0.48450887
64	0xbe9ae76a	-0.3025468
65	0xbee616e4	-0.4493934
66	0x3e2f5f5e	0.17126223
67	0xbe8f6206	-0.28004473
68	0xbe64ee4b	-0.22356527
69	0x3dbaf316	0.09128396
70	0xbe92d384	-0.28677
71	0xbe1a2f80	-0.15057182
72	0x3e185ba8	0.14878714
73	0x3e4050fb	0.18780892
74	0xbe1491f9	-0.14508809
75	0x3e7796a3	0.24178557
76	0xbeb696a7	-0.35661814
77	0x3efa4959	0.48884085
78	0x3e4fbff8	0.20288074
79	0xbe7ea632	-0.24868086
80	0x3e9db165	0.30799404
81	0x3eb87f01	0.36034396
82	0x3ec12d38	0.37729812
83	0x3e58d880	0.21176338
84	0xbeab8d7c	-0.33506382
85	0xbebfa8c3	-0.37433442
86	0x3bdbbc19	0.0067057726
87	0xbeae77c0	-0.34075737
88	0x3ec008ac	0.37506616
89	0xbdc4cd0a	-0.096094206
90	0xbd8f90cc	-0.0701004
91	0x3ebe8dd1	0.37217572
92	0x3ea7ba0c	0.3275913
93	0xbed2e3ad	-0.41189328
94	0x3cb44043	0.022003299
95	0x3d6dd5aa	0.058065094
96	0x3e871c6d	0.26388875
97	0xbeb75c84	-0.3581277
98	0xbeabb05f	-0.33532998
99	0x3f211a7d	0.6293104
100	0xbd5058c1	-0.050865892
101	0xbe821c9f	-0.2541246
102	0xbe686379	-0.22694196
103	0xbe4bf0a1	-0.19916011
104	0xbd948a55	-0.07252947
105	0x3d1f6969	0.038918886
106	0x3f0f6b3b	0.56022996
107	0x3dcc8a30	0.09987295
108	0x3ef65eec	0.48119295
109	0x3ed663a1	0.41872886
110	0xbef9eac8	-0.48811936
111	0xbe905894	-0.2819258
112	0xbe7434d4	-0.23848277
113	0xbd837e0c	-0.06420526
114	0xbe27057f	-0.1631069
115	0x3ea42b75	0.32064405
116	0x3ebf2eec	0.37340486
117	0xbe5b9cc2	-0.21446517
118	0x3eb11335	0.34584966
119	0xbeac21ad	-0.33619443
120	0xbb3256de	-0.0027212421
121	0xbe72dc2b	-0.237168
122	0x3e73c230	0.23804545
123	0x3f0624b6	0.52399766
124	0x3e8d2ced	0.27573338
125	0x3eb17ff8	0.34667945
126	0x3e5bc27c	0.21460909
127	0x3e30a032	0.1724861
128	0x3ec9f541	0.39444926
129	0x3ec82d9f	0.39097306
130	0x3ecd7742	0.4013005
131	0xbdbd8ef9	-0.092557855
132	0x3d421563	0.047383677
133	0xbe72aece	-0.23699495
134	0x3ef4e9e5	0.47834697
135	0x3ea36aef	0.3191752
136	0x3ea973eb	0.3309625
137	0x3e942b61	0.28939345
138	0xbe28ed01	-0.1649666
139	0xbd51b37b	-0.051196557
140	0x3e9161c6	0.28394908
141	0xbebb9422	-0.36636454
142	0xbe9013d1	-0.2814012
143	0x3dc2d749	0.09513719
144	0xbeac513e	-0.33655733
145	0xbe960e5d	-0.29307833
146	0x3ef4840e	0.47757
147	0xbe890cff	-0.26767728
148	0x3e9ab207	0.3021395
149	0xbec84b93	-0.3912016
150	0xbebbf8e3	-0.36713323
151	0x3d8e79de	0.06956838
152	0x3ea634b6	0.3246209
153	0xbea930e8	-0.33045125
154	0x3e80998b	0.25117144
155	0xbe8c92b4	-0.27455676
156	0x3ebd7976	0.3700673
157	0xbdbd341a	-0.09238453
158	0xbe7d6069	-0.24743809
159	0xbe8ce0d8	-0.27515292
160	0x3e9e0757	0.30864975
161	0xbe7a9da9	-0.24474205
162	0xbe9d8a96	-0.30769795
163	0xbec6dc62	-0.38840014
164	0xbeb26957	-0.34845993
165	0xbdf5a679	-0.11994643
166	0x3ea0afa8	0.31384015
167	0xbe6188cc	-0.2202484
168	0xbe11ef28	-0.14251387
169	0xbdecea7d	-0.115681626
170	0xbe864cb1	-0.26230386
171	0xbebb2eb3	-0.36559066
172	0x3eaf8c5b	0.3428677
173	0x3e4bd455	0.19905217
174	0x3ec27394	0.37978804
175	0xbf3bf245	-0.7341655
176	0xbe3c6120	-0.18396425
177	0x3e41a06d	0.18908854
178	0x3e8960a1	0.26831535
179	0xbe93de6d	-0.28880635
180	0x3e64c8cb	0.22342221
181	0x3e6dab37	0.23209845
182	0x3e66abd3	0.22526483
183	0x3e82ae14	0.25523436
184	0xbec899d4	-0.39179862
185	0xbe965e9f	-0.29369065
186	0x3e5eefc6	0.21771154
187	0xbf01b05f	-0.50659746
188	0x3e51ad21	0.204762
189	0xbea6c5cf	-0.3257279
190	0xbb77aa27	-0.0037790628
191	0xbe2e6b61	-0.1703315
192	0x3e8ee557	0.27909347
193	0x3e6c240d	0.23060627
194	0x3e25c611	0.16188838
195	0x3e539161	0.20660926
196	0xbed7b5bd	-0.42130843
197	0xbeb55e7b	-0.35423645
198	0xbe4b38c1	-0.19845869
199	0x3e0fb1a8	0.14032614
200	0xbebd0643	-0.3691884
201	0x3e886586	0.26639956
202	0xbe80a520	-0.2512598
203	0x3ead2f82	0.33825308
204	0xbe25e665	-0.1620117
205	0xbe2cf61d	-0.1689076
206	0xbd1bea63	-0.038065325
207	0x3d7519bc	0.059838995
208	0x3e691ba1	0.22764446
209	0xbddf94b1	-0.109170325
210	0x3dd1f409	0.10251624
211	0xbddb3cb8	-0.107049406
212	0xbeb14276	-0.34621018
213	0xbe8216e8	-0.254081
214	0x3eb6d6c5	0.3571073
215	0xbec98c8d	-0.39365044
216	0x3eb573cf	0.35439917
217	0x3e87e27c	0.2653998
218	0x3ec04373	0.3755146
219	0x3e0cb62a	0.13741365
220	0xbe543726	-0.20724162
221	0xbeb3de21	-0.35130408
222	0x3eaf2018	0.34204173
223	0xbe8c8e2d	-0.27452222
224	0x3e832684	0.25615323
225	0x3ebf6456	0.37381238
226	0x3eb19a15	0.34687868
227	0x3f17b523	0.5926077
228	0x3ec5c033	0.386232
229	0xbea72c17	-0.32650825
230	0xbd745d51	-0.059659306
231	0xbe849122	-0.25891978
232	0xbec935ac	-0.3929876
233	0x3ea821c3	0.32838258
234	0xbd4262fe	-0.047457688
235	0xbefbd3fb	-0.49185166
236	0x3ea8a4e0	0.3293829
237	0x3e4a597e	0.19760701
238	0xbe9df67e	-0.3085212
239	0xbe2677ac	-0.16256589
240	0xbe80ab7c	-0.25130832
241	0x3e637135	0.22211154
242	0x3e6dbed8	0.23217332
243	0xbea01d03	-0.31272134
244	0x3d8a27d8	0.06745881
245	0xbe9625f6	-0.29325837
246	0xbe62b56d	-0.22139521
247	0xbeb01e31	-0.34398034
248	0x3e7db9d4	0.24777919
249	0xbebc007c	-0.3671912
250	0x3ecb0945	0.3965551
251	0xbe9513c9	-0.29116657
252	0x3e60534b	0.21906774
253	0x3ea154ae	0.31509918
254	0x3e9c866e	0.30571312
255	0x3ec39713	0.38201198

attn.attn.0.weight f4 [100, 100]
0	0xbe91153c	-0.28336513
1	0xbed9fa0e	-0.4257359
2	0xbea7e7a2	-0.3279391
3	0x3f1044c9	0.5635496
4	0xbee47060	-0.44616985
5	0xbeb45ede	-0.35228628
6	0x3e3d19d3	0.18466882
7	0xbe551abe	-0.20810983
8	0x3e6795cf	0.22615741
9	0xbf13de1d	-0.5776079
10	0xbf0eac49	-0.55731636
11	0x3f459fa4	0.7719672
12	0xbd7d218f	-0.061799582
13	0xbef97bf7	-0.4872739
14	0xbf3ba40e	-0.732972
15	0xbed41fc5	-0.41430488
16	0x3e87e980	0.26545334
17	0xbf0156be	-0.50522983
18	0xbe52ea3e	-0.20597169
19	0x3de28a76	0.110615656
20	0xbed50266	-0.41603392
21	0x3edcf195	0.43153062
22	0xbd534217	-0.0515767
23	0x3eb7833b	0.35842308
24	0x3ee8e9b5	0.45490804
25	0xbe8bdc05	-0.273163
26	0x3eabfa51	0.33589414
27	0x3f56e514	0.83943295
28	0x3e510d33	0.20415191
29	0x3f1c216a	0.60988486
30	0x3eaa2231	0.3322921
31	0x3d72a533	0.059239578
32	0xbecf5207	-0.4049227
33	0x3ea1dd07	0.31613943
34	0xbe8e2b60	-0.27767467
35	0x3e63b167	0.22235642
36	0x3ef2c4bc	0.4741572
37	0x3ed4adb3	0.41538772
38	0x3e3b8c1c	0.18315166
39	0xbf1e556d	-0.618491
40	0xbecd3d46	-0.4008581
41	0xbec175c1	-0.37785152
42	0x3eb140f5	0.3461987
43	0xbeebeceb	-0.46079192
44	0x3d6536da	0.055960514
45	0xbebe9715	-0.3722464
46	0x3e9f8380	0.31155014
47	0xbf1d4389	-0.61431175
48	0x3e9c40d8	0.30518222
49	0x3ea6489f	0.3247728
50	0x3efc16ff	0.49236295
51	0x3ef2c7f4	0.47418177
52	0xbd361a22	-0.044458516
53	0xbd1cf2e9	-0.038317595
54	0x3e074b0d	0.13212223
55	0xbb32a2a3	-0.0027257584
56	0xbed50d8f	-0.41611907
57	0xbee516c9	-0.44743946
58	0xbf16320f	-0.58670133
59	0xbea707fd	-0.32623282
60	0x3f36d201	0.7141419
61	0x3f07b69f	0.5301303
62	0xbe988c24	-0.2979442
63	0xbe859e77	-0.26097462
64	0x3e5f476e	0.21804592
65	0xbe2c7b88	-0.16843998
66	0x3e90f8dd	0.28314868
67	0x3d138944	0.03601958
68	0x3f3ff963	0.7498991
69	0x3e702ca0	0.23454523
70	0x3f2bde55	0.67136127
71	0x3e266967	0.16251145
72	0xbf1a6d87	-0.60323375
73	0x3f5a8d3b	0.8537175
74	0x3e3a603b	0.18200772
75	0xbe5892ca	-0.21149746
76	0x3d18e488	0.03732732
77	0x3f6c4250	0.92288685
78	0x3eb42814	0.35186827
79	0x3d20a25d	0.03921734
80	0xbd107700	-0.035269737
81	0x3ee7c385	0.45266357
82	0xbf0bc2f5	-0.54594356
83	0x3dcc08f6	0.09962647
84	0x3e73240a	0.23744217
85	0x3f127397	0.57207626
86	0xbf37a2de	-0.7173289
87	0x3d305af2	0.043055482
88	0x3e6bce23	0.23027854
89	0xbee0be2a	-0.43895084
90	0xbf06d647	-0.5267071
91	0x3e6f4c14	0.23368865
92	0x3df27c5f	0.11840128
93	0xbf67571b	-0.9036729
94	0xbefbf44e	-0.49209827
95	0x3e7c7985	0.24655731
96	0xbe965215	-0.293595
97	0x3cab1db9	0.020888196
98	0xbe65cf99	-0.22442473
99	0x3f848fa7	1.0356339
100	0x3e61a3ed	0.22035189
101	0x3e3503e7	0.1767727
102	0xbe11a791	-0.14224078
103	0x3f22b8c8	0.63563204
104	0x3d9cc976	0.07655613
105	0xbec88d92	-0.3917051
106	0xbe45cfc9	-0.19317545
107	0x3e8c03d6	0.27346677
108	0xbf0db64f	-0.55356306
109	0x3e2fcc8d	0.17167874
110	0x3ee33e06	0.44383258
111	0x3e3e3f0d	0.1857874
112	0xbe059b88	-0.13047612
113	0xbdf2bdf0	-0.11852634
114	0xbc008029	-0.007843056
115	0x3f4c7b66	0.7987579
116	0xbed9d008	-0.42541528
117	0xbdc67f75	-0.09692279
118	0x3d3f280d	0.046669055
119	0xbf0419b6	-0.5160173
120	0xbe6807b2	-0.22659186
121	0x3f596c4d	0.8493088
122	0xbe12ebaa	-0.14347711
123	0x3e27528c	0.16340083
124	0x3f165874	0.5872872
125	0x3c208fc6	0.009799903
126	0x3f051e69	0.5199953
127	0x3f41b4d9	0.75666577
128	0x3e8857d3	0.26629505
129	0x3d48c420	0.049015164
130	0xbe919b5e	-0.28438848
131	0xbea772ab	-0.32704672
132	0xbf42feba	-0.7616993
133	0x3ee8bd5f	0.4545698
134	0xbeb8af0b	-0.36071047
135	0x3f236358	0.6382346
136	0x3f2c5726	0.6732048
137	0x3c296e39	0.010341221
138	0xbe76accb	-0.24089353
139	0xbe7b6d32	-0.24553373
140	0xbea6dfa9	-0.32592514
141	0xbecead0c	-0.403664
142	0x3f321bde	0.6957377
143	0xbed784d5	-0.4209353
144	0x3ab5863d	0.001384921
145	0x3e8a548c	0.2701763
146	0xbef46412	-0.47732598
147	0xbe904aa1	-0.28181937
148	0xbdd286b8	-0.10279602
149	0xbd6aa8c9	-0.057289872
150	0xbee33f97	-0.44384453
151	0x3ed75886	0.42059726
152	0x3f43f95d	0.76552373
153	0xbecebe22	-0.40379435
154	0xbebfca9c	-0.37459266
155	0x3f46ecc4	0.77705026
156	0x3ee25da4	0.44212067
157	0x3a2c4bbf	0.00065725663
158	0xbf85826b	-1.0430425
159	0x3d69a522	0.05704225
160	0x3e9f18fb	0.31073746
161	0x3fc4aba3	1.5364879
162	0x3db841c1	0.089969166
163	0x3f390828	0.7227807
164	0xbdf01d93	-0.11724391
165	0x3cdf569a	0.027262975
166	0xbf7bf8e1	-0.98426634
167	0x3f02672a	0.50938666
168	0x3d726db1	0.05918664
169	0xbe5ddcd3	-0.21666269
170	0x3ee26bdf	0.44222924
171	0x3ecffc70	0.40622282
172	0x3f13aa31	0.57681566
173	0xbddea85a	-0.10871954
174	0x3e41604c	0.1888439
175	0x3e570177	0.20996653
176	0xbe84567f	-0.2584724
177	0x3ee18c5f	0.44052407
178	0x3efb22e9	0.49050072
179	0x3f0ccb3c	0.5499761
180	0x3e5a7fd1	0.2133782
181	0x3e9187c9	0.28423908
182	0xbf19307f	-0.59839624
183	0xbe2ded99	-0.16985168
184	0x3edf78d1	0.43646863
185	0x3f2914e4	0.660475
186	0xbf0b031b	-0.54301614
187	0x3d626e8a	0.0552812
188	0x3eadea67	0.33967897
189	0xbf886079	-1.0654441
190	0x3c845aa0	0.016156495
191	0x3da39bcd	0.07988701
192	0x3f42032d	0.75786096
193	0xbf0a5010	-0.54028416
194	0x3f8a1a94	1.0789361
195	0xbeed6845	-0.46368614
196	0xbe2b92a0	-0.16755152
197	0x3d2197af	0.039451297
198	0x3ef60170	0.48047972
199	0xbe8f45e9	-0.27983025
200	0xbe972e17	-0.2952735
201	0xbe90b535	-0.2826325
202	0xbec772d9	-0.3895481
203	0x3e9cf2cc	0.3065399
204	0xbf1f4dc8	-0.6222806
205	0xbf2dd8df	-0.67909044
206	0xbf09984d	-0.5374802
207	0x3e4aa946	0.19791135
208	0xbf510f32	-0.8166381
209	0x3e9fbaf1	0.31197312
210	0xbeab6193	-0.3347288
211	0x3eb80d0f	0.35947463
212	0x3b70e324	0.003675648
213	0xbddb6eec	-0.10714516
214	0xbd6352ce	-0.05549889
215	0xbd9a9489	-0.07547862
216	0xbeec542f	-0.46157977
217	0xbeb44d5e	-0.35215276
218	0x3ea38c19	0.31942824
219	0x3d4a8265	0.04944076
220	0xbe8ae3cb	-0.27126917
221	0x3e9069a5	0.282056
222	0x3e50f157	0.20404564
223	0x3f1d4abc	0.6144216
224	0x3ed90e36	0.42393655
225	0xbe8da78a	-0.27666885
226	0x3ec1491d	0.37751094
227	0x3e2aeb71	0.16691376
228	0x3f40e9d8	0.7535682
229	0x3e400e4c	0.18755454
230	0xbeb17c02	-0.34664923
231	0xbe2b8ece	-0.16753694
232	0xbf1d53fb	-0.6145627
233	0x3ee125b9	0.43974093
234	0xbeb3e911	-0.35138753
235	0xbe4a5414	-0.19758636
236	0x3f0561d3	0.5210239
237	0x3de851dd	0.11343739
238	0xbed3c1e9	-0.4135888
239	0xbd3f9c79	-0.046780083
240	0xbed3a01b	-0.41333088
241	0xbeb74183	-0.3579217
242	0x3e706e67	0.23479615
243	0xbf01944d	-0.50616914
244	0xbe83f86b	-0.25775465
245	0xbebab6d3	-0.3646761
246	0xbd562267	-0.052278902
247	0xbe455d83	-0.19273953
248	0xbd703c0a	-0.058651008
249	0xbe390f96	-0.18072352
250	0x3ebfd942	0.37470442
251	0xbf2cb563	-0.67464274
252	0x3e2fcbfd	0.17167659
253	0xbe8010d1	-0.2501283
254	0x3e08f2b9	0.13373841
255	0xbe816f55	-0.25280252

attn.attn.0.bias f4 [100]
0	0xbd13c7b1	-0.036079112
1	0xbeba5dd7	-0.3639972
2	0x3d867e2a	0.06567033
3	0x3e027d89	0.127432
4	0xbf18932d	-0.5959957
5	0x3f2d6b07	0.67741436
6	0xbee16641	-0.44023326
7	0x3f298c77	0.6622996
8	0xbf4e20f0	-0.8051901
9	0x3e93e13d	0.2888278
10	0x3ec32ccd	0.38120118
11	0x3da17b3b	0.078848325
12	0xbe69101c	-0.22760051
13	0x3f27591d	0.6537035
14	0x3eb55532	0.3541656
15	0xbe56f168	-0.20990527
16	0x3d7b070d	0.06128602
17	0xbed97150	-0.42469263
18	0x3ecb623a	0.39723378
19	0xbf1aba51	-0.60440546
20	0x3f4141d9	0.754911
21	0x3e855746	0.26043147
22	0xbe8f8d30	-0.28037405
23	0xbee8ec80	-0.45492935
24	0xbc9196ed	-0.017772162
25	0x3f31c4a3	0.6944067
26	0x3f112c16	0.56707895
27	0xbeceb86f	-0.40375087
28	0x3ec1cfd1	0.37853864
29	0xbe43b64d	-0.19112511
30	0xbeecfe1d	-0.46287623
31	0x3eac2903	0.3362504
32	0x3e780f73	0.24224643
33	0xbf0d4dd0	-0.5519686
34	0x3f71273f	0.9420051
35	0x3ecb3060	0.39685345
36	0xbebd60e6	-0.3698799
37	0xbf3c5a66	-0.7357544
38	0xbf371d29	-0.7152887
39	0xbf17cf24	-0.59300447
40	0xbe34f86b	-0.17672889
41	0xbe5a9c36	-0.21348652
42	0x3f20ff94	0.6288998
43	0x3e63eb86	0.22257814
44	0x3f0de4ba	0.55427134
45	0xbbd22857	-0.0064135003
46	0xbed5fbe3	-0.41793737
47	0x3f0c3afb	0.547775
48	0x3f73837d	0.9512251
49	0xbe19df53	-0.15026598
50	0x3e6826c1	0.22671033
51	0xbe80c1c5	-0.25147834
52	0x3f86ec72	1.0540907
53	0xbf3cb264	-0.737097
54	0xbf76c2ed	-0.96391183
55	0x3e97028c	0.2949413
56	0xbf49198c	-0.78554606
57	0xbeea12c2	-0.45717436
58	0xbe65a657	-0.22426735
59	0x3e028cff	0.12749098
60	0xbecd7362	-0.40127093
61	0xbde0c903	-0.1097584
62	0x3edb1222	0.42787272
63	0x3ef2d88f	0.47430846
64	0xbe7b8547	-0.2456256
65	0xbf4079b3	-0.751857
66	0xbee4d030	-0.44690084
67	0xbeb78ce9	-0.35849693
68	0xbdce0350	-0.100592256
69	0x3e9749be	0.29548448
70	0x3e3c4702	0.18386462
71	0x3f5c67b9	0.8609577
72	0xbe8964eb	-0.26834807
73	0x3f2f3e10	0.68454075
74	0xbd3cb764	-0.046073332
75	0x3f4f01a4	0.8086188
76	0xbe73968e	-0.23787901
77	0x3f003175	0.50075465
78	0xbebda61e	-0.370408
79	0xbed04a03	-0.40681466
80	0xbe4edcb1	-0.20201375
81	0xbf417acc	-0.75578
82	0xbed81e36	-0.4221055
83	0x3effef6a	0.49987346
84	0xbec93434	-0.3929764
85	0x3ee9bdef	0.4565272
86	0x3e03453c	0.1281938
87	0x3f1029d4	0.56313825
88	0xbe7baad9	-0.24576892
89	0xbdf32c5d	-0.11873696
90	0x3eb27e04	0.34861767
91	0x3efab647	0.48967192
92	0x3df410bd	0.11917255
93	0x3f57048d	0.8399132
94	0xbe949973	-0.29023322
95	0xbf150d68	-0.5822358
96	0xbde894bd	-0.113564946
97	0xbe2957ab	-0.16537349
98	0x3e0ef754	0.13961536
99	0xbe96bc33	-0.2944046

attn.attn.2.weight f4 [1, 100]
0	0x3ea2ad90	0.31773043
1	0x3f6db401	0.9285279
2	0x3e5bd32a	0.21467271
3	0xbf2c1e38	-0.6723361
4	0x3f22525c	0.6340692
5	0x3e3b7e9e	0.1831002
6	0x3f4d16ab	0.80112714
7	0xbdbe4d8f	-0.09292137
8	0x3ebcba80	0.36861038
9	0x3ec67f75	0.38769117
10	0xbea79be5	-0.32736126
11	0x3d639a06	0.05556681
12	0xbee2fbd8	-0.44332767
13	0xbf2b9ec4	-0.6703913
14	0xbf49cdce	-0.7882966
15	0x3f15bc44	0.58490396
16	0x3eb53d2b	0.3539823
17	0x3f6f2d5d	0.93428594
18	0xbe95c1ad	-0.29249325
19	0x3f18bd94	0.59664273
20	0xbf10a135	-0.5649598
21	0xbf0fac76	-0.5612253
22	0xbe220a67	-0.1582428
23	0x3f0581ad	0.52150995
24	0xbe627444	-0.22114664
25	0xbf11ed20	-0.5700245
26	0xbcfda5a0	-0.030962765
27	0xbc48783d	-0.012235698
28	0xbef18324	-0.47170365
29	0x3ee9e1e9	0.45680168
30	0x3ef75081	0.48303607
31	0x3f141bc7	0.57854885
32	0xbe4b3e94	-0.1984809
33	0x3e1f2d33	0.15544586
34	0x3cd41da8	0.025893047
35	0x3e11ab48	0.14225495
36	0xbd86ee1c	-0.065883845
37	0x3e876ac6	0.2644865
38	0x3f22ad61	0.63545805
39	0x3f55c613	0.8350536
40	0xbecd8c8d	-0.40146294
41	0x3f2dd242	0.6789895
42	0xbeea5692	-0.45769173
43	0x3d94400a	0.07238777
44	0x3e9adcec	0.30246675
45	0x3edfcd20	0.43711185
46	0x3e59716e	0.21234676
47	0xbf6b326c	-0.9187381
48	0xbef5d772	-0.48015934
49	0x3f2fdd01	0.686966
50	0xbe5222b0	-0.20521045
51	0x3f2a16f4	0.66441274
52	0xbeead98b	-0.45869097
53	0x3f0fbfac	0.56151843
54	0x3f1644cd	0.5869873
55	0xbf1b8a2c	-0.6075771
56	0x3ef09a78	0.4699285
57	0x3f1d3205	0.6140445
58	0x3f11774d	0.56822664
59	0xbf02b712	-0.51060593
60	0xbe55b5a7	-0.20870076
61	0x3f3d20b5	0.7387803
62	0xbef96db0	-0.48716497
63	0xbed1cc69	-0.40976265
64	0x3f30b5b4	0.69027257
65	0x3eed3909	0.46332577
66	0x3f03cdb8	0.51485777
67	0x3ecad37d	0.39614478
68	0x3e8472b5	0.25868765
69	0xbe545d0e	-0.20738623
70	0xbf509372	-0.81474984
71	0xbf2765f5	-0.6538995
72	0xbefba416	-0.49148625
73	0x3e1edf25	0.1551481
74	0xbf01e313	-0.5073711
75	0xbe8c05b4	-0.273481
76	0x3e4eea98	0.20206678
77	0x3ea70063	0.32617483
78	0xbd87835c	-0.06616852
79	0x3f279c2a	0.6547266
80	0x3f415818	0.75525045
81	0xbf809230	-1.0044613
82	0x3f3b3621	0.7312947
83	0x3e8477b0	0.25872564
84	0xbd73ce1e	-0.05952274
85	0x3f02f54d	0.5115555
86	0x3ea778d1	0.32709363
87	0x3dcb5e0e	0.09930049
88	0xbe4f8988	-0.20267308
89	0x3edb51e5	0.42835918
90	0xbe89b7c2	-0.2689801
91	0x3e0688eb	0.13138168
92	0x3e7fe720	0.24990511
93	0xbe711598	-0.23543394
94	0xbe08e7a4	-0.13369614
95	0x3e10c1f8	0.14136493
96	0xbe6ec108	-0.23315823
97	0x3f4b87ed	0.7950428
98	0xbee68816	-0.450257
99	0xbb8b6a42	-0.0042546103

fc.weight f4 [14, 100]
0	0x3ecddb39	0.40206316
1	0x3e4bcd1a	0.19902459
2	0xbf447699	-0.76743466
3	0xbe0fe8d5	-0.14053662
4	0xbf4d34ee	-0.8015889
5	0xbe8a5446	-0.2701742
6	0xbed26da0	-0.41099262
7	0xbe887b5e	-0.26656622
8	0x3f5af0ab	0.8552348
9	0xbf2b91b7	-0.6701922
10	0x3d6b475f	0.05744111
11	0x3eb322db	0.3498753
12	0x3f2bb43a	0.6707188
13	0x3ef48615	0.47758546
14	0x3f1efa26	0.62100446
15	0x3eb3d7d3	0.35125598
16	0x3ebc94bb	0.36832222
17	0xbf0bd730	-0.54625225
18	0xbd883072	-0.06649865
19	0xbf300ac7	-0.68766445
20	0x3d19c576	0.03754183
21	0xbeecf685	-0.4628183
22	0xbe98ef79	-0.29870203
23	0x3ef0ceeb	0.47032866
24	0xbf0a1662	-0.53940403
25	0x3ea46127	0.3210537
26	0x3f36ad9a	0.71358645
27	0x3e8a4d09	0.27011898
28	0xbf05455f	-0.52058977
29	0xbf420976	-0.75795686
30	0x3eac579c	0.3366059
31	0xbf251729	-0.64488465
32	0x3f1a8df7	0.6037287
33	0x3e9947f1	0.299377
34	0xbeedb222	-0.46424967
35	0xbf3c776e	-0.73619735
36	0xbeced9d1	-0.40400556
37	0xbf2f1c3b	-0.6840245
38	0xbf1e97a8	-0.6195016
39	0x3f40583a	0.75134623
40	0x3e10792c	0.14108723
41	0xbe591c84	-0.21202284
42	0xbd33f299	-0.04393253
43	0x3edf7507	0.43643972
44	0x3e3bd094	0.18341285
45	0xbf4b3350	-0.7937517
46	0x3ecc65ca	0.3992141
47	0xbe47fa8d	-0.19529171
48	0x3f0b97bb	0.545284
49	0xbc8481c2	-0.016175155
50	0x3d520dfd	0.05128287
51	0xbf432f19	-0.7624374
52	0xbebaf1a0	-0.3651247
53	0xbec48b94	-0.3838774
54	0x3e31fc72	0.17381456
55	0xbe8c5785	-0.27410522
56	0x3ee2858d	0.44242516
57	0x3f0f090e	0.5587319
58	0x3e9c95f9	0.3058317
59	0x3e1e24ee	0.15443775
60	0xbe57a801	-0.21060182
61	0x3f82b6db	1.0212053
62	0x3d4f768b	0.05065016
63	0xbed231b4	-0.41053545
64	0x3db9a8cc	0.090653986
65	0xbf36c083	-0.713875
66	0x3e7ed179	0.24884595
67	0x3ec8f984	0.39252865
68	0xbf34f989	-0.7069326
69	0x3f1d2383	0.6138231
70	0x3e382f61	0.17986824
71	0x3d28bc61	0.041195277
72	0xbef47282	-0.47743613
73	0xbe7a32b0	-0.24433398
74	0xbf4bb3c2	-0.79571164
75	0x3d0e4d94	0.034741953
76	0x3f256bf1	0.6461783
77	0xbefd8a58	-0.4951961
78	0x3e9686b6	0.2939965
79	0x3dfc9d0b	0.12334641
80	0x3f20b61a	0.62777865
81	0x3e896261	0.2683287
82	0xbea51e39	-0.3224962
83	0x3e4fc2c5	0.20289142
84	0xbdd03379	-0.10166068
85	0x3da18562	0.07886769
86	0x3f2130c2	0.62965024
87	0xbeb539ed	-0.35395756
88	0xbf20f368	-0.6287141
89	0x3e093f70	0.13403106
90	0x3f13c920	0.5772877
91	0xbd80f85d	-0.062973715
92	0xbf42fb56	-0.7616476
93	0x3e4b5767	0.1985756
94	0xbeded7d5	-0.43524042
95	0xbe0088a4	-0.12552124
96	0x3ebc1b2e	0.36739486
97	0xbe1c45eb	-0.15261047
98	0x3f0941d1	0.5361605
99	0x3f54d7d0	0.83141804
100	0xbe156595	-0.14589532
101	0x3e91d175	0.28480116
102	0xbf4045a9	-0.7510629
103	0xbe8d3833	-0.2758194
104	0x3ea7378c	0.32659566
105	0xbef5a858	-0.4798
106	0x3d1b7771	0.037955705
107	0x3ef86fe5	0.4852287
108	0x3f9df424	1.2340131
109	0xbf13fb66	-0.5780548
110	0xbf0175e1	-0.50570494
111	0x3f16eda9	0.5895639
112	0x3ec10aa2	0.37703425
113	0x3ed1e668	0.409961
114	0xbe25ef49	-0.16204561
115	0xbf55ae21	-0.83468825
116	0xbe791b96	-0.2432693
117	0xbed8e8a0	-0.4236498
118	0x3e2be2b3	0.16785698
119	0xbee8aed7	-0.45445892
120	0x3d009abf	0.031397577
121	0xbf064d7b	-0.52461976
122	0xbf0e72bd	-0.55643827
123	0x3f6d89c8	0.9278836
124	0xbe682a66	-0.22672424
125	0xbe996db3	-0.29966506
126	0x3e932b89	0.28744152
127	0x3e3d225c	0.18470138
128	0xbcd8fc2d	-0.026487434
129	0x3f51ce19	0.81955105
130	0xbf8450e7	-1.033719
131	0xbf0aa183	-0.541527
132	0x3f195d83	0.5990831
133	0x3f232a21	0.6373616
134	0xbec9b81f	-0.39398286
135	0xbf6c2dbb	-0.9225728
136	0xbf0edd53	-0.55806464
137	0x3f18fb47	0.5975842
138	0x3ea84aa9	0.3286946
139	0xbf2d7255	-0.6775258
140	0x3ee880a2	0.4541064
141	0x3eb76c96	0.35825032
142	0xbebcdcdb	-0.3688725
143	0xbfb8a578	-1.4425497
144	0x3f302682	0.6880876
145	0xbf529416	-0.8225721
146	0x3e5ad55f	0.21370457
147	0x3defa94b	0.11702212
148	0x3f495b62	0.78655064
149	0x3e404589	0.18776526
150	0x3f145668	0.57944345
151	0xbf8c993c	-1.0984263
152	0xbeafbd42	-0.3432408
153	0x3c9c0065	0.019043157
154	0x3ea000e0	0.31250668
155	0x3e652179	0.2237605
156	0x3ea299d9	0.31758
157	0x3eb683cc	0.35647428
158	0x3ecdd3fa	0.40200788
159	0xbe49fceb	-0.19725387
160	0xbe7946b5	-0.24343379
161	0xbfcd6980	-1.6047821
162	0xbfa86465	-1.3155638
163	0x3f56abb8	0.8385577
164	0x3de15d18	0.11004084
165	0xbf2c067c	-0.67197394
166	0x3f44b87a	0.7684399
167	0x3e283fa9	0.16430534
168	0x3f642d19	0.89131314
169	0x3ee0270d	0.43779793
170	0x3ef4cb14	0.47811186
171	0x3d18b193	0.037278723
172	0xbf38bb10	-0.72160435
173	0xbeec9e10	-0.46214342
174	0xbf86cfaa	-1.0532124
175	0xbf0ac6f6	-0.5420984
176	0xbdf7d7b5	-0.1210169
177	0x3f0664da	0.5249764
178	0xbe36689e	-0.17813346
179	0x3ebbf425	0.36709705
180	0xbf26af81	-0.6511155
181	0x3e1b8d5c	0.15190643
182	0xbf4823d9	-0.781797
183	0x3f7861ea	0.97024405
184	0x3dd453b4	0.103675276
185	0x3c3661ed	0.011131746
186	0xbda1ac6f	-0.07894217
187	0xbf1eaf43	-0.6198618
188	0x3e662e1c	0.22478527
189	0x3f017423	0.50567836
190	0xbb2d1f41	-0.0026416334
191	0xbdcd0aac	-0.10011801
192	0x3f61ef07	0.8825535
193	0x3ed6816e	0.41895622
194	0xbef7eabd	-0.4842128
195	0x3f448583	0.7676622
196	0x3e841b11	0.258019
197	0xbf3570a2	-0.7087499
198	0x3f05a7ce	0.52209175
199	0x3f5835e3	0.84457225
200	0x3ec11450	0.3771081
201	0xbf323a3d	-0.69620115
202	0xbfa07bac	-1.2537742
203	0xbf08a620	-0.53378487
204	0x3e88d879	0.26727656
205	0xbd92502f	-0.071442
206	0x3efb5fd3	0.49096546
207	0xbf817ab6	-1.0115573
208	0xbe92d7ec	-0.2868036
209	0x3e1ca52c	0.15297383
210	0x3ed87393	0.42275676
211	0x3f48dcda	0.7846199
212	0x3ec358d6	0.38153714
213	0xbe508ddd	-0.20366617
214	0xbd954f1f	-0.07290482
215	0xbf440460	-0.76569176
216	0xbd0756e5	-0.033041853
217	0xbec7162d	-0.38884106
218	0xbdd9c9bc	-0.10634181
219	0x3ec08888	0.37604165
220	0xbdf15765	-0.11784247
221	0x3f8c83db	1.0977739
222	0xbceef0eb	-0.029167613
223	0xbebe6234	-0.37184298
224	0x3e5f23fc	0.2179107
225	0xbeacd891	-0.33758977
226	0xbd8423c1	-0.06452132
227	0x3ec2d1b4	0.38050616
228	0xbe0ec025	-0.13940485
229	0xbe7143ae	-0.23560974
230	0x3f64d493	0.8938686
231	0x3fad39a5	1.3533217
232	0xbe82274e	-0.25420612
233	0x3e31f26c	0.17377633
234	0xbefbb9c8	-0.49165177
235	0xbf96ae90	-1.1772022
236	0xbf6d8327	-0.9277825
237	0x3e9cb733	0.3060852
238	0x3e08cf46	0.13360319
239	0x3e705320	0.2346921
240	0x3eac2b31	0.33626702
241	0xbe96391f	-0.29340455
242	0xbf1f7ab5	-0.6229661
243	0x3ec6dc89	0.3884013
244	0x3f0b1080	0.5432205
245	0xbf2e5c38	-0.68109465
246	0xbdb0e864	-0.08638075
247	0x3e893203	0.26795968
248	0x3faca3e1	1.3487512
249	0x3ed7fb89	0.42184094
250	0x3e5fa2b5	0.21839412
251	0x3f4bb0d3	0.7956669
252	0xbf755828	-0.9583764
253	0xbe86b341	-0.26308635
254	0x3ec0c85e	0.37652868
255	0x3e98145a	0.29703027

fc.bias f4 [14]
0	0xbd0df0db	-0.034653526
1	0x3e33159f	0.17488717
2	0x3daadef7	0.083433084
3	0xbe9d0414	-0.30667174
4	0x3f114fc7	0.56762356
5	0xbe22b59e	-0.15889594
6	0x3ca12eb4	0.01967559
7	0xbe9fff67	-0.31249544
8	0xbe881223	-0.26576337
9	0xbdd8ea2f	-0.10591542
10	0x3cf1c1de	0.029511388
11	0x3ddcd530	0.1078285
12	0xbeca4e79	-0.39512995
13	0xbc3aed0a	-0.011409054
