savedmodel/model-7.ckpt (torch, 1639 bytes, 2 tensors)

linear.weight f4 [15, 9]
0	0xc0cf168e	-6.4715033
1	0xc0b1a442	-5.551301
2	0x3f8312d3	1.024012
3	0x4030a950	2.760334
4	0xc1359e07	-11.351081
5	0x412e8306	10.906988
6	0xc1a899f8	-21.07518
7	0xc237a851	-45.91437
8	0xc1294bdd	-10.581021
9	0x40ac883e	5.391631
10	0x402a5808	2.661623
11	0xc0697e38	-3.6483288
12	0x41236f73	10.214709
13	0x4130441d	11.016629
14	0x413dfe7c	11.87463
15	0xc0de5cf4	-6.948847
16	0x41af70e9	21.930132
17	0xc14e20c5	-12.883
18	0xc13e4f8b	-11.89442
19	0x3f129671	0.57260805
20	0x3e1e704e	0.15472528
21	0x4043d7cd	3.0600464
22	0xc006d484	-2.106721
23	0x4075c818	3.8403378
24	0x41e3413f	28.406858
25	0x41f0ea37	30.114363
26	0x3fd4ab2d	1.6614739
27	0xbf80b529	-1.0055286
28	0x3f86e9d5	1.054011
29	0xc03ce4f7	-2.951475
30	0x3f0bf992	0.5467769
31	0x3fb3b67e	1.4040067
32	0x3f40ac35	0.7526277
33	0x410e4485	8.891728
34	0xc0848241	-4.1409
35	0x41185a7b	9.52209
36	0x3fa8dc7a	1.3192284
37	0x405907e7	3.3911073
38	0x3f45913a	0.77174723
39	0xbe498d7c	-0.19682878
40	0x3ea68c11	0.32528737
41	0xbf35f18f	-0.71071714
42	0x42000048	32.000275
43	0x41b162a6	22.173168
44	0x4216193a	37.524635
45	0x3ec92a70	0.3929019
46	0xbcfc7905	-0.030819425
47	0xc005f5af	-2.0931203
48	0xbe6072ce	-0.21918795
49	0x3d59a9a9	0.053140316
50	0xbd924793	-0.07142558
51	0x410aed8d	8.682996
52	0xc228a747	-42.163357
53	0xc12dedfd	-10.870603
54	0x409bf30b	4.8734183
55	0xbf158703	-0.58409137
56	0xbfcd4730	-1.603735
57	0xbf979f82	-1.1845553
58	0x4082aac6	4.0833464
59	0x3fec6ac8	1.8470087
60	0x41d4a4da	26.580494
61	0xc177e8b2	-15.49431
62	0x41489920	12.537384
63	0x401a6767	2.4125612
64	0xc00d0502	-2.2034307
65	0xbebbe049	-0.36694553
66	0xbebdd744	-0.37078297
67	0x4017b83e	2.3706203
68	0xbf8846c5	-1.0646597
69	0x41c64a9b	24.786428
70	0xc1c25acd	-24.294336
71	0x4185c8f6	16.723125
72	0x3f0e9529	0.5569635
73	0x3e1031d7	0.14081512
74	0xbec06c7f	-0.37582776
75	0xbdf1fe2a	-0.11816056
76	0xbfcd4da5	-1.603932
77	0xbee3e38b	-0.4450954
78	0xc2151974	-37.274857
79	0x41302e20	11.011261
80	0x3eb654a3	0.35611448
81	0x3f69d59f	0.91341585
82	0x3ecf5d57	0.405009
83	0x3ff76a94	1.93294
84	0xbef5f19c	-0.48035896
85	0xbfb5f2e5	-1.421475
86	0x3fa4f7ff	1.2888182
87	0xc11b2c0f	-9.6982565
88	0x41ad7ec5	21.6869
89	0xc061cc76	-3.5281043
90	0xbe39c7ec	-0.1814267
91	0x3f9b7e2b	1.2147878
92	0x3ffee12c	1.9912467
93	0xbdd4c80e	-0.1038972
94	0xbf27a3d5	-0.6548436
95	0x3f62c5c9	0.88583046
96	0xc10a442c	-8.641644
97	0x41edcb2e	29.724209
98	0xc10018dd	-8.00607
99	0x3df8264c	0.121166795
100	0xbd69dc0a	-0.05709461
101	0xbf22eeb2	-0.6364547
102	0xbf1e0986	-0.6173328
103	0x3b90b605	0.0044162297
104	0x3e4c2a9b	0.19938128
105	0x401b3be5	2.4255307
106	0x41d6bd1f	26.842344
107	0xc1acc275	-21.59495
108	0x4012d1e0	2.2940598
109	0xbf0c0607	-0.54696697
110	0x3ee8149b	0.4532822
111	0xbe287c88	-0.16453755
112	0x3e599aed	0.21250506
113	0xbf31fead	-0.6952923
114	0x41cee87c	25.863518
115	0x40c9984c	6.299841
116	0xc1ce0b35	-25.755472
117	0xbf550248	-0.83206606
118	0xbf6de731	-0.92930895
119	0xbda0b9b2	-0.078479186
120	0x3cb101fb	0.02160739
121	0x3e44d34b	0.19221227
122	0xbd4a8ff5	-0.049453694
123	0x4053b200	3.3077393
124	0x4188c2a5	17.095041
125	0xc1c7b573	-24.963598
126	0xbfaf48b6	-1.3694065
127	0xbf2733c6	-0.65313375
128	0x3f5358e0	0.8255749
129	0x3e69753f	0.22798632
130	0x3debced8	0.11514062
131	0x3ea746e8	0.32671285
132	0xc1f1f4da	-30.244556
133	0xc15776a5	-13.466466
134	0xc1a281e1	-20.313417

linear.bias f4 [15]
0	0xc19ce70e	-19.61282
1	0xc21bb73f	-38.92895
2	0xc15a309c	-13.636868
3	0xc13cd0aa	-11.800943
4	0x402c5cce	2.6931643
5	0x3fa3f3ef	1.2808818
6	0xc1b58244	-22.688606
7	0xc1017db9	-8.093194
8	0xc1da2d71	-27.272188
9	0xc1f9ba06	-31.215832
10	0xc1d51488	-26.635025
11	0xc1cae895	-25.363565
12	0xc1c1d67d	-24.22973
13	0xc1ea7e34	-29.311623
14	0xc1e451c8	-28.539932
