savedmodel/model-1.ckpt (torch, 3495 bytes, 2 tensors)

linear.weight f4 [14, 43]
000000 68 6b f7 bd 47 96 c7 3c e3 c5 21 3f 4f 65 0e be
       -0.12081033 0.02436365 0.63192576 -0.13905834
000010 7a be 0c be 86 ce b3 3d 49 41 23 bf c8 6f ad bf
       -0.13744536 0.087796256 -0.6377149 -1.3549738
000020 82 16 d9 be f6 37 83 3e 45 5a b7 be b8 bb 38 be
       -0.42399985 0.25628632 -0.35811058 -0.18040359
000030 98 1c eb bd 00 e9 9e bc 20 f6 c5 bd a1 c8 61 be
       -0.11480063 -0.019398212 -0.09666085 -0.2204919
000040 b2 7e 7a bf 19 08 ce bf 52 ab dd 3e 0b c0 fc 3e
       -0.9784957 -1.6096221 0.4329477 0.49365267
000050 49 41 28 3d 53 03 a6 be 00 22 77 3f aa 87 5e be
       0.041077886 -0.3242441 0.96536255 -0.21731439
000060 6c 39 da be 55 03 33 be 20 05 81 3d 10 fe e1 3c
       -0.42621934 -0.1748174 0.06299806 0.027586967
000070 62 d7 0d 3e 51 b5 1d be 2d 3e fb 3e 0c 03 3a 3e
       0.13851693 -0.15401198 0.49070874 0.18165225
000080 97 0f 52 bd e9 1f 83 3f b4 70 8b 3e 74 a5 2d 3f
       -0.0512844 1.0244113 0.27234423 0.67830586
000090 4e 28 08 bf 13 e0 9c 3d 83 7d 58 3e 3d e4 4d be
       -0.531865 0.07659926 0.21141629 -0.20106597
0000a0 d8 cf 0b be 64 c8 dc 3d b8 d2 a1 bc 86 e5 92 bf
       -0.13653505 0.10780409 -0.019753799 -1.1476295
0000b0 7b f5 19 3e fe 88 d9 40 49 8c e6 bf 10 8e 58 40
       0.1503505 6.7979727 -1.8011562 3.3836708
0000c0 27 c2 33 bf 33 f1 9e bf ef 05 3b bf 5c f7 bf be
       -0.7021813 -1.2417358 -0.7305593 -0.37493408
0000d0 9c c6 f9 3e b3 53 63 bf 0d 9d a4 3e 3c 96 0c 3d
       0.4878434 -0.8879959 0.3215107 0.034322962
0000e0 f6 da 19 be 8c 73 33 3d 72 30 46 bd 24 4d 8b 3f
       -0.15024933 0.043811366 -0.048386045 1.0882916
0000f0 0e 12 88 be 15 8e 99 bf 60 1a a2 40 8e e8 08 40
       -0.26576275 -1.1996485 5.0657196 2.139194
000100 bc 3a 41 40 a5 24 8a bf 66 0b 9a 3f 25 25 ea 3e
       3.0192099 -1.0792433 1.2034729 0.45731464
000110 22 16 db 3e 96 32 0d bd cd ac 04 be ee 61 0f bd
       0.42790323 -0.03447207 -0.12956543 -0.035005502
000120 63 e7 25 3e be 76 83 bf 7d 80 c1 3e 06 d8 9e 3d
       0.16201548 -1.0270612 0.3779334 0.07756047
000130 9b 96 87 bf 4f 71 01 40 70 b4 ee be 9a 64 5f be
       -1.0592836 2.0225408 -0.46622038 -0.2181572
000140 af 05 22 3f ac e9 50 3f 40 98 81 3e 10 8a 19 3c
       0.6328992 0.81606555 0.2531147 0.009371296
000150 62 7b e0 bd 92 73 e1 bd 0b 12 63 bf 4c b7 58 be
       -0.109610334 -0.110083714 -0.88699406 -0.21163672
000160 78 a1 9d bf e4 56 d1 3f a1 d9 34 40 e2 2a 5c bf
       -1.2314901 1.6354642 2.825783 -0.86002934
000170 8c f7 98 3f b8 9a c4 be 93 d1 fd 3e 25 e0 0c 3f
       1.1950545 -0.3839929 0.49573955 0.5502952
000180 88 d4 76 3f e2 de 5f c0 b0 cf 66 bc 4d 8d 11 be
       0.96418047 -3.4979787 -0.0140876025 -0.14214058
000190 a0 09 5e 3d be 18 0c bf be 87 ea 3f 49 f1 01 c0
       0.054208398 -0.54725254 1.8322675 -2.0303519
0001a0 e6 d6 33 c0 a5 cd d4 bf 0e 5a ae 3f 6b e6 93 3e
       -2.8099914 -1.6625258 1.3621233 0.28886732
0001b0 15 c0 95 bf 6e 5d 1e bd 52 fb 8f bf 18 ca 64 c0
       -1.1699244 -0.03866332 -1.1248572 -3.5748348
0001c0 14 82 6d bd ac e4 fc 3d 38 ff e9 3c e5 16 e1 3f
       -0.05798538 0.12348303 0.02856408 1.7585112
0001d0 e9 7a 11 40 79 a2 91 be a2 2d 08 c0 0a 0e db bf
       2.2731268 -0.2844427 -2.1277852 -1.7113659
0001e0 f1 28 9e 3f 51 c8 4f c0 cd b8 be be 4d b1 08 bf
       1.2356244 -3.2466013 -0.37250367 -0.5339554
0001f0 1e 7c ff be e7 e0 5f c0 60 c0 ec 3d 62 66 3c bd
       -0.4989938 -3.498102 0.1156013 -0.045996077
000200 98 49 ce 3d f2 11 db be b0 32 1c be 8d 54 a8 3e
       0.10072631 -0.4278713 -0.15253711 0.32877007
000210 14 d5 e9 3e 9b ac 26 be 25 87 1c 3f 21 d6 5c 3f
       0.45670378 -0.16276781 0.61143714 0.86264235
000220 46 a3 00 bc 9c ab c2 3e 72 28 23 3e ac 7a e2 3e
       -0.007851427 0.38021553 0.15933397 0.44234216
000230 41 00 91 3c 57 16 58 3e 36 c1 8f 3e 17 a9 60 3e
       0.017700316 0.21102272 0.28077096 0.21939503
000240 71 95 fd be 2b 8d a0 be a3 ed 80 be a0 13 36 be
       -0.49528077 -0.31357703 -0.25181302 -0.17780924
000250 c8 db c4 3e 07 30 3d be c5 45 83 bd 71 29 8f 3e
       0.3844893 -0.18475352 -0.06409792 0.27961305
000260 c2 a8 33 3e e9 05 a4 bc 14 b9 f3 be 7e 7f a0 3d
       0.17544845 -0.02002235 -0.4760214 0.07836817
000270 e8 cd 0d bd ac 2e b5 3d 58 0b ce be db ae 7e 3e
       -0.034620196 0.088467926 -0.4024303 0.2487139
000280 ea be a2 3e 09 58 d9 bd 31 ad 97 be fb 6d c0 be
       0.3178628 -0.106124945 -0.29624322 -0.37583908
000290 26 a9 42 be be 30 d4 be 1e 1b 6a bc 4e 9b 8e 3e
       -0.19009838 -0.41443437 -0.014288692 0.27852863
0002a0 23 5f b5 be 48 6e 35 bd 7e 8e b8 3d 58 75 82 3d
       -0.35424146 -0.044294626 0.09011553 0.06370038
0002b0 dc d0 bb bc ea e4 84 bf 5c 88 b9 c0 44 14 17 3f
       -0.02292674 -1.0382359 -5.7978954 0.590153
0002c0 20 32 07 3f af 89 9e 3f 2f 52 59 c0 88 da 41 40
       0.5281086 1.2385768 -3.395641 3.028963
0002d0 48 ed 89 be e8 24 00 bd 9e c6 ca be b7 0f 66 40
       -0.26938844 -0.031285197 -0.39604658 3.5947092
0002e0 06 9c 65 bd 14 40 12 3e 50 89 93 bd 4a 48 10 bf
       -0.056057 0.14282256 -0.07203925 -0.56360304
0002f0 43 b4 1a 3e a0 41 4c c0 d0 31 5e 40 bc 9f be c0
       0.15107827 -3.1915054 3.4717903 -5.956999
000300 ac c9 33 40 60 98 a5 c0 a6 88 1a bf 9e 60 74 bd
       2.809184 -5.1748505 -0.6036476 -0.059662454
000310 6f 24 71 be 6d 91 5a 40 76 a0 6f bd 27 62 0c be
       -0.23549055 3.415126 -0.058502637 -0.13709317
000320 76 a7 ec bd 82 e9 16 c0 92 53 a6 bf 95 3e 92 3e
       -0.11555378 -2.3580022 -1.2994254 0.2856337
000330 2d b5 ed 3f 91 fd bc bf 65 38 f0 be 25 f4 73 3e
       1.8570915 -1.4764882 -0.46918026 0.23823602
000340 e6 55 3f 3e ea 05 27 3e 47 29 9d 3e fd 53 66 40
       0.18685111 0.1631085 0.30695555 3.5988762
000350 44 3b 2c 3d b0 26 6c 3c f6 fc 07 be 31 ed ca be
       0.042048708 0.014413521 -0.1328009 -0.39634088
000360 97 2c f2 be 15 f9 c2 3e a7 9f 99 3e a9 2e ac be
       -0.47299644 0.3808066 0.30004618 -0.3362935
000370 db f7 5d 3e 56 66 be 3e 97 f8 6d be 6c 51 62 be
       0.2167658 0.3718745 -0.23239361 -0.22101372
000380 88 42 a9 be 60 fb 90 3e 01 82 f5 be d8 9c ab bc
       -0.33058572 0.28316784 -0.47950748 -0.020948812
000390 32 5b d4 bd cc 13 e0 bd 32 c6 8b be 91 87 b7 be
       -0.103689566 -0.10941276 -0.2729965 -0.35845616
0003a0 19 46 c0 be b5 20 3e 3e 12 99 f3 3e 72 08 7e be
       -0.3755348 0.18567164 0.4757772 -0.24807909
0003b0 b4 d7 9c 3e ba 12 c0 3e ea ad 90 3d ac fb c2 3e
       0.30633318 0.37514287 0.070644215 0.38082635
0003c0 a7 0a b1 be cb f9 05 be c6 45 a6 bd 1e 9b 35 bd
       -0.3457844 -0.1308357 -0.08118777 -0.044337384
0003d0 1b d5 01 bf 68 8b 9e 3e e6 8c ae 3e 6e b9 b2 3d
       -0.507158 0.30965734 0.34091872 0.08726774
0003e0 26 5f a2 ba eb 97 6d be f9 9f cb be 80 94 94 be
       -0.0012387976 -0.23202483 -0.39770487 -0.29019547
0003f0 04 c8 22 3e bb 33 bd 3e 62 c0 f5 be 62 19 4e bd
       0.15896612 0.3695353 -0.4799834 -0.050317176

linear.bias f4 [14]
000000 49 5d 18 3d 2a 42 79 3e d7 22 5b c0 3a 9e f7 be
       0.03719834 0.24341646 -3.4240015 -0.48362905
000010 f2 00 58 40 15 1b 0f bf 2f 9f 9a 3f cb fa 42 c0
       3.3750577 -0.559007 1.2079829 -3.0465572
000020 d0 a5 c4 c0 ed 7b 4a 40 5f f2 16 c0 cf 51 09 bf
       -6.145241 3.1638138 -2.3585432 -0.53640455
000030 7c 0c a6 be a6 0f 1a c0
       -0.324314 -2.407205
