savedmodel/model-2.ckpt (torch, 3495 bytes, 2 tensors)

linear.weight f4 [14, 43]
-0.14000079 0.019507281 0.6645368 -0.12523066 -0.15447432 -0.20377773 -0.5671468 -0.8695976
-0.34976026 0.24371743 -0.31427538 -0.18542607 -0.11480063 -0.019398212 -0.09666085 -0.22538887
-1.0285915 -1.9101738 0.43060374 1.1995362 0.031847138 -0.2374654 0.9865353 -0.15962061
-0.43338874 -0.17983988 0.06299806 0.027586967 0.13851693 -0.15886912 0.51104486 0.20548414
-0.10159169 0.9710372 0.1864482 0.6762127 -0.5546994 0.01077473 0.24789838 -0.20608845
-0.13653505 0.10780409 -0.019753799 -1.7187315 0.24002083 10.262986 -2.4026265 5.053368
-1.7173659 -2.01018 -1.5237824 -0.41204685 0.64991045 -1.1895123 0.5204506 0.034322962
-0.15024933 0.043811366 -0.21532327 1.7026013 0.40301517 -1.624542 6.9871526 2.4002213
5.981959 -1.6275061 1.6849179 0.44189173 0.626843 -0.03447207 -0.12956543 -0.035005502
0.39603505 -1.2992399 0.7861053 0.16267532 -2.0726807 3.3347356 -1.2396958 -0.26938355
0.82556003 1.2164342 0.4520547 0.009371296 -0.109610334 -0.110083714 -1.2226298 -0.43818226
-1.690022 1.8960732 3.7288022 -0.5134702 1.5369245 -0.57705224 0.6050829 0.7555413
1.3592458 -6.454902 -0.0140876025 -0.14214058 0.054208398 -1.0634737 2.523311 -2.637636
-3.3361433 -2.2994473 3.634275 0.5537689 -1.6017424 -0.34037316 -1.4988621 -6.5317564
-0.05798538 0.12348303 0.02856408 3.0051854 3.0352578 -1.2417454 -2.4750714 -3.9034925
1.4567558 -3.476846 -0.42534605 -0.765894 -0.6062508 -6.455025 0.1156013 -0.045996077
0.10072631 -0.55183387 -0.28372365 0.3895074 0.40245658 -0.17542626 0.61411196 0.86312747
-0.023074003 0.21958625 0.027829347 0.48574245 0.008839734 0.21102272 0.28077096 0.21939503
-0.64663124 -0.392997 -0.8613864 0.05287201 0.64558136 0.073588885 -0.42817125 0.31360886
0.45839626 -0.250635 -0.6176497 0.07836817 -0.034620196 0.088467926 -0.5488503 0.3218054
0.29355904 -0.23373151 -0.028406853 -0.43052194 -0.39837402 -0.7442673 1.3516184 0.41194084
-0.49587017 -0.044294626 0.09011553 0.06370038 -0.106765345 -1.1976924 -7.446604 0.72602487
0.90859264 1.4323852 -5.0386624 4.631325 -0.22767796 -0.029055743 -0.40011692 6.6466465
-0.056057 0.14282256 -0.07203925 -0.27442014 -0.5613773 -2.4666018 5.1838627 -7.866874
4.00766 -9.410306 -0.7902349 -0.023278804 -0.15490858 6.4670634 -0.058502637 -0.13709317
-0.11555378 -3.4494605 -0.98010916 0.7897029 2.7393293 -2.0598934 -0.79445726 0.39512405
0.1661819 0.36679804 0.38781485 6.6508136 0.042048708 0.014413521 -0.1328009 -0.39635104
-0.4730005 0.38081008 0.30004635 -0.336295 0.21676362 0.37191483 -0.23240286 -0.22101875
-0.33056283 0.2831723 -0.47951227 -0.020948812 -0.103689566 -0.10941276 -0.2730007 -0.3584652
-0.37551665 0.18567064 0.47595745 -0.24807379 0.30633497 0.37515044 0.07064273 0.38083553
-0.3457892 -0.1308357 -0.08118777 -0.044337384 -0.5071622 0.30966496 0.3409161 0.08725296
-0.0012428529 -0.23202658 -0.39770487 -0.2900426 0.15897985 0.36953878 -0.4799882 -0.050317176
00000000: 5e5c 0fbe bccd 9f3c 151f 2a3f 773c 00be
00000010: 842e 1ebe 1cab 50be 8830 11bf f39d 5ebf
00000020: c713 b3be 1091 793e b4e8 a0be 55e0 3dbe
00000030: 981c ebbd 00e9 9ebc 20f6 c5bd 57cc 66be
00000040: e3a8 83bf 9380 f4bf 1878 dc3e 678a 993f
00000050: 2572 023d 212a 73be 948d 7c3f 9673 23be
00000060: 21e5 ddbe f227 38be 2005 813d 10fe e13c
00000070: 62d7 0d3e 96ae 22be d6d3 023f 6f6a 523e
00000080: 4e0f d0bd e595 783f 47ec 3e3e 471c 2d3f
00000090: c800 0ebf 7e88 303c 13d9 7d3e da08 53be
000000a0: d8cf 0bbe 64c8 dc3d b8d2 a1bc 65ff dbbf
000000b0: 05c8 753e 3135 2441 a2c4 19c0 31b5 a140
000000c0: a5d2 dbbf caa6 00c0 4d0b c3bf cef7 d2be
000000d0: 8860 263f f041 98bf 403c 053f 3c96 0c3d
000000e0: f6da 19be 8c73 333d b47d 5cbe d7ee d93f
000000f0: 0158 ce3e fef0 cfbf c196 df40 3a9d 1940
00000100: 356c bf40 1f52 d0bf 64ab d73f a23f e23e
00000110: c878 203f 9632 0dbd cdac 04be ee61 0fbd
00000120: 1bc5 ca3e 7e4d a6bf 323e 493f 5c94 263e
00000130: cda6 04c0 4f6c 5540 5aae 9ebf a4ec 89be
00000140: e757 533f 1eb4 9b3f b773 e73e 108a 193c
00000150: 627b e0bd 9273 e1bd 227f 9cbf 6d59 e0be
00000160: a452 d8bf 87b2 f23f b2a4 6e40 c872 03bf
00000170: f1b9 c43f b2b9 13bf b7e6 1a3f 286b 413f
00000180: c4fb ad3f 8f8e cec0 b0cf 66bc 4d8d 11be
00000190: a009 5e3d e81f 88bf ed7d 2140 07cf 28c0
000001a0: 5f83 55c0 252a 13c0 f697 6840 ccc3 0d3f
000001b0: e505 cdbf 6445 aebe b7da bfbf 2604 d1c0
000001c0: 1482 6dbd ace4 fc3d 38ff e93c f554 4040
000001d0: aa41 4240 83f1 9ebf 9267 1ec0 d2d2 79c0
000001e0: f976 ba3f a584 5ec0 f5c6 d9be a111 44bf
000001f0: 4133 1bbf 918f cec0 60c0 ec3d 6266 3cbd
00000200: 9849 ce3d fc44 0dbf 3a44 91be 846d c73e
00000210: ca0e ce3e f1a2 33be 7136 1d3f ecf5 5c3f
00000220: b105 bdbc 38db 603e 5ffa e33c 3cb3 f83e
00000230: 88d4 103c 5716 583e 36c1 8f3e 17a9 603e
00000240: a089 25bf e736 c9be d283 5cbf 5290 583d
00000250: d244 253f c5b5 963d 4339 dbbe 5791 a03e
00000260: eab2 ea3e 3b53 80be 4a1e 1ebf 7e7f a03d
00000270: e8cd 0dbd ac2e b53d 7481 0cbf adc3 a43e
00000280: 5f4d 963e 5057 6fbe 7db5 e8bc 5f6d dcbe
00000290: aef7 cbbe 4d88 3ebf d501 ad3f e9e9 d23e
000002a0: b2e2 fdbe 486e 35bd 7e8e b83d 5875 823d
000002b0: caa7 dabd fc4d 99bf 944a eec0 c4dc 393f
000002c0: 8799 683f 6658 b73f b93c a1c0 d033 9440
000002d0: 6924 69be 4f06 eebc 20dc ccbe 54b1 d440
000002e0: 069c 65bd 1440 123e 5089 93bd cc80 8cbe
000002f0: 6cb6 0fbf cedc 1dc0 34e2 a540 6fbd fbc0
00000300: c03e 8040 9d90 16c1 d64c 4abf 31b3 bebc
00000310: 5ba0 1ebe 2ff2 ce40 76a0 6fbd 2762 0cbe
00000320: 76a7 ecbd f6c3 5cc0 6fe8 7abf f829 4a3f
00000330: 2c51 2f40 4bd5 03c0 8d61 4bbf b34d ca3e
00000340: 972b 2a3e f4cc bb3e ab8f c63e 77d3 d440
00000350: 443b 2c3d b026 6c3c f6fc 07be 86ee cabe
00000360: 1f2d f2be 8af9 c23e ad9f 993e dc2e acbe
00000370: 48f7 5d3e 9f6b be3e 04fb 6dbe bd52 62be
00000380: 883f a9be f6fb 903e a282 f5be d89c abbc
00000390: 325b d4bd cc13 e0bd bfc6 8bbe c088 b7be
000003a0: b843 c0be 7220 3e3e b2b0 f33e 0e07 7ebe
000003b0: f0d7 9c3e b813 c03e 23ad 903d e0fc c23e
000003c0: 480b b1be cbf9 05be c645 a6bd 1e9b 35bd
000003d0: 62d5 01bf 688c 9e3e 8e8c ae3e aeb1 b23d
000003e0: 39e7 a2ba 6098 6dbe f99f cbbe 7780 94be
000003f0: 9dcb 223e 3034 bd3e 03c1 f5be 6219 4ebd

linear.bias f4 [14]
0.032176197 0.44235632 -6.380925 -0.6252573 6.4269958 -0.5590117 2.327827 -5.9810715
-11.130788 6.1265955 -4.6899753 -0.53640455 -0.8739019 -3.0733924
00000000: 30cb 033d 877c e23e 8a30 ccc0 dd10 20bf
00000010: f3a9 cd40 641b 0fbf 1efb 1440 f064 bfc0
00000020: b517 32c1 120d c440 4714 96c0 cf51 09bf
00000030: 09b8 5fbf 76b2 44c0
