savedmodel/model-6.ckpt (torch, 261655 bytes, 9 tensors)

LSTM.weight_ih_l0 f4 [400, 31]
-0.31809098 -0.31148213 0.4204459 0.080156125 -0.36846521 0.38777566 -0.24966179 -0.24094589
-0.2916198 0.07555025 0.3382839 -0.40912473 -0.41355613 -0.17666778 0.5148174 0.26053357
-0.46250802 -0.22312438 0.4195378 0.054266352 0.021023344 -0.3006763 0.39951122 0.36435106
-0.25537091 -0.21777584 0.21680033 -0.30742696 0.16751572 0.28963488 0.36312732 -0.31470177
-0.3866891 -0.2796029 -0.34829667 -0.31004575 -0.2969857 0.25565994 0.25104722 0.3918199
0.37193364 0.36062378 -0.26127255 -0.32416382 -0.38370854 0.39031237 0.33495158 0.21151716
0.28465086 0.34568125 0.349252 -0.20564319 -0.32882038 0.24071069 0.38203377 -0.26168406
0.36786506 -0.347691 0.2826209 -0.292309 -0.36929965 0.23182863 -0.35949025 -0.36918187
-0.31656042 -0.26860365 -0.3287578 -0.27838352 0.20485286 0.20215511 -0.21434201 0.37144902
0.22035195 -0.3528747 -0.30557925 -0.2667482 0.21629716 0.3576216 -0.2021389 -0.29666108
0.38083822 -0.14110525 -0.30561483 -0.33175296 0.2003897 -0.3537066 -0.3947571 0.1945571
0.27607182 0.23156157 -0.21753044 -0.32236308 0.28119785 -0.37553355 -0.35861528 -0.29995227
-0.32020667 -0.25895193 -0.28687665 -0.7689556 0.60681546 0.24230543 0.3605213 0.31014624
-0.32098734 -0.32773453 -0.3281669 0.34418035 0.19460668 -0.30689132 -0.053869992 0.23238654
-0.3888749 0.16241229 -0.36078078 0.50697106 -0.45730063 -0.37487862 -0.07005305 0.48321834
-0.4234853 -0.31464925 0.22463879 0.2122813 0.70621955 0.67586154 0.27567577 0.6611523
0.36937743 -0.2928474 -0.5821511 -0.9247759 -0.7040317 -0.7078555 -0.9069986 0.6143579
0.12242733 -0.23131186 -0.24670532 -0.13059723 0.58376145 0.20057043 -0.09748667 -0.18899041
-0.7452045 0.62282497 0.5715857 -0.5869966 0.101972796 1.0644451 -1.2168884 -0.28147826
-0.8535385 -0.12768501 0.17333762 0.2481194 0.2637304 -0.3519429 0.33127427 0.36536673
-0.47311753 -0.24223158 0.47510976 0.2484335 -0.17884669 -0.34908956 0.32101336 0.29879993
0.2539585 -0.25411028 0.4075015 0.27466193 -0.36536878 -0.34908578 0.43184304 0.36025643
0.35532004 -0.19968739 0.30565488 0.31291795 -0.45327514 0.2982335 -0.3391941 0.31715444
-0.39844406 -0.23432949 0.4618485 0.45108292 0.12447382 0.35046977 0.42745113 0.468703
-0.5037889 0.44185323 0.10126158 -0.074867345 -0.35135815 0.4400608 0.43837973 -0.20719422
0.38690248 -0.33553314 0.4278882 0.5475058 -0.11910126 -0.32322553 -0.12778175 0.3454208
-0.1274531 0.385453 0.40985364 -0.03753412 -0.42900053 0.19442506 0.12943526 -0.35631183
-0.39961514 0.15145524 0.32308918 -0.40781292 0.4289913 0.17199548 0.15355995 -0.23089658
0.17211752 0.4279233 -0.5385546 -0.032713674 0.26171568 0.437808 -0.031080516 -0.2024212
-0.34457546 -0.033802878 -0.31319788 -0.44263914 0.49092653 0.4753015 0.2081486 -0.51324266
0.32805565 0.25405425 -0.111378826 -0.3149134 -0.06973896 0.13121913 -0.4456502 -0.09475978
-0.2872726 0.23706163 1.0452541 -0.27664632 0.27010784 0.23504776 -0.9958332 -0.33342203
00000000: d2dc a2be 967a 9fbe af44 d73e e528 a43d
00000010: 79a7 bcbe 888a c63e 57a7 7fbe 85ba 76be
00000020: 314f 95be 17ba 9a3d 8c33 ad3e cc78 d1be
00000030: a1bd d3be 66e8 34be 13cb 033f a864 853e
00000040: dacd ecbe b87a 64be a9cd d63e 6546 5e3d
00000050: 2639 ac3c 3ef2 99be bc8c cc3e 398c ba3e
00000060: fabf 82be a100 5fbe e800 5e3e 1167 9dbe
00000070: 3e89 2b3e 064b 943e d3eb b93e 9720 a1be
00000080: 1dfc c5be 1c28 8fbe f153 b2be 51be 9ebe
00000090: 820e 98be dce5 823e 4389 803e 9e9c c83e
000000a0: 166e be3e aea3 b83e 84c5 85be cdf8 a5be
000000b0: 7275 c4be 06d7 c73e c67e ab3e f497 583e
000000c0: c2bd 913e 22fd b03e 28d1 b23e 2194 52be
000000d0: 255b a8be dd7c 763e ee99 c33e 74fb 85be
000000e0: cf58 bc3e 8e04 b2be b0b3 903e 86a9 95be
000000f0: d814 bdbe 7c64 6d3e 1b0f b8be 6805 bdbe
00000100: 3514 a2be 6b86 89be f152 a8be 4988 8ebe
00000110: f3c4 513e c001 4f3e 797c 5bbe 912e be3e
00000120: f1a3 613e feab b4be e274 9cbe 3893 88be
00000130: 017d 5d3e 2e1a b73e 80fd 4ebe f6e3 97be
00000140: 3afd c23e e57d 10be 8c79 9cbe 86db a9be
00000150: f532 4d3e 0819 b5be 9a1d cabe fa39 473e
00000160: 4959 8d3e 7a1e 6d3e 4dc0 5ebe c60c a5be
00000170: 2af9 8f3e ef45 c0be 6c9c b7be 5893 99be
00000180: 21f2 a3be 5995 84be 7fe1 92be 46da 44bf
00000190: 4258 1b3f ea1e 783e 3f96 b83e 7dcb 9e3e
000001a0: 7458 a4be d2cc a7be 7e05 a8be 6838 b03e
000001b0: f946 473e dc20 9dbe c8a6 5cbd bdf6 6d3e
000001c0: 9c1a c7be 684f 263e 42b8 b8be dbc8 013f
000001d0: 4f23 eabe 17f0 bfbe f977 8fbd 6568 f73e
000001e0: 11d3 d8be b519 a1be b607 663e 4560 593e
000001f0: ceca 343f 4305 2d3f 6025 8d3e 4741 293f
00000200: 0a1f bd3e 18f0 95be db07 15bf 1dbe 6cbf
00000210: 6c3b 34bf 0536 35bf 0f31 68bf 8f46 1d3f
00000220: 2ebb fa3d 04dd 6cbe 52a0 7cbe 48bb 05be
00000230: 6471 153f 5662 4d3e 17a7 c7bd b486 41be
00000240: b9c5 3ebf 7571 1f3f 7153 123f 6945 16bf
00000250: 1dd7 d03d bd3f 883f 00c3 9bbf eb1d 90be
00000260: 8081 5abf dcbf 02be 6b7f 313e 0313 7e3e
00000270: ac07 873e dc31 b4be c89c a93e 5911 bb3e
00000280: 763c f2be 8e0b 78be 9641 f33e 5a65 7e3e
00000290: 9623 37be debb b2be dd5b a43e 4efc 983e
000002a0: d906 823e be1a 82be 09a4 d03e 7da0 8c3e
000002b0: 9e11 bbbe 5fbb b2be 881a dd3e 8873 b83e
000002c0: 82ec b53e da7a 4cbe cc7e 9c3e c836 a03e
000002d0: ae13 e8be 10b2 983e d9aa adbe 1162 a23e
000002e0: dc00 ccbe 12f4 6fbe 6877 ec3e 57f4 e63e
000002f0: 21ec fe3d c670 b33e e0da da3e d7f9 ef3e
00000300: 4ff8 00bf 963a e23e 3b62 cf3d 0d54 99bd
00000310: 37e5 b3be a64f e13e 4f73 e03e b92a 54be
00000320: 1518 c63e 00cb abbe 2a14 db3e 5729 0c3f
00000330: 5deb f3bd d17d a5be 38d9 02be ffda b03e
00000340: 1183 02be 185a c53e 56d8 d13e 61bd 19bd
00000350: f5a5 dbbe 5d17 473e ad8a 043e 816e b6be
00000360: 5b9a ccbe 1517 1b3e f26b a53e dbcc d0be
00000370: bfa4 db3e 951f 303e d23e 1d3e 2770 6cbe
00000380: 933f 303e c318 db3e b7de 09bf c6fe 05bd
00000390: 99ff 853e 5f28 e03e 919c febc 8147 4fbe
000003a0: 326c b0be e374 0abd 795b a0be 99a1 e2be
000003b0: b95a fb3e b85a f33e e824 553e df63 03bf
000003c0: e9f6 a73e 6613 823e 951a e4bd 543c a1be
000003d0: 4dd3 8ebd 4f5e 063e 432c e4be 6a11 c2bd
000003e0: 6515 93be 49c0 723e e3ca 853f 96a4 8dbe
000003f0: 934b 8a3e 5cb0 703e edee 7ebf 4bb6 aabe

LSTM.weight_hh_l0 f4 [400, 100]
-0.2496341 0.2503028 0.3717743 0.31659228 -0.337048 0.33069757 0.17193912 0.1509535
-0.25708148 -0.30762845 -0.36036706 -0.3678426 0.3799959 -0.3079418 -0.27794293 0.2739188
0.27691692 0.22336802 -0.26959458 0.27386373 -0.38486537 -0.29348117 -0.36324778 -0.2072596
-0.4338381 0.36747423 0.32714978 -0.2871557 -0.06715328 0.32879248 0.022253038 0.26924664
0.32970336 -0.24677321 0.42663613 -0.37027043 0.08135847 -0.37430388 -0.3099341 0.4118222
-0.30513674 0.22437397 0.39342898 0.22641078 -0.29071772 -0.39957932 0.25732505 -0.38138452
-0.35377008 -0.20865221 -0.35772803 0.58537537 -0.20455149 -0.21611394 0.2879347 -0.35231486
-0.23396398 -0.38156205 0.23326325 0.41342118 0.33980522 -0.21301846 0.2716323 -0.2135698
-0.17534685 0.28667957 -0.38505742 -0.34608138 0.29109433 -0.18383941 0.31894797 0.18867272
-0.088428766 0.29288754 -0.24229525 0.2763441 -0.35477567 0.39726663 0.3018349 0.08306682
0.41304192 -0.20873876 -0.0861394 0.06689033 0.20490462 0.21692759 -0.21757406 -0.38645306
-0.038782433 0.2584283 -0.16361508 -0.45055342 0.35978 -0.21701963 -0.4945654 0.03315637
0.13614169 0.2671415 -0.27449942 0.15878268 -0.22580883 0.24345028 -0.26865593 -0.28921065
-0.3363319 0.3089475 -0.29673624 0.35840276 -0.2175381 -0.3249285 -0.38875133 0.36092442
0.37966332 0.25153533 -0.2292831 0.38079426 0.38079524 -0.24662976 -0.3684637 0.29853123
-0.34803867 0.27008903 -0.32194996 -0.36625826 -0.22290367 -0.33071095 0.21840014 0.16485617
0.16751508 -0.3286057 -0.24442345 -0.2275966 0.24613309 0.28127477 -0.30586952 -0.510913
0.30751637 -0.25945505 -0.27621394 -0.26290438 0.34264776 -0.24438938 0.25746837 0.3971404
-0.3636983 -0.32690978 0.45855093 -0.22724211 -0.2276423 0.26092893 -0.32651857 -0.39690635
0.1354677 -0.28377587 0.32366845 -0.23401074 -0.20351678 0.26244497 -0.34315592 0.23154268
0.2327832 0.035065535 -0.35090318 -0.38364744 0.30214053 -0.28388575 0.34732097 -0.37679353
-0.21744163 0.20555948 0.30450207 -0.2881164 0.2936563 0.36352322 -0.22597995 0.32020456
-0.30771118 0.31805113 0.26103267 0.22382042 0.28548837 0.29157773 0.2912856 0.284014
-0.3558954 0.27264214 -0.07589234 0.28570816 0.39086705 -0.25624445 0.396239 0.39341095
-0.2116374 -0.37542263 0.3100738 -0.3041616 0.3736203 -0.25663316 -0.34770325 -0.33602315
-0.25426647 0.2628189 -0.36270073 0.26222157 -0.4057801 0.23994426 -0.45763668 -0.30694586
-0.20946316 0.37526402 -0.21443011 0.20765975 0.1978864 -0.31489506 -0.32740277 0.25822005
0.27396044 -0.28594813 -0.21104765 -0.30277252 -0.20090853 -0.22438012 -0.3144004 -0.31985274
0.22736585 0.25160146 -0.25009552 0.20205928 -0.40430525 0.2669128 0.24915262 0.30933687
0.29138336 0.20436254 -0.2587111 -0.332885 -0.27460063 -0.22080392 0.37170783 0.38129345
-0.28145522 -0.28412354 0.30905864 -0.27485108 -0.34994546 -0.2168373 0.30118003 -0.26657057
-0.30043322 0.34182614 0.17220645 -0.24336216 -0.08206174 -0.2125308 0.37806612 -0.33653113
00000000: 15a0 7fbe b027 803e 3359 be3e 6218 a23e
00000010: 8e91 acbe 3151 a93e cf10 303e 8e93 1a3e
00000020: 2fa0 83be 7a81 9dbe 0882 b8be de55 bcbe
00000030: d38e c23e 8caa 9dbe 894e 8ebe 163f 8c3e
00000040: 0ec8 8d3e 96ba 643e 4d08 8abe de37 8c3e
00000050: 130d c5be 2a43 96be 9dfb b9be dc3b 54be
00000060: 0720 debe 9525 bc3e 2d80 a73e 1206 93be
00000070: a987 89bd 7d57 a83e 014c b63c b2da 893e
00000080: e1ce a83e 1eb2 7cbe 0d70 da3e 1694 bdbe
00000090: 459f a63d c2a4 bfbe afaf 9ebe 5cda d23e
000000a0: e23a 9cbe 4ac2 653e 866f c93e 3ad8 673e
000000b0: f4d8 94be a995 ccbe 1cc0 833e d544 c3be
000000c0: 5a21 b5be eda8 55be 2128 b7be 29db 153f
000000d0: f275 51be f94c 5dbe 2d6c 933e 9d62 b4be
000000e0: 4194 6fbe 1a5c c3be 90dc 6e3e f1ab d33e
000000f0: f3fa ad3e 8321 5abe 6413 8b3e 0bb2 5abe
00000100: 208e 33be aac7 923e 3f26 c5be 9431 b1be
00000110: 510a 953e 6640 3cbe 264d a33e 6c33 413e
00000120: 241a b5bd 5bf5 953e 3f1c 78be f97c 8d3e
00000130: 28a5 b5be 8866 cb3e 1b8a 9a3e f01e aa3d
00000140: 3b7a d33e 9dbf 55be db69 b0bd ccfd 883d
00000150: 84d2 513e 4422 5e3e bccb 5ebe 2ddd c5be
00000160: 54da 1ebd b750 843e b68a 27be f0ae e6be
00000170: 1635 b83e 653a 5ebe ad37 fdbe f9ce 073d
00000180: ba68 0b3e c5c6 883e 308b 8cbe ed97 223e
00000190: 6e3a 67be 084b 793e 458d 89be 6b13 94be
000001a0: b233 acbe 5e2e 9e3e d0ed 97be 9180 b73e
000001b0: 4fc2 5ebe 075d a6be 6a0a c7be 16cb b83e
000001c0: 3b63 c23e 3dc9 803e 30c9 6abe 77f7 c23e
000001d0: 98f7 c23e 838c 7cbe 46a7 bcbe 16d9 983e
000001e0: 2032 b2be 1c49 8a3e a0d6 a4be 3486 bbbe
000001f0: dc40 64be f252 a9be 49a4 5f3e 0ed0 283e
00000200: 1389 2b3e 023f a8be 244a 7abe 150f 69be
00000210: 500a 7c3e 3f03 903e ee9a 9cbe 32cb 02bf
00000220: c972 9d3e 4bd7 84be ea6b 8dbe 679b 86be
00000230: 876f af3e 3641 7abe e5d2 833e fd55 cb3e
00000240: aa36 babe b860 a7be 30c7 ea3e 28b2 68be
00000250: 101b 69be 7a98 853e 712d a7be 4f37 cbbe
00000260: 0bb8 0a3e 124b 91be dfb7 a53e 83a0 6fbe
00000270: b466 50be 305f 863e 22b2 afbe 8619 6d3e
00000280: b85e 6e3e e1a0 0f3d 95a9 b3be 706d c4be
00000290: 2ab2 9a3e 7959 91be 0ed4 b13e 15eb c0be
000002a0: 05a9 5ebe 2f7e 523e b2e7 9b3e fe83 93be
000002b0: 1e5a 963e b71f ba3e 4a67 67be daf1 a33e
000002c0: 528c 9dbe 99d7 a23e 13a6 853e 2e31 653e
000002d0: 882b 923e ad49 953e 6323 953e 486a 913e
000002e0: ec37 b6be c097 8b3e 716d 9bbd 5748 923e
000002f0: ba1f c83e 7932 83be d7df ca3e 296d c93e
00000300: 79b7 58be 6537 c0be fec1 9e3e 12bb 9bbe
00000310: 294b bf3e 6c65 83be 2906 b2be 3a0b acbe
00000320: 372f 82be 3390 863e e9b3 b9be e841 863e
00000330: 69c2 cfbe f3b3 753e 5b4f eabe 0228 9dbe
00000340: 837d 56be 9b22 c03e 9193 5bbe c2a4 543e
00000350: bca2 4a3e ed39 a1be 56a1 a7be 6b35 843e
00000360: 8b44 8c3e cb67 92be e01c 58be 0005 9bbe
00000370: f7ba 4dbe e7c3 65be 17f9 a0be bdc3 a3be
00000380: 98d2 683e e8d1 803e 850c 80be a1e8 4e3e
00000390: 1901 cfbe cba8 883e dd21 7f3e 6761 9e3e
000003a0: 3330 953e 6a44 513e c875 84be e76f aabe
000003b0: 7498 8cbe 6c1a 62be 7d50 be3e e538 c33e
000003c0: e61a 90be a478 91be ef3c 9e3e 48b9 8cbe
000003d0: 0d2c b3be 990a 5ebe 4534 9a3e f07b 88be
000003e0: 62d2 99be d603 af3e e356 303e ee33 79be
000003f0: fc0f a8bd ada1 59be e291 c13e cf4d acbe

LSTM.bias_ih_l0 f4 [400]
-0.4453865 -0.2833075 -0.29199246 -0.21153075 0.654151 0.23038664 0.5014983 0.13537101
0.15786524 0.30919188 0.32260177 -0.27698663 -0.29610154 -0.38384682 -0.1829518 0.28928858
-0.16993643 -0.3067333 0.2864992 0.3327643 -0.45014688 0.18463373 -0.10688217 -0.26786146
0.3280999 0.26977783 0.36781207 -0.5722759 0.38973913 0.39250666 0.4640647 0.045586526
-0.662818 -0.46674365 0.29936212 -0.013833895 -0.0798547 0.17562501 0.25046548 -0.025401028
0.39909068 -0.36696962 -0.3882613 0.13445818 0.3984953 -0.35993057 0.45646477 -0.289308
0.33932558 -0.34834778 0.30145252 0.108014986 -0.15567864 -0.2359068 0.20197126 -0.35551104
0.35724297 -0.30002236 -0.38026258 0.34939033 0.21618496 0.029743725 0.0509992 0.5074411
-0.29390052 -0.3577012 0.339314 -0.23933692 -0.41758326 0.07633666 -0.37940097 -0.2937175
0.13478243 0.32195413 0.059834823 0.23105098 -0.19610706 0.61064744 0.3074061 -0.22447515
0.22101875 0.27132165 0.42606425 0.36245915 -0.33501774 -0.30327848 -0.1037165 -0.30875996
0.2591209 -0.11763581 -0.1528325 0.41052705 0.21433607 -0.44653004 0.013033887 -0.03578623
0.28124928 -0.32421565 -0.38449484 0.70171005 -0.15979174 -0.23543319 -0.26983032 -0.22869872
-0.09260908 0.07273939 0.57951707 0.07866819 0.6367394 0.3484147 -0.47963616 -0.3655156
-0.33509076 -0.09462159 -0.2434712 0.37644055 0.31411624 -0.33370182 0.2314797 -0.23402154
-0.00921365 -0.32914576 0.29620716 0.60549116 0.3247484 0.21514615 0.33202463 0.27298218
0.3395606 0.36898768 0.44178915 -0.07938991 0.08446879 -0.28775278 0.46009564 0.36050388
0.43132725 0.2508622 -0.23197283 -0.054968994 0.18392883 -0.3823318 -0.256577 0.15917857
-0.47883812 -0.39613166 0.54597306 -0.39817354 0.23039362 -0.29053548 -0.4075321 0.3053411
0.25103134 -0.20778356 0.20922473 -0.300744 0.3896913 -0.18965143 -0.2562737 -0.34936914
0.22351669 -0.1639788 -0.24567723 -0.26445296 -0.31105584 -0.08935612 0.26127967 -0.3586497
0.089128144 -0.025097448 -0.31803992 -0.42261952 0.21746203 0.2580944 0.50951666 -0.5971878
-0.2936413 0.37254485 0.36591053 -0.34977427 0.34093404 0.39316884 0.27833718 0.18279281
-0.31664202 -0.20779751 0.22637731 -0.42217773 0.3668095 -0.2759087 0.031376764 -0.29436946
0.23990913 0.26857838 0.1295862 0.34210652 -0.2904379 -0.40809384 -0.2154254 0.056801282
-0.23478886 0.3007358 -0.2086094 0.37581542 -0.57051903 -0.34594938 0.044879038 0.11145994
0.36309397 -0.05502234 0.092673615 -0.09569525 -0.38445568 -0.22109267 0.22355889 -0.3392184
0.49018517 0.38545316 0.45085004 0.20086247 -0.20173344 -0.32830602 0.37664995 -0.326444
0.37448505 0.3245445 0.20888856 0.4488484 0.38743827 -0.24214865 0.13382462 -0.29807118
-0.3703065 0.39178893 -0.50108 -0.581381 0.3247728 0.23749392 -0.23680805 -0.12425208
-0.25385523 0.3278765 0.2835468 -0.32737586 0.04119226 -0.25719658 -0.31869733 -0.32381788
0.3587907 -0.24456389 0.4159165 -0.23616926 0.32334128 0.32219568 0.37694177 0.30443436
00000000: b309 e4be ae0d 91be 0980 95be 849b 58be
00000010: 7176 273f 7aea 6b3e 3162 003f b39e 0a3e
00000020: 6da7 213e 664e 9e3e 0f2c a53e 31d1 8dbe
00000030: 9f9a 97be 9287 c4be b757 3bbe a21d 943e
00000040: d103 2ebe 260c 9dbe 06b0 923e 1560 aa3e
00000050: a779 e6be a010 3d3e 0ae5 dabd 2325 89be
00000060: b6fc a73e 5220 8a3e dd51 bc3e ac80 12bf
00000070: e38b c73e a2f6 c83e e399 ed3e f0b8 3a3d
00000080: 71ae 29bf 06f9 eebe fe45 993e 90a7 62bc
00000090: dc8a a3bd 0bd7 333e 033d 803e d115 d0bc
000000a0: 9d55 cc3e 71e3 bbbe 2fca c6be 68af 093e
000000b0: 9307 cc3e d248 b8be c0b5 e93e 2e20 94be
000000c0: 15bc ad3e a45a b2be fc57 9a3e f636 dd3d
000000d0: 396a 1fbe 8d91 71be 8ed1 4e3e 8b05 b6be
000000e0: 8de8 b63e 889c 99be c7b1 c2be 4ae3 b23e
000000f0: 975f 5d3e 1da9 f33c 8ae4 503d a9e7 013f
00000100: 217a 96be 9d24 b7be 91ba ad3e bd14 75be
00000110: 79cd d5be 6556 9c3d d840 c2be 2462 96be
00000120: 6804 0a3e 2cd7 a43e 5c15 753d a198 6c3e
00000130: 4ad0 48be 6453 1c3f 5564 9d3e d0dc 65be
00000140: bd52 623e acea 8a3e 1825 da3e 3f94 b93e
00000150: 7287 abbe 5147 9bbe 5169 d4bd c915 9ebe
00000160: 7fab 843e 0beb f0bd 1f80 1cbe 9a30 d23e
00000170: ea7a 5b3e 969f e4be 168c 553c 9594 12bd
00000180: e8ff 8f3e 98ff a5be 82dc c4be 45a3 333f
00000190: 72a0 23be 6615 71be 3327 8abe ff2f 6abe
000001a0: d4a9 bdbd 64f8 943d 3b5b 143f ca1c a13d
000001b0: 5a01 233f 6963 b23e df92 f5be dc24 bbbe
000001c0: 0491 abbe f7c8 c1bd 8450 79be d1bc c03e
000001d0: d8d3 a03e f7da aabe 0409 6d3e 58a3 6fbe
000001e0: d9f4 16bc cb85 a8be 77a8 973e 7801 1b3f
000001f0: 6c45 a63e 464f 5c3e 22ff a93e 52c4 8b3e
00000200: e3da ad3e f4eb bc3e 3032 e23e 2d97 a2bd
00000210: f9fd ac3d 5554 93be a891 eb3e f793 b83e
00000220: edd6 dc3e 0371 803e 498a 6dbe 2b27 61bd
00000230: d757 3c3e fec0 c3be 0f5e 83be b5ff 223e
00000240: 452a f5be c5d1 cabe e4c4 0b3f 67dd cbbe
00000250: 4eec 6b3e 11c1 94be 0ca8 d0be ab55 9c3e
00000260: 2e87 803e 37c5 54be 023f 563e 1efb 99be
00000270: 9e85 c73e fc33 42be 4e36 83be 83e0 b2be
00000280: 8fe1 643e 0fea 27be d092 7bbe 6166 87be
00000290: b642 9fbe 5700 b7bd 73c6 853e efa0 b7be
000002a0: d188 b63d 2a99 cdbc 21d6 a2be 9661 d8be
000002b0: 5eae 5e3e f324 843e af6f 023f 4de1 18bf
000002c0: 2758 96be 33be be3e a058 bb3e 9d15 b3be
000002d0: e88e ae3e 6d4d c93e 3682 8e3e 0a2e 3b3e
000002e0: e71e a2be dfc8 54be 74cf 673e ae27 d8be
000002f0: 74ce bb3e e843 8dbe ec84 003d 98b7 96be
00000300: bdaa 753e 1b83 893e 3fb2 043e 9628 af3e
00000310: 47b4 94be adf1 d0be 7a98 5cbe 76a8 683d
00000320: 7e6c 70be 0bfa 993e b49d 55be e16a c03e
00000330: 890d 12bf 4720 b1be 15d3 373d 1c45 e43d
00000340: 74e7 b93e 1b5f 61bd aacb bd3d dffb c3bd
00000350: 60d7 c4be 1e66 62be 9fec 643e 09ae adbe
00000360: 8df9 fa3e 1e5a c53e d1d5 e63e e4ae 4d3e
00000370: 3693 4ebe ba17 a8be 43d8 c03e ab23 a7be
00000380: 81bc bf3e b22a a63e e2e6 553e 75cf e53e
00000390: 4f5e c63e d1f5 77be 5209 093e c99c 98be
000003a0: d098 bdbe 8f98 c83e c746 00bf 63d5 14bf
000003b0: 9f48 a63e 9b31 733e cf7d 72be e077 febd
000003c0: 50f9 81be 6edf a73e 0c2d 913e cf9d a7be
000003d0: 37b9 283d 45af 83be 4c2c a3be 75cb a5be
000003e0: 6ab3 b73e f56e 7abe 02f3 d43e 5bd6 71be
000003f0: fd8c a53e d5f6 a43e 83fe c03e d2de 9b3e

LSTM.bias_hh_l0 f4 [400]
-0.40001798 -0.20191275 -0.2818607 -0.34320453 0.7350242 0.38476902 0.50004846 0.17886241
0.24924558 0.39537722 0.34042987 -0.27928978 -0.24325716 -0.36467132 -0.07978051 0.34320945
-0.26012045 -0.33349815 0.3082293 0.34726408 -0.5120993 0.18904833 -0.1623152 -0.30202442
0.3639119 0.35013205 0.23180437 -0.5733906 0.44450024 0.38933715 0.4909058 0.027895624
-0.68979764 -0.5923941 0.23879501 -0.06268072 -0.13586041 0.21468475 0.14572771 0.022486858
0.39720994 -0.3920375 -0.42200205 0.22985168 0.3555276 -0.24287598 0.4529644 -0.29694206
0.37474728 -0.3411257 0.32616186 0.045605402 -0.15327963 -0.26121274 0.3608322 -0.3789176
0.31862074 -0.28364393 -0.21647528 0.33796048 0.36966646 -0.07527973 0.023137344 0.54070866
-0.30465037 -0.4521121 0.17264701 -0.28676003 -0.41345453 0.008553976 -0.28830826 -0.22913651
0.14935455 0.28031433 -0.09157322 0.24314114 -0.35257018 0.5085254 0.20441936 -0.25027633
0.3095038 0.3618896 0.3793081 0.21425171 -0.33660272 -0.37587228 0.014186217 -0.342545
0.3766257 -0.097534366 -0.06446371 0.3881732 0.32914275 -0.41408712 0.023269944 0.04711064
0.322584 -0.35961565 -0.33701244 0.6631092 -0.05182726 -0.25569335 -0.22848003 -0.19975986
-0.12170665 0.048918054 0.5846424 0.10273962 0.508928 0.42022142 -0.49463582 -0.36751083
-0.23996198 -0.064811625 -0.32221267 0.32154965 0.37498125 -0.21598268 0.28918326 -0.3378688
-0.002490998 -0.24025758 0.30046192 0.5321447 0.25874138 0.3482157 0.2161472 0.20181479
0.39605132 0.39794666 0.40421256 -0.09090337 0.06307709 -0.2384377 0.48229468 0.32076755
0.33975694 0.29117486 -0.291069 -0.037618738 0.23586713 -0.36790136 -0.28243062 0.16965877
-0.34008864 -0.29505104 0.4801388 -0.26921555 0.30366665 -0.39273953 -0.33666936 0.13191332
0.3325492 -0.33198848 0.25270918 -0.27609408 0.37182307 -0.092905074 -0.24897504 -0.27716726
0.31018686 -0.24741903 -0.30717114 -0.38993716 -0.35039857 -0.11878756 0.34111494 -0.22175983
-0.06865561 -0.10895716 -0.26384124 -0.36740178 0.3461911 0.2145706 0.38200998 -0.7492945
-0.18576455 0.34669787 0.26985383 -0.29094902 0.2250116 0.23368499 0.22740406 0.25673574
-0.39333642 -0.29522848 0.24584354 -0.50883013 0.2123734 -0.32758418 -0.003234816 -0.1716991
0.2806282 0.23170258 0.16245878 0.21730179 -0.42366663 -0.35735127 -0.19997494 0.057437412
-0.3706949 0.26793808 -0.2528308 0.33977023 -0.5823968 -0.17000152 -0.033453275 0.055957
0.27149716 -0.079754725 0.09127917 -0.107012086 -0.34757733 -0.25526896 0.38841522 -0.3949728
0.35911742 0.26692712 0.39584574 0.15345123 -0.20798042 -0.35204363 0.34366676 -0.27503026
0.25768754 0.37540367 0.34841728 0.6027718 0.38771895 -0.32874256 -0.05615878 -0.26949662
-0.39452556 0.32991955 -0.36939514 -0.6449942 0.3309216 0.19978888 -0.31025147 -0.16215566
-0.252847 0.22365034 0.23358345 -0.3142601 0.020399062 -0.29477674 -0.22352782 -0.34551623
0.2493171 -0.36873 0.3981736 -0.29257143 0.24496351 0.31659344 0.30722618 0.3835365
00000000: 28cf ccbe 37c2 4ebe 0c50 90be 81b8 afbe
00000010: 8c2a 3c3f 7200 c53e 2d03 003f b527 373e
00000020: 3c3a 7f3e e26e ca3e d34c ae3e 12ff 8ebe
00000030: 6818 79be 33b6 babe f763 a3bd 26b9 af3e
00000040: 822e 85be 45c0 aabe 3bd0 9d3e 99cc b13e
00000050: f118 03bf e395 413e f535 26be f2a2 9abe
00000060: a952 ba3e 8244 b33e 205e 6d3e bac9 12bf
00000070: 8995 e33e 3357 c73e 0158 fb3e 5d85 e43c
00000080: 9496 30bf 24a7 17bf ae86 743e c05e 80bd
00000090: fe1e 0bbe 52d6 5b3e a539 153e 5c36 b83c
000000a0: 1a5f cb3e 24b9 c8be a710 d8be 3d5e 6b3e
000000b0: b707 b63e 7bb4 78be f3ea e73e ca08 98be
000000c0: e0de bf3e 07a8 aebe b0fe a63e bbcc 3a3d
000000d0: 56f5 1cbe adbd 85be 00bf b83e 7d01 c2be
000000e0: 4222 a33e c739 91be b2ab 5dbe 2809 ad3e
000000f0: ec44 bd3e 422c 9abd 878a bd3c e26b 0a3f
00000100: 22fb 9bbe 3d7b e7be 61ca 303e 36d2 92be
00000110: 50b0 d3be fa25 0c3c 249d 93be c3a2 6abe
00000120: 66f0 183e 5c85 8f3e be8a bbbd fef9 783e
00000130: 1484 b4be b82e 023f 4f53 513e 3824 80be
00000140: 4877 9e3e 9849 b93e ac34 c23e cd64 5b3e
00000150: 3157 acbe 5572 c0be 4f6d 683c 0f62 afbe
00000160: 15d5 c03e 19c0 c7bd 8d05 84bd a3be c63e
00000170: 6685 a83e 3a03 d4be 9ca0 be3c 16f7 403d
00000180: bb29 a53e 8b1f b8be e58c acbe 86c1 293f
00000190: d248 54bd 3dea 82be abf6 69be d98d 4cbe
000001a0: 5641 f9bd 4c5e 483d 20ab 153f 2669 d23d
000001b0: 1b49 023f 4327 d73e e840 fdbe 612a bcbe
000001c0: 98b8 75be f5bb 84bd 0ff9 a4be 28a2 a43e
000001d0: 8bfd bf3e 902a 5dbe d40f 943e 24fd acbe
000001e0: 0340 23bb 1506 76be 25d6 993e a33a 083f
000001f0: c079 843e 5449 b23e b155 5d3e 89a8 4e3e
00000200: 3dc7 ca3e aabf cb3e f3f4 ce3e 8c2b babd
00000210: 902e 813d 0329 74be 54ef f63e a53b a43e
00000220: 9ff4 ad3e df14 953e ff06 95be 1b16 1abd
00000230: 2787 713e 915d bcbe bf9a 90be 07bb 2d3e
00000240: 1920 aebe ee10 97be c1d4 f53e 9fd6 89be
00000250: 327a 9b3e 2815 c9be ed5f acbe 4914 073e
00000260: e443 aa3e 65fa a9be 1963 813e 345c 8dbe
00000270: 985f be3e 0445 bebd 50f3 7ebe dee8 8dbe
00000280: d0d0 9e3e 6a5b 7dbe 8945 9dbe d8a5 c7be
00000290: 7167 b3be e446 f3bd 9ea6 ae3e 0215 63be
000002a0: 509b 8cbd ee24 dfbd 3316 87be 161c bcbe
000002b0: f63f b13e 65b8 5b3e d096 c33e c4d1 3fbf
000002c0: 1039 3ebe 6282 b13e 482a 8a3e 45f7 94be
000002d0: 7169 663e 1e4b 6f3e 9cdc 683e de72 833e
000002e0: 6463 c9be 3028 97be 69be 7b3e b142 02bf
000002f0: 6a78 593e 1db9 a7be 35ff 53bb e4d1 2fbe
00000300: 80ae 8f3e 7143 6d3e 985b 263e 5c84 5e3e
00000310: d5ea d8be bff6 b6be 3bc6 4cbe 7e43 6b3d
00000320: b9cb bdbe 2e2f 893e 0a73 81be 5df6 ad3e
00000330: f517 15bf e114 2ebe 4d06 09bd 2b33 653d
00000340: ad01 8b3e 7256 a3bd 93f0 ba3d 2729 dbbd
00000350: a8f5 b1be 9db2 82be 5cde c63e e039 cabe
00000360: 3dde b73e acaa 883e 4bac ca3e 5222 1d3e
00000370: d2f8 54be 103f b4be 17f5 af3e c4d0 8cbe
00000380: 9fef 833e e934 c03e c063 b23e 414f 1a3f
00000390: 1983 c63e f250 a8be c006 66bd 76fb 89be
000003a0: 41ff c9be 37eb a83e 5c21 bdbe 571e 25bf
000003b0: 8e6e a93e 7595 4c3e 48d9 9ebe 220c 26be
000003c0: 2975 81be 9804 653e 8030 6f3e b3e6 a0be
000003d0: ef1b a73c faec 96be 7ae4 64be 81e7 b0be
000003e0: fb4c 7f3e 2eca bcbe 69dd cb3e eccb 95be
000003f0: b7d7 7a3e 8918 a23e c04c 9d3e e55e c43e

attn.attn.0.weight f4 [100, 100]
-0.27168182 -0.425103 -0.41017532 0.59842134 -0.57212 -0.38514444 0.15755983 -0.049406037
0.49593756 -0.48937255 -0.44214454 0.9369233 -0.10978694 -0.55457616 -0.7353092 -0.91726446
0.51862776 -0.5378636 -0.0828369 -0.10333878 -0.41783682 0.12165617 -0.16101436 0.49818704
0.7690154 -0.27557725 0.38071728 0.86725926 0.17164843 0.7226887 0.5703087 0.2683847
-0.44660425 0.42400512 -0.46317735 0.38341835 0.3709734 0.5480697 0.66262937 -0.71944344
-0.9606369 -0.37932625 0.5253719 -0.9733979 0.082029596 -0.45158476 0.34728935 -0.7050073
0.37267923 0.3995823 0.53265905 0.489557 -0.06740824 0.028558282 0.040704682 0.06824717
-0.41944313 -0.44983262 -0.51150763 -0.32279676 0.47632524 0.33468717 -0.49025238 -0.40268654
0.21902068 -0.19313784 0.19749981 0.25252727 0.7509801 0.24686082 0.75417185 0.110863954
-0.8486338 0.51805 0.21210785 0.16820443 0.09772153 1.1576376 0.35299665 0.031386953
-0.046315625 0.52261996 -0.8303661 -0.08541986 0.30130142 0.65848273 -0.7121209 -0.04634303
0.19405699 -0.46202725 -0.5005708 0.22517616 0.13640952 -0.88657147 -0.64544344 0.47014946
-0.41459152 -0.04403614 -0.14384837 0.99515724 0.28022945 0.17932741 -0.13879809 0.58972836
-0.08863992 -0.68109995 0.12464506 -0.27339154 -0.71661377 -0.0045937905 0.14481337 0.42743337
-0.14250909 -0.10728791 -0.28114966 1.0744848 -0.16130775 -0.12922664 -0.02840977 -0.38445204
-0.30245262 0.90220296 -0.056341972 -0.14277175 0.0774323 0.022965698 1.1382308 0.8115106
0.31543502 -0.0034240999 -0.030645179 -0.50419474 -0.81150347 0.45570245 -0.41891125 0.8830408
0.59881365 0.18028356 0.05609379 0.25957945 0.06827546 -0.40683055 0.85780555 -0.3006063
-0.056449495 0.28374043 -0.51691467 -0.38983768 -0.069580995 0.012793832 -0.6963124 0.23745705
1.0672536 -0.3695999 -0.46927547 0.8483079 0.44042984 -0.011906833 -1.0134935 -0.033478316
0.05969742 1.7012506 0.21024968 0.47780165 -0.11815127 0.032848757 -1.5764537 1.0280905
-0.6036777 -0.23968989 0.6375337 0.06218614 0.1964036 0.25865823 0.37529844 0.49912813
-0.29611942 0.54242015 0.49255198 0.5565498 0.689157 -0.09253295 -0.8008544 -0.32682413
0.55760294 0.773104 -0.40525463 -0.020234311 0.518539 -1.1513525 -0.004774229 0.15135229
0.65257156 -0.33698362 1.4644129 -0.58063143 -0.6423549 -0.026576351 0.44683668 -0.47783172
-0.29642364 -0.2832024 -0.4103851 0.1447277 -0.72125894 -0.77301854 -0.5550717 0.34295928
-0.95740324 0.047099046 -0.5238032 0.38426927 0.08358106 -0.035727497 0.11215527 -0.76471436
0.061274525 -0.4740679 0.79298383 0.15737228 -0.2732152 0.27771613 0.26264516 0.5684936
0.13771832 -0.27830628 1.3011948 0.08002858 0.80829924 -0.04098739 -0.40471974 -0.3355505
-0.62450016 0.4550634 -0.6552105 -0.31873524 0.6051597 0.1884378 0.2080027 0.10608126
-0.46605486 -0.359456 0.28382283 -0.86663693 -0.4367714 -0.34670788 -0.105786994 -0.19254515
-0.057316005 -0.17314401 0.894415 -1.1177007 0.35935766 -0.2892088 0.13254504 -0.28755638
00000000: e119 8bbe 1aa7 d9be 8002 d2be 2432 193f
00000010: 7576 12bf a731 c5be 5d57 213e fc5d 4abd
00000020: 87eb fd3e 0a8f fabe c560 e2be 35da 6f3f
00000030: fad7 e0bd b4f8 0dbf 393d 3cbf d8d1 6abf
00000040: cac4 043f 6eb1 09bf 65a6 a9bd 48a3 d3bd
00000050: b5ee d5be df26 f93d f3e0 24be 5f12 ff3e
00000060: 31de 443f 7618 8dbe 60ed c23e b404 5e3f
00000070: 9bc4 2f3e 2002 393f c0ff 113f b869 893e
00000080: 50a9 e4be 3317 d93e 9525 edbe 694f c43e
00000090: 3af0 bd3e 4c4e 0c3f 14a2 293f 722d 38bf
000000a0: 4dec 75bf 0d37 c2be c67e 063f 9b30 79bf
000000b0: 22ff a73d 1e36 e7be e9cf b13e 5c7b 34bf
000000c0: d0cf be3e 0d96 cc3e 585c 083f 37a7 fa3e
000000d0: 550d 8abd 0ff3 e93c f4b9 263d 2cc5 8b3d
000000e0: 40c1 d6be 7650 e6be 2af2 02bf 9e45 a5be
000000f0: e7e0 f33e 1e5c ab3e 5c02 fbbe ee2c cebe
00000100: f546 603e edc5 45be 643d 4a3e 414b 813e
00000110: 3b40 403f 15c9 7c3e 6811 413f a40c e33d
00000120: 1140 59bf ed9e 043f cd32 593e c83d 2c3e
00000130: 3a22 c83d 782d 943f fabb b43e 9b8f 003d
00000140: 74b5 3dbd 6cca 053f df92 54bf 9cf0 aebd
00000150: 2e44 9a3e 5392 283f 8e4d 36bf 30d2 3dbd
00000160: e0b6 463e d68e ecbe 6825 00bf 9494 663e
00000170: f0ae 0b3e 59f6 62bf c83b 25bf 6eb7 f03e
00000180: 5745 d4be 3d5f 34bd fd4c 13be a0c2 7e3f
00000190: 3c7a 8f3e 9ba1 373e 1621 0ebe 70f8 163f
000001a0: d988 b5bd 915c 2ebf e945 ff3d faf9 8bbe
000001b0: 0074 37bf 8287 96bb f549 143e 8cd8 da3e
000001c0: e7ed 11be c4b9 dbbd d9f2 8fbe b888 893f
000001d0: dc2d 25be fd53 04be 9bbb e8bc e6d6 c4be
000001e0: 12db 9abe c6f6 663f d7c6 66bd c232 12be
000001f0: d394 9e3d 8f22 bc3c 8cb1 913f 29bf 4f3f
00000200: b380 a13e dd66 60bb 990b fbbc e812 01bf
00000210: b1be 4fbf d551 e93e 897b d6be f60e 623f
00000220: da4b 193f 419c 383e 9ac2 653d 99e7 843e
00000230: 01d4 8b3d 184c d0be 2599 5b3f 12e9 99be
00000240: 9637 67bd 6d46 913e 8554 04bf ce98 c7be
00000250: 7b80 8ebd 399d 513c 8841 32bf f127 733e
00000260: c49b 883f 333c bdbe e044 f0be b52a 593f
00000270: 0580 e13e e114 43bc 28ba 81bf 8f20 09bd
00000280: 4885 743d 94c2 d93f b14b 573e 6ba2 f43e
00000290: 4bf9 f1bd 6b8c 063d 3cc9 c9bf 7898 833f
000002a0: 9f8a 1abf 4471 75be 6935 233f e5b6 7e3d
000002b0: 061e 493e da6e 843e 1e27 c03e b98d ff3e
000002c0: f79c 97be 0cdc 0a3f c62f fc3e 0c7a 0e3f
000002d0: 986c 303f ea81 bdbd cb04 4dbf 7e55 a7be
000002e0: 11bf 0e3f 25ea 453f 897d cfbe 6dc2 a5bc
000002f0: f9be 043f 855f 93bf 2371 9cbb 18fc 1a3e
00000300: ee0e 273f 1e89 acbe e271 bb3f 43a4 14bf
00000310: 5f71 24bf a6b6 d9bc c7c7 e43e 5ca6 f4be
00000320: d7c4 97be e8ff 90be ff1d d2be 8033 143e
00000330: 6da4 38bf 8be4 45bf 2e19 0ebf 5c98 af3e
00000340: 6118 75bf eeea 403d f717 06bf f1be c43e
00000350: 8c2c ab3d ff56 12bd aab1 e53d 52c4 43bf
00000360: fffa 7a3d 07b9 f2be fd00 4b3f 3326 213e
00000370: dde2 8bbe cf30 8e3e 6d79 863e cc88 113f
00000380: 0806 0d3e 297e 8ebe 8d8d a63f 06e6 a33d
00000390: b3ec 4e3f 65e2 27bd 6d37 cfbe 46cd abbe
000003a0: 3edf 1fbf 12fe e83e e0bb 27bf 4431 a3be
000003b0: bfeb 1a3f d7f5 403e a9fe 543e 2241 d93d
000003c0: be9e eebe 9e0a b8be 3a51 913e ebdb 5dbf
000003d0: 80a0 dfbe b283 b1be daa6 d8bd 8e2a 45be
000003e0: 30c4 6abd aa4c 31be 62f8 643f d110 8fbf
000003f0: bafd b73e 2d13 94be e3b9 073e 973a 93be

attn.attn.0.bias f4 [100]
-0.04116812 -0.27488038 0.15491408 0.0941687 -0.59351814 0.7027926 -0.54156125 0.7725454
-0.8117036 0.58670557 0.6066029 0.08030736 -0.26241976 0.65957487 0.11758767 -0.2462744
-0.43052077 -0.33207068 0.6203125 -0.6627697 0.7671395 0.19672087 -0.16310695 -0.46519276
-0.05794782 0.9070611 0.6697054 -0.25612098 0.6211519 -0.3165978 0.08441085 0.36550996
0.19326903 -0.56967944 0.9590272 0.44753623 -0.40365162 -0.8054979 -0.7174074 -0.5924858
-0.16814879 -0.13483647 0.667722 0.59921014 0.6168326 -0.113188505 -0.40002936 0.21688654
0.91882765 -0.08345652 0.2865832 -0.016748382 1.2435945 -0.7824502 -0.82318294 0.3643514
-0.9732629 -0.5881791 -0.33841056 0.10523259 -0.3406853 -0.4466505 0.1763585 0.516771
-0.23601066 -0.6994152 -0.4390791 -0.17786378 0.096437216 0.30022007 -7.622462e-05 0.9160789
-0.33887237 0.6834933 -0.21385348 0.85787463 -0.2113759 0.6769791 -0.41820833 -0.45047724
0.066446565 -0.8289397 -0.3529694 0.52472734 -0.45471826 0.51256067 0.2990416 0.61852825
-0.25503007 -4.823807e-05 0.32031527 0.4184937 -0.24509548 0.88985276 -0.3565154 -0.64726585
0.02483674 -0.059637923 0.5220927 -1.1315852
00000000: e79f 28bd 1fbd 8cbe cca1 1e3e 85db c03d
00000010: cef0 17bf 37ea 333f c2a3 0abf 89c5 453f
00000020: cfcb 4fbf 5632 163f 544a 1b3f 2f78 a43d
00000030: e25b 86be e6d9 283f ced1 f03d 5b2f 7cbe
00000040: 386d dcbe 2b05 aabe cdcc 1e3f 46ab 29bf
00000050: 4163 443f 3271 493e 8205 27be bf2d eebe
00000060: b15a 6dbd 2835 683f d071 2b3f 4a22 83be
00000070: d003 1f3f 1b19 a2be 99df ac3d 1f24 bb3e
00000080: 51e8 453e 83d6 11bf ce82 753f 7823 e53e
00000090: 6dab cebe 1c35 4ebf 03a8 37bf 26ad 17bf
000000a0: 322f 2cbe 9212 0abe d4ef 2a3f d665 193f
000000b0: bee8 1d3f 60cf e7bd a6d0 ccbe 8117 5e3e
000000c0: 4a38 6b3f 41eb aabd 08bb 923e e733 89bc
000000d0: 1b2e 9f3f a84e 48bf 1ebc 52bf 448c ba3e
000000e0: c227 79bf e892 16bf 2644 adbe 2f84 d73d
000000f0: 4e6e aebe 60af e4be 5397 343e 1b4b 043f
00000100: c7ac 71be e00c 33bf face e0be ec21 36be
00000110: e080 c53d 72b6 993e c8da 9fb8 2684 6a3f
00000120: ae80 adbe 6bf9 2e3f 68fc 5abe ac9d 5b3f
00000130: ed72 58be 814e 2d3f 671f d6be f4a4 e6be
00000140: 2315 883d 6435 54bf 68b8 b4be 8854 063f
00000150: d5d0 e8be 2d37 033f fb1b 993e de57 1e3f
00000160: 4d93 82be 3c53 4ab8 5d00 a43e ce44 d63e
00000170: 4ffa 7abe 64cd 633f 3089 b6be 37b3 25bf
00000180: 6b76 cb3c e546 74bd dea7 053f c9d7 90bf

attn.attn.2.weight f4 [1, 100]
0.14474562 0.89409107 0.28421757 -0.54070103 0.6781085 0.06799015 0.19553027 -0.19600675
0.40633354 0.8146561 0.046875518 0.05189552 -0.3968794 -0.7304727 -0.5755549 0.628057
-0.23200801 1.224611 0.14533341 0.44978872 -0.6130221 -0.34112838 -0.2771831 0.5134788
-0.029114155 -0.5407673 -0.02930418 0.14084113 -0.39171928 0.32215998 0.4207048 0.5397544
-0.051250868 0.168347 0.04017645 0.18231149 -0.008479879 0.23537746 0.66903657 0.7944343
-0.406526 0.6807335 -0.4724826 0.35965922 0.24509534 0.6508733 0.1260679 -1.2402371
-0.49388003 0.7082562 -0.31966993 0.8853017 -0.36422795 0.5536381 0.657605 -0.80816025
0.43015286 0.78931636 0.23650056 -0.5941226 -0.5213274 0.4842978 -0.45484552 -0.103956744
0.84310776 0.8321807 0.56412965 0.57053244 0.22566378 -0.29392675 -0.71053505 -0.67092574
-0.45888317 0.359759 0.10334824 -0.24789275 0.24523528 0.28859532 0.033101972 0.61425096
0.67199874 -1.001101 0.7268293 0.18116955 0.038192734 0.49908236 0.13220698 0.0018697439
-0.118455596 0.3146159 -0.061521683 0.089030035 -0.081996076 -0.23102525 -0.069865316 0.22939868
-0.21444924 0.98473656 -0.6342627 -0.32792497
00000000: 3238 143e 27e3 643f f784 913e 626b 0abf
00000010: 8598 2d3f 6b3e 8b3d 1639 483e feb5 48be
00000020: f30a d03e 4d8d 503f 8b00 403d 6690 543d
00000030: c733 cbbe 4200 3bbf 9157 13bf 58c8 203f
00000040: 8293 6dbe 0ec0 9c3f 48d2 143e b54a e63e
00000050: 04ef 1cbf 61a8 aebe f1ea 8dbe 5973 033f
00000060: cf80 eebc ba6f 0abf 520f f0bc a838 103e
00000070: 6e8f c8be 27f2 a43e 9f66 d73e 582d 0a3f
00000080: 6eec 51bd 2863 2c3e 1090 243d ddaf 3a3e
00000090: 31ef 0abc ca06 713e fb45 2b3f 0c60 4b3f
000000a0: 2d24 d0be 8d44 2e3f 3de9 f1be 4125 b83e
000000b0: 46fa 7a3e a29f 263f f217 013e 17c0 9ebf
000000c0: d8dd fcbe 4750 353f c7ab a3be 22a3 623f
000000d0: 167c babe 3abb 0d3f cd58 283f 97e3 4ebf
000000e0: ff3c dc3e a310 4a3f 342d 723e 6b18 18bf
000000f0: b675 05bf e2f5 f73e 83e1 e8be 46e7 d4bd
00000100: e9d5 573f cb09 553f cd6a 103f 6a0e 123f
00000110: 6814 673e 917d 96be a0e5 35bf cac1 2bbf
00000120: bcf2 eabe 5532 b83e 3ea8 d33d 99d7 7dbe
00000130: f51e 7b3e c4c2 933e ef95 073d 8d3f 1d3f
00000140: 1c08 2c3f 1424 80bf 7c11 3a3f 8384 393e
00000150: fc6f 1c3d b987 ff3e 4461 073e 3212 f53a
00000160: d998 f2bd 5615 a13e 29fe 7bbd 6155 b63d
00000170: 8fed a7bd e291 6cbe 8c15 8fbd 7de7 6a3e
00000180: 9598 5bbe b217 7c3f 0a5f 22bf c8e5 a7be

fc.weight f4 [14, 100]
0.44914222 0.20014226 -0.83679426 -0.19658794 -0.8440917 -0.27317104 -0.43396828 -0.18997249
0.9037259 -0.6977193 0.052989405 0.3840789 0.7260157 0.498496 0.6447416 0.37032056
0.36085677 -0.5938826 -0.1713762 -0.71582 0.028295405 -0.53972566 -0.27183193 0.49561608
-0.5719167 0.32267225 0.80326825 0.24550802 -0.5374829 -0.76576483 0.37458476 -0.65405
0.6353183 0.321521 -0.47675306 -0.74939287 -0.41937974 -0.6110304 -0.54948777 0.74053967
0.14135486 -0.21356112 -0.08199304 0.43661883 0.18107668 -0.85265607 0.39766425 -0.1803438
0.5527756 0.008954033 0.08875534 -0.79918796 -0.4965136 -0.4298349 0.1309551 -0.2879905
0.44362602 0.5614737 0.36878815 0.14708586 -0.17713782 1.0953325 0.06560598 -0.45370743
0.09180315 -0.7761008 0.28230873 0.42978868 -0.74029624 0.63108826 0.1546829 0.020622306
-0.5405702 -0.24733691 -0.8355663 0.03460344 0.6579321 -0.5028748 0.29552546 0.09483981
0.6349467 0.27329513 -0.3199941 0.25383657 -0.13135199 0.05732093 0.64366144 -0.35667992
-0.64944744 -0.07846678 0.59160125 -0.053404164 -0.8081604 0.20128796 -0.45331517 -0.0959552
0.36884797 -0.19886298 0.5800744 0.8958263 -0.14346135 0.2859418 -0.801298 -0.26605135
0.4925974 -0.51749057 -0.045307744 0.6733363 1.3611677 -0.5959028 -0.75893986 0.6154786
0.3619261 0.38331494 -0.33685023 -0.9130823 -0.24217892 -0.40812355 0.24347311 -0.46124882
0.026570344 -0.5191342 -0.5501968 0.97602844 -0.25201935 -0.30107448 0.29205412 0.20044622
-0.024704749 0.87440073 -0.89614284 -0.5755902 0.6069745 0.61853385 -0.3537569 -0.84905165
-0.8799604 0.7169558 0.19960065 -0.8272227 0.4618453 0.35978898 -0.3504365 -1.5273583
0.6868451 -0.8715731 0.22622977 0.092010416 0.7878377 0.16480626 0.5666238 -1.262269
-0.3823919 0.035178743 0.3045025 0.24598941 0.31971622 0.3584007 0.39973596 -0.18502304
-0.2709416 -1.994397 -1.3747745 0.71903443 0.11011122 -0.67781293 0.89557666 0.14964914
1.096 0.5484391 0.5140026 0.09949936 -0.8104759 -0.5028117 -1.1174409 -0.67366135
-0.14387898 0.5840996 -0.17848098 0.35698482 -0.62336063 0.1909049 -0.70994544 1.1000994
0.09100761 0.04057169 -0.109838 -0.6416587 0.22634016 0.7763384 -0.02156434 -0.11300587
0.94977856 0.42164883 -0.5661034 0.95265764 0.24857758 -0.7216065 0.50832313 0.94532436
0.38177726 -0.70016265 -1.3774606 -0.6140048 0.4272804 -0.018666899 0.36154863 -1.3691552
-0.5081225 0.21494554 0.48646787 0.8586835 0.42776644 -0.19514053 -0.16774137 -0.9172524
-0.045604363 -0.4733301 -0.02823895 0.51559234 -0.12000903 1.1260368 -0.16444491 -0.3377998
0.2713942 -0.3391179 -0.3355067 0.32911628 -0.11770098 -0.17233215 0.82025844 1.4507419
-0.25047705 0.2185994 -0.5967132 -1.1814346 -0.90182936 0.43959808 0.20246813 0.24967283
0.19622938 -0.29492003 -0.6552078 0.6765124 0.7032314 -0.74361587 -0.10732591 0.28620946
1.6711135 0.46681935 0.29799446 0.79229796 -1.0176243 -0.30122304 0.37128752 0.2905831
00000000: f8f5 e53e 18f2 4c3e 2638 56bf 594e 49be
00000010: 6516 58bf 13dd 8bbe 1731 debe 2688 42be
00000020: 955a 673f bb9d 32bf 6b0b 593d fda5 c43e
00000030: 2adc 393f de3a ff3e c90d 253f a89a bd3e
00000040: 38c2 b83e b108 18bf 3e7d 2fbe fb3f 37bf
00000050: c4cb e73c 762b 0abf 8e2d 8bbe 64c1 fd3e
00000060: 2269 12bf 4c35 a53e fda2 4d3f 7466 7b3e
00000070: 7b98 09bf 2a09 44bf 93c9 bf3e d26f 27bf
00000080: 38a4 223f 679e a43e fa18 f4be 36d8 3fbf
00000090: f1b8 d6be 7d6c 1cbf 3bab 0cbf 0294 3d3f
000000a0: 54bf 103e c4af 5abe f8eb a7bd 818c df3e
000000b0: 2a6c 393e ab47 5abf a69a cb3e 0cac 38be
000000c0: b482 0d3f f0b3 123c 5cc5 b53d 9597 4cbf
000000d0: 0837 febe 5213 dcbe 1819 063e 7e73 93be
000000e0: f322 e33e bebc 0f3f cdd1 bc3e ad9d 163e
000000f0: 9e63 35be db33 8c3f 6e5c 863d 574c e8be
00000100: 4a03 bc3d 8bae 46bf c58a 903e 430d dc3e
00000110: 0e84 3dbf 008f 213f 3265 1e3e 1cf0 a83c
00000120: cf62 0abf e345 7dbe ace7 55bf 56bc 0d3d
00000130: 3d6e 283f 67bc 00bf 1d4f 973e 603b c23d
00000140: de8b 223f 57ed 8b3e 44d6 a3be def6 813e
00000150: 2381 06be 5ac9 6a3d ffc6 243f c09e b6be
00000160: 3042 26bf 31b3 a0bd 2e73 173f 53be 5abd
00000170: 9ae3 4ebf 6e1e 4e3e ed18 e8be 2984 c4bd
00000180: a4d9 bc3e bda2 4bbe c27f 143f df54 653f
00000190: 88e7 12be f766 923e de21 4dbf e237 88be
000001a0: ba35 fc3e 437a 04bf 9d94 39bd c55f 2c3f
000001b0: be3a ae3f 168d 18bf e249 42bf 0190 1d3f
000001c0: 614e b93e db41 c43e a277 acbe c3bf 69bf
000001d0: c0fd 77be 92f5 d0be 0451 793e ce28 ecbe
000001e0: 0daa d93c fbe5 04bf b3d9 0cbf 00dd 793f
000001f0: ae08 81be 6f26 9abe 1e88 953e c641 4d3e
00000200: 9d61 cabc bad8 5f3f 9e69 65bf e159 13bf
00000210: ae62 1b3f 3c58 1e3f a01f b5be 735b 59bf
00000220: 1645 61bf 6a8a 373f 1d64 4c3e dec4 53bf
00000230: fd76 ec3e 4336 b83e 6a6c b3be 7a80 c3bf
00000240: 15d5 2f3f 6a1f 5fbf c7a8 673e f56f bc3d
00000250: bbaf 493f f9c2 283e 420e 113f 0892 a1bf
00000260: dfc8 c3be 9617 103d c0e7 9b3e a6e4 7b3e
00000270: d8b1 a33e 4c80 b73e 31aa cc3e ae76 3dbe
00000280: dbb8 8abe 6748 ffbf 9cf8 afbf a412 383f
00000290: fe81 e13d 2685 2dbf 8344 653f a03d 193e
000002a0: ba49 8c3f 8166 0c3f ad95 033f 52c6 cb3d
000002b0: 597b 4fbf 44b8 00bf 4e08 8fbf 1275 2cbf
000002c0: 0355 13be 8d87 153f b8c3 36be b7c6 b63e
000002d0: 9094 1fbf 937c 433e fcbe 35bf 0fd0 8c3f
000002e0: 3362 ba3d 802e 263d bff2 e0bd bf43 24bf
000002f0: b7c5 673e 1dbe 463f b3a7 b0bc 9f6f e7bd
00000300: b024 733f 5be2 d73e 27ec 10bf 5fe1 733f
00000310: 1f8b 7e3e 34bb 38bf 7721 023f c700 723f
00000320: 4f78 c33e dc3d 33bf a150 b0bf 6b2f 1dbf
00000330: 7fc4 da3e 53eb 98bc e71c b93e 7a40 afbf
00000340: 5114 02bf af1a 5c3e 5112 f93e afd2 5b3f
00000350: 3404 db3e ebd2 47be 65c4 2bbe 0ed1 6abf
00000360: a4cb 3abd 5358 f2be 5f55 e7bc dcfd 033f
00000370: 4bc7 f5bd f921 903f 3f64 28be 18f4 acbe
00000380: 2ef4 8a3e dda0 adbe 89c7 abbe ee81 a83e
00000390: 360d f1bd d777 30be 75fc 513f e9b1 b93f
000003a0: 873e 80be 85d8 5f3e 32c2 18bf 4039 97bf
000003b0: 4ade 66bf 0013 e13e ce53 4f3e 3caa 7f3e
000003c0: 5bf0 483e c2ff 96be b3bb 27bf eb2f 2d3f
000003d0: f906 343f 9c5d 3ebf b0cd dbbd 0c8a 923e
000003e0: 0ce7 d53f f202 ef3e bb92 983e 0ad4 4a3f
000003f0: 8341 82bf e839 9abe 6619 be3e 4fc7 943e

fc.bias f4 [14]
-0.016175225 0.15381414 0.10691351 -0.38365376 0.5703136 -0.22175613 0.07191985 -0.3206074
-0.260739 -0.07493355 0.001893138 0.12507783 -0.37135643 0.024911901
00000000: e881 84bc 7481 1d3e 78f5 da3d 446e c4be
00000010: 1200 123f 0a14 63be b74a 933d a726 a4be
00000020: 957f 85be c376 99bd 2c23 f83a 6714 003e
00000030: 6e22 bebe 0b14 cc3c
