savedmodel/model-1.ckpt (torch, 261655 bytes, 9 tensors)

LSTM.weight_ih_l0 f4 [400, 31]
00000000: 6452 6fbe e99d 67be 1ee2 ab3e c883 043d
00000010: 78a1 98be f658 993e a3de 55be 40a2 27be
00000020: dbff 55be 9bad a93d d849 863e dab8 a5be
00000030: cc51 aabe 4362 08be 3f92 d13e 0573 693e
00000040: c8f4 b4be ff34 1dbe b514 af3e 21ad f93b
00000050: f8d4 fb3d 7784 5cbe 100a a23e fbc6 8d3e
00000060: fae2 30be 366d 3cbe 9a49 283e daff 77be
00000070: 6c17 223e d3b7 703e f7e6 913e 0c5c 7cbe
00000080: ab18 a3be 17b7 59be d0a8 90be 1ce9 77be
00000090: 4496 6dbe ae33 423e bbec 3a3e 650f a63e
000000a0: a9d8 9b3e cee8 953e 81c2 45be ae26 83be
000000b0: aeae a1be 2c07 a53e caa9 883e 35fa 123e
000000c0: e4b9 5d3e 2941 8e3e 3cad 8f3e 8ded 0cbe
000000d0: 8b75 85be 95ba 303e 2da1 a13e fe59 46be
000000e0: 4ab2 993e 063c 8fbe 60d3 5b3e 072e 66be
000000f0: fa62 99be 0dc6 273e cb48 95be 7c32 9abe
00000100: 9d48 7ebe dd6d 4dbe 3a6d 85be 24e3 55be
00000110: 5703 0d3e adbb 083e 854b 16be 1e79 9b3e
00000120: 47f4 1b3e 01d9 91be 2434 73be fda4 4bbe
00000130: aac2 173e f144 953e f972 0abe 0cff 69be
00000140: e35c a03e 0043 29be aa27 73be 480b 87be
00000150: 4653 0b3e 32f3 92be e1b4 a6be 3ca6 043e
00000160: 22b5 503e 759e 273e a246 18be 7cc6 81be
00000170: fb60 593e 7694 a4be e864 97be 7e6c 5ebe
00000180: f698 8ebe 33a0 56be 47ee 4dbe 5401 79be
00000190: ac56 243e dd2e 2f3e 40c0 8b3e 33d3 863e
000001a0: 5835 84be 7ea9 85be 2159 7fbe 1c70 8b3e
000001b0: 03e4 2f3e 759c 5bbe 34bd 51be ae23 2d3e
000001c0: 2890 9fbe bf27 efbd 489c 98be bb81 933e
000001d0: a651 15be 9987 5bbe 2ce1 2e3e dc6c b53e
000001e0: b11d 2fbe 1529 83be ee73 1c3e 1b82 143e
000001f0: fe14 673e 8bb6 153e beab 943e 95e4 fb3d
00000200: 5ca1 6c3e 2dca 203d 435f 7dbe 7386 bbbe
00000210: 8855 1dbe 49a5 163d 87b9 abbe 0ef7 ae3d
00000220: 6a01 52be 7d4f 7abe bae4 703e 6a16 b1be
00000230: ae12 48bc 43b4 bd3e 98d4 833e da94 82be
00000240: 5905 28be 720a ce3d ecc7 493e f933 85be
00000250: e1f2 c9be 6efe 653e 7a67 8dbe d182 973e
00000260: 6116 90be ba11 12bc 716d d63e 1546 3e3e
00000270: 86a2 4e3e 8448 8ebe d68a 903e 4f27 993e
00000280: 1744 b7be 4992 69be de65 ba3e 2ba2 113e
00000290: bf28 02be ae70 8fbe dc92 843e 4333 743e
000002a0: 5226 3d3e 60d2 3cbe 7622 ab3e 8760 573e
000002b0: 927f 9dbe 7da0 93be 41b0 1a3e 86ae 933e
000002c0: 773b 963e c3a1 0abe c705 773e 04b8 7d3e
000002d0: 1fb9 b9be 5131 823e da3c 88be 1601 803e
000002e0: 2bb7 a0be 7a3c 36be 35d9 b43e 35b3 af3e
000002f0: 445b cf3d f6fd 7b3e a63a a43e a574 c13e
00000300: 29a7 ccbe dfbe a63e 4e79 d83c d65c 05bd
00000310: f078 7abe a10c aa3e 79ed b23e 3df7 34be
00000320: fa20 a13e fdee 80be d20b a33e 2e25 df3e
00000330: edeb 3dbd 0847 88be 35d6 dbbd 303e 733e
00000340: 3744 a0bd fdad a33e cb58 a83e a9fa 4dbd
00000350: 65af acbe d10f f53d a2c3 263d 7acf 80be
00000360: f614 96be a0f5 963c a87d 493e 3aac 8abe
00000370: e364 983e c59b 843d 1784 ec3c 9b91 f8bd
00000380: 86d0 f03d fb35 983e eb22 ccbe 722a b4bc
00000390: 7ffa 093e 9d60 983e b578 c83c bc50 29be
000003a0: 9181 5abe 116c 43bd 374a 43be 8145 9dbe
000003b0: 95a1 ae3e a780 b23e c30f a83d f0d5 b3be
000003c0: 57e5 9e3e 9ff2 103e 2039 12be 6d2f 09be
000003d0: 3fbf 1abc 9e63 ee3c a2c2 a2be 18be c13c
000003e0: f50b 3ebe 1e51 c83d d3b7 0c3f 86cd 07be
000003f0: d29a b63e 7e85 2c3e 8fd0 a8be 5686 18be
-0.23371273 -0.22618832 0.3357095 0.03235224 -0.2981069 0.29950684 -0.2088571 -0.16370487
-0.20898382 0.08285066 0.26228213 -0.32367593 -0.3326553 -0.13318734 0.4093189 0.22797783
-0.35343003 -0.15352248 0.34195486 0.0076195155 0.1229648 -0.21534906 0.31648302 0.27690873
-0.17274085 -0.18401036 0.16434327 -0.24218693 0.15829247 0.23507623 0.28496525 -0.24644488
-0.31854758 -0.2126125 -0.28253794 -0.24210018 -0.23201853 0.18965027 0.18254368 0.3243362
0.30438736 0.29279178 -0.19312479 -0.25615448 -0.31578583 0.32232034 0.2669204 0.14353259
0.21652943 0.27784088 0.28061855 -0.13762493 -0.2606624 0.17258675 0.3156828 -0.19370267
0.30018836 -0.27975482 0.21467352 -0.22478496 -0.29958326 0.16384144 -0.291571 -0.30116642
-0.24832387 -0.20061441 -0.26059896 -0.20887429 0.13770805 0.13352843 -0.14677246 0.30365843
0.15229903 -0.28485873 -0.23750359 -0.19887157 0.14820352 0.2915416 -0.13520421 -0.22851199
0.31320867 -0.16529465 -0.237456 -0.26375794 0.13605985 -0.28701168 -0.32559875 0.12954038
0.20381597 0.1636904 -0.14870694 -0.25346744 0.21228401 -0.32144517 -0.29569173 -0.21721074
-0.27851075 -0.20959549 -0.20110427 -0.24316913 0.16048688 0.1710772 0.27295113 0.26333007
-0.25821948 -0.26105875 -0.24936344 0.2723397 0.17176823 -0.21446402 -0.20482332 0.16908142
-0.3116467 -0.11677503 -0.29806733 0.28809914 -0.14581928 -0.21438445 0.17078084 0.35434616
-0.1710117 -0.2561728 0.15278599 0.14502756 0.22566602 0.14620416 0.2903728 0.12299458
0.23108429 0.03925531 -0.2474337 -0.36626014 -0.15364659 0.036778722 -0.33539984 0.08543216
-0.20508352 -0.24444385 0.23524752 -0.34587413 -0.012211485 0.3705159 0.25748134 -0.2550419
-0.1640829 0.10060586 0.1970517 -0.26016214 -0.39443114 0.22460338 -0.2761801 0.29591992
-0.28142074 -0.008915359 0.41880372 0.18581422 0.20179185 -0.277897 0.28230923 0.29912803
-0.35794136 -0.2280971 0.36405843 0.14222018 -0.12710856 -0.28015655 0.25893295 0.2384768
0.1847165 -0.18439627 0.3342473 0.21032916 -0.3076139 -0.2883338 0.15106298 0.28844088
0.29342243 -0.1353827 0.24123298 0.24777228 -0.3627405 0.2542825 -0.26608926 0.25000829
-0.31389746 -0.17796507 0.35321966 0.34316412 0.101248294 0.24608597 0.32075995 0.37784305
-0.39971283 0.32567498 0.02642503 -0.03255924 -0.24460196 0.3321276 0.34946802 -0.17672439
0.31470472 -0.25182334 0.31844956 0.43583053 -0.046367574 -0.26616693 -0.10734216 0.23754191
-0.07825511 0.3196868 0.32880244 -0.050287876 -0.33727565 0.11965907 0.040713914 -0.25158292
-0.29312867 0.01842767 0.1967684 -0.27084523 0.2976447 0.06475023 0.02887158 -0.12137147
0.11758523 0.29728684 -0.3987039 -0.021992896 0.13474463 0.2976121 0.02447162 -0.16534704
-0.21338488 -0.047710482 -0.1907128 -0.3071709 0.34107652 0.3486378 0.08206131 -0.3512416
0.31034347 0.14155053 -0.14279604 -0.13396998 -0.009445011 0.029100236 -0.31789118 0.023650214
-0.18559249 0.09781097 0.54967993 -0.13261995 0.35664994 0.16847798 -0.32971618 -0.14894995

LSTM.weight_hh_l0 f4 [400, 100]
00000000: 0628 4cbe 9cee 3a3e d19f 9b3e 2d09 823e
00000010: da0e 8abe 2c9c 6a3e 770e cf3d 8d32 073e
00000020: 8bf2 3fbe 9d13 64be cc3a 90be 2c98 99be
00000030: 6de6 a03e 1509 74be 261b 48be a1ec 523e
00000040: 6bd6 653e c3c1 243e bb45 3cbe 1546 503e
00000050: 4322 a3be cf12 67be 4a6c 8ebe 1695 2abe
00000060: 70c1 aabe d9a7 993e 8de1 843e 9982 6bbe
00000070: c081 a0bb 611f 853e 816d 903c b4ed 4b3e
00000080: e7f2 673e 91b8 37be 4154 953e 9253 93be
00000090: 5387 b83d 4642 88be dd11 78be d868 a43e
000000a0: 9ccb 77be c673 203e 9038 a23e 5ccb 253e
000000b0: 594e 68be eddb a9be 6125 2b3e 838d a0be
000000c0: 3b81 92be 77ca 10be 6a92 8dbe 5ade bb3e
000000d0: 33ed 233e 14e2 17be 3a6c 613e c7a4 91be
000000e0: 0ba7 41be 6b0d a0be 1366 293e 9cb4 9e3e
000000f0: 216d 8c3e 3aef 06be bcb3 503e 443e 15be
00000100: 46ef 09be 9aaa 7b3e cb83 98be e23c 8fbe
00000110: 4ede 583e 736d 2abe 10c6 803e bc9d e83d
00000120: 1770 35bd 1352 643e 7734 1bbe d636 5b3e
00000130: cde4 92be e821 a83e b09a 6f3e 7dc8 ae3d
00000140: 7fa0 a73e 8e8a 08be a1cc 72bd ba9f 453d
00000150: adb5 0c3e bea2 183e c987 11be 674a a3be
00000160: 59d8 c3bc a136 443e 5a2c b9bd fb5c b1be
00000170: edb1 943e 5abb 18be 1c36 c6be 2f8e cfbb
00000180: 85fe a83d f2fb 4b3e f462 57be 4efa f03d
00000190: bb77 22be bed5 333e 4ac0 4dbe f5b5 65be
000001a0: 97e8 89be 0072 763e 60bb 67be 161d 923e
000001b0: 6a77 17be 1e34 81be a5f2 90be ea18 963e
000001c0: 6466 a03e 266c 3c3e 82f4 24be 9a35 a03e
000001d0: ff35 a03e 0078 37be f467 99be 3407 6c3e
000001e0: 7672 8fbe 9d1f 4f3e 58a8 7ebe 23e0 98be
000001f0: cef8 1cbe 4199 86be 0c2c 1a3e a033 ef3d
00000200: 8393 eb3d 3081 85be 7314 36be eaa7 30be
00000210: 7382 353e 5790 5a3e 440d 76be 8101 d0be
00000220: 5cd5 753e 998c 43be c46c 55be 4ee1 47be
00000230: fcb5 8c3e 81cb 34be 0e29 423e 10b2 a83e
00000240: de6f 97be e1a6 84be 2dab ab3e ad39 23be
00000250: 0579 24be b0c4 453e 48f8 88be 76eb a8be
00000260: 1d14 d33d d826 5dbe 25f9 823e 7723 2abe
00000270: 40ee 0cbe 4d43 473e ff19 8dbe f467 273e
00000280: dbe1 283e 7d6e 003d 5f28 91be 12ad a1be
00000290: aef9 6f3e a9cf 5dbe 696f 8f3e d06c 9ebe
000002a0: 7f9b 45be a996 083e 8298 723e f118 69be
000002b0: 2fcc 673e 7462 973e 20f1 23be f63c 813e
000002c0: 619c 75be 020f 803e eed1 453e cfd6 1f3e
000002d0: d0aa 5e3e b241 653e f3d1 643e a8e9 6c3e
000002e0: 1c79 94be 75b8 513e 8fb6 1dbd ac17 5f3e
000002f0: 04a5 a53e a7e6 40be d3c9 a83e 88cc a63e
00000300: e076 13be 5479 9dbe 8ed9 793e 4684 72be
00000310: 0a46 9c3e a062 41be cb4e 8fbe 2f4a 89be
00000320: 92e7 3ebe b2dd 473e 6ff7 96be 5a7d 5a3e
00000330: 0016 a3be 72b8 2f3e 394f 90be cb37 f3bd
00000340: d5c5 0abe 25cd 9d3e 8de7 16be 9428 0f3e
00000350: aed3 063e 15fc 7cbe d1f2 84be 4eac 423e
00000360: e8e9 523e f4d5 30be 4b75 12be b9d2 70be
00000370: 9347 08be 37da 1fbe 05c8 7dbe 9abb 7ebe
00000380: 097e 263e 4c4c 3e3e 6e89 3abe 7101 0a3e
00000390: ded2 a2be f994 4b3e 8697 383e d39e 753e
000003a0: e73f 633e 7b31 0c3e 09f9 6abe 23df 80be
000003b0: c067 53be 58b5 1bbe a846 9b3e fd81 a23e
000003c0: f3b9 5abe 8075 5dbe d5fb 763e 69f6 53be
000003d0: e16a 90be e494 18be 4307 f13d 4457 4bbe
000003e0: 6e60 6ebe a056 8c3e 2f06 5c3e c1bc febd
000003f0: 8997 543d 2138 14be 25d3 9e3e 1a8f 89be
-0.19937143 0.18255085 0.30395368 0.25397626 -0.26964456 0.22911137 0.10110181 0.13202877
-0.18744867 -0.22273107 -0.28169858 -0.2999891 0.314258 -0.2383159 -0.19541606 0.2059808
0.22445075 0.16089539 -0.18385975 0.20339234 -0.31862077 -0.22565769 -0.27816993 -0.16658434
-0.33350706 0.3001087 0.25953332 -0.22999038 -0.00489828 0.26000503 0.01763034 0.19914895
0.22651254 -0.179415 0.29165843 -0.28774697 0.09010186 -0.26613063 -0.24225564 0.3211124
-0.24198765 0.15669164 0.3168378 0.16190857 -0.22686137 -0.33175603 0.16713478 -0.31357965
-0.2861422 -0.14139734 -0.27650768 0.36693078 0.16008453 -0.14832336 0.22013941 -0.28446028
-0.18911378 -0.31260237 0.16542844 0.3099717 0.2742701 -0.13177195 0.20381063 -0.14574534
-0.13470182 0.24576798 -0.2978805 -0.27976137 0.21178553 -0.16643314 0.2515111 0.113582104
-0.04429635 0.22296934 -0.15156732 0.21407637 -0.28690186 0.32838368 0.23398852 0.08534334
0.32739636 -0.13334104 -0.05927718 0.04824803 0.13741179 0.14905831 -0.14211954 -0.31892702
-0.023906874 0.19161464 -0.090416625 -0.3464125 0.29041997 -0.14915219 -0.38713157 -0.0063340883
0.08251671 0.19920328 -0.21033841 0.11766492 -0.15865986 0.17562005 -0.20092884 -0.22432692
-0.26935264 0.24066925 -0.22630072 0.28537816 -0.14791647 -0.25235075 -0.28310123 0.29315883
0.31328118 0.1840063 -0.16108897 0.31290895 0.31291196 -0.1791687 -0.29962122 0.23049623
-0.28017014 0.20226903 -0.24868906 -0.29858503 -0.15329286 -0.26288798 0.15055865 0.116797686
0.11502745 -0.26075125 -0.17781238 -0.17251554 0.17725544 0.21344124 -0.24028498 -0.40626147
0.24007171 -0.19096602 -0.20842272 -0.1951954 0.27482593 -0.17655756 0.18960974 0.3294835
-0.29577535 -0.25908569 0.33529034 -0.1593997 -0.1606179 0.19313312 -0.26751924 -0.32992142
0.10306571 -0.21596849 0.25580707 -0.16615091 -0.1376276 0.19459267 -0.27558896 0.16348249
0.16492407 0.03135537 -0.28351113 -0.31577355 0.23435089 -0.21661247 0.28014687 -0.30942392
-0.19297598 0.13338722 0.2369099 -0.2276342 0.22636484 0.295673 -0.1600995 0.25241822
-0.23985435 0.2501145 0.19318363 0.15609287 0.21744847 0.22388342 0.22345714 0.23136008
-0.2899865 0.20480521 -0.03850418 0.21786374 0.3235246 -0.18837987 0.3296648 0.3257792
-0.14400816 -0.3075663 0.24399397 -0.23683271 0.30522186 -0.18885279 -0.27989802 -0.2681441
-0.18643025 0.19518164 -0.29485652 0.2133688 -0.31852722 0.17160204 -0.28185442 -0.11875876
-0.1355203 0.30820575 -0.14736767 0.13980323 0.13166687 -0.24705537 -0.25966504 0.19011042
0.2059704 -0.17269117 -0.14302556 -0.23517884 -0.13308553 -0.15610586 -0.24783333 -0.24876252
0.16259016 0.18583792 -0.18216488 0.13477112 -0.31801504 0.19881047 0.18026552 0.23986368
0.22192346 0.1369075 -0.22946562 -0.2517024 -0.20645046 -0.15205896 0.30327344 0.31739798
-0.21359996 -0.21626854 0.24119504 -0.20699467 -0.28206542 -0.14900547 0.11768963 -0.19857508
-0.23278973 0.2740984 0.21486734 -0.12438346 0.051902328 -0.14474536 0.31020465 -0.2686699

LSTM.bias_ih_l0 f4 [400]
00000000: 4c27 b9be 3056 5cbe be5b 65be c2ad 19be
00000010: 6c27 073e fdb8 2c3e c87d c93e 53f1 0f3c
00000020: e08b e83c 4bd0 5a3e b8c9 9d3c ea11 4abe
00000030: 9e08 6bbe c23b 91be 1562 a8bd 0f9f 623e
00000040: c127 d3bd 96c0 74be 8ca2 2bbd 3249 863e
00000050: 5ded 9abe 8eb0 e23d fb5f 2ebb 8c82 21be
00000060: 3db3 853e 7eb7 4f3e 7b92 993e 67e4 b9bc
00000070: fd0b 9b3e 0bad 673d bd13 bc3e 805d 743d
00000080: a80e 4e3c 3196 82be 2559 593e 89eb 103e
00000090: 44ee 02bd c344 dd3d 2306 a23e dda3 1e3c
000000a0: 9460 a63e 252c 99be bb10 9bbe 1133 32be
000000b0: 7c95 293e 91f3 90be 31d2 af3e 5d9a 62be
000000c0: e157 8a3e 93d1 8ebe ab48 4b3e 556b 163d
000000d0: fad8 1abe f318 2cbe 8652 093e 5d45 93be
000000e0: d154 943e 63c5 69be 2f39 a0be cd95 913e
000000f0: c4e6 173e c1e3 803d 8562 363b 5b63 913e
00000100: f377 56be 9b75 73be cd8f 903e 1485 2cbe
00000110: 8361 61bd 090b 1b3e 7a82 9fbe bfce 02be
00000120: 3f9c d03d d7fe 603e 2a10 2e3c cf04 2f3e
00000130: 0108 30bc accb b93e 9049 753e a3fd 36be
00000140: 703c 1e3e 91ed 4f3e 47c3 ac3e 0dcb 873e
00000150: ecc7 88be 4d12 71be 98a4 68bd 0855 6bbe
00000160: adea 3f3e b6c9 5cbd 0a48 47bd 096b ab3e
00000170: d2fe 153e 83a8 b1be 281f fbbc 397b 94bc
00000180: 78f0 463e ae3b 84be c111 a2be 8e87 8e3e
00000190: 6b61 f0bd 0f18 2abe 5fd3 4ebe ed71 46be
000001a0: d7b5 5f3e cac1 983d 17a0 1f3c bd4f 62bd
000001b0: 75e1 463e 1d02 883e 5ee7 6bbe 3a94 77be
000001c0: d899 89be e6fe 8abd 55c3 4e3e 2263 9e3e
000001d0: fa71 7a3e 8466 88be b652 e13d 9471 26be
000001e0: 46e7 9dbc 515e 85be eb5f 533e 5a52 a63e
000001f0: 0a8e 9f3e d3cb 163e 2641 873e 7604 56be
00000200: 7a84 893e f16f 213e 882b 9f3e 452d 9b3e
00000210: 7335 69bd 4d40 65be c6bf 923e 49ff 8c3e
00000220: b46d a03e b5dc 233e d210 a6bd 991b d73d
00000230: 55c8 273e 870b a1be c93b 59be 9e51 90bd
00000240: e566 a5be f1fa 9dbe db83 dd3e 111f a9be
00000250: 80be 263e 5207 64be d2c7 96be d4f4 5c3e
00000260: a84b cabd c64f 0fbe 27c6 103e 3580 6ebe
00000270: 0cc3 9f3e a436 23be 3bf9 40be 8475 85be
00000280: e76c 1f3e 5be5 22bd d30c 38be 8956 49be
00000290: 4299 66be f6ce 10be 39dc 223e 5240 95be
000002a0: ad64 4d3e 3e60 633d ea1a 80be 7c66 a9be
000002b0: 0b26 0d3e fe0c b5bd 4068 d23e 0ff2 1ebe
000002c0: 4e9e b9bd 5613 253e 7a99 983e d474 88be
000002d0: 7340 8b3e 46a9 a53e 1308 483e e11b b33d
000002e0: bcc3 7ebe 6a4d 0fbe 3e36 db3d 1fbc a5be
000002f0: 44ca 943e 17a3 46be 2eaf 5b3b de9c 71be
00000300: 9850 303e aed2 4d3e 35e0 da3d cc2e ee3d
00000310: d3d9 3ebe 09a1 a8be 0331 17be c3e1 cbbd
00000320: 9a61 2cbe c176 6e3e b34e 0fbe aac2 9d3e
00000330: 4231 3fbe 7745 95be 60de f9bb a1f2 3d3e
00000340: cf0b 823e 9706 6abc 7431 93bd 863e c9bd
00000350: 3e91 a4be e4bc 2cbe f2ab 063e 4e49 82be
00000360: f41b ca3e d2c2 a23e a11a a23e 1095 223e
00000370: ce34 2dbe f770 85be 6725 9c3e 6332 85be
00000380: 160c 9d3e 8427 823e 5968 103e bb01 153e
00000390: f07c a33e e329 33be dd56 aa3d b581 fcbd
000003a0: c0dc 9abe eade a53e 6667 09be 3318 47be
000003b0: b188 833e 26a5 2e3e 0813 24be 821a 20b9
000003c0: 0573 3ebe 221f 853e 29b8 623e aadd 84be
000003d0: ead6 9a3d 2b55 43be fe05 66be 7015 83be
000003e0: 5af6 943e 49ee 34be d4dc ae3e 90c5 24be
000003f0: 82d8 ab3d 28d6 823e 37d2 9e3e faa2 723e
-0.36162794 -0.21517253 -0.22398278 -0.1500769 0.13198632 0.16867442 0.39353776 0.0087855635
0.02838701 0.2136852 0.019261226 -0.19733396 -0.22952506 -0.28365904 -0.08221833 0.22130989
-0.10310317 -0.2390159 -0.041903064 0.2622772 -0.3025922 0.110688314 -0.0026607502 -0.15772456
0.2611331 0.2028484 0.29994568 -0.022691919 0.30282584 0.05656151 0.3673381 0.05965948
0.0125767365 -0.25505212 0.21225412 0.1415235 -0.03196551 0.10804131 0.31645307 0.009682623
0.32495558 -0.29916492 -0.30286202 -0.17402293 0.1656093 -0.28310826 0.3434005 -0.22129197
0.2702017 -0.27894267 0.1985194 0.036723454 -0.15121832 -0.16806392 0.13410386 -0.28763857
0.2897096 -0.22829203 -0.31293628 0.284346 0.14834124 0.062934406 0.0027829718 0.28396115
-0.20944194 -0.23775332 0.2823471 -0.1684764 -0.055024635 0.15140928 -0.31154233 -0.1277418
0.101860516 0.21972214 0.010623971 0.17091678 -0.010744096 0.36288202 0.23953843 -0.17870192
0.15452743 0.20305468 0.33742735 0.26522103 -0.26715028 -0.23542137 -0.056797594 -0.22981656
0.18741865 -0.053903304 -0.048652686 0.334801 0.14647987 -0.34698877 -0.030654505 -0.018125163
0.19427669 -0.25826782 -0.3165417 0.27837795 -0.11737331 -0.1661074 -0.20197819 -0.19379397
0.2184671 0.07458837 0.009742758 -0.055251826 0.19421943 0.26564112 -0.23037478 -0.24177638
-0.26875186 -0.06786899 0.20191701 0.30935007 0.24457541 -0.26640713 0.11002104 -0.16254264
-0.019275319 -0.2604852 0.20642059 0.32484704 0.31163055 0.1472619 0.26416892 -0.20900139
0.26858884 0.15765359 0.310879 0.30307975 -0.05693574 -0.2238781 0.28661937 0.27538517
0.31333697 0.16002162 -0.08108677 0.10503311 0.16385014 -0.31454107 -0.21214212 -0.07046817
-0.32305065 -0.30855516 0.4326466 -0.33031514 0.16283607 -0.22268417 -0.29449326 0.2157777
-0.098777115 -0.13995275 0.14138089 -0.23291095 0.31203496 -0.15938812 -0.18845074 -0.2606622
0.15568887 -0.03976951 -0.17973642 -0.19661917 -0.225194 -0.1414145 0.15904321 -0.29150635
0.20057936 0.055511706 -0.25020534 -0.33086002 0.13784043 -0.08840369 0.4109516 -0.15522026
-0.09063397 0.16120657 0.29804593 -0.26651633 0.27197608 0.32355708 0.1953433 0.08745552
-0.24879354 -0.13994375 0.10703705 -0.32370088 0.29060566 -0.19398151 0.0033521163 -0.23594996
0.17218244 0.20099899 0.10687295 0.116300195 -0.18637781 -0.3293536 -0.1476479 -0.0995517
-0.16834107 0.23287489 -0.13994865 0.3081258 -0.18671134 -0.2915456 -0.007625386 0.18549587
0.25399634 -0.014283798 -0.07187167 -0.098263785 -0.3214206 -0.16868931 0.1315153 -0.25446552
0.39474452 0.3178926 0.3166094 0.15877175 -0.16914675 -0.26062748 0.30497286 -0.26015005
0.30673283 0.25420773 0.14102305 0.14551441 0.31931257 -0.17496447 0.08317349 -0.12329427
-0.30246544 0.32396632 -0.1341835 -0.19442825 0.25690225 0.17055187 -0.16022885 -0.00015268664
-0.18598564 0.26000315 0.22140564 -0.25950366 0.07560523 -0.19075458 -0.22463223 -0.25602293
0.290942 -0.17669024 0.34152853 -0.16090989 0.08390905 0.25554013 0.31019756 0.23694983

LSTM.bias_hh_l0 f4 [400]
00000000: c1ec a1be 0dfd 08be c4fb 5abe 9d41 90be
00000010: ddf7 593e b667 a53e bfbf c83e 6720 563d
00000020: a148 f53d a088 993e f8ea 173d ac6d 4cbe
00000030: c8eb 34be 636a 87be 90a5 ab3c 0beb 8c3e
00000040: 10ed 45be 6a14 88be b641 a5bc b6b5 8d3e
00000050: 98a5 babe 13bb eb3d ccf3 6dbd 277e 44be
00000060: 3009 983e eeff 903e 59df 273e 2706 c3bc
00000070: a315 b73e 8db1 5a3d dbd1 c93e 40e7 2b3d
00000080: bbf9 6bbc 6beb c2be e053 1b3e 44cd bd3d
00000090: 3b2a b4bd a9a1 163e e7cb 583e 0fcf 6b3d
000000a0: 116a a53e d801 a6be 3357 acbe 7208 a1bd
000000b0: 8a2b fb3d f909 2abe 6407 ae3e 966b 6abe
000000c0: ac7a 9c3e f61e 8bbe 1496 643e c76b d2bc
000000d0: 1764 18be c402 46be 7aff 953e 4f41 9fbe
000000e0: 868e 803e e1ff 58be 92ba 18be abbb 8b3e
000000f0: 8288 9a3e 8a65 2cbd 2e72 cdbc cc6b a23e
00000100: f579 61be 6e11 aabe b3e9 ec3d c114 5dbe
00000110: 3d78 50bd 6844 ab3d 8bbd 61be 755a 81bd
00000120: 3c74 ee3d 365b 363e b229 10be 2c66 3b3e
00000130: 6838 2bbe 5a82 853e 33d4 0b3e 4269 51be
00000140: 3bd8 783e b555 963e dbd2 943e b8a4 ef3d
00000150: ab97 89be 2ab4 9dbe 6449 7a3d caf6 86be
00000160: ee1e 9c3e d273 0abd 64ad 223d 12f9 9f3e
00000170: 5dc7 853e 270c a1be 9644 a7bc 08a7 843d
00000180: 1b44 713e a15b 96be 24c2 89be 2088 753e
00000190: 5527 1abc 25d7 3ebe ab7b 24be c7cf 28be
000001a0: 15ea 413e 19f1 4f3d 5899 733c 086e ffbc
000001b0: fa00 883d f7c5 ac3e 7043 7bbe 449f 79be
000001c0: 3fca 31be cbe3 1bbd 6743 fc3d 7948 823e
000001d0: b062 9c3e ad41 18be 01c0 2b3e 3964 88be
000001e0: b2a9 4dbc 1db7 2fbe 47bb 573e acc4 803e
000001f0: bd84 7b3e 9c87 8f3e bed9 173e 4772 8fbe
00000200: d470 a63e 5e17 3f3e 4bee 8b3e 2d48 953e
00000210: 1f6a a0bd a8c0 32be 721d 9e3e ef4d 713e
00000220: cd16 633e 6524 4d3e 1d8c 0fbe 21a4 fa3d
00000230: a3f7 5c3e 1aa8 99be 2bb5 73be f3b5 75bd
00000240: 74b9 3cbe 3774 54be ccce bb3e 9330 4ebe
00000250: 8ec6 713e c057 a6be 64ff 64be 2d77 2d3d
00000260: 3463 8dbc ae3f 87be 564d 3d3e 6242 55be
00000270: 069d 963e 534a 80bd ed7f 39be bbfb 40be
00000280: fd2c 783e 6455 fcbd 0e05 77be bcea a4be
00000290: 5c71 87be 3cf2 2ebe 899c 743e c953 1ebe
000002a0: 844a 2f3d 113a e8bc f5b5 48be fc20 8dbe
000002b0: cb7b 883e ff17 07be b01f 913e f659 9dbe
000002c0: e240 8d3c b89b 0a3e 43d6 4e3e fcac 54be
000002d0: 7dcc 1f3e d802 283e 43e0 133e 9f45 253e
000002e0: 5ba6 a6be f2d4 68be 148a 013e d519 d2be
000002f0: 0c70 0b3e 818d 7bbe ee09 00bd 29ff e7bd
00000300: e202 5a3e e90f 283e 7319 0f3e 1b57 0bbc
00000310: 79a3 a3be 1ba6 8ebe c45e 07be 3f94 cabd
00000320: 47c6 9bbe 04e1 4c3e 1197 3cbe 264e 8b3e
00000330: f15a 4bbe 82be ecbd 980a b0bd de1c 053e
00000340: 054c 263e 76cf 1fbd 890c 96bd ce6b e0bd
00000350: 86af 91be 06bc 4fbe 04be 973e 25d5 9ebe
00000360: a400 873e c026 4c3e 1bf1 853e fc10 e43d
00000370: 6a9a 33be 4d98 91be 3b42 8b3e f6be 55be
00000380: 687e 423e bb31 9c3e 7da4 8f3e e54f 993e
00000390: baa1 a33e f9ea 85be 2cbf dabd 67fc c1bd
000003a0: 3143 a7be 9231 863e 3cc0 23bb ff1d 84be
000003b0: a0ae 863e 0009 083e c747 6fbe d7e0 1bbd
000003c0: b96a 3dbe 0584 1f3e 8f8e 2f3e 1c4d 7cbe
000003d0: 9a82 603d 99d0 69be e891 04be 7c31 8ebe
000003e0: dad2 393e d409 9abe 3bc7 a53e 1087 5ebe
000003f0: 2340 b53b b9ef 7f3e e840 763e 90d1 a13e
-0.3162594 -0.13377781 -0.21385103 -0.2817506 0.21285959 0.32305688 0.3920879 0.052276995
0.119767435 0.2998705 0.037089318 -0.19963712 -0.17668068 -0.26448354 0.02095297 0.27523074
-0.19328713 -0.26578075 -0.020172935 0.27677697 -0.36454463 0.11510291 -0.05809383 -0.19188748
0.2969451 0.2832026 0.16393794 -0.023806645 0.35758695 0.053391982 0.3941792 0.041968584
-0.014402802 -0.38070235 0.15168715 0.09267667 -0.08797117 0.14710106 0.21171533 0.057570513
0.32307485 -0.32423282 -0.33660278 -0.07862939 0.12264164 -0.16605367 0.33990014 -0.22892603
0.3056234 -0.2717206 0.22322875 -0.025686158 -0.14881931 -0.19336993 0.29296476 -0.31104514
0.25108737 -0.2119136 -0.14914921 0.27291617 0.30182272 -0.042089023 -0.02507886 0.31722867
-0.22019179 -0.33216423 0.11568012 -0.21589948 -0.05089592 0.08362657 -0.22044961 -0.063160814
0.11643264 0.17808232 -0.14078405 0.18300694 -0.16720736 0.26076013 0.13655166 -0.20450309
0.24301235 0.29362264 0.2906712 0.117013395 -0.26873526 -0.30801517 0.061105147 -0.2636016
0.30492347 -0.03380186 0.03971614 0.31244713 0.26128665 -0.31454584 -0.020418447 0.06477171
0.23561136 -0.29366782 -0.2690593 0.23977709 -0.009408792 -0.18636759 -0.160628 -0.16485511
0.18936951 0.050767038 0.014868103 -0.031180397 0.06640811 0.33744785 -0.24537444 -0.24377161
-0.17362307 -0.038059037 0.123175435 0.25445917 0.30544043 -0.14868803 0.16772462 -0.26638964
-0.012552666 -0.17159696 0.21067534 0.2515005 0.24562354 0.2803315 0.14829156 -0.28016874
0.32507956 0.18661258 0.2733024 0.29156628 -0.07832741 -0.17456305 0.3088184 0.23564886
0.22176667 0.20033415 -0.14018293 0.12238336 0.21578841 -0.30011064 -0.23799579 -0.059987973
-0.1843012 -0.20747457 0.3668121 -0.20135717 0.23610899 -0.32488823 -0.22363049 0.042349983
-0.017259218 -0.2641577 0.18486533 -0.20826104 0.29416674 -0.06264176 -0.18115206 -0.18846028
0.24235912 -0.123209745 -0.24123022 -0.32210338 -0.26453674 -0.17084593 0.23887838 -0.15461649
0.042795673 -0.028348 -0.19600661 -0.27564228 0.26656947 -0.13192748 0.28344488 -0.30732697
0.017242853 0.13535964 0.20198922 -0.20769113 0.1560535 0.16407335 0.14441018 0.1613984
-0.32548794 -0.22737482 0.12650329 -0.41035333 0.13616961 -0.24565698 -0.03125947 -0.11327965
0.21290162 0.16412319 0.13974552 -0.008504654 -0.31960657 -0.27861103 -0.13219744 -0.09891557
-0.3042471 0.20007712 -0.18417002 0.2720806 -0.1985891 -0.11559774 -0.085957706 0.12999293
0.16239937 -0.03901621 -0.0732661 -0.10958062 -0.28454226 -0.20286569 0.29637158 -0.3102199
0.26367676 0.19936657 0.2616051 0.11136052 -0.17539373 -0.2843651 0.27198967 -0.20873627
0.18993533 0.3050669 0.28055182 0.29943767 0.31959325 -0.26155832 -0.106809944 -0.0947197
-0.3266845 0.26209694 -0.0024986407 -0.25804135 0.26305103 0.13284683 -0.23367225 -0.03805622
-0.18497743 0.15577705 0.17144226 -0.2463879 0.05481205 -0.2283348 -0.12946284 -0.2777213
0.1814684 -0.30085623 0.32378563 -0.2173121 0.0055313273 0.2499379 0.24048197 0.31605196

attn.attn.0.weight f4 [100, 100]
00000000: 693d 9bbe 090a a4be 05e8 debd 18d2 0e3e
00000010: 503d 30be 7e2e bdbe b0b3 583c 1ec0 423e
00000020: 8cdf b03e c106 89bd be72 afbd 1e75 8e3e
00000030: 0b1a e03d 5445 8ebe b8c4 61be 9712 23be
00000040: bedf ec3d 1404 4bbe 82ae a23e 7e19 aa3e
00000050: 15b0 a3be 74b6 933e 9bd1 783e e525 953e
00000060: 35ea ad3e d6d9 4abe da89 3a3e a21f a63e
00000070: cc48 853e 71e8 933e 9479 ddb7 ddeb 3bbe
00000080: db65 99be 5ed9 ae3d 199e f1bd 39d5 9abe
00000090: 491c 953e f32e 863e 656e 5bbe 3982 97be
000000a0: 9d71 95be 619e a0be 59b3 263e 8532 27be
000000b0: 1834 4c3d e223 98be 20ea 133e 7436 4fbe
000000c0: ed92 d4bd 75a0 06be 15bb 803e 3927 09bd
000000d0: b146 96bd 615c 16be 7ebe bd3e caf6 2abe
000000e0: db99 98be 5d00 fabe 6aee 92be 7d72 d3be
000000f0: b4c8 303e 79a3 603d 58fd 75bd 2c45 8dbd
00000100: ddc8 913e 1402 02bc 03d5 8c3e 055b 24be
00000110: 7735 b83e bd4c 43bd 20d7 cb3e 675d 323e
00000120: 4901 cfbd 5559 243e 4f9b a9bc 12da d9bd
00000130: 04a1 cabe 6060 203d 141a 963e bd9b 863d
00000140: 7f2b 13be 8374 c73e d7f4 2b3d 378d 9a3e
00000150: 0d1e a63d 3787 953e a638 b3be 1257 253e
00000160: ac8b a63e 5d8a 6dbe 428d a4be 9fef b23e
00000170: 88ef 87be 48b7 f3be 4d57 c1be 308d 9e3c
00000180: e0de 2ebe 9086 933e bb32 84be fe32 063e
00000190: 8a18 6abe 0827 c43d 79d0 7abd 4a2e 993e
000001a0: d5f4 563c fad8 6fbd f114 28be 35ec f93c
000001b0: d63b b4be 7d6e 6e3e 27b8 89bd 76a2 9f3c
000001c0: ed51 99bd 61a9 b53c b419 373e 5d61 cc3e
000001d0: 0cac 12be 6d9e ae3d dc09 5d3d cbb5 083e
000001e0: 05e3 a8bd d4fd d73e 40d6 aa3e 66ca 75be
000001f0: ac3d 7abb d4a9 54be 9dcd f53c 4928 08be
00000200: 82e7 0c3e 8c13 41be 9f02 6abe 7f16 dabc
00000210: 1a80 65be c865 a93e 1f74 fb3d 78ee 953e
00000220: 1141 5b3e 4826 4abd 19f1 58bd c586 f3bc
00000230: 5672 07be 741a 86be 8b3f 8a3e e302 2abe
00000240: 34d2 7abe 3e68 a23d 5916 aabe fbbd 523c
00000250: 53b5 58be e261 b7be fe1e 03bf aac8 1fbe
00000260: 77f2 8b3e 8df8 c7be 3984 50be f892 573d
00000270: cae0 ae3e 2e38 7a3d b374 f3be 13d6 a93d
00000280: 85e6 c13d a5d9 b13e cddc f03d f614 07be
00000290: 2a43 533d 0293 e3bd 1194 dfbd 4ecd 9c3d
000002a0: ff0f 65be 2b3d d3bc 15ee 833d 43e6 1d3d
000002b0: 1ef8 ab3e 2752 80be a4c5 d43c 26f6 af3d
000002c0: 097d f6bd 3395 b63e 3c2a cc3e 5ef6 ac3e
000002d0: 4eb3 703e 1be2 a53d b056 303e 1ec1 8abc
000002e0: f639 cd3d 4e1a b73e da56 51be 2043 113e
000002f0: 5155 063e de2d f1be 53dd a63e 533d af3d
00000300: fef2 943e c7b6 8abd a976 a23e d289 91be
00000310: 28b4 b6bd 3c3d 943e 90ca 5b3e ffc2 cebe
00000320: eb60 6bbe 1957 62be b09a 7fbe a274 98bc
00000330: b65a b3be 4ea7 8abe 97e0 69be a466 823d
00000340: ea39 9ebe 1fe3 883e e91a 65be bef2 923e
00000350: 7840 75bc 96f5 9cbd 6563 d5bd 56fe bc3d
00000360: 53f9 c3be 01a8 4ebe cc7d 4a3e d367 f93d
00000370: 2a18 4abe ae2b 503e d35e f53d 3bb0 783e
00000380: a303 d33d 16ef 55be 79d7 213e 2727 2a3d
00000390: dff1 ba3e 6d6b 5c3e 3b7c c1be bb79 2c3e
000003a0: 93ab 82be 49a8 563e 0959 9bbd 5498 87be
000003b0: 71c5 323e 8964 81bd 4d85 8cbe 2671 f23c
000003c0: 7f70 a8be 2b53 95be 660c 493e 6ce8 81be
000003d0: 48d6 f1be 2752 97be cd35 4d3e 515f 16be
000003e0: acc0 41be 02aa 61be 9efb 373c 3a7e aebe
000003f0: 0cce 0d3b 3ff6 14be 85e6 193e e09f 37be
-0.3032029 -0.32038906 -0.10884098 0.13947332 -0.17210889 -0.36949533 0.013226435 0.190186
0.34545553 -0.06690741 -0.08566807 0.27823728 0.10942467 -0.27787268 -0.22047698 -0.1592506
0.11566113 -0.19825774 0.31773764 0.33222574 -0.31970277 0.28850138 0.24298708 0.29130474
0.33967748 -0.1980966 0.18216649 0.3244601 0.26032102 0.28888276 -2.6401867e-05 -0.18351693
-0.29960522 0.08537553 -0.11797733 -0.302408 0.29123142 0.26207694 -0.21428831 -0.2959154
-0.29188243 -0.31370834 0.16279353 -0.16327865 0.049854368 -0.29714876 0.1444478 -0.20235616
-0.10379586 -0.13147147 0.25142732 -0.03348467 -0.07337702 -0.14683677 0.37059397 -0.16695705
-0.29804882 -0.48828402 -0.2869752 -0.41298285 0.17264062 0.0548434 -0.06005606 -0.06897959
0.2847356 -0.007935066 0.27506265 -0.16050346 0.3597829 -0.047680605 0.39812565 0.17418443
-0.10107667 0.16049702 -0.02070394 -0.10637297 -0.3957597 0.03915441 0.2931677 0.065726735
-0.14372061 0.3895608 0.041981544 0.30185863 0.081112005 0.29204723 -0.35004157 0.16146496
0.32528436 -0.23197313 -0.3213902 0.3494844 -0.26549935 -0.4760077 -0.37761918 0.019354433
-0.17077208 0.288136 -0.25819954 0.1310539 -0.22860923 0.09577757 -0.06123397 0.29918128
0.013119896 -0.058556534 -0.16414239 0.03050814 -0.352019 0.23284335 -0.067245774 0.019486647
-0.07486329 0.022175493 0.17880899 0.39918032 -0.14323443 0.08526311 0.05396448 0.13350599
-0.082464255 0.42185843 0.33366585 -0.2400299 -0.0038183732 -0.2076791 0.03000527 -0.13296618
0.13760188 -0.18855113 -0.22852562 -0.026622055 -0.22412148 0.33085465 0.12278008 0.292835
0.2141154 -0.049352914 -0.052964304 -0.029727349 -0.1322721 -0.26192057 0.27001604 -0.16602664
-0.24494249 0.07930039 -0.33220175 0.012862678 -0.2116292 -0.35816866 -0.51219165 -0.15603891
0.27333423 -0.39056817 -0.20362939 0.052630395 0.34155875 0.061088733 -0.47549972 0.082927845
0.09467796 0.34736362 0.117608644 -0.1319159 0.051577725 -0.11112024 -0.10916913 0.07656346
-0.22369383 -0.025786003 0.06441895 0.038549673 0.33587736 -0.25062677 0.025973149 0.08591871
-0.12035567 0.35660705 0.39875972 0.33781713 0.235059 0.08099767 0.17220569 -0.016937789
0.10020821 0.35762256 -0.20443287 0.14185762 0.13118483 -0.47105306 0.32590732 0.085566185
0.29091638 -0.06773143 0.31731156 -0.2842546 -0.08921081 0.28952968 0.2146399 -0.40383145
-0.2298619 -0.22103538 -0.24961352 -0.018610302 -0.35030144 -0.27080768 -0.2283958 0.063672334
-0.3090356 0.2673578 -0.22373547 0.28700823 -0.014968984 -0.07664029 -0.104193486 0.09228198
-0.38276157 -0.20181276 0.1977455 0.12178006 -0.1973578 0.20329162 0.11980977 0.24285977
0.10303428 -0.20891985 0.15804853 0.041541245 0.36512658 0.21525355 -0.37790093 0.16843311
-0.25521526 0.20962633 -0.075853415 -0.26483405 0.1745813 -0.06318004 -0.2744545 0.029594969
-0.32898328 -0.29165015 0.19633636 -0.25372636 -0.47233796 -0.29554865 0.20040055 -0.14684798
-0.18921155 -0.22037509 0.011229424 -0.34080678 0.0021637706 -0.1454706 0.15029342 -0.17932081

attn.attn.0.bias f4 [100]
00000000: 67f7 873d 6d71 b9be 0a9d 21be 8ed3 293e
00000010: bea0 5cbe 5272 e63e 3a44 50be da98 cf3e
00000020: edd1 bebe 4451 313e 29c7 d33e 85e5 f1bd
00000030: 933d b33e 5029 6e3e 7099 7d3e e101 a1be
00000040: e305 c63d 0ce9 8ebe 8844 803e c434 efbe
00000050: 2713 bc3e a904 af3e 7c8a 2abc f69c c3be
00000060: 7c95 be3e 7d76 953e e2ee a13e b996 dabe
00000070: 0115 a53e 236e 0abf c384 ccbe f7a8 85be
00000080: c1fc 903e e908 b8be 74bd bf3e ce02 4a3e
00000090: baf9 0b3e 660e 4ebe 9593 aabe d5eb 19bf
000000a0: d2c8 0b3e e1e3 25be d23f 343e 09a3 ffbc
000000b0: fddb 6c3e 9347 f7bd 0689 cbbe 604c 823e
000000c0: 73de 093f d548 4cbe 5878 973d 003c 83be
000000d0: 2edd 553e ff4a 91be 46d8 0abf 7c5e 653e
000000e0: e0d2 b4be 58c2 dbbe 71be cdbe a798 4f3e
000000f0: 13fb 82be cc95 9abe 179f 263e 80ba c53e
00000100: 78ca 3dbe dd14 f5be 9e40 bebe 7a50 afbe
00000110: 4b65 c5bd f1a6 d3be 0bc4 3e3e 8bd7 c13e
00000120: d4ff 253d d769 aa3e ae02 663e 7589 af3e
00000130: 549a bbbd dd11 063d 4230 dabd 623f cabe
00000140: 4d9d 92be 4b10 8fbc c2f7 cfbe 228e 813e
00000150: c85b bfbb 4e0a 69be 155b 1c3e 466c b13e
00000160: d229 983c 1d5c e5bd 3db0 8d3e 107d c63e
00000170: 6d93 e23d ada2 a63e b85a 0b3e adf7 8fbe
00000180: a943 693e 081a e5bd a6b3 983e 75a6 bfbe
0.06638985 -0.3621935 -0.15782562 0.16584608 -0.21545693 0.45009094 -0.20338526 0.40546304
-0.37269536 0.17316157 0.41362885 -0.118113555 0.35007915 0.23257947 0.24765563 -0.31446746
0.096690916 -0.27912176 0.25052285 -0.46719944 0.36733362 0.34183243 -0.010408994 -0.3820569
0.37223423 0.29191962 0.31627566 -0.42693117 0.32242587 -0.54074305 -0.3994504 -0.26105472
0.28317836 -0.35944298 0.3744923 0.19727632 0.13669482 -0.2012268 -0.3331572 -0.60125476
0.13650826 -0.1620021 0.1760247 -0.03120567 0.23130794 -0.120741986 -0.39752978 0.25448895
0.53855056 -0.19949658 0.073960006 -0.25631714 0.20885155 -0.2837753 -0.5423626 0.22399324
-0.35317135 -0.4292171 -0.40184358 0.20273076 -0.2558218 -0.3019241 0.16271625 0.3861885
-0.18534267 -0.4786748 -0.37158674 -0.34241086 -0.09638461 -0.41338304 0.18629472 0.3785976
0.04052718 0.33283874 0.2246196 0.3428456 -0.09160295 0.03273188 -0.10653736 -0.39501482
-0.28635636 -0.017463824 -0.40618712 0.2530375 -0.0058397986 -0.22757837 0.1526912 0.3465292
0.018574629 -0.1119921 0.27673522 0.3876729 0.110632755 0.32545987 0.13608825 -0.2811865
0.22779717 -0.11186606 0.2982456 -0.37431684

attn.attn.2.weight f4 [1, 100]
00000000: b9da 2c3e f286 cc3e bd4a 393e 404d dfbe
00000010: a7fa d43e 4838 193e 66ab a53e f3c7 ea3b
00000020: 6009 b63e b865 213e be22 cebe f89c 223e
00000030: 52a3 a6be 1f63 f0be 2aca a0be ba76 0a3f
00000040: 70f3 6c3e 50d1 d93e 6276 d1be e1a5 f53e
00000050: 6af5 d5be 538f c2be a953 2dbe b1a6 c13e
00000060: 8247 d8be 4aaf dcbe 4a9b cdbc 5f5a 933e
00000070: 35ea f0be 6a26 c43e f02d dd3e f628 d63e
00000080: 2d4f d9be 6f56 83bb 7007 8fbe a487 64bc
00000090: 0087 b3be d768 533e 8058 dd3e b021 0f3f
000000a0: e56c b5be b4a5 8f3e 973c e7be f5ec b5bc
000000b0: fd55 753e 43bf be3d 5503 ca3e c2b4 c9be
000000c0: 2f47 d7be e104 ef3e c7bb 0ebe 6ccd be3e
000000d0: 88bc c7be cab9 d13e 5d68 d63e ef10 09bf
000000e0: 7ec4 043f 2cdf d13e 0c15 083f dfb5 ecbe
000000f0: 9c79 09be eb45 143f dff6 cbbe 8342 07bf
00000100: d33c dc3e 5d4b d23e f00a 043f 5db2 a23e
00000110: 8cde 8a3e d75a 6a3d c322 edbe a97f 00bf
00000120: f976 8bbe b272 70be f538 e5be 466c 06bf
00000130: af3d 9b3e 89d5 6b3e 392a c4bd c507 023f
00000140: 0e96 fd3e ffad e4be 2972 033f 5d17 6b3e
00000150: 32c4 f6bd fe08 c93e ce59 4f3e 7303 223e
00000160: 40a0 64be b010 8a3d 070c e5be 885e 033e
00000170: 397c 553d 4bb4 d1be ac65 16be 998e a63b
00000180: c6c3 66be 308a 323e 051b 0bbf d6d9 593d
0.16880311 0.39946705 0.18094917 -0.43613625 0.41597483 0.14962876 0.3235733 0.007164949
0.35554028 0.15761459 -0.4026088 0.15880191 -0.3254648 -0.46950623 -0.3140424 0.5408741
0.23139739 0.42542505 -0.4091063 0.47978118 -0.417888 -0.37999973 -0.16926445 0.37822488
-0.42242056 -0.43102485 -0.025098462 0.28779885 -0.47053686 0.38310558 0.4319911 0.41828126
-0.4244322 -0.0040081064 -0.27935362 -0.013948355 -0.35063934 0.20645462 0.43231583 0.5591078
-0.35434642 0.2805611 -0.45163414 -0.022207716 0.23958583 0.09313824 0.39455667 -0.3939572
-0.42046496 0.4668341 -0.13938819 0.372661 -0.39011025 0.40962058 0.41876498 -0.53541464
0.51862323 0.4099058 0.53157115 -0.46232507 -0.13425297 0.57919186 -0.39836785 -0.52835864
0.43015155 0.41073123 0.5157919 0.31776705 0.27122915 0.057215538 -0.46315584 -0.50194794
-0.27239206 -0.23481253 -0.44770017 -0.5250896 0.30320498 0.23030676 -0.09578366 0.50793105
0.49528545 -0.44663998 0.5134607 0.22958131 -0.1204914 0.39264673 0.20249102 0.15821628
-0.22326756 0.06741464 -0.4473574 0.1282903 0.05212042 -0.40957865 -0.14687222 0.005082917
-0.22535619 0.17435527 -0.54338104 0.05318626

fc.weight f4 [14, 100]
00000000: f341 cb3d 5177 1a3e 4862 c9be 9fa6 2b3d
00000010: fb05 0abf 4b74 39be 90f2 a4be 943c a1be
00000020: b2b1 fe3e 3458 edbe b08f 18bc 38a8 193e
00000030: 4bde e73e b2a8 b23e 0686 d03e 8e5d 863e
00000040: e053 9d3e 513d e1be 28cc 80be 3c52 01bf
00000050: f34a 6c3c b462 15be 570c 96be d1df 963e
00000060: 6bbe b8be a789 813e e157 a93e 4e3c 0c3e
00000070: 7394 e7be 1ab1 02bf 5ebd 263e 9b5f f5be
00000080: 8fed e93e ccec 4f3e e0e6 7bbe 30ce ddbe
00000090: b8ee 7dbe ff28 12bf a198 e6be 8764 0b3f
000000a0: a42a 073e 8735 15be 7d42 353d 49eb cf3e
000000b0: 2a90 2d3e bc48 eabe e550 ac3e d11d 0bbe
000000c0: 2286 623e 7160 20bc 66cb efbd 6807 06bf
000000d0: 43b5 9cbe afed acbe 7e71 6b3e cb03 78be
000000e0: 4eb7 a93e ee8b e13e 9af5 2c3e 7133 353e
000000f0: 5177 48be d0aa c03e 0e94 97bc 93ce 72be
00000100: 786a 283d 436e f4be 441d eb3d f8c3 9b3e
00000110: 4094 e7be 7259 003f 1be9 823d d93a 013e
00000120: 52be 81be 54be 31be d42b 12bf 973f 7a3c
00000130: 7ebe f33e 493e 9abe c78f 693e dddb a53e
00000140: 7b73 f23e 0653 4d3e fc37 89be b56c 9e3d
00000150: be43 8b3c 133f 743d c3dc e43e 29a4 88be
00000160: a4a7 e9be 6628 1f3e 4359 d03e 76ee e7bd
00000170: 6462 f4be a575 133e 4ca6 90be 5664 83bd
00000180: 7772 a23e be42 e43d e134 e23e 5438 ef3e
00000190: 6439 25be 5953 713e 2f42 91be 8cce 7ebd
000001a0: b626 873e 0d97 b7be 0ca5 113e 8e70 653e
000001b0: 1cf0 1a3f ee38 c1be ac42 b1bd b284 653e
000001c0: f284 633e 67c5 663e ee2c afbd 931c 06bf
000001d0: 7009 0ebe 16cf 85be 31ab 993e dfae 6fbe
000001e0: a2dd cb3d 6157 1bbd 7ca3 84be 6b46 073f
000001f0: a45b 7ebd d07f 71be 52fc 3e3e 597b 4f3e
00000200: 9a01 0abd af0d a53e f385 01bf 520c 8cbe
00000210: 34af 6b3e 7239 f83e ac81 a6be 7c9f d0be
00000220: c759 82be b672 8f3e fc1c 8c3e 1c69 8cbe
00000230: 8c66 b83e 0877 953e 5afa 35be e8dd 21bf
00000240: bc11 a23e f945 abbe e6e5 0e3e 0d78 1d3e
00000250: 5b89 fd3e d159 463e 2cbc b33e cb3c cbbe
00000260: e1bf 9dbe 5477 ec3d 4cb2 6f3e a141 e13d
00000270: f25d 643e 68fb 8b3e 65a9 5a3e d36a 38be
00000280: 4386 2abe fb89 d4be 42f5 0cbf caff ed3e
00000290: 7640 db3d 24fb 92be ea53 a63e fb98 293e
000002a0: 0cdc 873e f726 27bd c9b5 9c3e 8cb4 abbd
000002b0: 5612 26be f983 b0be 71c9 0abf 70d2 cbbe
000002c0: b49b a93d 28b0 b9bd 7d11 27be ec83 9a3e
000002d0: d0e4 b6be 02de 013e df44 debe acd9 e03e
000002e0: d7d9 cc3d a1d7 c53c 5351 1b3d 1012 8bbe
000002f0: 0fc9 613e e5f2 4e3e c76d 1c3d 4964 59bd
00000300: 77a7 db3e 5c76 a23e def8 5fbe 0932 af3e
00000310: fb4c 783e 9b56 94be 49dd af3e ea26 c23e
00000320: 4167 673e 39b5 07bf a367 8fbe 3dec b9bd
00000330: 0d91 db3e 4fa2 26be 643e 8a3e 4cd0 5bbe
00000340: c92e 3b3e 386c b83d 785c 7e3e b087 d03e
00000350: 7568 533e 5bc8 28be ca19 8bbc 73ec 94be
00000360: a935 83bd ceed 02bd 4e00 21be 1b22 963e
00000370: 0d03 83bd e6bd 133f 81d4 9e3d 2015 a5be
00000380: 948c 243e 17fc 8abe cce8 5cbd baf5 b53e
00000390: 4995 a9bd b01c 8abe d4a4 243f 4898 243f
000003a0: 06b9 25be 4d70 993c d07b c0bd febe 11bf
000003b0: 0129 efbe 3958 9d3e 2645 f23d 820b ad3d
000003c0: a4ee 9d3e ca6d 69be b739 edbe 0b7f 853d
000003d0: 15f0 423e 1cee bbbe dcc4 33be dd31 a83e
000003e0: fe2d fe3e 2f7c cd3e a44a 163e c325 bb3e
000003f0: eb9e eebd ffdc 3d3c da10 a33e d55e 093e
0.09924688 0.15084578 -0.39332795 0.04190695 -0.53915375 -0.18110768 -0.3221631 -0.3149153
0.49744946 -0.46356356 -0.0093116015 0.15005577 0.45286784 0.3489433 0.40727252 0.26243252
0.30728054 -0.43992093 -0.2515576 -0.50516105 0.014422166 -0.14588434 -0.2930629 0.29467633
-0.36082777 0.25300333 0.3307486 0.1369488 -0.45230445 -0.51051486 0.16283175 -0.47924504
0.45689055 0.20305175 -0.2459979 -0.4332137 -0.24798095 -0.57093805 -0.45038322 0.5445027
0.1319986 -0.145712 0.04425286 0.40609196 0.16949525 -0.45758617 0.33655468 -0.13585593
0.2212148 -0.009788618 -0.11708717 -0.5235505 -0.30607042 -0.33775088 0.22992513 -0.24220197
0.33147663 0.4405207 0.16890565 0.17695405 -0.19576766 0.3763032 -0.018503215 -0.23711614
0.04111716 -0.47740373 0.11480191 0.3042295 -0.45230293 0.5013648 0.063921176 0.12620105
-0.25340515 -0.1735776 -0.57098126 0.01527395 0.47606272 -0.30125645 0.22808753 0.32394305
0.4735373 0.20051202 -0.26800525 0.07735578 0.017000075 0.059630465 0.44699678 -0.26687744
-0.45635712 0.15542755 0.406931 -0.1132478 -0.47731316 0.14400347 -0.28251874 -0.06415622
0.31727955 0.111455426 0.44180968 0.46722662 -0.16135174 0.23566951 -0.28370807 -0.062208697
0.26396722 -0.3585743 0.14223117 0.22406217 0.6052263 -0.37738746 -0.08655295 0.224139
0.22218683 0.2253624 -0.085534915 -0.5238735 -0.13870788 -0.26134557 0.3001342 -0.23406552
0.099543825 -0.037925128 -0.2590598 0.52841824 -0.062099114 -0.23583913 0.1865094 0.20261897
-0.033692934 0.32237002 -0.50595015 -0.2735315 0.23016053 0.48481327 -0.32520807 -0.40746677
-0.2545912 0.28017205 0.27365863 -0.27423942 0.36015737 0.29192376 -0.17771283 -0.6322923
0.31654155 -0.33451822 0.13954887 0.15377827 0.49518856 0.193702 0.351045 -0.3969482
-0.30810454 0.115461975 0.23407859 0.10998846 0.22301462 0.27340245 0.21353681 -0.180095
-0.1665278 -0.4151152 -0.55061734 0.46484214 0.10705654 -0.2870723 0.32485896 0.16562264
0.2653507 -0.040808644 0.3060744 -0.08384046 -0.16217932 -0.34475687 -0.54213625 -0.3980899
0.08281651 -0.09066802 -0.16315265 0.30178773 -0.35721445 0.12682346 -0.4341192 0.4391607
0.10002487 0.024150671 0.037919354 -0.27162218 0.22049354 0.20209844 0.03819063 -0.053074155
0.42901203 0.31730926 -0.21872279 0.3421786 0.24248116 -0.28972325 0.34348515 0.37920314
0.22597982 -0.530109 -0.28008756 -0.09078262 0.42884102 -0.16272853 0.27000725 -0.21466178
0.18279566 0.09005016 0.24839962 0.4072852 0.20645316 -0.1648268 -0.01698007 -0.29086646
-0.06406719 -0.03196507 -0.15722772 0.29322895 -0.06397066 0.5771164 0.07755376 -0.3224268
0.16069251 -0.27145454 -0.05393295 0.35539037 -0.08280427 -0.26975012 0.6431401 0.6429486
-0.16183862 0.018730307 -0.09398615 -0.56932056 -0.4671097 0.3073137 0.11829595 0.084494606
0.3084613 -0.22795787 -0.46333095 0.06518372 0.19036897 -0.367051 -0.17555565 0.32850543
0.49644464 0.40133807 0.1467691 0.36552247 -0.11651405 0.011588334 0.31848794 0.13415082

fc.bias f4 [14]
00000000: 9017 5cbc deba 413e c63f 353e a069 4cbe
00000010: f2ea a03e 0189 49be d0d0 d4bd 4eb4 5bbe
00000020: a4cd 8ebe 9bf4 0fbe 2b2b 0f3e c6b3 f73d
00000030: 25c1 aabe 9ca0 adbd
-0.013433352 0.1891894 0.17700109 -0.19962168 0.3142925 -0.19681169 -0.1039139 -0.214555
-0.27891266 -0.14058153 0.13981311 0.12094836 -0.33350483 -0.084778994
