checkpoints/19_9feature_lstm_num_comm1999_an19_sn3_D25_al0.4_E5_B64_lr0.05_num_clients100_cf0.1.pth (torch, 230167 bytes, 9 tensors)

weight_ih_l0 f4 [400, 9]
0	0x3e441aac	0.191508
1	0x3e818d3f	0.25303075
2	0x3da06faf	0.07833802
3	0x3c1ab4a3	0.009442481
4	0xbd86aa76	-0.065754816
5	0xbacf34db	-0.0015808599
6	0x3d96dbf0	0.073661685
7	0x3d67e502	0.056614883
8	0xbcb62e01	-0.022238733
9	0x3ece64b2	0.403112
10	0xbb40a692	-0.0029396159
11	0x3c3734a0	0.01118198
12	0x3d505b43	0.050868284
13	0x3d52e517	0.05148801
14	0x3de06bb8	0.10958046
15	0xbd4be3af	-0.049777683
16	0xbca2c197	-0.019867701
17	0x3d6eb7f3	0.058280896
18	0x3e5e6d6f	0.21721433
19	0xbe564a8f	-0.2092688
20	0x3e3fa8df	0.18716763
21	0xbcd00992	-0.025395188
22	0x3dbc820a	0.092044905
23	0xbd164bcc	-0.03669338
24	0xbd4ce332	-0.050021358
25	0xbdb3b81e	-0.08775352
26	0xbdda0ae8	-0.106466115
27	0x3c003f61	0.007827611
28	0x3bae0bda	0.0053114714
29	0x3df7edff	0.12105941
30	0x3d9a1b34	0.0752472
31	0xbd436b3b	-0.047709685
32	0x3d48efc7	0.049056794
33	0xbbce9bd7	-0.0063051987
34	0xbada4d6d	-0.0016655155
35	0xbd170431	-0.03686923
36	0xbe264155	-0.1623586
37	0xbdceb6ff	-0.100934975
38	0x3bd4782f	0.0064840536
39	0x3da6cfd0	0.08145106
40	0xbcd3ea55	-0.025868574
41	0x3e129e84	0.14318281
42	0x3d9fc945	0.07802061
43	0x3d7a97ad	0.061179806
44	0x3b364dd9	0.0027817397
45	0xbe33ba6d	-0.17551585
46	0x3d256a60	0.04038465
47	0xba760acb	-0.00093857636
48	0x3e2b0dc6	0.16704473
49	0x3d01bc23	0.03167356
50	0xbe61ebb3	-0.22062568
51	0x3e618cc5	0.22026356
52	0x3d7ad4ba	0.061238028
53	0x3d632142	0.05545164
54	0xbd0198f4	-0.031640008
55	0x3e683cf0	0.22679496
56	0x3e97cef9	0.29650095
57	0xbd4455d7	-0.047933426
58	0xbd80499a	-0.062640384
59	0xbcc1f334	-0.023675539
60	0x3ca8406c	0.020538531
61	0x3e021836	0.12704548
62	0xbb878837	-0.004136111
63	0xbdd09863	-0.101853155
64	0x3e433260	0.19062185
65	0x3e1edb66	0.15513381
66	0x3d643870	0.055717885
67	0x3c6fa237	0.014626077
68	0xbd59d1ad	-0.053178478
69	0xbdb03390	-0.08603585
70	0x3d07e6fa	0.03317926
71	0x3d98906a	0.0744942
72	0x3b7ddd1f	0.0038736535
73	0xbea43799	-0.32073668
74	0x3dc0560a	0.09391411
75	0xbd0de638	-0.03464338
76	0xbc677e52	-0.014129238
77	0x3da7757a	0.08176704
78	0xbe02d483	-0.1277638
79	0xbce4d8ff	-0.027935503
80	0x3cade897	0.021229072
81	0xbd23db3d	-0.040004004
82	0xbc085ab0	-0.008322403
83	0xbd360cfe	-0.044445984
84	0x3c8163cb	0.015794655
85	0xbdaeba9b	-0.08531686
86	0xbe115f00	-0.14196396
87	0xbdd6d655	-0.10490099
88	0x3c843346	0.01613773
89	0xbd94abbf	-0.072593205
90	0xbdc6b8a5	-0.09703187
91	0xbe4d75fb	-0.20064537
92	0x3e10a155	0.14124043
93	0xbcffd168	-0.031227782
94	0x3bb9885f	0.0056620087
95	0xbda742ec	-0.08167061
96	0x3d467dab	0.04845969
97	0xbe2f75bb	-0.17134754
98	0x3d3111b6	0.04322978
99	0x3cc20d69	0.023688035
100	0xbd0f069d	-0.034918416
101	0x3e301bc3	0.1719809
102	0xbd986864	-0.07441786
103	0x3d06e38f	0.03293186
104	0xbd2aacb1	-0.041668598
105	0xbc83cb9e	-0.016088303
106	0xbc5eb390	-0.013592616
107	0x3dc6dff0	0.097106814
108	0x3dfa473b	0.122206174
109	0xbe096040	-0.13415623
110	0xbdd6ac68	-0.10482103
111	0x3db53d7f	0.0884962
112	0x3d944edf	0.07241606
113	0x3b82e813	0.0039949506
114	0xbd95672d	-0.0729507
115	0xbd49f320	-0.049304128
116	0xbd592e15	-0.053022463
117	0x3d976415	0.07392136
118	0x3e52e57b	0.20595352
119	0x3e73e257	0.2381681
120	0xbd7bc00f	-0.06146246
121	0xbdb273ef	-0.08713519
122	0x3c6530d0	0.013988689
123	0xbdacd8b9	-0.08439774
124	0xbd507037	-0.050888266
125	0xbe33e990	-0.17569566
126	0x3debae5d	0.115078665
127	0x39b99b9f	0.00035401896
128	0x3e40f65f	0.18843983
129	0x3daeb8a8	0.08531314
130	0xbcb57d34	-0.022154428
131	0x3c59117b	0.013248797
132	0xbda552a5	-0.08072404
133	0x3d99f000	0.075164795
134	0x3c1275df	0.0089392355
135	0x3d9ff04e	0.07809506
136	0xbe402d25	-0.18767221
137	0x3e9714bf	0.29508016
138	0x3dee3ce2	0.11632706
139	0xbd9541e3	-0.072879575
140	0x3ccbab74	0.024862029
141	0x3d64ba1b	0.055841547
142	0x3d45a716	0.04825505
143	0xbddc6c68	-0.10762864
144	0xbd856295	-0.06512944
145	0xbd85a8db	-0.06526347
146	0x3d9f867b	0.07789322
147	0xbd8bdcd6	-0.068292305
148	0xbd2dfcea	-0.042477526
149	0xbd3ccf7d	-0.046096314
150	0x3e5252af	0.20539354
151	0xbda9ac58	-0.08284825
152	0x3e6033b3	0.21894722
153	0x3c7a41ad	0.015274447
154	0xbd901733	-0.07035675
155	0x3e546913	0.20743208
156	0xbcf9dd1b	-0.03050094
157	0x3b4e7015	0.0031499912
158	0xbc1e6483	-0.009667519
159	0x3dc50a8c	0.09621152
160	0xbdb11140	-0.08645868
161	0xbd9e4e29	-0.077297516
162	0x3de75eda	0.112973884
163	0xbd1371a4	-0.035997048
164	0x3c567fc8	0.013091989
165	0x3d8f4d10	0.069971204
166	0xba55aa47	-0.00081506785
167	0xbbcc30c8	-0.006231401
168	0xbdfab3f7	-0.12241357
169	0x3b07b2ec	0.002070601
170	0xbd632500	-0.055455208
171	0x3e37ac68	0.17936862
172	0xbe2ea321	-0.17054416
173	0xbd16f654	-0.03685601
174	0xbde52042	-0.11187793
175	0xbd988453	-0.07447114
176	0xbcdaf003	-0.026725775
177	0x3cb89a02	0.022534374
178	0xba50f327	-0.0007970803
179	0xbdabe523	-0.08393314
180	0x3cb9e923	0.022694176
181	0xbe18237f	-0.1485729
182	0x3e4ece05	0.20195778
183	0x3c76e4cd	0.015069199
184	0x3d55cb67	0.052195933
185	0xbda89fd1	-0.082336076
186	0xbd8ae2a1	-0.06781507
187	0x3daf1628	0.08549148
188	0xbd2e6a51	-0.04258186
189	0x3e9f726b	0.3114198
190	0x3e02e2b1	0.12781788
191	0xbea5597a	-0.32294828
192	0xbdcb202a	-0.09918244
193	0xbd2d8cbf	-0.042370554
194	0xbdcb37ad	-0.09922729
195	0x3dcf578a	0.101241186
196	0xbe0ea137	-0.13928686
197	0xbd814b7e	-0.06313227
198	0x3e31202b	0.17297427
199	0xbe1c16e7	-0.15243112
200	0x3da20d91	0.07912744
201	0xbd295358	-0.04133925
202	0x3ce3d06a	0.02780934
203	0xbc14e87d	-0.009088633
204	0xbdbeba5f	-0.09312891
205	0x3c8cd328	0.01719053
206	0x3d8bc914	0.06825462
207	0xbf0c3e99	-0.54783016
208	0xbdf13ed2	-0.1177956
209	0xbdbe315f	-0.092867605
210	0xbc9f5673	-0.019450402
211	0xbd47a2d6	-0.048739277
212	0x3e00954b	0.12556951
213	0xbe67b527	-0.22627698
214	0x3dfea755	0.1243426
215	0x3db8cd0c	0.090234846
216	0x3dd5ec4f	0.10445463
217	0xbe595340	-0.21223164
218	0x3e68305a	0.22674695
219	0x3dd708e3	0.10499742
220	0x3c146ba1	0.009058864
221	0xbccc0c79	-0.024908291
222	0x3bc109f7	0.0058910805
223	0xbab9abef	-0.001416562
224	0xbbfee7ed	-0.0077791126
225	0x3d6db91a	0.058037855
226	0xbe447453	-0.19184999
227	0x3debe010	0.11517346
228	0xbd15e4e2	-0.036595233
229	0xbd978bc5	-0.07399706
230	0xbda2cea6	-0.07949571
231	0x3d87d378	0.06632131
232	0x3db5b623	0.088726304
233	0xbde16f0b	-0.11007508
234	0x3e12f583	0.14351468
235	0xbebb55d3	-0.36588916
236	0x3d27b3b3	0.04094286
237	0x3d4f04ff	0.050541874
238	0xbd98f35d	-0.07468293
239	0xbd9ae33a	-0.07562871
240	0x3ca9d02c	0.020729147
241	0xbd862709	-0.06550414
242	0xbde0561f	-0.10953926
243	0x3da87957	0.08226269
244	0xbdb5db6a	-0.088797405
245	0xbe2ee205	-0.17078407
246	0xbdae48b4	-0.08509961
247	0x3d3921da	0.0451983
248	0x3e131a70	0.14365554
249	0xbd7e0af2	-0.062022157
250	0xbd27398d	-0.04082637
251	0x3df84ca3	0.12123992
252	0x3e1a3d57	0.15062462
253	0xbe550caa	-0.20805612
254	0x3d936c83	0.07198431
255	0x3c7853ab	0.015156667

weight_hh_l0 f4 [400, 100]
0	0x3d5224bb	0.05130456
1	0xbcc462e1	-0.02397293
2	0xbd8c0fcb	-0.0683895
3	0xbce2f253	-0.02770344
4	0x3d8fe22f	0.07025563
5	0x3c85eacb	0.01634731
6	0xbda19d27	-0.078913026
7	0x3d74322d	0.059618164
8	0x3d26599b	0.0406128
9	0xbc8118d1	-0.015758904
10	0x3d652b37	0.055949416
11	0x3da78ec2	0.08181526
12	0xbc3a0945	-0.011354749
13	0xbdbb078c	-0.09132299
14	0xbd91673a	-0.07099767
15	0xbcc88eff	-0.024482248
16	0xbdc541e7	-0.096317105
17	0xbd9edda6	-0.0775712
18	0xbd5258b8	-0.05135414
19	0xbd2b9598	-0.04189071
20	0x3c358703	0.011079553
21	0x3d61f6fd	0.055167187
22	0x3d03e4ec	0.03220074
23	0xbd4990df	-0.049210425
24	0x3d5e0c72	0.054211088
25	0xbc5c99da	-0.013464415
26	0x3d157474	0.03648801
27	0x3d568dd5	0.052381355
28	0x3cd4436f	0.025911061
29	0xbca03422	-0.019556109
30	0x3cda7cd5	0.026670853
31	0x3d945625	0.07242993
32	0x3b243d65	0.0025061008
33	0xbc80a988	-0.015705839
34	0x3dacdc17	0.08440416
35	0x3ddbf28a	0.1073962
36	0xbd8d0e43	-0.06887486
37	0xbcd92e03	-0.026511198
38	0x3a407393	0.00073414407
39	0xbce589d0	-0.028019816
40	0x3c8b5a57	0.01701085
41	0xbde887f8	-0.11354059
42	0xbc639158	-0.013889633
43	0x3d044f85	0.0323024
44	0xbde9cb32	-0.114157096
45	0xbdb6aa53	-0.089192055
46	0x3d190054	0.03735383
47	0x3daf0c50	0.0854727
48	0xbdbd672f	-0.09248196
49	0xbd319bd1	-0.04336149
50	0x3d65e64b	0.056127828
51	0xbd161343	-0.036639463
52	0xbcab51c5	-0.020913014
53	0xbdf1b8eb	-0.118028484
54	0x3cb34c08	0.02188684
55	0xbc913585	-0.017725715
56	0x3c52e730	0.012872502
57	0x3d91c6d4	0.071180016
58	0x3c149b98	0.0090703
59	0xbcdfa700	-0.027301311
60	0x3d99ba93	0.07506289
61	0xbd7abdc5	-0.061216135
62	0xbd1e8e18	-0.03870973
63	0xbd37f530	-0.044911563
64	0x3db87ccd	0.09008179
65	0xbc603b0d	-0.013685954
66	0xbded274d	-0.11579762
67	0xbcdf43ad	-0.02725395
68	0x3d87a31a	0.06622906
69	0x3c4dd8ab	0.012563865
70	0x3d6cb478	0.057789296
71	0x3b28fdc2	0.0025786017
72	0x3dcf06f7	0.1010875
73	0xbdbc03fb	-0.09180447
74	0x3bb92612	0.0056502903
75	0x3d8a62e7	0.067571454
76	0xbdab7608	-0.08372122
77	0x3d7112c8	0.0588558
78	0xbd74fb5f	-0.05981004
79	0x3d464064	0.04840125
80	0xbd2fe98a	-0.04294733
81	0xbd2d8b8b	-0.042369407
82	0xba0ba85e	-0.0005327518
83	0xbd2a3ad3	-0.041560005
84	0xbd85dca3	-0.06536224
85	0xbb3acfcf	-0.0028505211
86	0x3a5293a8	0.0008032867
87	0xbc8127a4	-0.015765972
88	0x3d39ae6f	0.04533237
89	0xbd800a94	-0.062520176
90	0x3da32087	0.079651885
91	0xbd93024a	-0.07178171
92	0xbd82ad47	-0.06380706
93	0x3da01bce	0.07817803
94	0xbcc35f7f	-0.023849247
95	0x3d790afb	0.060801487
96	0xbd819bb6	-0.06328528
97	0x3e0c5dab	0.13707606
98	0x3c351f07	0.011054761
99	0xbd8ade65	-0.067807
100	0xbc60e030	-0.013725325
101	0x3b9e0917	0.004822861
102	0x3d36a9f3	0.04459567
103	0x3d2609c3	0.040536653
104	0x3c045611	0.00807716
105	0xbd8e8e67	-0.06960755
106	0xbd950a39	-0.072773404
107	0xbbf8af1f	-0.0075892354
108	0x3c2b5e82	0.010459544
109	0x3d4a8ba0	0.049449563
110	0xbda245fd	-0.079235055
111	0x3db2448f	0.08704483
112	0xbcf0307b	-0.029319992
113	0xbd82fea3	-0.06396224
114	0x3d592340	0.053012133
115	0xbd837def	-0.06420504
116	0xbddb65e8	-0.107127964
117	0xbd0faa4f	-0.03507453
118	0xbd77d7eb	-0.06050865
119	0x3c052224	0.008125816
120	0x3dd5eda7	0.10445719
121	0x3d0fed33	0.03513832
122	0x3dd00d63	0.10158803
123	0xbdc24300	-0.094854355
124	0x3d85e681	0.06538106
125	0xbd3f2a03	-0.046670925
126	0x3d60ed2a	0.054913677
127	0x3cec3d4a	0.028837819
128	0xbc3c09da	-0.011476958
129	0x3dd19063	0.10232618
130	0x3be4d55a	0.0069834413
131	0xbd8ecd48	-0.06972748
132	0x3dff9b45	0.12480787
133	0x3d703473	0.05864377
134	0xbb9447fd	-0.0045251832
135	0xbd31dd20	-0.04342377
136	0xbcdd0afa	-0.026982773
137	0x3d34e833	0.044166755
138	0xbcab656f	-0.02092239
139	0xbc36006e	-0.011108501
140	0x3d7ce94a	0.06174592
141	0x3d48449f	0.048893567
142	0x3d39e615	0.04538544
143	0xbd87fcb9	-0.0664
144	0x3dee4eed	0.11636148
145	0x3d428497	0.04748973
146	0x3da88b28	0.08229667
147	0x3c7981ab	0.015228669
148	0x3b86063b	0.004090098
149	0x3cab6e95	0.020926753
150	0xbb987835	-0.0046530017
151	0x3d6b89ed	0.057504583
152	0x3d9d730b	0.07687958
153	0x3d352313	0.044222903
154	0xbdd4d41a	-0.10392018
155	0xbd97df79	-0.07415671
156	0x3d2c1def	0.042020734
157	0xbcc057a7	-0.023479296
158	0xbc88153d	-0.01661169
159	0xbd6e9f63	-0.05825747
160	0x3b03c54d	0.0020106614
161	0xbd4e5bc3	-0.05038048
162	0xbdda2a37	-0.10652583
163	0xbd0800bb	-0.03320382
164	0x3c2a2ca9	0.010386624
165	0x3de494c5	0.11161188
166	0xbd9563ab	-0.07294401
167	0xbd9700b3	-0.0737318
168	0x3dd87137	0.10568469
169	0xbd24732d	-0.040148903
170	0xbad07dfd	-0.0015906688
171	0xbd905d6c	-0.07049069
172	0x3c7fde5f	0.015616982
173	0xbdb9ba28	-0.090687096
174	0xbcfd1ae5	-0.030896613
175	0x3d8bbe0f	0.0682336
176	0x3da9ff7f	0.08300685
177	0xbcaa1f84	-0.020766981
178	0xbd1dd28d	-0.038530875
179	0xbd372e6b	-0.044722002
180	0x3d0f305f	0.03495824
181	0x3dad264e	0.08454572
182	0xbcea3f28	-0.028594568
183	0xbd5b92b8	-0.05360672
184	0xbde2e8ba	-0.11079545
185	0x3dd823a8	0.10553676
186	0xbdb9424f	-0.090458505
187	0x3c849aa0	0.016187012
188	0xbdab0699	-0.08350868
189	0x3cf58998	0.029972836
190	0x3c96bf3f	0.01840174
191	0x3d5fedc7	0.05467012
192	0xbdde534d	-0.10855732
193	0x3d7e8f58	0.062148422
194	0x3cd9f773	0.02660725
195	0xbd8867ca	-0.06660421
196	0x3d09e4df	0.033665534
197	0x3d2d60b8	0.042328566
198	0x3dfd937b	0.12381645
199	0x3daa6fad	0.08322082
200	0x3cfc0b6d	0.030767167
201	0xbd643ee8	-0.055724055
202	0x3d8646a8	0.06556445
203	0xbd3f2c22	-0.046672948
204	0x3debf373	0.11521044
205	0xbd3a3c6b	-0.045467775
206	0xbdaec8a0	-0.0853436
207	0x3d97240d	0.07379923
208	0x3d839a17	0.06425875
209	0x3cab4ec3	0.02091158
210	0xbd1dfcac	-0.038571045
211	0x3d31aa91	0.043375555
212	0xbdbc0db0	-0.09182298
213	0xbd3d318b	-0.046189826
214	0xbde97047	-0.11398368
215	0xbd2f51ff	-0.042802807
216	0xbcd2c9fb	-0.025731077
217	0xbd3ab8be	-0.04558634
218	0xbd5ee747	-0.054419782
219	0xbd914fed	-0.07095323
220	0x3db32d8e	0.08748923
221	0x3a9d1ebc	0.0011987309
222	0x3cf1499b	0.029454043
223	0xbc19f1c4	-0.00939602
224	0x3da33993	0.07969966
225	0xbdaaa2e3	-0.083318494
226	0x3b2361cb	0.0024930115
227	0xbd9acbc0	-0.075583935
228	0x3ba55f24	0.005046742
229	0x3d8bac18	0.06819934
230	0xbda16cbd	-0.07882068
231	0xbda08fc6	-0.078399226
232	0x3d98dd87	0.07464128
233	0xbce33f6f	-0.027740208
234	0xbdc73dde	-0.09728597
235	0xbd9dec49	-0.077110834
236	0xbda1a5b5	-0.07892934
237	0xbd43f8cf	-0.047844704
238	0xbd1d3d13	-0.038388323
239	0xbcd4a6d0	-0.025958449
240	0x3c89435d	0.016755754
241	0x3c8cada3	0.01717264
242	0xbd4c67d3	-0.049903702
243	0xbc839b23	-0.016065186
244	0x3ceb6997	0.028736873
245	0xbd7c3e6a	-0.06158296
246	0xbb4c03fa	-0.00311303
247	0x3d181262	0.037126906
248	0xbd54b280	-0.051928043
249	0x3cb843ba	0.022493232
250	0xbcc0cfc7	-0.023536576
251	0x3cae4ea8	0.02127774
252	0xbd0db317	-0.03459462
253	0x3ccb3f53	0.024810469
254	0xbcd323d8	-0.025773928
255	0x3d3f8373	0.04675622

bias_ih_l0 f4 [400]
0	0xbc076f53	-0.008266288
1	0x3d0f42a3	0.03497566
2	0x3d2589bb	0.040414553
3	0x3d91d6a9	0.07121021
4	0x3db86431	0.09003485
5	0x3e6b67b7	0.22988783
6	0x3ce87ffb	0.028381338
7	0x3e239725	0.15975626
8	0x3d8df15d	0.06930802
9	0x3c77f713	0.015134591
10	0x3b4f0743	0.0031590022
11	0xbcdd4992	-0.02701262
12	0xbdca7353	-0.098852776
13	0x3d71d975	0.059045274
14	0x3e0e4577	0.13893686
15	0x3e1a414a	0.15063968
16	0x3dc12604	0.09431079
17	0x3db1263c	0.08649871
18	0x3dec0040	0.11523485
19	0x3ded442b	0.11585268
20	0x3d821c4e	0.06353055
21	0x3e1ab056	0.1510633
22	0x3d9d901b	0.076935016
23	0x3d6047d7	0.05475601
24	0xbc756afd	-0.014979121
25	0xbbde6598	-0.0067870133
26	0x3d6ce6e5	0.057837386
27	0x3bb2be75	0.005454833
28	0x3d96fdba	0.07372613
29	0x3e0111b3	0.12604408
30	0x3d81b3c1	0.063331135
31	0x3d4d00bf	0.05004954
32	0x3a5c3058	0.0008399538
33	0xbcca289a	-0.024677563
34	0x3b067ce5	0.002052122
35	0x3d67951a	0.05653868
36	0x3e1b12e8	0.15143931
37	0xbcfe3eef	-0.031035868
38	0xbdada6b5	-0.084790625
39	0x3dbc53fb	0.091957055
40	0xbb6540ed	-0.0034981326
41	0x3d27a8e7	0.040932562
42	0x3da370a5	0.079804696
43	0xbc0f9f86	-0.008766061
44	0x3d536387	0.05160859
45	0x3d46a6a3	0.04849876
46	0x3dd9a098	0.10626334
47	0xbd4787c3	-0.048713457
48	0xbb439753	-0.0029844835
49	0x3e36e0e5	0.17859228
50	0x3c979b9b	0.018506816
51	0xbd05189e	-0.03249418
52	0x3cdb1aed	0.026746238
53	0x3e0d2a56	0.13785681
54	0xbb303797	-0.0026888603
55	0x3d9d6d1a	0.07686825
56	0x3e4d003b	0.20019619
57	0xbc84e37f	-0.01622176
58	0x3d742fb2	0.0596158
59	0x3d691d70	0.05691284
60	0x3cb87a80	0.02251935
61	0x3d8adaaf	0.06779992
62	0x3def1ce5	0.11675433
63	0xbd445ba3	-0.047938954
64	0x3d1538a2	0.036430962
65	0x3db64e0f	0.08901607
66	0x3d9666ba	0.07343812
67	0x3d4c9eeb	0.049956243
68	0x3d960f0d	0.073270895
69	0x3e031cda	0.12803975
70	0x3cf90153	0.03039614
71	0x3db4d7b8	0.088302076
72	0x3d3ecc77	0.04658171
73	0x3c3f6bf1	0.01168345
74	0xbb054487	-0.0020335035
75	0x3c6c5a0b	0.014425765
76	0xbc871e22	-0.01649386
77	0xbd530123	-0.051514756
78	0xbd537c6d	-0.051632334
79	0xbb2e3f85	-0.0026588154
80	0x3d395b7c	0.045253262
81	0x3d734385	0.059390564
82	0x3d95e4db	0.07319041
83	0xbd169a71	-0.03676838
84	0x3baefeb2	0.0053404206
85	0x3df9f4d7	0.122049026
86	0x3dbccdbc	0.09218928
87	0x3e36993f	0.17831896
88	0x3e251af9	0.1612357
89	0x3dcca70e	0.09992801
90	0x3d742415	0.059604723
91	0x3df92570	0.12165344
92	0x3d54e2cd	0.051974107
93	0xbc47fbba	-0.012206012
94	0xbcd7a1bb	-0.026322236
95	0x3c9b1a8f	0.018933563
96	0xbcc6e27d	-0.02427792
97	0x3cb8bf4b	0.022552153
98	0x3d697465	0.056995768
99	0x3dc669d8	0.09688157
100	0x3bad484c	0.0052881595
101	0x3d2a92ff	0.041644093
102	0x3cb24afa	0.021764267
103	0x3da0727f	0.078343384
104	0x3df44303	0.11926844
105	0x3e2f56e2	0.17122987
106	0x3d6fb30d	0.058520366
107	0x3db9c6f5	0.09071151
108	0x3de33b60	0.11095309
109	0x3d6bbf27	0.057555344
110	0x3debb938	0.11509937
111	0x3de81da5	0.11333779
112	0xbd72503f	-0.05915856
113	0x3bf38cd8	0.0074325614
114	0x3d3e8ff7	0.046524014
115	0xbcf5733a	-0.02996217
116	0x3e0a273f	0.13491534
117	0x3d388d1b	0.045056444
118	0x3e0ffa36	0.14060292
119	0x3d5c838f	0.0538364
120	0x3d97bee4	0.07409456
121	0x3d40738b	0.04698519
122	0xbcabd007	-0.020973219
123	0x3e039a7c	0.128519
124	0xbb297aa8	-0.0025860462
125	0x3d3011fa	0.042985894
126	0x3e118617	0.14211307
127	0x3d6ac108	0.057312995
128	0x3cabfe54	0.020995297
129	0x3d8140f0	0.06311214
130	0x3c884a0b	0.016636869
131	0x3da8afc2	0.08236648
132	0x3b8cc70a	0.0042961882
133	0x3d7dea9a	0.06199131
134	0xbb8a084f	-0.0042124162
135	0x3ca15702	0.019694809
136	0x3c45286f	0.012033566
137	0xbd5794e2	-0.05263222
138	0x3c871c61	0.016493024
139	0xbb8c46af	-0.004280887
140	0x3db25237	0.087070875
141	0x3c68210a	0.014168033
142	0x3dcdb12a	0.10043557
143	0x3d522b53	0.05131085
144	0x3dd86adb	0.10567256
145	0xbd046d83	-0.032331
146	0x3dcf37f3	0.10118093
147	0x3e137beb	0.1440274
148	0x3e2077a2	0.15670636
149	0x3e33e4ed	0.17567797
150	0x3dc3efdd	0.09567235
151	0x3e28700a	0.1644899
152	0x3d894ece	0.06704484
153	0xbbc4e487	-0.006008688
154	0x3db82ec9	0.089932986
155	0x3e097f8a	0.13427559
156	0x3df48c55	0.11940829
157	0xbdc42ab0	-0.095784545
158	0x3ce10323	0.027467316
159	0x3c99813f	0.018738387
160	0x3dbf1003	0.09329226
161	0x3e16753b	0.14693157
162	0x3d7e407f	0.062073227
163	0xbc47fdaf	-0.012206479
164	0x3b45d362	0.0030185808
165	0x3e33e76f	0.17568754
166	0x3db6ed2e	0.08931957
167	0x3bb75bff	0.0055956836
168	0x3dc852c7	0.097814135
169	0x3dafed71	0.0859021
170	0xbcfbff3d	-0.030761356
171	0x3d04cbcf	0.03242093
172	0xbc5746cd	-0.013139439
173	0xbd4e19ba	-0.050317504
174	0x3e3555b1	0.1770847
175	0x3d0b2f1a	0.033980466
176	0x3d00dcda	0.03146062
177	0x3d966c9f	0.073449366
178	0xbb54dc67	-0.0032480003
179	0x3dd3b38a	0.10336979
180	0x3d498a7c	0.049204335
181	0x3dcc4372	0.09973802
182	0xbdadc378	-0.08484548
183	0x3d316b73	0.043315362
184	0x3c590efd	0.013248202
185	0xbd0abde7	-0.03387251
186	0x3da8c657	0.08240955
187	0x3d91d212	0.07120146
188	0x3da348eb	0.079728924
189	0x3d9b7383	0.075903915
190	0x3d03d7ff	0.03218841
191	0xbcc3ef56	-0.023917835
192	0x3dc9ebb0	0.09859407
193	0xbc926f1b	-0.017875245
194	0x3da889e7	0.08229428
195	0xbd120795	-0.035651762
196	0x3ceb00b2	0.028686855
197	0x3c70f412	0.014706628
198	0xbd5810f7	-0.052750554
199	0x3e1b390e	0.15158483
200	0x3bd716ed	0.0065640123
201	0xbdedf432	-0.11618842
202	0xbe7c4cbb	-0.24638645
203	0x3ea15dd0	0.31516886
204	0x3e82e9ab	0.255689
205	0xbf051f04	-0.5200045
206	0x3dfb95a2	0.122843996
207	0x3e35669e	0.17714927
208	0xbd8562d1	-0.06512988
209	0xbe1de1db	-0.15418188
210	0x3e49f88f	0.19723724
211	0x3e4c49af	0.19949983
212	0x3c5cafeb	0.0134696765
213	0xbd1337ab	-0.03594176
214	0xbd93fc26	-0.07225828
215	0xbe800e27	-0.25010797
216	0xbe6ff73b	-0.23434155
217	0xbc9ee93a	-0.01939832
218	0x3e258657	0.16164528
219	0x3e73f1c2	0.23822692
220	0x3e9323bd	0.28738204
221	0xbd89a8db	-0.0672166
222	0xbef96933	-0.48713073
223	0xbd9e5dff	-0.07732772
224	0x3e224ef8	0.15850437
225	0x3e2b6333	0.1673706
226	0x3d40650b	0.046971362
227	0xbdbfb3eb	-0.093604885
228	0xbdd2cacb	-0.10292586
229	0xbda29ec3	-0.07940438
230	0xbdbe37a3	-0.092879556
231	0xbde6db5b	-0.112723075
232	0x3daeb392	0.08530344
233	0xbdf7550d	-0.12076769
234	0xbe80f868	-0.2518952
235	0x3ecfe720	0.40606022
236	0xbe20e2dd	-0.15711541
237	0xbdce11f7	-0.1006202
238	0x3c8f67f2	0.01750562
239	0xbda70220	-0.08154702
240	0xbe6aad0f	-0.22917579
241	0xbe4519ea	-0.19248167
242	0x3ecf9163	0.4054061
243	0xbe269ab5	-0.16269954
244	0xbabd68e9	-0.0014450821
245	0x3e18491e	0.14871642
246	0x3e38cc34	0.18046647
247	0xbe3394ac	-0.17537183
248	0xbe3eeac2	-0.1864424
249	0x3e3bf71f	0.18355988
250	0x3ba157d5	0.0049238005
251	0xb9f47747	-0.00046628175
252	0x3e6d71b7	0.2318791
253	0x3e05eeb2	0.13079336
254	0xbdb55977	-0.08854955
255	0x3e01da2b	0.1268088

bias_hh_l0 f4 [400]
0	0x3d41d082	0.04731799
1	0x3db88f07	0.09011655
2	0x3dd158b7	0.10221999
3	0x3c58c9fa	0.013231749
4	0x3d60747a	0.05479858
5	0x3e8b335d	0.27187625
6	0x3dc3dbd7	0.095634155
7	0x3da9db1b	0.08293744
8	0x3d16e7ef	0.036842283
9	0x3e1a7ad8	0.15085924
10	0x3e242694	0.16030341
11	0x3daecea9	0.08535511
12	0x3dac178e	0.0840293
13	0x3dead24a	0.11465891
14	0x3dec57ba	0.1154017
15	0x3d8f336c	0.0699223
16	0x3c126b73	0.008936751
17	0x3d80623a	0.06268735
18	0x3d9f18e1	0.07768417
19	0x3dcbb7c0	0.09947157
20	0x3d6c10d7	0.057633247
21	0x3e1f1616	0.15535769
22	0x3e4eda67	0.20200501
23	0x3e605c57	0.21910225
24	0x3c667b13	0.014067429
25	0x3cb6c097	0.02230863
26	0x3d86eec3	0.06588509
27	0x3d870f25	0.065946855
28	0x3da8c7ca	0.08241232
29	0xbb4fa580	-0.003168434
30	0x3e393e9a	0.18090287
31	0x3d9db15a	0.07699843
32	0xbd829178	-0.06375402
33	0x3e026394	0.12733299
34	0x3e207e77	0.15673243
35	0x3e1b123a	0.15143672
36	0xbc2444b5	-0.010026147
37	0xbd4ba0dc	-0.049713954
38	0x3daf06be	0.08546208
39	0x3e21c871	0.15799119
40	0x3ca8abf4	0.020589806
41	0x3c8fb0d6	0.017540377
42	0x3e42861b	0.1899647
43	0x3e0acbef	0.13554357
44	0x3db6eae5	0.08931521
45	0xbc5b510a	-0.01338602
46	0xbd3797a2	-0.044822343
47	0xba8a8329	-0.0010567653
48	0x3dfd5347	0.123693995
49	0x3d9d390d	0.07676897
50	0x3d8ec752	0.06971611
51	0x3e005fcf	0.12536548
52	0x3be89915	0.007098327
53	0x3d7de377	0.061984506
54	0x3e20422d	0.15650244
55	0xbc12bca3	-0.008956107
56	0x3ddaafaf	0.1067804
57	0x3b8eefb7	0.0043620723
58	0xbd208593	-0.039189886
59	0x3ddbf95a	0.107409194
60	0xbb4470b7	-0.002997441
61	0x3e0a57df	0.13510083
62	0x3e174be6	0.14775047
63	0x3dd15480	0.10221195
64	0x3db1ba5d	0.08678124
65	0x3e3ab06c	0.18231362
66	0x3dde89f5	0.10866157
67	0xbc02234b	-0.007942985
68	0x3dc07fab	0.09399351
69	0x3de0c0fa	0.10974307
70	0x3db255b6	0.08707754
71	0x3c93b8d3	0.018032467
72	0xbda39477	-0.07987302
73	0x3bb7196b	0.005587747
74	0xbcc1b08b	-0.023643753
75	0xbd3c8ea1	-0.04603446
76	0x3dd02173	0.1016263
77	0x3cc5d278	0.02414821
78	0x3e04992f	0.1294906
79	0x3d1c0b07	0.038096454
80	0x3dd71980	0.105029106
81	0xbd1d342b	-0.03837983
82	0x3db2e2b9	0.0873465
83	0x3d41cdcf	0.047315415
84	0xbc534007	-0.012893683
85	0xbd8ff388	-0.07028872
86	0x3de5a83b	0.11213728
87	0x3dd2ac50	0.10286772
88	0x3de3e272	0.111271754
89	0x3e0ca90b	0.1373636
90	0x3e44c25b	0.19214766
91	0x3dcfaa02	0.10139848
92	0x3bd0eb33	0.006375694
93	0xbbf81343	-0.0075706556
94	0xbb67ef70	-0.0035390519
95	0xbd8e27f6	-0.06941216
96	0x3dd62e42	0.10458042
97	0x3d339717	0.043845262
98	0xbdb57b55	-0.08861414
99	0x3d8fae7a	0.07015701
100	0xbc033856	-0.008009037
101	0x3d6c382a	0.05767075
102	0xbd21e44e	-0.03952437
103	0x3e054876	0.13015923
104	0x3e01819f	0.12647103
105	0x3e1cdac4	0.15317827
106	0x3d3eba64	0.046564475
107	0x3cd814f3	0.026377177
108	0x3bdf80c0	0.006820768
109	0x3e32c051	0.17456175
110	0x3c53ba17	0.012922785
111	0x3d51ac0f	0.05118948
112	0x3d44054e	0.04785662
113	0x3dea8c1a	0.114525035
114	0x3de77bf3	0.11302938
115	0x3d36593f	0.044518705
116	0xbcec5bca	-0.028852362
117	0x3e035ea0	0.12829065
118	0x3e281677	0.1641482
119	0x3e065d21	0.13121463
120	0x3e368812	0.17825344
121	0x3ded1f87	0.11578279
122	0x3d274157	0.040833797
123	0x3e51e79f	0.20498513
124	0x3dbff8da	0.093736365
125	0xbd6e7917	-0.05822095
126	0x3d446705	0.04794981
127	0x3cdb6ee2	0.026786271
128	0x3daef84e	0.08543454
129	0x3e26f045	0.16302593
130	0x3d9e8687	0.07740503
131	0xbce2ac6b	-0.027670106
132	0x3d5708b2	0.052498527
133	0x3db2b63b	0.08726164
134	0xbd17d4fa	-0.037068345
135	0x3e2249f9	0.15848531
136	0x3d921a7d	0.071339585
137	0xbd2d6fdd	-0.04234301
138	0x3e131c60	0.14366293
139	0xbd06c65d	-0.032904018
140	0x3df182c0	0.11792517
141	0x3e100384	0.14063841
142	0x3db79d83	0.0896559
143	0xbd411377	-0.047137704
144	0x3d366d9c	0.044538125
145	0x3df6c22d	0.12048755
146	0x3d6fb167	0.058518793
147	0x3e1ea9bb	0.15494435
148	0x3d88be1e	0.06676887
149	0x3e428dfd	0.18999477
150	0xbcd691a2	-0.02619249
151	0x3dda5a9f	0.10661816
152	0x3d395118	0.045243353
153	0xbcfbbeaf	-0.030730573
154	0x3c933b37	0.017972572
155	0x3ddd38f3	0.10801878
156	0x3de78215	0.11304108
157	0xbd85728d	-0.065159895
158	0x3d8a14a9	0.06742222
159	0x3baf8c28	0.005357284
160	0x3b531dcb	0.0032213803
161	0x3caec4a2	0.021333996
162	0xbc97f523	-0.018549507
163	0xbda3c947	-0.07997375
164	0x3c98ba5e	0.018643554
165	0x3d6f59c5	0.05843522
166	0x3d260d64	0.040540114
167	0xbd05fe79	-0.032713387
168	0x3d8235f7	0.06357949
169	0xbd04fd53	-0.03246815
170	0x3c8a738b	0.016900798
171	0x3db0ad26	0.086267754
172	0x3baad4bf	0.0052133496
173	0x3ddca0ad	0.10772834
174	0x3e5013ca	0.20320049
175	0x3c473ba3	0.012160215
176	0x3dea5f98	0.11444014
177	0x3c4743ba	0.012162143
178	0x3e2adba3	0.16685347
179	0x3e0ccec7	0.13750754
180	0x3ddcf82d	0.10789523
181	0x3dfeb328	0.12436515
182	0x3d8aad90	0.06771386
183	0xbd598153	-0.05310185
184	0x3c95da41	0.018292548
185	0xbd253191	-0.040330473
186	0x3da21ca7	0.07915621
187	0x3db7f147	0.08981567
188	0x3e030f93	0.1279891
189	0x3e24bfc9	0.16088785
190	0x3e360c0f	0.17778037
191	0x3ac44253	0.001497338
192	0x3d7da168	0.061921507
193	0xbcdff965	-0.0273406
194	0xbd245a40	-0.04012513
195	0x3d893762	0.067000166
196	0xbcfb7987	-0.030697597
197	0x3d55fe5a	0.05224452
198	0x3da68941	0.08131648
199	0x3d9736b8	0.07383484
200	0x3b3c37b5	0.0028719727
201	0xbe14f55e	-0.14546725
202	0xbe874809	-0.26422146
203	0x3e865540	0.26236916
204	0x3e6537e8	0.22384608
205	0xbf095224	-0.5364096
206	0x3e1de823	0.15420584
207	0x3e285e82	0.16442302
208	0x3b0d14f5	0.0021527384
209	0xbe48c6d3	-0.19607095
210	0x3e813a75	0.25239912
211	0x3d1fca0d	0.03901105
212	0xbe2e2d23	-0.17009406
213	0xbd864383	-0.065558456
214	0xbe477cfd	-0.19481273
215	0xbe890b41	-0.267664
216	0xbe256567	-0.16151963
217	0x3e25897b	0.16165726
218	0x3e81423a	0.2524584
219	0x3e60bc62	0.21946862
220	0x3e71a675	0.23598655
221	0xbd2317b7	-0.039817538
222	0xbeeeaa53	-0.46614322
223	0xbe335163	-0.17511515
224	0x3d8ea17f	0.06964397
225	0x3df34c93	0.1187984
226	0xbd03c215	-0.032167513
227	0x3c3b5d79	0.01143586
228	0xbde7b3cb	-0.1131359
229	0xbe401615	-0.18758424
230	0xbdc4e9f3	-0.09614935
231	0xbe36b8c7	-0.17843924
232	0x3bffd65a	0.007807535
233	0xbe3ec9d3	-0.18631677
234	0xbea94858	-0.33063006
235	0x3ec657d6	0.38738889
236	0xbe0ff116	-0.1405681
237	0xbd70859b	-0.058721166
238	0xbd3ee3f7	-0.046604123
239	0xbe32c359	-0.17457332
240	0xbe6beccf	-0.23039554
241	0xbe1512c9	-0.14557947
242	0x3e8de9d2	0.27717453
243	0xbe2cfb76	-0.168928
244	0x3e2f9c4c	0.17149466
245	0x3ddfa2cf	0.10919725
246	0x3e58caa2	0.21171048
247	0xbdbfa23f	-0.09357118
248	0xbe48a092	-0.19592503
249	0x3e434acf	0.19071506
250	0xbdf62e7a	-0.120205835
251	0x3b143ff8	0.0022621136
252	0x3dbf9cd4	0.093560845
253	0x3d8bc77a	0.068251565
254	0xbdd5ebe0	-0.1044538
255	0x3e1514ac	0.14558667

weight f4 [100, 100]
0	0x3c467ab8	0.012114219
1	0x3d1e9f73	0.03872628
2	0x3d116568	0.0354971
3	0xbd3b0d31	-0.045666877
4	0x3cb8211d	0.022476727
5	0xbda99b0b	-0.08281525
6	0x3cdb1ada	0.026746202
7	0xbc10ee3d	-0.008845863
8	0x3c9ae3ad	0.018907392
9	0x3d33f948	0.043938905
10	0x3c89edbb	0.016836992
11	0xbd8d2da4	-0.06893471
12	0x3c785695	0.0151573615
13	0x3ca9420f	0.020661382
14	0x3d923a7b	0.071400605
15	0x3cec7f30	0.028869241
16	0xbd36be63	-0.04461516
17	0x3d223ec3	0.039610635
18	0xbd8a9875	-0.0676736
19	0x3dc51828	0.09623748
20	0xbdc41193	-0.095736645
21	0x3dd40e00	0.10354233
22	0x3ac6f670	0.0015179645
23	0xbada34b0	-0.0016647782
24	0xbb0cb658	-0.002147099
25	0x3d27a30a	0.04092697
26	0xbde350bb	-0.110993825
27	0x3c193af7	0.009352437
28	0x3daabbdf	0.08336615
29	0xbcdf3eff	-0.027251719
30	0xbd94d27a	-0.07266708
31	0x3d11d5ab	0.03560416
32	0xbda80cd2	-0.0820557
33	0xbd6bd1fb	-0.0575733
34	0xbd92f6fe	-0.07176016
35	0x3d9295e7	0.07157498
36	0xbd87630b	-0.06610688
37	0x3cb5ed72	0.02220795
38	0xbceb16ef	-0.028697459
39	0x3dd7089a	0.104996875
40	0x3ca5efdb	0.020255974
41	0x3d4d7fa0	0.05017054
42	0x3d939ea0	0.0720799
43	0x3d8bb86e	0.068222865
44	0xbd1524d2	-0.036412068
45	0x3d3fdd80	0.0468421
46	0xbd173442	-0.03691507
47	0x3dabbbf6	0.0838546
48	0xbd8d8489	-0.06910045
49	0xbdd48a48	-0.103779376
50	0xbdaa4671	-0.08314217
51	0x3c518ee3	0.0127904145
52	0xbe03bf38	-0.12865913
53	0xbd223d43	-0.039609205
54	0xbd88a5e1	-0.06672264
55	0x3cf8aa52	0.030354653
56	0xbd33ab09	-0.043864284
57	0xbd47ea2c	-0.048807308
58	0xbe0b8d20	-0.13628054
59	0xbc1ad8c9	-0.0094511
60	0xbd27ace3	-0.040936362
61	0xbd8c0a6b	-0.068379246
62	0xbaaf9da5	-0.0013398422
63	0xbd97f66a	-0.07420047
64	0x3cdd4ee2	0.027015153
65	0xbd615b60	-0.055018783
66	0xbcf470bb	-0.02983891
67	0xbd910e17	-0.070827655
68	0x3db5c94f	0.08876287
69	0x3e0772a3	0.13227324
70	0x3d346508	0.044041663
71	0xbd94fe27	-0.07275038
72	0x3d9bf7df	0.07615637
73	0xbda0d6af	-0.07853448
74	0x3d9dc049	0.07702691
75	0x3db663c0	0.089057446
76	0xbd8dcf7a	-0.06924339
77	0x3dbb48b1	0.09144724
78	0xbd3e195f	-0.046410915
79	0xbd9ffad9	-0.07811517
80	0x3d1e224c	0.038606927
81	0x3cecd4ad	0.028910005
82	0xbd252718	-0.040320486
83	0xbd383d15	-0.044980127
84	0xbdbe918d	-0.09305105
85	0xbd1f733d	-0.03892826
86	0xbdb404cc	-0.087899774
87	0xbc54663a	-0.012963826
88	0xbdc44e8a	-0.09585293
89	0xbdd4a1a5	-0.10382394
90	0x3cf6a705	0.030108938
91	0x3e064dca	0.13115612
92	0xbc83f8c8	-0.01610984
93	0xbdb0238a	-0.086005285
94	0x3b3ea5f0	0.0029090606
95	0x3cd0cef5	0.02548931
96	0x3d11a112	0.035554
97	0xbd47fee5	-0.04882707
98	0xbd0bc4dd	-0.03412329
99	0xbbc36366	-0.005962777
100	0x3cbdce45	0.023169646
101	0xbd4e52ef	-0.05037206
102	0x3d8108ba	0.063004926
103	0xbd8f74fa	-0.070047334
104	0x3df447a2	0.119277254
105	0x3d9f57c6	0.07780413
106	0x3c400c6f	0.011721714
107	0xbd02370b	-0.031790774
108	0x3c963d42	0.018339757
109	0xbdf2e3f2	-0.11859883
110	0x3ce5fbda	0.028074194
111	0x3d38d215	0.045122225
112	0xbdbcc8d8	-0.092179954
113	0x3c977cee	0.018492188
114	0xbd33ed7b	-0.04392765
115	0x3decb737	0.11558383
116	0xbda8eb62	-0.08248021
117	0x3af51998	0.0018699644
118	0xbd9c97bf	-0.07646131
119	0x3e49e82d	0.19717474
120	0xbd1b3bfb	-0.037899
121	0xbd0a8434	-0.033817485
122	0x3cfd68ba	0.030933727
123	0x3c600b95	0.013674636
124	0x3d12e1b8	0.035859793
125	0x3d9707fb	0.07374569
126	0x3bf98878	0.0076151453
127	0x3b1daf10	0.0024060644
128	0xbd8750d5	-0.06607214
129	0xbb958b73	-0.004563743
130	0x3dd3d537	0.10343402
131	0x3d915757	0.07096737
132	0x3d1d972f	0.038474258
133	0xbdcb8481	-0.099373825
134	0x3e2c1a75	0.16806968
135	0x3d8c249c	0.0684292
136	0xbd8dc97d	-0.069231965
137	0xbd97a602	-0.0740471
138	0xbd2e52c2	-0.042559393
139	0x3d8654f0	0.06559169
140	0xbccabe0a	-0.02474882
141	0xbd28e1e3	-0.041231047
142	0x3b43538d	0.0029804439
143	0x3dbef177	0.093233995
144	0x3db2ee70	0.087368846
145	0xbc4125c6	-0.011788791
146	0x392179f9	0.00015399595
147	0x3cdcc438	0.026949033
148	0x3d8f5d8f	0.07000267
149	0x3d4d065b	0.05005489
150	0x3dc83e37	0.097774915
151	0x3dc23e21	0.094845064
152	0xbe16be5e	-0.14721057
153	0x3d981f79	0.07427878
154	0xbdb1fafe	-0.08690451
155	0xbc4a7a1b	-0.012358214
156	0x3c46127f	0.012089371
157	0xbd36e9cd	-0.044656564
158	0xbdf3f777	-0.119124345
159	0x3be7025f	0.007049843
160	0x3dcc7301	0.09982873
161	0x3d9e3e19	0.07726688
162	0x3dd25c70	0.10271537
163	0xbdc61b1f	-0.09673142
164	0xbcb5f723	-0.02221257
165	0xbd8e1248	-0.069370806
166	0xbd602da0	-0.05473101
167	0xbd00898e	-0.031381182
168	0x3cdb7a30	0.026791662
169	0x3e186ba3	0.1488481
170	0x3ccc1fcf	0.024917511
171	0x3d617dad	0.055051494
172	0xba47e108	-0.000762478
173	0x3d933933	0.07188644
174	0x3d4d7a3f	0.05016541
175	0xbc4e0b37	-0.012575916
176	0xbdfae150	-0.12250006
177	0xbd646e50	-0.055769265
178	0xbc94ab2b	-0.018148025
179	0xbd963b75	-0.07335559
180	0x3ded95bd	0.11600826
181	0xbdd83f2d	-0.10558925
182	0xbca33d38	-0.019926652
183	0x3d8fba7c	0.07017991
184	0x3a51c38b	0.00080018555
185	0xbd692858	-0.05692324
186	0x3cd8678a	0.026416559
187	0xbdd42723	-0.10359027
188	0xbdbff918	-0.09373683
189	0x3c465143	0.012104335
190	0xbdde8e00	-0.10866928
191	0x3e02d8d9	0.12778033
192	0x3c9352d1	0.017983826
193	0xbd96b31a	-0.0735838
194	0xbd6f5513	-0.058430742
195	0xbd9baca5	-0.07601289
196	0x3d0ef444	0.03490092
197	0xbd28b467	-0.04118767
198	0x3cb75b93	0.022382533
199	0xbca6939b	-0.020334056
200	0xbd27b9da	-0.040948726
201	0x3d8cc24b	0.06872996
202	0x3cfaa363	0.030595487
203	0x3dc85e4b	0.0978361
204	0xbdca4390	-0.09876168
205	0xbd7831ea	-0.060594477
206	0x3db34f67	0.08755379
207	0x3d9dac23	0.07698848
208	0x3db4b425	0.08823422
209	0x3d87336c	0.06601605
210	0xbd4d9d48	-0.050198823
211	0xbd49a07f	-0.049225327
212	0xbbaf4a80	-0.0053494573
213	0x3d6e7ee3	0.058226477
214	0x3c9f77ff	0.019466398
215	0xbd729e72	-0.059233136
216	0xbd1c6588	-0.038182765
217	0x3d8404d3	0.06446233
218	0xbc252699	-0.010080003
219	0xbcfbc9e5	-0.03073592
220	0xbd20d1ff	-0.039262768
221	0xbd1e7027	-0.038681176
222	0xbd3050cd	-0.043045808
223	0xbda6eca0	-0.081506014
224	0xbd0c5af8	-0.034266442
225	0x3d71363a	0.058889605
226	0xbdb29e8c	-0.08721647
227	0x3cc03bf4	0.023466088
228	0xbbd260d2	-0.0064202333
229	0x3d1b8862	0.03797186
230	0x3ca1803f	0.019714473
231	0xbdb6d90c	-0.08928117
232	0xbd48555f	-0.04890954
233	0x3d4daaa2	0.050211556
234	0xbd5a71fd	-0.053331364
235	0x3cfeec3a	0.031118501
236	0xbc31a04a	-0.010841439
237	0x3d380a20	0.04493153
238	0x3c68600b	0.014183055
239	0x3d2731c3	0.04081894
240	0x3b9977ac	0.0046834555
241	0x3db09dc0	0.086238384
242	0xbce10470	-0.027467936
243	0xbde8bbd5	-0.11363951
244	0x3d66d7d7	0.056358185
245	0x3d59c3d3	0.05316527
246	0x3d27c458	0.040958732
247	0xbd443da5	-0.04791035
248	0xbda337bb	-0.07969614
249	0xbd6233ad	-0.055225063
250	0xbb407666	-0.0029367446
251	0x3cd1df8d	0.025619293
252	0x3d9c4e30	0.076321006
253	0xbcb923da	-0.022600103
254	0xbd42a470	-0.0475201
255	0x3c1715d3	0.009221512

bias f4 [100]
0	0x3dc004d1	0.09375919
1	0x3ddbf89d	0.107407786
2	0x3d59fbea	0.05321876
3	0x3e067065	0.13128813
4	0x3d017914	0.03160961
5	0x3d2c2ed2	0.04203684
6	0x3cee7dc5	0.029112706
7	0xbd15463d	-0.036443938
8	0x3dfe2f9d	0.12411425
9	0x3da11df8	0.07867044
10	0xbe064293	-0.13111334
11	0xbc384f31	-0.011249349
12	0x3c8b755c	0.017023735
13	0xbc9a0673	-0.018801903
14	0x3de969a7	0.11397105
15	0xbd8a879b	-0.06764146
16	0x3c0f9a4c	0.008764815
17	0x3cce3827	0.02517326
18	0x3d583430	0.052784145
19	0xbe074653	-0.1321042
20	0x3cdac2b7	0.026704175
21	0x3d8e5110	0.06949055
22	0xbc837d77	-0.016051037
23	0x3e038f0f	0.12847541
24	0xbc7c3807	-0.015394217
25	0x3d0e412a	0.034730114
26	0xbd01c1a0	-0.031678796
27	0x3e112967	0.1417595
28	0xbdbf4b2b	-0.09340509
29	0xbcf0d550	-0.02939859
30	0xbd32eceb	-0.043682974
31	0x3cb2eb0f	0.0218406
32	0xbd4ffaea	-0.0507764
33	0x3cd9654f	0.026537566
34	0xbcdfd36d	-0.027322495
35	0xbbc692ca	-0.006059979
36	0x3d9dbbf3	0.07701864
37	0xbd14782c	-0.036247417
38	0xbc07a183	-0.0082782535
39	0xbd8feab3	-0.07027187
40	0x3b9da975	0.0048114606
41	0x3d961ca5	0.07329682
42	0xbdd70265	-0.104985036
43	0xbd2cefc5	-0.04222085
44	0x3cf5101b	0.029914906
45	0xbe07d5db	-0.13265173
46	0x3e3f828e	0.18702146
47	0x3b686040	0.003545776
48	0x3d78532f	0.060626205
49	0xbe0a4eab	-0.13506572
50	0x3dfb6e5a	0.12276907
51	0x3dae734b	0.08518084
52	0x3e35daaf	0.17759202
53	0xbced370f	-0.028956918
54	0x3d3cc93f	0.04609036
55	0x3c99071c	0.018680148
56	0xbdbee37e	-0.093207344
57	0xbd6767c3	-0.05649544
58	0xbdf11eed	-0.11773477
59	0x3e0e7d10	0.13914895
60	0xbc1c7a93	-0.009550708
61	0x3ccf5d28	0.025312975
62	0xbc8236c7	-0.01589526
63	0x3df42f55	0.1192309
64	0xbd680235	-0.05664273
65	0x3d3b1982	0.045678623
66	0xbdf7bf55	-0.120970406
67	0xbb89d873	-0.004206711
68	0xbdba99ec	-0.091113895
69	0xbdc54936	-0.096331045
70	0x3d5f9ce3	0.05459298
71	0xbcb36c1a	-0.021902133
72	0x3df5c038	0.119995534
73	0xbcd10c40	-0.025518537
74	0xbcf7c22f	-0.030243961
75	0xbde0768a	-0.109601095
76	0xbd8595e6	-0.065227315
77	0x3d1f07d3	0.03882582
78	0xbc30c867	-0.010789967
79	0x3d21df03	0.03951932
80	0x3da7b5f2	0.08189
81	0x3cac537b	0.0210359
82	0x3aba1339	0.0014196403
83	0xbd07deb2	-0.033171363
84	0xbcd2fdc5	-0.025755772
85	0x3da49047	0.08035331
86	0x3d8593d9	0.0652234
87	0xbd2a9990	-0.041650355
88	0x3db8390c	0.08995256
89	0x3e2f7d93	0.17137747
90	0x3da96c08	0.082725585
91	0x3d2c793a	0.0421078
92	0x3d987f93	0.07446208
93	0xbdf75f4f	-0.120787255
94	0xbe0cf929	-0.13766922
95	0xbb8bd7a8	-0.0042676516
96	0xbd7e2280	-0.06204462
97	0xbc87733b	-0.016534438
98	0x3d015766	0.03157749
99	0xbdaa7700	-0.08323479

weight f4 [1, 100]
0	0xbe9e56cd	-0.309256
1	0xbf03263b	-0.5123021
2	0x3e29a505	0.16566856
3	0xbec0a575	-0.37626234
4	0x3efa5125	0.48890033
5	0xbebd6260	-0.36989117
6	0xbeae77c7	-0.34075758
7	0xbd0db8ce	-0.03460007
8	0xbece44e3	-0.4028693
9	0x3e5b7cea	0.2143437
10	0x3f223f9b	0.63378304
11	0xbecbe6cc	-0.39824522
12	0xbea0d944	-0.3141576
13	0xbe3280c6	-0.17431936
14	0xbec7ea26	-0.3904583
15	0x3eef4670	0.46733427
16	0xbe36ad61	-0.17839576
17	0x3ee299c2	0.44257933
18	0xbe05cfe2	-0.13067582
19	0x3ec9921b	0.39369282
20	0x3e8ff6de	0.28118032
21	0x3dcf2f55	0.1011645
22	0xbefcef13	-0.4940115
23	0xbf2a8dbc	-0.6662252
24	0xbe2984d6	-0.16554579
25	0xbef07868	-0.46966863
26	0x3ee00478	0.4375341
27	0xbeee0015	-0.46484438
28	0x3e9a070a	0.30083495
29	0xbe4d766a	-0.20064703
30	0xbde511c7	-0.111850314
31	0x3b653410	0.0034973659
32	0xbed94d93	-0.42441997
33	0x3ecdfcd7	0.40231964
34	0xbebef0df	-0.37293145
35	0x3e724e17	0.23662601
36	0x3dbed35e	0.09317659
37	0x3e964acb	0.29353938
38	0xbeb1d48e	-0.3473248
39	0xbea4b490	-0.32169008
40	0xbf0c4a3b	-0.54800767
41	0xbeeb335d	-0.45937625
42	0x3ef6fe2d	0.48240796
43	0x3ef0448b	0.46927294
44	0xbe607d8f	-0.21922897
45	0x3f0cdd14	0.5502484
46	0xbf546050	-0.8295946
47	0xbea0cfdd	-0.31408587
48	0xbe7c025f	-0.2461028
49	0x3f0c9e57	0.5492911
50	0xbeeaa110	-0.45826006
51	0xbee7779a	-0.45208436
52	0xbf318154	-0.69337964
53	0x3ef55233	0.47914276
54	0xbea5fcb6	-0.32419366
55	0x3eb0df6f	0.34545466
56	0xbda75938	-0.08171314
57	0xbe931c12	-0.28732353
58	0x3f0ccc2f	0.5499906
59	0xbf0a72cf	-0.54081434
60	0x3edf1570	0.43571043
61	0xbe66716b	-0.22504203
62	0x3e9d3a77	0.30708668
63	0xbed08a73	-0.40730628
64	0xbe2b7a27	-0.16745816
65	0x3c428291	0.01187195
66	0x3ec98c98	0.39365077
67	0xbe349c2b	-0.17637698
68	0x3e011c6b	0.12608497
69	0x3e1a14d2	0.15047005
70	0xbe8882b2	-0.26662213
71	0x3e2f1e23	0.1710134
72	0xbebef71b	-0.37297902
73	0xbed595cd	-0.4171585
74	0xbe13532c	-0.14387196
75	0x3e5d84af	0.21632646
76	0xbe944f5a	-0.2896679
77	0x3df44a0b	0.11928185
78	0xbe35abe8	-0.17741358
79	0xbe7f370f	-0.24923347
80	0x3e31a1be	0.17346856
81	0x3e164e9a	0.14678422
82	0x3eaaea00	0.33381653
83	0x3e26bed2	0.1628373
84	0x3ef5cb38	0.48006606
85	0xbe27003b	-0.16308682
86	0x3e84d9fa	0.25947553
87	0xbe8a8046	-0.2705099
88	0xbedab358	-0.42714953
89	0xbf201a11	-0.62539774
90	0xbe6838e3	-0.2267795
91	0xbeaeb489	-0.34122112
92	0xbe06b7e5	-0.13156088
93	0x3f11e44f	0.56988996
94	0x3f09298d	0.53579026
95	0x3ee9fc60	0.4570036
96	0x3d957d33	0.072992705
97	0xbeb6de47	-0.3571646
98	0x3e5527c8	0.20815957
99	0x3e4974a3	0.196734

weight f4 [19, 100]
0	0x3e1b9615	0.1519397
1	0xbecfe3f0	-0.4060359
2	0x3ea03c46	0.31295985
3	0x3ec6e667	0.38847658
4	0x3e886e23	0.26646528
5	0x3dfc41aa	0.12317212
6	0xbe21a53e	-0.15785691
7	0x3e376532	0.17909697
8	0xbeccc3d2	-0.3999315
9	0x3e75af9a	0.23992768
10	0x3e223dbf	0.15843867
11	0x3e987159	0.29773977
12	0x3e5d1837	0.21591268
13	0xbe8d35a2	-0.2757998
14	0xbecdc212	-0.40187126
15	0xbeb32abc	-0.3499354
16	0xbebb6657	-0.36601517
17	0x3e125fcd	0.14294358
18	0x3e4ce800	0.20010376
19	0xbe4effc7	-0.20214759
20	0x3e53006a	0.20605627
21	0x3efd8f7f	0.4952354
22	0x3cdbacbd	0.026815766
23	0xbd942d61	-0.07235218
24	0x3ee657cf	0.44988868
25	0x3d9d301f	0.07675194
26	0x3e1070d9	0.14105548
27	0x3d710e80	0.05885172
28	0x3eb6ac0f	0.35678145
29	0xbe1d5e72	-0.1536806
30	0xbf04ddac	-0.51900744
31	0xbe7545db	-0.23952429
32	0xbeedeabb	-0.46468148
33	0x3ee95c70	0.45578337
34	0xbec7fca0	-0.39059925
35	0x3d004769	0.031318102
36	0xbe81de63	-0.2536498
37	0x3e8e6937	0.27814648
38	0xbdb8ce5e	-0.090237364
39	0x3e83e2a6	0.25758857
40	0xbde9d532	-0.11417617
41	0x3e6cd22d	0.2312705
42	0x3e8a8b46	0.27059382
43	0xbe6b8a8d	-0.23002072
44	0x3e751e8b	0.23937432
45	0xbe871cf0	-0.26389265
46	0xbe97039c	-0.2949494
47	0x3c8b4c73	0.017004227
48	0xbee17d47	-0.44040892
49	0xbdd0653b	-0.10175558
50	0xbd6d83e3	-0.057987105
51	0xbdb81fa2	-0.089904085
52	0xbc402ee8	-0.011729933
53	0xbdf7198d	-0.1206542
54	0xbe1bcaf9	-0.15214147
55	0xbe9af54f	-0.3026528
56	0x3cc6a075	0.024246434
57	0xbe11cf9e	-0.14239356
58	0x3e20e74c	0.15713233
59	0x3eb7fb79	0.35934046
60	0x3ebb10f3	0.3653637
61	0xbddbc797	-0.10731428
62	0xbeb48d0e	-0.35263866
63	0x3d83b987	0.06431871
64	0x3e0a96ea	0.13534132
65	0xbcdaa28a	-0.026688833
66	0x3b09077f	0.002090901
67	0x3cc1e28b	0.023667594
68	0xbd779dd7	-0.060453262
69	0x3eefc708	0.46831536
70	0x3e5c2e70	0.2150209
71	0x3d9658bb	0.07341143
72	0xbe2bd10f	-0.16778968
73	0x3e587652	0.21138886
74	0xbe972e33	-0.29527435
75	0xbc34cff2	-0.011035906
76	0xbc81d794	-0.015849866
77	0x3e87aea4	0.26500428
78	0xbeb212ca	-0.3477996
79	0xbe295a7c	-0.16538423
80	0x3e31a66b	0.1734864
81	0xbeee85ba	-0.465864
82	0x3e8e68a5	0.27814212
83	0xbe52a3a2	-0.20570233
84	0xbe7cad28	-0.24675429
85	0x3d8e0f5c	0.06936523
86	0xbeeb163b	-0.45915398
87	0x3e6efe88	0.23339283
88	0xbd46ebfb	-0.048564892
89	0x3e1fd652	0.156091
90	0xbeaacb2f	-0.33358142
91	0x3e3f4d78	0.18681896
92	0x3f0a2cb0	0.5397444
93	0x3da074eb	0.078348
94	0xbeaa610b	-0.33277163
95	0xbe0520da	-0.13000813
96	0x3efe35f3	0.49650535
97	0xbea69033	-0.3253189
98	0x3f07f997	0.5311522
99	0x3eb4887d	0.35260382
100	0xbe1bb7bb	-0.15206806
101	0x3ea25b4f	0.31710288
102	0x3eaab7bb	0.333433
103	0x3ea9d43c	0.33169734
104	0x3e479353	0.19489793
105	0x3edd7b67	0.4325821
106	0x3e815c61	0.25265792
107	0xbd7ad3ad	-0.061237026
108	0x3ef38f33	0.4757019
109	0xbd875ad9	-0.06609125
110	0x3ea38259	0.31935385
111	0x3ecd0152	0.4004007
112	0xbe862664	-0.26201165
113	0xbe4377ec	-0.19088715
114	0xbe7e386f	-0.24826215
115	0x3d090124	0.033448353
116	0xbe27ffbc	-0.16406149
117	0x3e790c78	0.24321163
118	0x3d0d30d7	0.034470405
119	0xbe88b6b6	-0.26701897
120	0x3e621cd3	0.22081308
121	0xbefc8212	-0.49317986
122	0x3e920669	0.28520516
123	0xbe33c601	-0.17556001
124	0x3e9ee1e7	0.31031725
125	0xbe7ac8fd	-0.24490733
126	0xbeb7362f	-0.35783526
127	0xbe149233	-0.14508896
128	0xbee2dcdd	-0.4430913
129	0xbc94099c	-0.018070988
130	0xbd586d95	-0.05283888
131	0xbda03b77	-0.07823842
132	0x3ed9fab7	0.42574093
133	0xbe153e2f	-0.14574502
134	0x3ef54438	0.4790361
135	0x3e95e356	0.29275006
136	0x3b8dbca2	0.0043254653
137	0x3e74a0c0	0.23889446
138	0xbe937c0b	-0.28805575
139	0x3e7545c5	0.23952396
140	0xbe47b316	-0.1950191
141	0x3df7433b	0.1207337
142	0xbe73a74b	-0.23794286
143	0x3e6af887	0.22946368
144	0x3e5a54cf	0.21321414
145	0xbe547c73	-0.20750599
146	0xbd77a8bb	-0.06046365
147	0xbeb8b0ca	-0.3607238
148	0xbec6b48b	-0.38809618
149	0x3e093835	0.13400348
150	0xbe405f3f	-0.18786334
151	0xbe938b55	-0.2881724
152	0x3e844f87	0.25841925
153	0xbe0dc05e	-0.13842914
154	0x3dd114ad	0.10209022
155	0xbea0872b	-0.31353125
156	0xbe4b95b7	-0.1988133
157	0xbdbf3eb4	-0.093381315
158	0x3eb93fef	0.3618159
159	0x3e0a69e5	0.13516958
160	0xbec4a857	-0.38409683
161	0x3e3bc8c8	0.1833831
162	0xbea88b6f	-0.3291888
163	0x3e8f0fb3	0.27941665
164	0x3e77215b	0.24133818
165	0x3eb7feff	0.35936734
166	0x3e5df5f0	0.21675849
167	0x3ee5e172	0.44898564
168	0xbdac837b	-0.084235154
169	0x3c801f72	0.015639994
170	0x3ee72eb8	0.4515283
171	0x3da3a5d7	0.07990616
172	0x3e373181	0.17889978
173	0xbd962e4a	-0.07333048
174	0xbeacfeca	-0.3378814
175	0xbe9a45c4	-0.30131352
176	0xbd36cdff	-0.044630047
177	0x3dd6e988	0.10493761
178	0xbe9039a6	-0.28168982
179	0x3ea52717	0.32256386
180	0x3eb9b2c1	0.3626919
181	0x3e76f9bf	0.24118708
182	0x3e89e3d0	0.2693162
183	0xbe8c9fd3	-0.27465686
184	0xbec7be04	-0.39012158
185	0xbe8474f5	-0.2587048
186	0x3eff5072	0.49866062
187	0x3de1c633	0.110241316
188	0xbef9e5f7	-0.48808262
189	0xbe87d2b3	-0.26527938
190	0xbd153ee3	-0.036436927
191	0xbd05dc0f	-0.032680567
192	0xbf08a043	-0.5336954
193	0x3e19c75b	0.15017454
194	0xbec588f9	-0.38581064
195	0xbebbfc2f	-0.36715838
196	0xbe7e214b	-0.24817388
197	0x3e95d4e6	0.2926399
198	0x3e99f23b	0.3006762
199	0x3e6ad8a3	0.22934203
200	0x3d169d28	0.03677097
201	0x3e620045	0.22070415
202	0xbe373da6	-0.17894611
203	0x3e776ca0	0.24162531
204	0xbf32c14b	-0.6982619
205	0xbf151c43	-0.5824625
206	0xbe95f9ed	-0.2929224
207	0x3edbbe62	0.42918688
208	0xbec5828b	-0.3857616
209	0x3e513d78	0.20433605
210	0x3e644afa	0.22294226
211	0x3e41b39b	0.1891617
212	0x3e8ecb6d	0.27889577
213	0x3e737157	0.23773704
214	0x3ee24558	0.4419353
215	0xbee8baa2	-0.4545489
216	0xbe306a16	-0.17227969
217	0xbf05b6ca	-0.5223204
218	0xbe5a60ef	-0.2132604
219	0xbeee5e15	-0.46556154
220	0x3e9538f3	0.2914501
221	0x3eb051f3	0.34437522
222	0xbde7b352	-0.113134995
223	0x3f09ca8f	0.53824705
224	0xbdb475c2	-0.08811523
225	0x3e257b1c	0.16160244
226	0x3e22db14	0.15903884
227	0x3e4c5c68	0.19957125
228	0x3d821321	0.06351305
229	0x3dbf5feb	0.09344467
230	0x3e69e100	0.22839737
231	0xbe9b618f	-0.3034787
232	0xbd868b97	-0.065695934
233	0x3ef45d47	0.47727415
234	0xbd9a8805	-0.07545475
235	0x3e428706	0.1899682
236	0x3eb4901d	0.352662
237	0x3e86e665	0.26347652
238	0x3f19dd45	0.60103256
239	0x3ef1f4d7	0.4725711
240	0xbd877fb9	-0.06616158
241	0xbeef9a9f	-0.46797654
242	0x3c09cbfc	0.00841045
243	0xbec1d439	-0.37857226
244	0xbe85e2ce	-0.261496
245	0x3e3dac6c	0.18522805
246	0x3e106487	0.14100848
247	0x3d58c96d	0.05292647
248	0x3f0490a5	0.5178321
249	0x3e53bf7d	0.20678516
250	0x3ee70ce0	0.4512701
251	0x3e38af59	0.1803564
252	0xbe7d2142	-0.24719718
253	0xbce90e62	-0.028449241
254	0x3f2b80cf	0.6699342
255	0x3ddd5807	0.108078055

bias f4 [19]
0	0x3e825eb9	0.25462893
1	0x3e54494b	0.20731084
2	0x3f2b2657	0.66855377
3	0x3fa6dfe5	1.3037077
4	0x3f056eda	0.5212227
5	0x3f0bfbb3	0.5468094
6	0x3e84bc5a	0.2592495
7	0x3fbcd07b	1.4751123
8	0x3ec8166f	0.39079615
9	0x3ea25c6f	0.31711146
10	0x3e839cd5	0.2570559
11	0x3e0b460b	0.13600938
12	0x3e3d674f	0.1849644
13	0x3d2f9f9d	0.04287683
14	0x3e76e563	0.24110942
15	0x3f1ab950	0.60439014
16	0x3e3a8c0a	0.18217483
17	0x3ee3bd77	0.44480488
18	0x3f33438f	0.7002496
