checkpoints/19_9feature_lstm_num_comm999_an19_sn3_D25_al0.9_E5_B64_lr0.05_num_clients100_cf0.1.pth (torch, 230103 bytes, 9 tensors)

weight_ih_l0 f4 [400, 9]
0	0x3d8e3d91	0.069453366
1	0xbdd35f30	-0.1032089
2	0x3e5e2215	0.21692689
3	0xbd5b1aeb	-0.053492468
4	0xbd80f852	-0.06297363
5	0x3c8a593a	0.01688825
6	0x3d85d65f	0.06535029
7	0x3dc65cb8	0.096856534
8	0xbd04cf29	-0.032424126
9	0x3e809c10	0.25119066
10	0xbe0370e6	-0.12836036
11	0x3d46d3f8	0.048541993
12	0x3d701c58	0.05862078
13	0x3c31d660	0.010854334
14	0x3d860c39	0.065453
15	0xbc9f68cd	-0.019459153
16	0xbc0c615b	-0.008568133
17	0x3d99b333	0.07504883
18	0xbd5d9ae8	-0.05410281
19	0xbe411128	-0.18854201
20	0xbcca399c	-0.024685673
21	0xbd7470ed	-0.059678007
22	0x3dc1c02a	0.094604805
23	0xbc8b3147	-0.01699127
24	0x3a8886b5	0.0010416122
25	0xbd862e2f	-0.065517776
26	0xbddbe9b8	-0.10737938
27	0xbe1091c1	-0.141181
28	0x3e12bac1	0.14329053
29	0xbe65b703	-0.22433095
30	0xbc3fe528	-0.01171235
31	0xbcddba92	-0.027066503
32	0x3e3db03e	0.18524262
33	0xbc5281e3	-0.01284835
34	0xbd3a31aa	-0.04545752
35	0xbcd38bc5	-0.025823483
36	0xbdb97c95	-0.09056965
37	0xbe32e050	-0.17468381
38	0x3ca02ff3	0.019554114
39	0x3cc77b0b	0.024350664
40	0x3c577538	0.013150506
41	0x3dbbb497	0.09165304
42	0x3df214a2	0.11820342
43	0x3d95e791	0.073195584
44	0x3b3d012e	0.0028839814
45	0xbe9ef67e	-0.31047434
46	0xbdbe5fd5	-0.09295622
47	0x3e47c7bb	0.19509785
48	0x3db198ce	0.08671723
49	0x3c61268a	0.013742099
50	0xbe1a0173	-0.15039615
51	0x3ea43c4a	0.32077247
52	0x3d2a1fe2	0.041534312
53	0x3d56f398	0.052478403
54	0xbdf44a82	-0.11928274
55	0xbd0156db	-0.031576972
56	0x3e964ef7	0.2935712
57	0x3d6860f2	0.05673308
58	0xbdce433b	-0.10071417
59	0x3dc40799	0.09571762
60	0x3d88c265	0.06677703
61	0x3ddfa845	0.10920767
62	0xbb31b42d	-0.002711545
63	0xbe354708	-0.17702878
64	0x3e298bae	0.1655719
65	0x3dd0df5f	0.10198855
66	0x3d06acd0	0.03287965
67	0x3cd4d8d7	0.025982304
68	0xbd0b39f9	-0.033990834
69	0xbd6a67ea	-0.057228006
70	0x3cd59b12	0.02607492
71	0x3d324337	0.043521132
72	0xbe5f5055	-0.21807988
73	0xbef41d33	-0.47678527
74	0x3cbf45f4	0.023348786
75	0xbd8d2986	-0.068926856
76	0x3cf029bd	0.029316777
77	0x3d42fdb3	0.047605228
78	0xbda6a147	-0.0813623
79	0xbc957d5a	-0.018248249
80	0xbcbd24eb	-0.023088893
81	0x3b432485	0.0029776406
82	0xbda4338a	-0.08017643
83	0x3df480e2	0.11938645
84	0x3df1919f	0.11795353
85	0xbe14a629	-0.1451651
86	0xbe14367c	-0.14473909
87	0xbd93794b	-0.07200869
88	0x3cb3d2df	0.021951137
89	0xbd6bb7ed	-0.057548452
90	0x3e90cf26	0.28283042
91	0xbe9f309b	-0.3109177
92	0x3db5fd70	0.0888623
93	0xbc808e7b	-0.01569294
94	0xbb26ea7f	-0.002546936
95	0xbd9c3f21	-0.076292284
96	0xbc5d2435	-0.013497402
97	0xbda8448f	-0.082162015
98	0x3d9eedc8	0.07760197
99	0x3e4f6508	0.20253384
100	0xbe139ef7	-0.14416109
101	0x3e5fd323	0.21857886
102	0xbd733e63	-0.05938567
103	0x3d978363	0.07398107
104	0x3c7dd963	0.015493724
105	0xbd3e7be8	-0.046504885
106	0x3b76f648	0.0037683416
107	0x3dae1be7	0.08501416
108	0x3e032482	0.12806895
109	0xbe8dfebb	-0.27733406
110	0xbd9bfd2c	-0.07616648
111	0x3df75db8	0.12078422
112	0x3d2bfda0	0.041989923
113	0x3cc85771	0.024455758
114	0xbdcda393	-0.10040965
115	0xbd95544c	-0.07291469
116	0xbd6dfa0b	-0.058099788
117	0xbcdbf84d	-0.026851797
118	0x3b7a7563	0.003821694
119	0x3dec44f0	0.11536586
120	0xbd15e6cd	-0.036597062
121	0xbe05e723	-0.13076453
122	0xbd1d8b73	-0.038463067
123	0xbb2304ca	-0.002487468
124	0x3bef690a	0.007306223
125	0xbdacbbe3	-0.08434274
126	0x3c90e8a0	0.01768905
127	0x3d1d2613	0.03836639
128	0x3d35b85f	0.044365283
129	0x3d8ce7eb	0.06880172
130	0xbd520d45	-0.051282186
131	0xbd388ab0	-0.045054138
132	0xbe04cff0	-0.12969947
133	0x3d970b4a	0.073752
134	0xbca3247e	-0.019914862
135	0x3e27de74	0.16393453
136	0xbe1e79bb	-0.15476124
137	0x3e3278d7	0.17428909
138	0x3d580e62	0.05274809
139	0xbd8169b8	-0.063189924
140	0x3d126ecf	0.035750207
141	0x3d307a7f	0.04308557
142	0x3d919497	0.071084194
143	0xbda7d9f3	-0.081958674
144	0x3be852f7	0.0070899683
145	0x3da90f40	0.08254862
146	0x3cff21d5	0.031144062
147	0xbda00c14	-0.07814804
148	0xbd90eb0f	-0.07076084
149	0xbd37bc73	-0.044857454
150	0x3dea80e7	0.114503674
151	0xbcd75157	-0.026283903
152	0x3e606a00	0.21915436
153	0x3da60ca1	0.081078775
154	0xbe134716	-0.14382586
155	0x3e3b4df9	0.18291463
156	0xbd185209	-0.03718761
157	0x3cfc0465	0.030763814
158	0x3b81062c	0.0039375033
159	0x3dc0c8f5	0.094133295
160	0xbd8e42a0	-0.069463015
161	0xbda05a11	-0.07829679
162	0x3d276776	0.040870152
163	0xbdb299f2	-0.08720769
164	0xbe1a9437	-0.15095602
165	0x3dd7d85b	0.105393134
166	0x3c317bac	0.010832708
167	0x3d08f682	0.033438213
168	0xbdad73bf	-0.084693424
169	0x3d8441aa	0.06457837
170	0xbd22e40b	-0.03976826
171	0x3e837d76	0.25681657
172	0xbdb93343	-0.090429805
173	0x3e105a0a	0.14096847
174	0xbdcbaae6	-0.09944706
175	0xbd48fd79	-0.049069855
176	0xbd5ea5c8	-0.05435732
177	0xbc647273	-0.013943302
178	0xbab2fb13	-0.0013655148
179	0xbdc4a2b5	-0.096013464
180	0xbe07e24f	-0.13269924
181	0xbd15d6af	-0.03658169
182	0x3ed942b3	0.424337
183	0xbd54daf3	-0.05196662
184	0x3dadad0b	0.08480271
185	0xbd03ffbb	-0.032226305
186	0xbe568377	-0.20948587
187	0x3ddb2715	0.10700814
188	0xbd817e74	-0.06322947
189	0x3ef3515b	0.47523007
190	0x3dd2a58a	0.1028548
191	0xbe96ee48	-0.2947867
192	0x3c37a5cf	0.011208965
193	0xbd558c7d	-0.052135933
194	0xbe04f169	-0.12982716
195	0x3dacd221	0.084385164
196	0xbddb1535	-0.10697404
197	0xbcb033b3	-0.021509027
198	0x3e100436	0.14064106
199	0xbddfb2ff	-0.10922813
200	0x3dab7414	0.083717495
201	0xbd106d2f	-0.035260376
202	0x3c627c98	0.013823651
203	0x3c3d221f	0.01154378
204	0xbd905139	-0.07046742
205	0x3bffab95	0.0078024366
206	0x3dac2140	0.084047794
207	0xbe02b53f	-0.12764452
208	0xbe6971bd	-0.22797294
209	0x3e0a3dad	0.1350009
210	0xbd79bfcb	-0.060973924
211	0xbd2a272b	-0.04154126
212	0xbb897162	-0.0041944245
213	0x3d728edd	0.059218276
214	0x3c89da80	0.016827822
215	0x3db8a74d	0.09016285
216	0x3db5f357	0.08884304
217	0xbe818e38	-0.25303817
218	0x3dd1e667	0.10249024
219	0x3db0aa22	0.086262
220	0x3af9fb93	0.0019072167
221	0xbc866283	-0.016404396
222	0x3c9cd848	0.0191461
223	0x3b8278e4	0.0039816964
224	0xbcbe2cac	-0.02321466
225	0x3dbef84f	0.09324705
226	0xbe11ec92	-0.142504
227	0x3d2e0bd9	0.042491768
228	0x3ce5c34d	0.028047228
229	0xbdb0d0da	-0.08633585
230	0x3c831a3f	0.016003726
231	0x3de0fc4d	0.109856226
232	0x3d761e7d	0.06008767
233	0xbddcb242	-0.107761875
234	0x3d4c8c68	0.04993859
235	0xbe87c048	-0.26513886
236	0x3d5215bf	0.05129027
237	0x3d79149f	0.06081068
238	0xbd800466	-0.06250839
239	0xbd9391e8	-0.07205564
240	0x3db608db	0.08888408
241	0xbd2c48a7	-0.042061474
242	0xbdea0dfa	-0.11428447
243	0x3e6045c0	0.21901608
244	0xbe0548d7	-0.13016067
245	0xbd5aab53	-0.053386044
246	0xbd1b81e2	-0.037965663
247	0x3c59e7a5	0.013299857
248	0x3dc3c7f1	0.0955962
249	0xbd88fded	-0.066890575
250	0xbd0197b3	-0.031638812
251	0x3de293b7	0.110633306
252	0x3d81c01b	0.06335469
253	0xbe341740	-0.17586994
254	0xbd335a8d	-0.043787528
255	0xbbec9c67	-0.007220793

weight_hh_l0 f4 [400, 100]
0	0x3cba8a32	0.022770975
1	0xbd3190d9	-0.043351028
2	0xbd9a697c	-0.07539651
3	0xbcf5ba55	-0.029996077
4	0x3d844228	0.06457931
5	0xbca5c4a4	-0.020235367
6	0xbdaad44d	-0.083412744
7	0x3d00151e	0.03127014
8	0x3d164b8b	0.036693137
9	0xbc2a9b01	-0.010412932
10	0x3d243cb0	0.04009694
11	0x3da8226c	0.082096905
12	0xbc3bf0ba	-0.011470968
13	0xbda63727	-0.08115988
14	0xbd985dd7	-0.074397735
15	0x39be2ecf	0.000362745
16	0xbdb72118	-0.08941859
17	0xbd5babd2	-0.053630657
18	0xbd5f1575	-0.054463822
19	0xbd08da33	-0.033411216
20	0x3c226909	0.009912738
21	0x3d5a363d	0.053274382
22	0x3bd0206a	0.0063515203
23	0xbd9827bf	-0.07429456
24	0x3d2ba8f7	0.041909184
25	0xbbd622c3	-0.0065349056
26	0x3d658a5d	0.056040157
27	0x3d3e3b04	0.046443
28	0x3ca0ced5	0.019629875
29	0xbcd9dc00	-0.026594162
30	0x3d4e804b	0.05041532
31	0x3d5b3858	0.05352053
32	0x3c36cf33	0.011157799
33	0xbca1dc12	-0.019758258
34	0x3d86693b	0.0656304
35	0x3de9dc2a	0.11418946
36	0xbda3d11d	-0.079988696
37	0xbcb857ba	-0.022502769
38	0x3b97bb3d	0.004630475
39	0xbd0414e5	-0.03224649
40	0x3c029d73	0.007972109
41	0xbdd744b3	-0.1051115
42	0xbc5276a7	-0.012845672
43	0x3d05ce0d	0.03266721
44	0xbde932fd	-0.11386678
45	0xbdedf5f7	-0.1161918
46	0x3c9bfd1f	0.019041596
47	0x3db786b5	0.0896124
48	0xbdb84b2f	-0.08998715
49	0xbd5d9f5b	-0.05410705
50	0x3d9dcd43	0.07705166
51	0xbce2dba7	-0.027692629
52	0xb88e48e3	-6.784664e-05
53	0xbdd37adf	-0.1032617
54	0x3bc78689	0.006089036
55	0xbce9e4cf	-0.028551487
56	0x3d347575	0.04405733
57	0x3d9abf82	0.075560585
58	0x3d0370dc	0.032090053
59	0xbc381fa8	-0.011238016
60	0x3daced88	0.08443743
61	0xbc521220	-0.012821704
62	0xbbfc573d	-0.0077008293
63	0xbd680a0b	-0.056650203
64	0x3d8f5180	0.06997967
65	0xbb9ecfbe	-0.004846542
66	0xbdf03b42	-0.117300525
67	0xbcabc012	-0.02096561
68	0x3d9a6f8e	0.075408086
69	0x3cdd6cb0	0.027029365
70	0x3d865cb9	0.06560654
71	0x3d194a4b	0.037424367
72	0x3d9a60c0	0.07537985
73	0xbdb87a1d	-0.09007666
74	0x3c884cdf	0.016638217
75	0x3d6e77c2	0.05821968
76	0xbdd35d7b	-0.10320564
77	0x3d756f9b	0.05992089
78	0xbd6c36c5	-0.05766942
79	0x3d86fdf5	0.06591407
80	0xbd2e7baf	-0.042598423
81	0xbd1df746	-0.038565896
82	0x3cbef353	0.023309385
83	0xbd883bf4	-0.0665206
84	0xbd60659b	-0.0547844
85	0xbb8d0451	-0.004303493
86	0xbcf40070	-0.029785365
87	0xbd3b963c	-0.04579757
88	0x3d7c73e3	0.061633956
89	0xbd964bf2	-0.07338704
90	0x3dc858b5	0.097825445
91	0xbda1f040	-0.07907152
92	0xbd56a733	-0.052405547
93	0x3d91e34c	0.071234316
94	0xbc245d9a	-0.010032082
95	0x3d93fb89	0.07225711
96	0xbd94d63f	-0.07267427
97	0x3daf08a7	0.08546572
98	0xbb7067af	-0.0036682894
99	0xbd856445	-0.065132655
100	0xbb29fe17	-0.0025938803
101	0x3c770d7b	0.015078898
102	0x3d1eb730	0.03874892
103	0x3d14a162	0.03628672
104	0x3c038e73	0.008029568
105	0xbdad5fb2	-0.08465518
106	0xbd64064b	-0.055670064
107	0x3ad7acef	0.0016454736
108	0x3b40a74b	0.002939659
109	0x3d535e63	0.051603686
110	0xbd99e0bb	-0.07513567
111	0x3daea9f6	0.08528511
112	0xbbfa1b5a	-0.007632655
113	0xbd5c3f13	-0.05377109
114	0x3d98c893	0.074601315
115	0xbd6aef82	-0.05735732
116	0xbddc0b60	-0.10744357
117	0xbd5f6892	-0.054543085
118	0xbd9520b3	-0.072816275
119	0x3c727225	0.014797722
120	0x3dbae443	0.09125569
121	0x3d36b6cb	0.04460792
122	0x3db7e6d8	0.08979577
123	0xbd96f6d7	-0.073713
124	0x3d86a4b2	0.06574382
125	0xbcd4e31a	-0.025987197
126	0x3d494df6	0.049146615
127	0x3d037e5c	0.032102928
128	0xbc20ff07	-0.009826428
129	0x3dc6a1d5	0.09698836
130	0x3c267b78	0.010161273
131	0xbd7867c8	-0.06064585
132	0x3dbb8caa	0.09157689
133	0x3d75e510	0.060032904
134	0xbcfb15ff	-0.030650137
135	0xbd49ef61	-0.049300555
136	0xbcfb4407	-0.030672086
137	0x3d47ab27	0.048747208
138	0xbbf824d3	-0.007572749
139	0xbce8723a	-0.02837478
140	0x3d91bcee	0.071161136
141	0x3d388b1e	0.045054547
142	0x3d6a88fb	0.05725954
143	0xbd7d4262	-0.061830886
144	0x3dd606f5	0.10450546
145	0x3d59afdb	0.053146224
146	0x3da7ac93	0.08187213
147	0x3c606aea	0.013697365
148	0x3d05379b	0.032523733
149	0x3ce34ce7	0.02774663
150	0x3c1d6e16	0.009608766
151	0x3d8a8b7f	0.06764888
152	0x3da561fc	0.0807533
153	0x3d5e2f27	0.054244187
154	0xbdbd2c82	-0.09237005
155	0xbcf225fa	-0.029559124
156	0x3cf4f1b8	0.029900417
157	0xbc227f83	-0.0099180965
158	0xbd40c993	-0.047067236
159	0xbd799bc2	-0.060939558
160	0xbba4083b	-0.005005864
161	0xbd77a847	-0.060463216
162	0xbdf2f1a2	-0.11862494
163	0xbd640fea	-0.05567924
164	0xbb898b33	-0.004197502
165	0x3dcc2cff	0.0996952
166	0xbda83cda	-0.082147315
167	0xbd8a660d	-0.06757746
168	0x3dbc908d	0.092072584
169	0xbd4a97d3	-0.049461197
170	0xbc471213	-0.012150305
171	0xbd9cb250	-0.07651198
172	0x3ce6d512	0.028177772
173	0xbdb8957a	-0.090128854
174	0xbd0e0617	-0.034673776
175	0x3db216af	0.08695733
176	0x3d7b97d3	0.061424088
177	0xbd410bda	-0.047130443
178	0xbd0aaa6c	-0.033853933
179	0xbd3c521f	-0.045976754
180	0x3c3219a0	0.010870367
181	0x3d9b83a1	0.075934656
182	0xbcb4a4a3	-0.022051161
183	0xbd5dd415	-0.054157335
184	0xbdc238f4	-0.09483519
185	0x3dc73289	0.09726436
186	0xbde7a83d	-0.11311386
187	0x3c9920c1	0.018692376
188	0xbd91b23d	-0.071140744
189	0x3ca97353	0.020684874
190	0x3cb7b52d	0.022425259
191	0x3d5eb092	0.05436761
192	0xbdb7cf08	-0.08975035
193	0x3d8a5052	0.06753601
194	0x3cb675ff	0.022273062
195	0xbd45cb68	-0.048289686
196	0x3d0f0916	0.034920774
197	0x3d2b6cd1	0.041851822
198	0x3dbd68a7	0.092484765
199	0x3d628510	0.05530268
200	0x3d442e53	0.04789574
201	0xbda395e0	-0.07987571
202	0x3d84cd48	0.06484467
203	0xbd3a05df	-0.045415755
204	0x3dec1c93	0.115288876
205	0xbd9a3422	-0.07529475
206	0xbd7bb6ca	-0.061453618
207	0x3daa6994	0.08320919
208	0x3d0c9a1f	0.03432667
209	0x3c844a60	0.016148746
210	0xbd2d2924	-0.042275563
211	0x3c8efb97	0.017453952
212	0xbda1a5ef	-0.078929774
213	0xbd333986	-0.04375603
214	0xbdcd6752	-0.100294724
215	0xbd8f90bf	-0.0701003
216	0xbcb9a2b7	-0.022660596
217	0xbd6ca3c5	-0.05777337
218	0xbd7c037f	-0.06152677
219	0xbd8d2027	-0.06890898
220	0x3da7ec95	0.08199421
221	0x3c76efa3	0.015071782
222	0xbb919b0c	-0.004443532
223	0x3b373ed0	0.0027961023
224	0x3d90f692	0.070782796
225	0xbd950fad	-0.072783805
226	0xba0ab1d2	-0.00052907795
227	0xbd7e40dd	-0.062073577
228	0x3ca7bd5a	0.020476032
229	0x3d8c8bc9	0.068625994
230	0xbd4109cf	-0.047128495
231	0xbd831df8	-0.064022005
232	0x3d9d395f	0.07676958
233	0xbcabd877	-0.020977242
234	0xbdcb9b5f	-0.09941744
235	0xbd91ca17	-0.07118624
236	0xbd8efbf5	-0.06981651
237	0xbd9823b1	-0.074286826
238	0xbcebe908	-0.028797641
239	0xbc80736b	-0.015680036
240	0x3bd4c127	0.006492752
241	0xbc0bb7ef	-0.00852774
242	0xbd87b7cd	-0.06626854
243	0xbd4b5d0a	-0.049649276
244	0x3c919303	0.017770296
245	0xbd1543ba	-0.036441542
246	0xbcf7cb3b	-0.030248275
247	0x3d294bfe	0.041332237
248	0xbcefc267	-0.029267503
249	0x3d065d4c	0.03280382
250	0xbb9c40ca	-0.0047684656
251	0x3d05124b	0.03248815
252	0xbcbfc0a4	-0.023407288
253	0x3cdd94ca	0.027048487
254	0xbcda1235	-0.02662001
255	0x3da7c88a	0.08192547

bias_ih_l0 f4 [400]
0	0x3c1b811f	0.009491234
1	0x3cf7f4e3	0.030268138
2	0x3d2bf863	0.041984927
3	0xbd13d6bb	-0.036093455
4	0x3dc119f6	0.0942878
5	0x3e4db270	0.200876
6	0x3c8a6530	0.016893953
7	0x3e21251b	0.15736811
8	0x3dc09148	0.0940271
9	0x3d2a9b4f	0.04165202
10	0xbcaf27db	-0.02138131
11	0xbd0d5cdd	-0.03451239
12	0xbd9d9155	-0.076937355
13	0x3d8a95fe	0.0676689
14	0x3dc72c0f	0.097252004
15	0x3e152591	0.14565112
16	0x3d811c37	0.0630421
17	0x3e0849eb	0.13309447
18	0x3d658a78	0.056040257
19	0x3dfbf155	0.1230189
20	0x3dad243f	0.08454179
21	0x3e0008d3	0.12503366
22	0x3dd3d280	0.10342884
23	0xbceb3237	-0.028710468
24	0xbca42fcc	-0.020042323
25	0xbdbbc3a5	-0.091681756
26	0x3ce4e26a	0.027939994
27	0xbcb609ab	-0.022221407
28	0x3d861d23	0.06548526
29	0x3df5f732	0.120100394
30	0x388b533d	6.643541e-05
31	0x3cfc3d88	0.03079106
32	0x397d3792	0.00024148662
33	0xbd2f531e	-0.042803876
34	0xbd0f41a3	-0.034974705
35	0x3c8f3260	0.017480075
36	0x3e1a37e1	0.15060379
37	0xbc1fa9da	-0.009745086
38	0xbd90166f	-0.07035529
39	0x3dabc1d7	0.083865814
40	0x3cb6172d	0.022227848
41	0x3cda24bd	0.026628846
42	0x3da545ee	0.08069979
43	0xbcb30232	-0.021851633
44	0x3d325dd9	0.04354653
45	0x3a7e7f22	0.00097082753
46	0x3defe120	0.11712861
47	0xbd607e00	-0.054807663
48	0x3c35a5f9	0.011086934
49	0x3e170c2b	0.14750735
50	0x3d6b44dd	0.05743872
51	0xbcfd654a	-0.030932087
52	0x3ce00dfb	0.027350416
53	0x3dd8fa17	0.10594576
54	0xbd0f6703	-0.03501035
55	0x3d7838e2	0.060601123
56	0x3e1ddf6b	0.15417258
57	0xbd125e75	-0.035734612
58	0x3d1511f2	0.036394067
59	0x3d3ae02e	0.04562395
60	0x3cf221b8	0.029557094
61	0x3d79ee3a	0.061018206
62	0x3d834804	0.0641022
63	0xbd10a20f	-0.0353108
64	0x3c89d8bf	0.016826985
65	0x3d766f3d	0.06016468
66	0x3cec4c10	0.028844863
67	0x3d201478	0.03908202
68	0x3e160424	0.14650017
69	0x3e01d4a5	0.12678774
70	0x3d2b3619	0.04179964
71	0x3d8e049c	0.06934473
72	0x3d498e65	0.049208064
73	0x3c807059	0.015678572
74	0xbc0d7464	-0.008633707
75	0xbc9efaa1	-0.019406619
76	0xbb8d21ef	-0.0043070237
77	0xbd99cde4	-0.07509974
78	0xbd96eecf	-0.07369768
79	0xbb2665dc	-0.0025390303
80	0x3dc1d4a5	0.09464387
81	0x3da864e3	0.082223676
82	0x3d786c37	0.060650077
83	0xbd70f64d	-0.05882864
84	0x3d93611c	0.071962565
85	0x3e03286b	0.12808387
86	0x3d967ca1	0.0734799
87	0x3dd8ce58	0.10586232
88	0x3e1abd73	0.15111332
89	0x3dde8703	0.10865595
90	0x3cf21b77	0.029554112
91	0x3d963d31	0.0733589
92	0x3ce9f0f7	0.028557284
93	0x3d475d8a	0.04867319
94	0xbd80cf31	-0.062895186
95	0x3c1ccdba	0.009570533
96	0xbd18be48	-0.03729084
97	0xbae9ae2d	-0.0017828398
98	0x3dac86a7	0.084241204
99	0x3e018799	0.12649383
100	0x3ca514f7	0.020151598
101	0x3d3c251b	0.045933824
102	0x3dc52dc2	0.09627868
103	0x3de3c4d0	0.111215234
104	0x3e16685b	0.14688246
105	0x3e50a073	0.20373707
106	0x3cfd9ffb	0.030960074
107	0x3dc54af5	0.096334375
108	0x3db5b181	0.08871747
109	0x3d9a10c0	0.07522726
110	0x3d8c7635	0.06858484
111	0x3d75e76f	0.060035165
112	0xbd2789d0	-0.040902913
113	0x3d0e9125	0.03480639
114	0xbc25eadd	-0.010126797
115	0x3c919ca3	0.017774886
116	0x3e1dffeb	0.15429656
117	0x3e0831bc	0.13300222
118	0x3e0b1da8	0.13585532
119	0x3d1aaf4c	0.037764832
120	0x3d98b6df	0.07456755
121	0x3d835557	0.06412762
122	0x3dd9b6bf	0.10630559
123	0x3db03b2d	0.08605037
124	0xbb9d0a8f	-0.0047925184
125	0x3c01bfb1	0.007919238
126	0x3e052998	0.13004148
127	0x3d0ff7d7	0.035148468
128	0x3cf76dd0	0.03020373
129	0x3d8b1a15	0.06792084
130	0x3c322626	0.010873353
131	0x3d99e009	0.075134344
132	0x3b896db2	0.004193985
133	0xbc0c6750	-0.0085695535
134	0x3d9d62f9	0.07684893
135	0xbcadea27	-0.021229817
136	0x3ce16c63	0.027517503
137	0xbd2b2ad3	-0.041788887
138	0xbd0e6e0c	-0.034772918
139	0x3d0ee1f8	0.03488347
140	0x3dd63d78	0.10460943
141	0xbc235ee2	-0.009971352
142	0x3ded71fb	0.11594006
143	0x3dd8627a	0.10565658
144	0x3db322eb	0.087468944
145	0xbd94ac77	-0.072594576
146	0x3dd3eaad	0.10347495
147	0x3e0a9e67	0.13536988
148	0x3e242261	0.1602874
149	0x3e18101f	0.148499
150	0x3e0c436f	0.13697599
151	0x3e20d6aa	0.15706888
152	0x3d84471e	0.06458877
153	0xbc8b8e1a	-0.017035533
154	0x3d666343	0.056247007
155	0x3e114488	0.14186299
156	0x3dd537ea	0.104110554
157	0xbdabc90f	-0.08387958
158	0x391920d0	0.0001460344
159	0x3ceabb40	0.02865374
160	0x3de56653	0.112011574
161	0x3e03b357	0.12861381
162	0x3c8c0189	0.017090576
163	0x3c3671fb	0.0111355735
164	0xb9f5149d	-0.000467454
165	0x3e08899b	0.13333742
166	0x3be7d782	0.007075251
167	0x3cb94631	0.022616478
168	0x3e08a07f	0.13342474
169	0x3dc1143f	0.0942769
170	0xbca68715	-0.020328084
171	0x3c916e5a	0.017752815
172	0xbabfbdc9	-0.0014628704
173	0xbd266d8c	-0.040631816
174	0x3e04fef4	0.12987882
175	0x3aa427b2	0.0012524037
176	0x3ce8b068	0.02840443
177	0x3d8522af	0.06500756
178	0xbc81ef3b	-0.015861144
179	0x3deb8ab2	0.115010634
180	0x3daca95f	0.084307425
181	0x3e0092f4	0.12556058
182	0xbda2511f	-0.07925629
183	0x3d85af58	0.06527585
184	0x3cffb8b8	0.03121601
185	0x3c13b503	0.0090153245
186	0x3d9a18d9	0.075242706
187	0x3ca711fe	0.020394322
188	0x3d555f75	0.052092988
189	0x3d7600df	0.060059424
190	0x3d2feb7b	0.04294918
191	0xbd485917	-0.048913088
192	0x3d74d850	0.059776604
193	0x3d550a73	0.05201192
194	0x3da27cfc	0.07933995
195	0xbd9872fc	-0.074438065
196	0x3bcbffce	0.0062255627
197	0x3c80e86f	0.015735833
198	0xbc0f916e	-0.0087627005
199	0x3e2285fc	0.15871423
200	0x3d3d21aa	0.046174683
201	0xbba3c629	-0.0049979878
202	0xbe4ef857	-0.20211922
203	0x3e59f9ab	0.21286647
204	0x3e40c0af	0.18823503
205	0xbeeb7918	-0.45990825
206	0x3d6fce1d	0.058546174
207	0x3e0ef27d	0.1395969
208	0xbe14ec97	-0.14543377
209	0xbd3d14be	-0.04616236
210	0x3e85c595	0.26127306
211	0x3e988a5b	0.29793057
212	0x3dfedd98	0.124446094
213	0xbd2d223f	-0.042268988
214	0x3b99d1a1	0.004694179
215	0x3d91a23b	0.07111021
216	0xbe3956a0	-0.18099451
217	0xbd9f1cc1	-0.07769156
218	0x3de75b5a	0.11296721
219	0x3eb85939	0.3600557
220	0x3e47ac13	0.19499235
221	0xbdd6a307	-0.10480314
222	0xbe95ae6f	-0.29234645
223	0xbe2c2917	-0.1681255
224	0x3e2d88e1	0.16946746
225	0x3e8af151	0.27137235
226	0x3e58d7d3	0.2117608
227	0xbd1ebf37	-0.038756575
228	0xbd51c292	-0.051210947
229	0xbe1cd497	-0.15315472
230	0xbdc12231	-0.094303496
231	0x3e98c262	0.29835802
232	0x3c7fa970	0.015604362
233	0xbd72f8ed	-0.059319425
234	0x3d9c9dd5	0.076472916
235	0x3d847ad3	0.06468739
236	0xbe39fc47	-0.18162642
237	0xbeccebea	-0.40023738
238	0x3d875c34	0.06609383
239	0xbdb73b3d	-0.08946846
240	0xbe470d19	-0.1943859
241	0xbe42df18	-0.19030416
242	0x3e9608e5	0.2930366
243	0xbdc526c4	-0.096265346
244	0xbd8fe72a	-0.07026513
245	0xbc392320	-0.011299878
246	0x3d85ad9d	0.06527255
247	0xbe0d8e75	-0.13823874
248	0xbe291fc0	-0.16516018
249	0x3e185350	0.14875531
250	0x3c2f4e1b	0.010699774
251	0x3d2a77d3	0.04161818
252	0x3e5ac96a	0.21365896
253	0xbbbac6fc	-0.0056999903
254	0xbce8a667	-0.02839966
255	0x3df430fd	0.11923406

bias_hh_l0 f4 [400]
0	0x3d8545dd	0.06507466
1	0x3daeea7d	0.08540819
2	0x3dd48f90	0.10378945
3	0xbdc0a882	-0.0940714
4	0x3d71e0df	0.059052344
5	0x3e78b052	0.24286011
6	0x3dac5493	0.08414569
7	0x3da4f7b9	0.08055062
8	0x3d7c2843	0.061561834
9	0x3e35a1af	0.17737459
10	0x3e0b0512	0.13576153
11	0x3d9f717e	0.07785319
12	0x3dd8f815	0.10594193
13	0x3dfc7b88	0.12328249
14	0x3d96f97f	0.07371806
15	0x3d84fcbb	0.06493517
16	0xbcb6ed6b	-0.022330007
17	0x3ddfcff8	0.10928339
18	0x3c977933	0.01849041
19	0x3dda6517	0.106638126
20	0x3da1108f	0.078644864
21	0x3e046e6f	0.12932752
22	0x3e69fb15	0.22849686
23	0x3e0ae346	0.1356326
24	0x3c138369	0.009003499
25	0xbd802d77	-0.06258672
26	0x3d13671f	0.035987016
27	0x3d1cc057	0.038269367
28	0x3d97e71a	0.07417126
29	0xbc15442a	-0.00911049
30	0x3df0eaaa	0.117635086
31	0x3d6c7e98	0.057737917
32	0xbd83ca3b	-0.06435057
33	0x3ddfa633	0.10920372
34	0x3df5265b	0.11970206
35	0x3de6253a	0.11237569
36	0xbc31eaf7	-0.010859243
37	0xbce8d795	-0.02842311
38	0x3dcc9523	0.09989383
39	0x3e197f28	0.14989913
40	0x3d3db51e	0.046315305
41	0x3b54257f	0.0032370982
42	0x3e437033	0.1908577
43	0x3dfac947	0.12245422
44	0x3da667f3	0.081252955
45	0xbd797f5a	-0.060912468
46	0xbd0b1465	-0.033954997
47	0xbbea59f7	-0.007151838
48	0x3e0d1214	0.13776428
49	0x3d3b1fff	0.04568481
50	0x3dde822b	0.10864671
51	0x3e01f8b6	0.12692532
52	0x3bfc666d	0.00770264
53	0x3cf6619a	0.030075837
54	0x3dfe50e0	0.124177694
55	0xbcce9e88	-0.025222078
56	0x3d78dd45	0.060757894
57	0xbc783be8	-0.0151510015
58	0xbd7fa220	-0.062410474
59	0x3dc4da18	0.096119106
60	0x3b846964	0.004040884
61	0x3e03658e	0.12831709
62	0x3dc2c228	0.095096886
63	0x3deb3018	0.114837825
64	0x3d8993ca	0.06717642
65	0x3e1d24e4	0.15346104
66	0x3d83361a	0.064068034
67	0xbc9a2474	-0.01881621
68	0x3e2b3c95	0.16722329
69	0x3dde319b	0.10849305
70	0x3dc9afb8	0.09847969
71	0xba720cf3	-0.0009233497
72	0xbd9e3292	-0.07724489
73	0x3c1d0206	0.009583002
74	0xbcf7c240	-0.030243993
75	0xbda3906a	-0.07986529
76	0x3de9159b	0.11381074
77	0x3a1368d2	0.00056232244
78	0x3ddc00a0	0.10742307
79	0x3d1c8839	0.03821585
80	0x3e1e202f	0.15441965
81	0xbc7eb27a	-0.015545482
82	0x3d993480	0.07480717
83	0x3ccee14b	0.025253912
84	0x3d5c124f	0.053728398
85	0xbd8395b7	-0.0642504
86	0x3dbf5734	0.093428046
87	0x3cf925d3	0.030413544
88	0x3dcf27b3	0.10114994
89	0x3e15990c	0.14609164
90	0x3e25fc41	0.16209508
91	0x3d598318	0.053103536
92	0xbc8b9842	-0.017040376
93	0x3d5a59fd	0.053308476
94	0xbd244c63	-0.04011191
95	0xbda153db	-0.07877322
96	0x3dbb865b	0.09156486
97	0x3c9fd32b	0.019509872
98	0xbd7b5c2f	-0.06136721
99	0x3dcc53c8	0.099769175
100	0x3be09d98	0.006854724
101	0x3d7dc9a2	0.06195987
102	0x3d0f533f	0.0349915
103	0x3e26f172	0.16303042
104	0x3e1dc85b	0.15408461
105	0x3e3e2476	0.18568596
106	0x3c9baf73	0.01900456
107	0x3d031407	0.03200152
108	0xbc7c87b0	-0.01541321
109	0x3e44d81a	0.19223061
110	0xbd0996e3	-0.033591162
111	0xbb0a7540	-0.0021127015
112	0x3d8764f0	0.06611049
113	0x3e114dc2	0.14189819
114	0x3d66ec75	0.056377847
115	0x3dbcf003	0.09225466
116	0xbc1b1fab	-0.009467999
117	0x3e5d6c90	0.21623445
118	0x3e2339e8	0.15940058
119	0x3debcf82	0.11514188
120	0x3e3702ff	0.17872237
121	0x3e081d80	0.13292503
122	0x3e2c2565	0.1681114
123	0x3e266a58	0.16251504
124	0x3dbb72ef	0.09152781
125	0xbdbf0c69	-0.09328539
126	0x3d12f699	0.035879705
127	0x3b97765d	0.0046222643
128	0x3dc1d3b5	0.09464208
129	0x3e2bdc14	0.16783172
130	0x3d92b848	0.07164055
131	0xbd0ef2bb	-0.034899455
132	0x3d569cc5	0.0523956
133	0x3c88ce4a	0.016699929
134	0x3d343317	0.043994036
135	0x3df0c1c0	0.11755705
136	0x3db1cfe6	0.086822316
137	0xbd0105cf	-0.03149968
138	0x3dbd38ff	0.09239387
139	0x3bcd2837	0.0062608975
140	0x3e0ab72f	0.13546441
141	0x3dee95ba	0.11649652
142	0x3dd75e42	0.10516025
143	0x3bec3d22	0.007209436
144	0x3cd7bbc0	0.026334643
145	0x3da44b64	0.08022192
146	0x3d791768	0.060813338
147	0x3e15cc17	0.14628635
148	0x3d901443	0.070351146
149	0x3e26b95f	0.16281651
150	0x3c779eb0	0.015113518
151	0x3dcb28d9	0.099199004
152	0x3d2f41e7	0.04278746
153	0xbd2b096f	-0.041757043
154	0xbc80b6f3	-0.015712237
155	0x3decc36d	0.11560712
156	0x3dc82d9d	0.09774325
157	0xbd5a219d	-0.053254712
158	0x3d244035	0.040100295
159	0x3c7a3bab	0.015273015
160	0x3cb3c0b5	0.021942476
161	0x3b45e88b	0.003019842
162	0xbd821ca7	-0.06353121
163	0xbd67f4a0	-0.056629777
164	0x3c78557f	0.015157103
165	0x3c83c92d	0.016087139
166	0xbd2ad1a9	-0.041703854
167	0xbc808c37	-0.01569186
168	0x3dcb2498	0.09919089
169	0xbcc55cad	-0.024092043
170	0x3cdfe9d2	0.027333174
171	0x3d92a253	0.07159867
172	0x3c8a5c09	0.016889589
173	0x3df0758b	0.117411695
174	0x3e1fbd54	0.15599567
175	0xbca87d03	-0.020567423
176	0x3de41ccb	0.11138304
177	0x3b73ef13	0.0037221357
178	0x3e1df0ba	0.15423861
179	0x3e18ba0c	0.14914721
180	0x3e126e09	0.14299788
181	0x3e19cb35	0.15018924
182	0x3d961e57	0.073300056
183	0xbcff1897	-0.031139655
184	0x3d1485d8	0.036260456
185	0x3b2798e6	0.0025573312
186	0x3d936f49	0.0719896
187	0x3d1fc76c	0.039008543
188	0x3dcd85d2	0.1003529
189	0x3e1485a8	0.14504111
190	0x3e41106e	0.18853924
191	0xbcc08010	-0.023498565
192	0x3cbd4714	0.023105182
193	0x3d2e4553	0.04254658
194	0xbd3072b3	-0.043078136
195	0x3ce71d4a	0.028212208
196	0xbd59bbf5	-0.053157765
197	0x3d5a34a7	0.05327287
198	0x3e004f34	0.12530214
199	0x3da5d1de	0.080966696
200	0x3d2e0251	0.042482678
201	0xbd0c6503	-0.03427602
202	0xbe613b7a	-0.21995345
203	0x3e23e98b	0.16007058
204	0x3e2025af	0.15639375
205	0xbef3df0a	-0.47631103
206	0x3db8214f	0.08990728
207	0x3e01ea4d	0.12687035
208	0xbda00e62	-0.07815243
209	0xbdb453b2	-0.08805026
210	0x3ea203e1	0.31643584
211	0x3e0cbe6f	0.1374452
212	0xbd722203	-0.059114467
213	0xbd933821	-0.0718844
214	0xbdf15f77	-0.117857866
215	0x3d5b5ebf	0.053557154
216	0xbddd8965	-0.108172216
217	0x3dd3af15	0.103361286
218	0x3e50ab33	0.20377807
219	0x3eaebe89	0.34129742
220	0x3e130c06	0.14360055
221	0xbd9e8662	-0.07740475
222	0xbe8aef68	-0.27135777
223	0xbe88253d	-0.2659091
224	0x3da51618	0.08060855
225	0x3e64263d	0.22280212
226	0x3e07ce9c	0.13262409
227	0x3d87bf2f	0.06628262
228	0xbd7b9547	-0.06142166
229	0xbe85cd70	-0.261333
230	0xbdc7d491	-0.09757341
231	0x3e6e39d3	0.23264246
232	0xbd7d8045	-0.061889905
233	0xbdffbabf	-0.12486791
234	0xbb13e983	-0.0022569604
235	0x3d3c7bcf	0.04601651
236	0xbe290a9a	-0.1650795
237	0xbeb7786b	-0.3583406
238	0x3b0213d9	0.0019848256
239	0xbe3adf9f	-0.18249367
240	0xbe484cf9	-0.19560613
241	0xbe12d7f0	-0.14340186
242	0x3e28c2e5	0.16480596
243	0xbdd1e855	-0.10249392
244	0x3dd244e2	0.102670446
245	0xbd502693	-0.050818037
246	0x3dc5aac8	0.096517146
247	0xbd672ada	-0.05643735
248	0xbe32d585	-0.17464264
249	0x3e1fa6f0	0.15591025
250	0xbdea5947	-0.114428096
251	0x3d35a4a3	0.044346463
252	0x3d9a4c4f	0.07534086
253	0xbd8bc16a	-0.06824
254	0xbd3577d3	-0.044303726
255	0x3e0d530d	0.13801213

weight f4 [100, 100]
0	0xbcffb45d	-0.031213934
1	0x3d0ebf7e	0.03485059
2	0xbbf5f36d	-0.0075058253
3	0xbdd8ab15	-0.10579506
4	0xbb079709	-0.002068939
5	0xbdb8ab57	-0.090170555
6	0x3bb321b6	0.005466665
7	0xbc547f08	-0.01296974
8	0x3d14fd17	0.036374178
9	0x3d3e2c8c	0.046429202
10	0x3cc230d0	0.023704916
11	0xbd814dc8	-0.06313664
12	0xba4f4bf7	-0.0007907743
13	0x3c7cf6a8	0.015439667
14	0x3d8c9107	0.06863599
15	0xbc35a77f	-0.011087297
16	0x3caf46d0	0.02139607
17	0x3d011e5b	0.03152309
18	0xbcbd4f7c	-0.02310919
19	0x3da8c1bc	0.08240077
20	0xbe024455	-0.12721379
21	0x3d813ae8	0.063100636
22	0x3d75dde3	0.06002606
23	0xbb9e9d6c	-0.0048405435
24	0xbd3042bc	-0.043032393
25	0xbb96ea76	-0.0046055866
26	0xbe0143c9	-0.12623514
27	0x3c34ecfd	0.0110428305
28	0x3dabb668	0.083844006
29	0xbcc89f6f	-0.024490086
30	0xbdde9a58	-0.108692825
31	0x3d977807	0.0739594
32	0xbcca577f	-0.024699925
33	0xbcfb6548	-0.030687943
34	0xbd469e7b	-0.048490983
35	0x3cf9019d	0.030396277
36	0xbd99bd36	-0.07506792
37	0xbca370f1	-0.019951316
38	0xbcc04c53	-0.023473894
39	0x3da0f9ed	0.078601696
40	0xbca1ad6f	-0.01973602
41	0x3ce9b193	0.028527057
42	0x3d8a1292	0.06741823
43	0x3d1b60b2	0.037934013
44	0xbd4e78c2	-0.050408132
45	0x3cf939a2	0.03042299
46	0xbdb2a81b	-0.0872347
47	0x3dda23e0	0.10651374
48	0xbdaacf8f	-0.0834037
49	0xbde4de57	-0.111752205
50	0xbdf9894a	-0.12184389
51	0xbcac24f3	-0.021013713
52	0xbdc90fa2	-0.09817435
53	0xbd7c90ad	-0.06166141
54	0xbd97057d	-0.07374094
55	0x3c610205	0.013733392
56	0xbd1bfb5f	-0.038081523
57	0xbd9322c2	-0.07184364
58	0xbde7a11a	-0.113100246
59	0xbd084410	-0.033268034
60	0xbd4fdc88	-0.050747424
61	0xbd24216b	-0.040070932
62	0xbd051d13	-0.03249843
63	0xbd70339d	-0.058642972
64	0x3d3fa0b0	0.046784103
65	0xbda11a23	-0.07866313
66	0xba98341c	-0.001161221
67	0xbd897a9e	-0.067128405
68	0x3e0c05a6	0.1367403
69	0x3ddf67ed	0.10908494
70	0x3d99074e	0.074720964
71	0xbdb5e071	-0.088806994
72	0x3d8b5f97	0.06805342
73	0xbdbec1d0	-0.093143106
74	0x3daf3015	0.08554093
75	0x3db6454b	0.08899935
76	0xbd0b45c9	-0.0340021
77	0x3dd8552a	0.10563119
78	0xbd60122d	-0.054704834
79	0xbdc77602	-0.09739305
80	0x3d934d22	0.07192446
81	0x3da6f5bf	0.08152341
82	0xbd6517cb	-0.055930894
83	0xbd405488	-0.046955615
84	0xbdceb530	-0.100931525
85	0xbd891052	-0.06692566
86	0xbdae15e7	-0.08500271
87	0xbbdc276a	-0.0067185657
88	0xbdcd0cbb	-0.10012194
89	0xbdcb3b8b	-0.09923466
90	0x3d031c95	0.03200968
91	0x3dc17790	0.09446633
92	0xbc1183c3	-0.008881512
93	0xbde599b3	-0.112109564
94	0x3cf7f4d3	0.030268108
95	0x3d27c0d8	0.040955395
96	0x3d3cfb0f	0.046137866
97	0xbd67a2aa	-0.056551613
98	0xbcff66ca	-0.031176943
99	0x3ce5c930	0.028050035
100	0xbd2c4082	-0.042053707
101	0xbd6b4307	-0.05743697
102	0xbcf95fd2	-0.030441198
103	0xbe0f97a8	-0.14022696
104	0x3d964451	0.07337249
105	0x3d54c7f0	0.051948488
106	0xbcff12c3	-0.031136876
107	0xbd411853	-0.047142338
108	0x3d3a4577	0.045476403
109	0xbd9a2095	-0.07525746
110	0x3c42f550	0.011899307
111	0x3cd16dd0	0.025565058
112	0xbda43aa5	-0.08018998
113	0x3d43a218	0.047762007
114	0xbca49ba9	-0.020093756
115	0x3da24103	0.07922556
116	0x3b81ec53	0.0039649396
117	0xbd05df88	-0.03268388
118	0xbd28070a	-0.041022338
119	0x3e25f75b	0.1620764
120	0xbdbd7e53	-0.0925261
121	0xbd86df9f	-0.06585621
122	0x3d8514fa	0.064981416
123	0x3b92def3	0.004482144
124	0xbcbe4c67	-0.02322979
125	0x3ce5f6c2	0.028071765
126	0x3bf59ff3	0.007495874
127	0x3c8c30df	0.017113147
128	0xbcd46610	-0.025927573
129	0x3c18b723	0.009321007
130	0x3d17f09f	0.03709471
131	0x3db4360e	0.087993726
132	0x3d7de6c5	0.061987657
133	0xbd831c7d	-0.06401918
134	0x3e1c7598	0.15279233
135	0x3cfa8f23	0.030585831
136	0xbd9c64b3	-0.07636394
137	0xbe09daf1	-0.13462426
138	0xbd04b08b	-0.032394927
139	0xb98b23da	-0.00026538857
140	0xbd410f1b	-0.047133546
141	0xbd8fcddc	-0.070216864
142	0x3cc56f1b	0.02410083
143	0x3d887953	0.06663766
144	0x3d7af865	0.061272044
145	0xbd351e73	-0.04421849
146	0xbd8e56ff	-0.06950187
147	0x3d763690	0.06011063
148	0x3db7a50a	0.089670256
149	0x3ccb2782	0.024799112
150	0x3d785aea	0.060633577
151	0x3d9a04d3	0.075204514
152	0xbdbe1920	-0.09282136
153	0x3dc2cff6	0.09512322
154	0xbda58a97	-0.080830745
155	0xbba2ebc5	-0.0049719536
156	0x3a171403	0.0005763175
157	0xbd5a19a3	-0.053247105
158	0xbd636322	-0.055514462
159	0xbd650fe7	-0.05592337
160	0x3d5455e7	0.051839735
161	0x3de44762	0.11146428
162	0x3dcb9753	0.09940972
163	0xbdd0c8c8	-0.10194546
164	0xbd158ca5	-0.036511082
165	0xbdd4a723	-0.10383441
166	0xbd70454d	-0.05865984
167	0xbbb5a5c2	-0.0055434415
168	0x3cbb2df7	0.022849066
169	0x3de72e30	0.112881064
170	0x3d4701d3	0.048585724
171	0x3c96d1d1	0.018410595
172	0xbcca03d5	-0.02466003
173	0x3d74ea9d	0.059794057
174	0x3d997001	0.07492066
175	0xbc69ee8d	-0.014278066
176	0xbd9c7d01	-0.0764103
177	0xbdaaa74c	-0.083326906
178	0xbc015751	-0.007894353
179	0xbdc1b24d	-0.09457836
180	0x3d7ca2dd	0.061678756
181	0xbcfa2965	-0.030537317
182	0xbcdf745f	-0.02727717
183	0x3d7fba1a	0.06243334
184	0x3cc70157	0.024292631
185	0xbd9320ad	-0.07183967
186	0xbc670405	-0.014100079
187	0xbd627b37	-0.055293288
188	0xbda6ae20	-0.081386805
189	0xbbe497fa	-0.006976125
190	0xbd6a36da	-0.057181217
191	0x3d27d280	0.040972233
192	0x3cbc943f	0.023019908
193	0xbdfd2365	-0.123602666
194	0xbba2a019	-0.004962933
195	0xbd428ff0	-0.04750055
196	0x3d7d20a5	0.06179871
197	0xbd6ea987	-0.058267143
198	0xbcab242b	-0.02089127
199	0x3c10d220	0.00883916
200	0xbd06ba49	-0.0328925
201	0x3d822917	0.063554935
202	0x3d37fb25	0.044917244
203	0x3e02b69f	0.12764977
204	0xbdd417d8	-0.1035611
205	0xbd9047f0	-0.07044971
206	0x3da4823b	0.08032652
207	0x3da1d4d7	0.07901924
208	0x3da3aca0	0.0799191
209	0x3d4bf353	0.0497926
210	0xbd1fdd87	-0.039029624
211	0xbd017ffe	-0.031616203
212	0x3c63d46b	0.013905625
213	0x3d75286b	0.059853
214	0x3c916fbb	0.017753473
215	0xbd373ceb	-0.04473583
216	0xbd8fa0ae	-0.07013069
217	0x3d6265c2	0.055272825
218	0xbcd04c7a	-0.025427092
219	0xbcea6bb5	-0.028615812
220	0xbc181245	-0.0092817
221	0xbcd120e0	-0.025528371
222	0xbda5946b	-0.08084949
223	0xbdafcfcf	-0.08584558
224	0xbc81a92b	-0.015827736
225	0x3d8dc4d6	0.06922309
226	0xbdb5464a	-0.08851297
227	0x3caa5760	0.020793617
228	0xbb4dae07	-0.0031384246
229	0x3d2b939b	0.041888814
230	0x3d0b9b3f	0.0340836
231	0xbde271f0	-0.11056888
232	0xbd75aeb0	-0.059981048
233	0x3d4a0c73	0.04932828
234	0xbd6452c3	-0.05574299
235	0x3d31c9a5	0.043405194
236	0xbb8ff85b	-0.00439362
237	0x3d80c153	0.06286874
238	0x3c84f9a3	0.016232317
239	0x3d10144b	0.035175603
240	0x3cbf0272	0.023316596
241	0x3dc88ab8	0.097920835
242	0xbc8d622a	-0.017258722
243	0xbdf2b88d	-0.118516065
244	0x3d4eff2d	0.050536323
245	0x3d56f3a5	0.05247845
246	0x3d38dc43	0.045131933
247	0xbd576088	-0.052582294
248	0xbd7e52fa	-0.06209085
249	0xbd58ecb3	-0.05296011
250	0x3c9ea365	0.019365022
251	0x3d381efc	0.044951424
252	0x3d81b064	0.06332472
253	0xbcf4f2a7	-0.029900862
254	0xbd2910d2	-0.041275807
255	0x3c1905fc	0.009339806

bias f4 [100]
0	0x3df8b7a3	0.12144401
1	0x3da73180	0.08163738
2	0x3ce2d5af	0.027689783
3	0x3e22fd87	0.15917026
4	0x3d2c197f	0.042016502
5	0x3d057fcf	0.03259259
6	0x3d86ccfc	0.065820664
7	0xbd14390f	-0.036187228
8	0x3dd91218	0.10599154
9	0x3d94b382	0.07260801
10	0xbe1db35d	-0.15400453
11	0xbcfa1fc7	-0.03053273
12	0x3d26e347	0.040744092
13	0x3c02cd3e	0.007983504
14	0x3e1468fb	0.14493172
15	0xbdd1b980	-0.102404594
16	0x3bb233ca	0.0054383026
17	0xbc383387	-0.011242754
18	0x3d8a8f54	0.06765619
19	0xbe07ea33	-0.13272934
20	0x3c8cb87f	0.017177818
21	0x3d89b652	0.06724228
22	0xbc5e6317	-0.01357343
23	0x3dda4e8b	0.10659512
24	0xbca35ea3	-0.019942587
25	0x3d1a5e87	0.037687805
26	0xbd37e1f0	-0.044893205
27	0x3dffdf90	0.12493813
28	0xbddfce90	-0.109280705
29	0xbd1d38e8	-0.03838435
30	0xbd39da27	-0.045374062
31	0x3d1c764f	0.038198765
32	0xbd294a38	-0.041330546
33	0xbb613a3a	-0.003436698
34	0x3c3a3eb9	0.011367493
35	0xbc00c810	-0.007860199
36	0x3da085ef	0.07838046
37	0xbd236ee3	-0.03990067
38	0xbcb25b68	-0.021772102
39	0xbd96c3f5	-0.073615946
40	0x3d30bac1	0.043146852
41	0x3dab4261	0.0836227
42	0xbe0e0d4a	-0.13872257
43	0xbda4afdf	-0.08041357
44	0x3d056127	0.032563355
45	0xbde4301b	-0.11141988
46	0x3e5b5d4f	0.21422313
47	0x3cd25a57	0.025677843
48	0x3d77fe47	0.060545232
49	0xbe24a273	-0.16077594
50	0x3dff628f	0.124699704
51	0x3dd67e78	0.10473341
52	0x3e42e7c5	0.19033726
53	0xbdbc092b	-0.09181436
54	0x3d7856ba	0.060629584
55	0x3a858643	0.0010187108
56	0xbdc1914b	-0.094515406
57	0xbd32664d	-0.043554593
58	0xbe1c4cd5	-0.15263684
59	0x3e19bb48	0.15012848
60	0xbd2d8081	-0.04235888
61	0x3d1f5f84	0.03890945
62	0xbbe1703a	-0.0068798335
63	0x3e08df90	0.13366532
64	0xbd3e0414	-0.046390608
65	0x3d10f121	0.03538621
66	0xbe250155	-0.1611379
67	0x3b417697	0.0029520148
68	0xbe01bfa4	-0.12670761
69	0xbdf5e7e0	-0.12007117
70	0x3d6ed277	0.058306184
71	0xbd0dc917	-0.034615602
72	0x3e184372	0.14869478
73	0xbaad0fce	-0.0013203563
74	0xbd1c7d90	-0.038205683
75	0xbdfbf513	-0.123026036
76	0xbd83d0af	-0.064362876
77	0x3d1ea63c	0.038732752
78	0x3c3a1c77	0.011359326
79	0x3d0d23eb	0.034458082
80	0x3d981e2f	0.07427632
81	0x3aa623af	0.001267543
82	0xbc937947	-0.018002165
83	0xbd0b0d0f	-0.033948
84	0xbd5d2117	-0.053986635
85	0x3d9d5554	0.07682291
86	0x3db3c70d	0.087782
87	0xbd464a87	-0.04841092
88	0x3dbee798	0.09321517
89	0x3e53eeea	0.20696607
90	0x3e061e34	0.13097459
91	0x3d1bc7ca	0.03803233
92	0x3d91ff0d	0.07128725
93	0xbdf7ae6f	-0.120938174
94	0xbe181f02	-0.14855579
95	0x39db2123	0.00041795624
96	0xbd6b7a2f	-0.05748957
97	0xbc69c853	-0.014268952
98	0x3d1c66ef	0.038184103
99	0xbda9b1e7	-0.08285885

weight f4 [1, 100]
0	0xbed0f055	-0.4080836
1	0xbeb8c1fa	-0.36085492
2	0x3e9311d5	0.28724542
3	0xbee12947	-0.43976805
4	0x3e8ea61f	0.27861115
5	0xbeac4e5b	-0.3365353
6	0xbeb1fbe8	-0.34762502
7	0x3d264bc4	0.0405996
8	0xbe2968bc	-0.16543859
9	0x3e4e4bf7	0.20146166
10	0x3f1079b1	0.56435686
11	0xbe8d42cb	-0.27590021
12	0xbeb16bf7	-0.34652683
13	0xbea8a41b	-0.32937703
14	0xbeda048f	-0.42581603
15	0x3f105a1c	0.56387496
16	0xbdac6f7f	-0.08419704
17	0x3ef232bf	0.4730434
18	0xbe4363ab	-0.19080989
19	0x3ebf5845	0.37372032
20	0x3e95ff7a	0.29296476
21	0x3de527c3	0.111892246
22	0xbeb2219f	-0.34791276
23	0xbee10097	-0.43945763
24	0xbd73bb50	-0.059504807
25	0xbf04e5cb	-0.51913136
26	0x3ec830cf	0.39099738
27	0xbed41072	-0.41418797
28	0x3ec63ce9	0.38718346
29	0xbda0e3df	-0.07855963
30	0xbd2ddeb3	-0.04244871
31	0xbe27a67d	-0.16372104
32	0xbebeba4f	-0.37251517
33	0x3ec6b8f5	0.38812986
34	0xbedd4925	-0.43219867
35	0x3d649d0f	0.055813845
36	0xbcb70ef2	-0.022345994
37	0x3e782eaa	0.24236551
38	0xbdf89b37	-0.1213898
39	0xbe747372	-0.23872164
40	0xbf01aabf	-0.5065116
41	0xbf015ea0	-0.5053501
42	0x3ef94f02	0.4869309
43	0x3f13db4b	0.5775649
44	0xbe84b089	-0.25915936
45	0x3eb5766b	0.35441908
46	0xbf324076	-0.6962961
47	0xbe8bb52e	-0.27286667
48	0xbe1c7686	-0.15279588
49	0x3efd55b2	0.49479443
50	0xbf02dec3	-0.5112116
51	0xbf049550	-0.5179033
52	0xbf11c34b	-0.5693862
53	0x3f164d35	0.5871156
54	0xbeb9073d	-0.36138335
55	0x3eb62331	0.35573724
56	0x3bfc1f18	0.0076941364
57	0xbe628257	-0.22120033
58	0x3f1042a9	0.56351715
59	0xbeea5645	-0.45768943
60	0x3efde2d7	0.49587128
61	0xbe9896d5	-0.29802576
62	0x3ea7e456	0.32791394
63	0xbeae147a	-0.33999997
64	0xbdeb4a5f	-0.114887945
65	0x3e045d5e	0.12926242
66	0x3ecd718f	0.401257
67	0xbe29c353	-0.16578417
68	0x3eb0e157	0.3454692
69	0x3e7f292a	0.24918047
70	0xbea7f1f2	-0.32801777
71	0x3e8421c0	0.25807
72	0xbeee6f37	-0.46569225
73	0xbed64b92	-0.4185453
74	0xbd0d090f	-0.034432467
75	0x3e86faf6	0.26363343
76	0xbe82802b	-0.2548841
77	0x3d7f5e6a	0.0623459
78	0xbe901a9f	-0.2814531
79	0xbe1c05f1	-0.15236641
80	0x3e41b049	0.18914904
81	0x3e8b3f16	0.27196568
82	0x3eb16824	0.34649765
83	0x3e8bb4ba	0.2728632
84	0x3efc2415	0.49246278
85	0xbdd71c57	-0.10503452
86	0xbe005267	-0.12531434
87	0xbe25f6ef	-0.16207479
88	0xbea96383	-0.33083734
89	0xbf17b05b	-0.5925347
90	0xbebd7ea4	-0.37010682
91	0xbe992e2d	-0.29918042
92	0xbdbf76c0	-0.09348822
93	0x3f053173	0.5202858
94	0x3edace60	0.42735577
95	0x3ebfcf5a	0.37462884
96	0x3d299101	0.041398052
97	0xbe8509e9	-0.25984123
98	0x3e51471d	0.20437284
99	0x3e3332e0	0.17499876

weight f4 [19, 100]
0	0xbea19fc0	-0.31567192
1	0xbe876804	-0.26446545
2	0x3df856eb	0.12125953
3	0x3df32ea3	0.118741296
4	0x3cbdca19	0.023167657
5	0xbe3dc2b5	-0.18531306
6	0xbeb587a6	-0.35455054
7	0xbdcebda5	-0.100947656
8	0xbe915c52	-0.28390747
9	0x3d942470	0.072335124
10	0xbcfc27b5	-0.030780653
11	0x3eb15e36	0.3464219
12	0x3f259627	0.6468224
13	0xbdae6b43	-0.08516552
14	0xbe16ebe0	-0.14738417
15	0xbe8d8bdf	-0.27645776
16	0xbe1d2d2b	-0.15349261
17	0x3e0551d4	0.13019496
18	0x3c17c20d	0.009262574
19	0xbe370d8c	-0.17876261
20	0x3dd97d60	0.106196165
21	0x3f0c4b5a	0.5480248
22	0x3e6d9dc5	0.23204716
23	0x3e873b3b	0.26412377
24	0x3eb2c556	0.3491618
25	0xbda17011	-0.07882703
26	0xbd25d10c	-0.040482566
27	0x3ea2bc92	0.31784493
28	0x3ea5e078	0.3239782
29	0xbd937297	-0.07199591
30	0xbecb0f8f	-0.39660308
31	0xbd62652b	-0.055272263
32	0xbdcfa8fa	-0.101396516
33	0x3ea5877b	0.32329926
34	0xbd8eace2	-0.069665685
35	0x3df43c85	0.11925606
36	0x3ccca09f	0.024978934
37	0x3e13b6c2	0.14425185
38	0x3e5e8f1a	0.21734276
39	0x3eb18d3c	0.34678066
40	0x3e263ce8	0.16234171
41	0x3e8c1cdf	0.27365777
42	0x3eb89f47	0.3605902
43	0xbddc2ecd	-0.10751114
44	0x3ea8a8bf	0.32941243
45	0xbe57d167	-0.21075974
46	0xbee9efaa	-0.45690662
47	0x3e8e00d6	0.27735013
48	0xbeb76c32	-0.35824734
49	0xbe3109a1	-0.1728883
50	0x3c1c4323	0.009537491
51	0x3d2e9304	0.042620674
52	0x3e6b5813	0.22982816
53	0x3c7440bf	0.014908015
54	0xbd1c2253	-0.03811867
55	0xbe7881ef	-0.24268316
56	0x3efa667d	0.48906317
57	0xbd616e6b	-0.055036943
58	0xbf0316fc	-0.51206946
59	0x3e2b98a2	0.16757444
60	0x3e76ba50	0.2409451
61	0x3e225552	0.1585286
62	0xbe84d8f3	-0.2594677
63	0xbe0a105f	-0.13482808
64	0x3e0364da	0.1283144
65	0xbf18dce3	-0.59712046
66	0x3e035f7d	0.12829395
67	0xbe4e1147	-0.20123778
68	0x3e822b03	0.2542344
69	0x3f0ab0fb	0.541763
70	0x3e835938	0.25654006
71	0x3e321e47	0.17394362
72	0xbeab4990	-0.3345456
73	0x3e12f69f	0.14351891
74	0xbe155e0b	-0.14586656
75	0x3da8f549	0.082499094
76	0xbe168a54	-0.14701205
77	0x3eadc99a	0.33942872
78	0x3dc71186	0.09720139
79	0xbdb4a2df	-0.08820128
80	0x3e8c386b	0.27386793
81	0xbe56d1a0	-0.20978403
82	0x3d8d9dd5	0.0691487
83	0x3db02755	0.08601252
84	0xbe168fc7	-0.14703284
85	0xbd8f1c3d	-0.06987808
86	0xbeb292cc	-0.34877622
87	0xbf0d2935	-0.55141
88	0xbea546cf	-0.32280585
89	0xbe656dc2	-0.2240515
90	0xbea4e978	-0.32209373
91	0x3de69dd0	0.11260569
92	0x3eb6ee93	0.35728893
93	0xbe75b9e7	-0.23996697
94	0x3da034e0	0.07822585
95	0x3e1340e2	0.1438022
96	0x3ef7b477	0.4837987
97	0xbf11b1d8	-0.56911993
98	0x3e962f6f	0.29333064
99	0x3e5e38b0	0.21701312
100	0xbdf728b2	-0.12068309
101	0x3e3a2cd7	0.18181168
102	0x3e3f12ff	0.1865959
103	0x3df6b69a	0.12046547
104	0x3d5a0f6b	0.05323736
105	0x3e81f83e	0.25384706
106	0x3dffeb65	0.1249607
107	0xbd8f016a	-0.069826916
108	0x3eeccae3	0.4624854
109	0x3e4e2aca	0.2013351
110	0x3ee461d7	0.44605896
111	0x3f0e9818	0.55700827
112	0xbda27867	-0.07933121
113	0x3ea42fbb	0.32067665
114	0x3eaac047	0.3334982
115	0x3c8f65c2	0.017504577
116	0x3d3abb08	0.045588523
117	0x3eb941a7	0.361829
118	0xbe978971	-0.29597047
119	0xbe9efbb1	-0.310514
120	0xbeaf141d	-0.34195033
121	0xbea76965	-0.32697597
122	0x3ebf1352	0.37319428
123	0xbd18ffa7	-0.037353184
124	0x3ea6de4b	0.3259147
125	0xbd938fa3	-0.07205131
126	0xbe5c5e83	-0.21520428
127	0xbb627992	-0.0034557325
128	0xbe59d372	-0.21272066
129	0xbc3cddbe	-0.011527477
130	0xbc35c3e3	-0.011094066
131	0x3ce0a713	0.027423417
132	0x3ed6e960	0.41974926
133	0x3d5d19a2	0.053979523
134	0x3ee6b715	0.45061556
135	0x3d9cc12f	0.07654034
136	0x3c84971f	0.016185341
137	0x3eab40cf	0.33447883
138	0xbe52ef9f	-0.2059922
139	0x3e9de617	0.30839607
140	0xbd83048a	-0.0639735
141	0x3e721b62	0.23643258
142	0xbee1f7ba	-0.44134313
143	0x3ecb17a7	0.39666483
144	0x3ed0c660	0.40776348
145	0xbb46f797	-0.0030359977
146	0xbe995922	-0.29950815
147	0xbdf26422	-0.11835505
148	0xbe2a4369	-0.16627277
149	0xbd917ef8	-0.071042955
150	0xbd54aba0	-0.051921487
151	0xbe173128	-0.14764845
152	0x3ec7d125	0.39026752
153	0x3f06c769	0.52648026
154	0x3df607e8	0.12013227
155	0xbe5c7dba	-0.21532336
156	0xbe8f533b	-0.27993187
157	0xbeffcb0b	-0.49959597
158	0xbf1f68f5	-0.62269527
159	0xbe21c6f2	-0.15798548
160	0xbf0d1a2e	-0.5511807
161	0x3e473070	0.19452071
162	0xbde59392	-0.112097874
163	0x3dff2db5	0.1245989
164	0x3edd5dda	0.43235666
165	0x3e0be78b	0.13662545
166	0x3cb52001	0.022109987
167	0xbd1a0bc5	-0.03760888
168	0x3e076c8d	0.13225003
169	0xbea0bda3	-0.3139468
170	0x3ec24dbb	0.3794993
171	0x3e8a532f	0.2701659
172	0xbd887f01	-0.06664849
173	0xbdf00590	-0.11719811
174	0xbdca685b	-0.098831855
175	0xbe04390c	-0.12912387
176	0xbcbb05ed	-0.022829974
177	0x3dcf7e0a	0.10131462
178	0x3e062b77	0.13102518
179	0x3e6cba83	0.23118024
180	0x3e935a05	0.28779617
181	0x3eb20337	0.34768078
182	0xbddbcbb3	-0.10732212
183	0xbdfcaf17	-0.12338083
184	0xbe513790	-0.20431352
185	0xbe6ad15a	-0.22931424
186	0x3ed16330	0.40895987
187	0xbf101846	-0.5628704
188	0xbf03cee5	-0.5148757
189	0xbebf20ff	-0.37329862
190	0x3d3577f0	0.044303834
191	0x3ba2fbdb	0.004973871
192	0xbf001a77	-0.5004038
193	0xbeaddc5b	-0.3395718
194	0xbe06ac81	-0.13151743
195	0xbe53daa0	-0.20688868
196	0x3df39c97	0.118951015
197	0x3e72db2b	0.23716418
198	0x3df67428	0.12033874
199	0xbd203c6b	-0.03912012
200	0xbeb624c6	-0.3557493
201	0x3e98e9f9	0.29866007
202	0xbe65c73a	-0.2243928
203	0x3a256cec	0.0006310481
204	0xbf42341e	-0.75860775
205	0xbf191a55	-0.59805804
206	0xbed97102	-0.4246903
207	0x3c9c8d17	0.019110246
208	0xbe83c92c	-0.2573942
209	0x3e80c90b	0.25153384
210	0x3e15e287	0.14637195
211	0x3e345b80	0.1761303
212	0x3e8713dc	0.2638234
213	0x3e783100	0.24237442
214	0x3e54c860	0.20779562
215	0xbf165c50	-0.5873461
216	0xbd2dd4b3	-0.042439174
217	0xbe947a83	-0.2899972
218	0xbf01f3a1	-0.50762373
219	0xbc517932	-0.012785243
220	0x3d551f8d	0.052032042
221	0x3e88a600	0.26689148
222	0xbe94f2a3	-0.29091367
223	0x3f164c06	0.5870975
224	0x3eae540f	0.34048507
225	0x3e70d438	0.23518455
226	0x3f336761	0.7007962
227	0x3ed31527	0.41227075
228	0xbcd3ebfa	-0.025869358
229	0x3d8fbf54	0.07018915
230	0x3ed76642	0.42070204
231	0xbe606e7d	-0.21917148
232	0x3d86862d	0.06568561
233	0x3ed77358	0.42080188
234	0x3e227066	0.15863189
235	0x3e4c7222	0.19965413
236	0x3eefc6e7	0.46831438
237	0x3dc219fb	0.09477612
238	0x3eb6363e	0.35588259
239	0x3f053b4d	0.5204361
240	0x3eb3c7f8	0.35113502
241	0xbee4dca8	-0.44699597
242	0x3d8d4b58	0.06899136
243	0xbe2d0c9d	-0.16899343
244	0x3ea6b8b7	0.325628
245	0xbd17afcf	-0.0370329
246	0x3ee92ca5	0.45541874
247	0x3d96124f	0.07327711
248	0x3f2485d7	0.64266723
249	0xbe1ad9b2	-0.15122107
250	0x3ed72ae3	0.42024907
251	0x3e97a3a3	0.29617032
252	0xbea745a8	-0.3267033
253	0x3ca02b45	0.019551883
254	0x3ecd5535	0.4010407
255	0xbe2336f7	-0.15938936

bias f4 [19]
0	0xbe175c30	-0.1478126
1	0xbdde15c5	-0.10843996
2	0x3ed20ac3	0.41023836
3	0x3f5d9425	0.86554176
4	0x3eb4b698	0.35295558
5	0x3eaf5ee7	0.34252092
6	0xbd17882b	-0.036995094
7	0x3f5df627	0.86703724
8	0x3cdd2878	0.026996836
9	0x3c648e67	0.013949967
10	0xbd1ce99b	-0.03830872
11	0xbe6899c5	-0.22714908
12	0xbd8a87b6	-0.06764166
13	0xbe6d9fe8	-0.2320553
14	0xbd965c69	-0.073418446
15	0x3e6b4c30	0.22978282
16	0xbe2377b0	-0.15963626
17	0x3e5054a3	0.20344786
18	0x3e98fed8	0.2988193
