checkpoints/19_9feature_lstm_num_comm999_an19_sn3_D25_al1_E5_B64_lr0.05_num_clients100_cf0.1.pth (torch, 230039 bytes, 9 tensors)

weight_ih_l0 f4 [400, 9]
00000000: f3b2 a9ba 8fb5 58bd f3ad 743e 8f76 2ebd
00000010: 5b9b 84bd 8bb2 273b 7afc 903d 1f9a aa3d
00000020: c762 56bd 1f06 af3e fa8e 13be 1a44 d23c
00000030: c869 583d 9bb0 943c ed2c 963d dfcc 10bd
00000040: a339 d6bc b1ea 993d af5d e53d 1004 64be
00000050: a20b 093e 3085 5dbd b24c db3d a689 2dbc
00000060: 7263 12bd 57fc 86bd d501 ddbd 8917 afbd
00000070: 75e2 2c3e cb9b 45be 04b4 933d 26fd 1cbd
00000080: e020 f03d 9155 a6bd 7b70 fc3c 2f98 bbbc
00000090: 1053 91bb b8d0 e1bd bcb5 2fbc e8a1 323d
000000a0: 8040 843c 52c2 d83d 3508 af3d 1bcc 983d
000000b0: c98a 883c 17f8 42be f7d8 c9bc 42aa ed3d
000000c0: 476f 023e 23e4 87bc 3632 41be 4778 9a3e
000000d0: 5b58 953d f3d8 053e 1f5f f5bd 914b c2bd
000000e0: 78ad ae3e 8ede 813d e2d9 34bd 22d7 7a3d
000000f0: e1ea 143d a3fc ea3d c9d4 9ebc 9a14 4dbe
00000100: f7e2 143e fb2b cd3d ffbf 073d 9580 d13c
00000110: d3c8 11bd 04b4 2cbd 01a0 243d 6543 2c3d
00000120: 0d98 c63c 45c3 e8be 5388 8f3d b1de 29bd
00000130: ef01 bc3a 20dd 7d3d ad73 dcbd efd7 7cba
00000140: f1f8 013d d374 9d3d 003a f23c 8016 873d
00000150: a0b8 ef3d 203e d1bd cea7 2ebe 35f4 c0bd
00000160: 4704 e23b 50d3 55bd 4bf4 8b3e 6ed7 93be
00000170: 6fc5 163d 388c 57bc 2fad 11bc 1d49 9dbd
00000180: 0b98 5fbc d2a8 afbd a7e3 a83d 4b82 3c3e
00000190: b71b 34be 7f40 713e 2fe6 70bd afa9 933d
000001a0: 1825 233c e5d5 49bd 173f 773c 8aaf b03d
000001b0: 032d 133e ceea 8bbe fb8d 05bd 95e5 c03d
000001c0: 63bc f73c 62b3 f83c c099 9ebd 1ec8 88bd
000001d0: 1804 73bd bbfe ae3c 5703 34bd 0b16 1c3e
000001e0: 7ad5 54bd cf1d 05be e795 cd3c 40d8 3f3c
000001f0: e2b9 283d 932d 79bd a772 da3d 634a 1fbd
00000200: dda4 9a3d 1f5c 833d 0874 03bd bacd d038
00000210: 9a00 93bd ec6e 813d 073b 5f3a 9f69 fc3d
00000220: d0bd 01be 292a 4b3e 2cbc 883d af17 87bd
00000230: 979b 233d d623 373d 5aa7 5f3d 5a7f a6bd
00000240: a582 e13c e548 e83d b887 38bd 6561 afbc
00000250: 5bb9 edbd 95fc 1ebd cbf9 063e da58 c3bb
00000260: 370e 683e ec5b c13d ffb8 1fbe 30c3 2a3e
00000270: a06d ccbc d853 8e3c f95b 9bba 3bec af3d
00000280: bf2e 92bd e987 9ebd 6b57 ca3d 1091 59bc
00000290: b4e4 c1bc 9d48 b63d 2810 7a3c b672 223d
000002a0: 17d0 bfbd 8369 a43d 8b43 02bd d6f5 3c3e
000002b0: 2dbc d4bd c9d5 a63d 60f4 7cbd 77c1 37bd
000002c0: 96c4 9abd cb3b 063c 9720 38bb 685a bfbd
000002d0: fbc0 86bd 2d95 f7bd 421e d6bc 6f11 e43a
000002e0: 2723 fb3c ccb2 0ebe 9f3b aabd 5554 e93d
000002f0: 2003 50bc 425a fa3e 670b 0a3e 29be c1be
00000300: 47a5 c3bc 37bf 88bd 0e94 21be 87e2 b23d
00000310: 4b02 12be 949a 0438 3014 593e 338d 62b6
00000320: 3cec cb3d 6ff3 253c 738c 3f3d b3f8 d7bc
00000330: b04c d7bd 8f44 053d 1b56 783d 90e7 443d
00000340: 0883 3ebe 105f 013e 6a4f febc 5271 3dbc
00000350: e1c3 223d 87c9 7f3c c259 d6bc 3aaa 4c3d
00000360: fa9b f73d d03b 82be a3a2 ad3d 699c c03d
00000370: 2837 36ba ebda 86bc c21d 733c cade 46bc
00000380: 6e15 b0bc cfd1 183d 92aa 0cbe d311 093d
00000390: 7af7 c0bc 477a e3bd 2ab1 a0bc a0bd e23d
000003a0: b05b 523d 2b9d edbd 884e 093d 2a57 92be
000003b0: c279 45bd 2321 823d 5b13 acbc f737 46bd
000003c0: 2f58 803c c332 6fbb 73cf e6bd 0fce 403e
000003d0: 489b 3cbe 68ae 99bb 3d87 6bbd 32ce 943c
000003e0: 0789 d43d c362 79bd ba98 f1bc 4ae8 da3d
000003f0: 7291 4d3e 0f60 dcbd d82a e7bd d8f5 0fba
-0.0012947008 -0.052907523 0.23894481 -0.042593535 -0.06474944 0.0025588598 0.07079406 0.083301775
-0.052340295 0.34184358 -0.1441001 0.025667239 0.052835256 0.018150618 0.07332788 -0.03535163
-0.02615053 0.07515467 0.11199509 -0.22267175 0.13383344 -0.054082096 0.10707988 -0.0105919
-0.03573937 -0.06591099 -0.10791365 -0.08549411 0.16883262 -0.19297712 0.0721207 -0.03832736
0.117250204 -0.08121789 0.030815354 -0.022899715 -0.0044349506 -0.11026138 -0.010724481 0.043611437
0.016144037 0.10583939 0.08546487 0.07460805 0.01666774 -0.19039951 -0.02463959 0.1160474
0.12737761 -0.016588276 -0.1886681 0.3016989 0.07292243 0.13071041 -0.119810335 -0.094870694
0.3411672 0.06341277 -0.0441531 0.061240323 0.03635681 0.11473968 -0.019388573 -0.2002739
0.14539705 0.10018154 0.033142086 0.025574008 -0.03559191 -0.042163864 0.040191654 0.04205646
0.024242425 -0.4546148 0.07008424 -0.04147214 0.0014343838 0.06197846 -0.10764251 -0.0009645214
0.03173155 0.07688298 0.029568672 0.065960884 0.11705136 -0.102169275 -0.170562 -0.09421579
0.0068974826 -0.052203476 0.27334818 -0.28875297 0.03680938 -0.013155989 -0.008891388 -0.07679961
-0.01364709 -0.08577122 0.08246546 0.18409078 -0.17588697 0.2355976 -0.05881327 0.07210099
0.009957574 -0.04927625 0.015090725 0.086272314 0.1437264 -0.2732758 -0.032606106 0.09418789
0.030241197 0.030358974 -0.07744169 -0.06678794 -0.059330076 0.0213617 -0.043948498 0.15242784
-0.0519614 -0.12999652 0.025095893 0.011709273 0.041192897 -0.06083448 0.106663994 -0.0388893
0.075509764 0.06414055 -0.032093078 9.9565324e-05 -0.07177849 0.06319985 0.00085155707 0.12324833
-0.12670064 0.19840302 0.06676516 -0.06596314 0.039943304 0.04471191 0.05460296 -0.08129759
0.027528116 0.113420285 -0.045051306 -0.021408746 -0.116076194 -0.0388151 0.13181226 -0.0059615197
0.22661673 0.09441361 -0.15597914 0.1667602 -0.024954617 0.017373964 -0.0011852972 0.08589979
-0.07137822 -0.077407666 0.09879955 -0.0132792145 -0.023668624 0.08900569 0.015262641 0.039660178
-0.09365862 0.08027937 -0.031802695 0.18453154 -0.10387454 0.08146245 -0.06175649 -0.044862237
-0.07557027 0.008192967 -0.0028095597 -0.093434155 -0.06579777 -0.12089 -0.026137475 0.0017400215
0.03065641 -0.13935393 -0.08312153 0.11393038 -0.012696058 0.48896986 0.13480912 -0.37840393
-0.023882521 -0.06677096 -0.15779135 0.08734613 -0.14258687 3.1615215e-05 0.21199107 -3.3758813e-06
0.099571675 0.01012884 0.046764802 -0.026363706 -0.10512674 0.032536086 0.06062899 0.048072398
-0.18604672 0.1263392 -0.031043727 -0.011562662 0.039737586 0.015612013 -0.026165847 0.04996703
0.12090297 -0.25436258 0.08478286 0.09404833 -0.0006950968 -0.01646181 0.014838638 -0.012138078
-0.021494593 0.037309464 -0.13736942 0.033464264 -0.023555506 -0.11107307 -0.019615728 0.11071324
0.05135697 -0.11602243 0.03352216 -0.28582126 -0.04821182 0.063539766 -0.021005323 -0.048393216
0.01566705 -0.0036498762 -0.112700365 0.18828605 -0.1841861 -0.0046899803 -0.05750202 0.018164728
0.103776984 -0.060885202 -0.029491771 0.10688837 0.20075014 -0.10760509 -0.11287469 -0.00054916507

weight_hh_l0 f4 [400, 100]
00000000: 35de aa3c baaa 66bd 38c4 83bd 6258 30bd
00000010: bf38 773d 51d1 bdbc 2f62 99bd 3ca7 453d
00000020: 87ec 0f3d f0fb ffbb 9775 433d e55c b03d
00000030: c87f 8cbb dd25 c3bd 174d 93bd 82b0 56bc
00000040: a315 a3bd 912e 8abd d52c 59bd fd69 54bd
00000050: cffa b0ba f4cd 803d b7a2 8c3c f0bf 85bd
00000060: 4f28 093d 7b18 8cbb 003b 603d 9ac7 283d
00000070: a608 c73c 7c37 12bd e7b9 453d 136a 633d
00000080: 5dbc d93c c493 a8bc 24bb 8d3d 5f83 f03d
00000090: b2c8 a7bd 503b 99bb b018 69bb a717 09bd
000000a0: 33ef 363c 5d75 fdbd fabb 2fbb 6a11 063d
000000b0: 5f2c d3bd e8f4 bfbd 6372 753c caf1 c53d
000000c0: a6e6 a7bd db43 50bd abc8 b13d d9ce 42bc
000000d0: e322 09bc 9a33 eebd ee0d 493c 4a63 6ebc
000000e0: f2cb 253d 8048 753d a06f 0c3c 172b 8cbc
000000f0: fc39 9b3d 32bf efbc 6664 a938 5785 90bd
00000100: 98fd b23d d57b 6fbc 1322 f7bd 9604 15bd
00000110: cf53 8f3d b58a f63c a3bc 823d 1b94 d93c
00000120: e5ff 863d 4599 cebd adbe f13c 02f5 893d
00000130: d502 ccbd 2afc 6a3d f3b1 4ebd 1256 353d
00000140: fb6a 06bd 0b97 3ebd 530b e139 021d 68bd
00000150: b768 f6bc f744 873c 2d78 14bc 4ad7 48bd
00000160: 7cec 8d3d 8b0f 73bd e716 b43d 0b87 99bd
00000170: 2078 45bd 39e4 973d abf5 c93b 72d4 6f3d
00000180: ef2b 81bd cd3b be3d df73 7abb 73ae 97bd
00000190: a984 84bc 7fa9 213c bc8c 1d3d 0fd8 283d
000001a0: 5822 703c 54b1 aabd 1a84 47bd 4222 073c
000001b0: 0e27 ad3b d5e1 293d 05b1 a0bd 149c b93d
000001c0: 7256 51bc b608 2bbd d384 8f3d d368 89bd
000001d0: 2be0 e7bd 786d 1abd 0949 86bd cfd9 a43c
000001e0: b5f5 eb3d 18bc e33c 2387 af3d f33d 97bd
000001f0: 2773 593d 5631 0cbd de38 2a3d bd9e 2d3d
00000200: f755 8bbc d8ca c43d 539a 393c f3c7 8abd
00000210: c71a a63d e018 883d 53ef e5bc 637a 47bd
00000220: 7b7f 08bd f366 0c3d b246 a3bb 877f 11bd
00000230: 24c3 8e3d 5fba 453d 747c 833d 7e4d 8fbd
00000240: 6214 d23d 7b05 563d 8787 ba3d 78c6 033c
00000250: c992 8c3c 2180 073d 4bde 963b dfe0 8c3d
00000260: 3af0 a83d c865 3b3d 17e5 b6bd b8f0 c6bc
00000270: bf47 273d 8a52 aebb fa26 52bd 6808 66bd
00000280: 45e4 e9bb dd9d 83bd 21af 01be dd12 53bd
00000290: 2ba9 b5bb 426f f03d dc15 9dbd f336 64bd
000002a0: ed6b c53d 88c0 81bd 0208 e6ba fd79 90bd
000002b0: bef4 9e3c 0ed7 a1bd 0cdb 27bd af18 ad3d
000002c0: dd10 833d 68d4 08bd 0749 23bd 7df3 44bd
000002d0: 6da6 633c a7e8 b63d 1dd9 a8bc ad2d 6cbd
000002e0: 9ba3 cabd 82c3 8c3d ef39 e8bd 0bda a73c
000002f0: 3614 a0bd afcb 3a3c b84c 4b3c b712 513d
00000300: d61a bbbd 5218 7d3d bc32 c93c abec 1dbd
00000310: 7379 e83c cd3e 2a3d a7b7 c23d bd22 973d
00000320: a795 0e3d ad9c 80bd 440c 9f3d 434c 3abd
00000330: 6fba f23d 134f 35bd 37de 95bd 8331 ac3d
00000340: 73d7 683d 2abc 833c 5cbc 23bd e385 9d3c
00000350: d382 c4bd 043a 06bd 7381 c6bd a0fa 4ebd
00000360: 1c30 c4bc 7422 44bd a2e6 59bd df4f 6fbd
00000370: 15c4 ba3d d8a0 953b c512 a63c 0bff 813b
00000380: cfb5 a43d ae8e b6bd e2e4 60bc 776b 87bd
00000390: 40a6 0d3c f11f 813d 25a8 3cbd 5ec5 8cbd
000003a0: 3479 943d b7ea b4bc e141 c8bd 5854 d0bd
000003b0: 114f 93bd 36e6 93bd 2f5c cfbc ef2b 9cbc
000003c0: a608 993c cabb 6d3c 82df 85bd 6b41 bdbc
000003d0: 2b40 dd3c c002 44bd accd ae3b f961 0c3d
000003e0: c083 46bd 4a89 e83c 0a71 ccbc 1724 173d
000003f0: 03cb dbbc 1fdf f73c f882 e5bc f516 963d
0.02085791 -0.05631516 -0.0643391 -0.04305304 0.06035685 -0.023171099 -0.0748943 0.04825519
0.03513768 -0.0078120157 0.047719564 0.08611468 -0.0042876936 -0.09528706 -0.07192438 -0.013103606
-0.07963111 -0.06747163 -0.05302127 -0.05185889 -0.0013502481 0.062892824 0.017167432 -0.0653075
0.033485707 -0.0042753792 0.054743767 0.04120598 0.024296116 -0.035697445 0.048272993 0.055521082
0.026579076 -0.020578273 0.0692046 0.11743807 -0.081925765 -0.00467626 -0.0035567693 -0.033469822
0.011165428 -0.12375901 -0.0026814924 0.03273145 -0.103111975 -0.09372884 0.014980885 0.09665258
-0.081982896 -0.050845962 0.086808525 -0.011890137 -0.008370134 -0.11630936 0.0122713875 -0.01455004
0.0404777 0.059883595 0.008571535 -0.01711039 0.07579419 -0.029265974 8.077249e-05 -0.070566826
0.087397754 -0.014616926 -0.12067046 -0.036381327 0.06998407 0.030095438 0.06383636 0.02655988
0.06591777 -0.100878276 0.029509867 0.06736185 -0.09961478 0.05736939 -0.050462674 0.044271536
-0.03281687 -0.046530765 0.0004292378 -0.05666829 -0.030079229 0.016512377 -0.009061855 -0.04903344
0.069298714 -0.059340995 0.08793431 -0.074964605 -0.048210263 0.07416577 0.006163319 0.058552213
-0.06307208 0.0928875 -0.0038216037 -0.074063204 -0.016176539 0.009867071 0.038464293 0.041221675
0.014656626 -0.08334604 -0.048709966 0.008247914 0.0052841967 0.041475136 -0.07846264 0.09062973
-0.012776958 -0.041756354 0.07007756 -0.06709447 -0.113220535 -0.037702054 -0.06556899 0.02012339
0.11521474 0.027799651 0.08570697 -0.07384863 0.053088333 -0.034226738 0.04155814 0.042387713
-0.017008765 0.09609002 0.011328298 -0.067764185 0.08110576 0.066453695 -0.02806822 -0.0487007
-0.0333247 0.034277868 -0.004982793 -0.03552201 0.06970814 0.04827344 0.06420222 -0.06997202
0.10257794 0.05225132 0.09107881 0.008042924 0.017159836 0.033081178 0.004604136 0.06878828
0.082489446 0.045751363 -0.08930414 -0.024284706 0.040839907 -0.005319898 -0.051306702 -0.05616036
-0.0071378076 -0.064265944 -0.12664463 -0.05153166 -0.005543848 0.11739971 -0.07670185 -0.055716466
0.09639726 -0.063355505 -0.0017549994 -0.070545174 0.019403812 -0.079023466 -0.040980384 0.08451974
0.06399701 -0.03340569 -0.039864566 -0.04808377 0.0138946595 0.08931094 -0.02061134 -0.057660747
-0.098944865 0.06873228 -0.11339175 0.020489713 -0.07816355 0.011401101 0.012408428 0.05104324
-0.09135978 0.06179077 0.024560325 -0.038555782 0.028378224 0.041563798 0.09507685 0.07379673
0.03481069 -0.062798835 0.07766011 -0.045482885 0.11851966 -0.044264864 -0.07317775 0.08407881
0.056846093 0.016080935 -0.039974555 0.019228881 -0.09595265 -0.03277017 -0.09692659 -0.050531983
-0.023948722 -0.04788442 -0.053198464 -0.05842578 0.09119431 0.004566293 0.020272622 0.003967171
0.0804249 -0.08913933 -0.013726445 -0.06612294 0.008645594 0.063049205 -0.046058793 -0.06873582
0.0724968 -0.022084577 -0.097781904 -0.10172337 -0.07192815 -0.072216436 -0.025312511 -0.019063918
0.018680882 0.014510104 -0.06536771 -0.023102483 0.027008137 -0.047854185 0.0053345766 0.03427312
-0.04846549 0.028385777 -0.024956245 0.036899652 -0.026830202 0.03025776 -0.028016552 0.073285975

bias_ih_l0 f4 [400]
00000000: f7e1 4e3b c04d 633d e3f3 2e3d 3214 f3bc
00000010: 87ee bf3d a44a 803e 336f bc3b c97a 2d3e
00000020: 9c62 a53d 6759 143c 9a92 91bc 4fe5 83bc
00000030: fac4 b1bd c277 643d 1710 d73d 1489 113e
00000040: 5af5 853d 1826 fa3d fb0b 263d db62 003e
00000050: 0e58 96bc edac fa3d 7737 b43d 2399 0ebc
00000060: 6b27 cfbb 6b82 c0bd 16a0 cc3c 6ced 2dbc
00000070: 3e63 813d cca8 053e ef11 913b 65c7 373c
00000080: 47f0 cd3c 6bfe 49bd 096c 9dbc eafb 5a3d
00000090: e711 263e c1f8 233d 22c6 64bd fcd2 be3d
000000a0: 0a74 2d3c 6c1b 023c ca19 b83d 7709 e1bc
000000b0: 9e86 823d a9aa ab3c 5ee4 0e3e 26df 93bd
000000c0: 6804 1ebc d0f9 213e 48ee 803d c77d fd3b
000000d0: 9b76 663c aa61 0e3e 0fe1 0cbd 13ca 5a3d
000000e0: 3403 133e e97c 23bd 2341 3e3d a932 043d
000000f0: 9560 123d c069 8c3d 1bfa 483d 4bc6 fdbc
00000100: 587e 6a3d 57fa 923d 1ad8 b23b 9f6f d73c
00000110: 3c70 283e 0d93 de3d e174 0c3d bc6f a63d
00000120: 4da2 583d 7de0 503d 5048 10bb bbe8 62bc
00000130: e054 d3bb 4b41 95bd d797 a7bd 12a3 13bb
00000140: a06b a73d b0c5 e03c aa21 173d 3516 4dbd
00000150: d37b 633d 9b55 163e 17f8 8d3d dfb6 d33d
00000160: fd9e 1d3e d82b c33d dd53 a33d 0bf8 9c3d
00000170: 503f eb3c 0757 be3d 633c 8dbd 6ea5 453d
00000180: 072f 08bd af67 41bc 2246 b73d e1ec 013e
00000190: c47a 433d ad34 8c3d aa9e 303d 4858 da3d
000001a0: e3eb 143e 6f75 483e 8561 473d 5504 d73d
000001b0: 2d1a b23d c7c2 dd3c 65c5 ac3d 6a01 a63d
000001c0: 6d51 5bbd 1c8e 343b 18ab 68bc 6bd6 9c3c
000001d0: 4373 1e3e b734 ae3d f38f 153e 5b1d 3b3d
000001e0: 88c1 963d 9c96 a13d 0dd1 0d3d 9504 d13d
000001f0: eba3 6cba d4b2 9c3c e3ce e73d c85e 0f3d
00000200: 5545 d13c 4afc 9c3d 537b 793c 15a3 5d3d
00000210: a87e d23c 4d53 88bc 67ce a53c 6066 483c
00000220: 49a5 083d c578 db3b 600f bebc 6058 973d
00000230: 7001 b63d e352 69bc fac2 f23d b419 933d
00000240: 1339 e03d 9af9 55bd c68c 083e c8f0 eb3d
00000250: e326 193e c323 223e a771 1d3e ef22 4c3e
00000260: 4f35 903d da5d 683c eda1 6c3d e3df ed3d
00000270: 7149 a23d 3458 aabd 8f57 733c 91d4 253d
00000280: 6376 d33d 3a2c e43d d556 eb3c 6b35 b83b
00000290: 3fb6 ba3b 53cd 183e 5e25 82b8 1d9b c43b
000002a0: 9390 2b3e 93e4 d23d cacd f8bc e657 383c
000002b0: ef9a 30bd 1092 353b 5f0e 1c3e d36b 583b
000002c0: 4aa3 cf3c 4b2e 833d 22da 26bd 70d8 033e
000002d0: 8ea8 953d bb78 d63d 872f acbd 02f8 5e3d
000002e0: 8ddd e83c c3cb 05bd bea6 b03d e343 fe3c
000002f0: c004 4e3d 03a1 803d 2a8d 613d 5ac7 26bd
00000300: 308a 683d 524f a33d 0b36 b23d 504d 86bd
00000310: b320 933c 9f99 b939 218e 053c d7ff 363e
00000320: 477c 7f3d 7b12 4cbd 2fd0 65bd 35f6 393e
00000330: 5245 553e 420d e6be ccda 05bd 48ef 123e
00000340: 3f1f 22be 7c98 003d acdf a43e d55d b53e
00000350: 89fa ac3d 9dee 1abd d8e8 4f3e ed8a 7c3d
00000360: 33bf 2abe 392d b8bd 705f 783d b5ed 953e
00000370: baf8 353e 001e d5bd 9241 57be 7deb b8bd
00000380: dfe2 a53d 9bab 223e da97 403e f212 74bc
00000390: 1c56 44bd c9bf 2cbe 73f4 5dbd 7478 b33e
000003a0: a537 ee3c 11a0 13bc 8ce6 b53d 2099 a33e
000003b0: 6f61 27be 836b 97be 708d 633e f5ea babd
000003c0: efc4 22be a019 5abe ebff 843e a7e0 83bd
000003d0: bb4f 03bd 3af7 3d3d 8104 013e 4f2f 06be
000003e0: ec0f 1cbe 677e c73d 0243 febb 2df0 a83d
000003f0: cba7 2f3e 3f91 293b 7589 ccbb 5e39 2a3e
0.003156779 0.05549407 0.042713057 -0.029672716 0.09371667 0.25056946 0.0057505607 0.1694137
0.08075449 0.009054518 -0.0177701 -0.016100554 -0.086801484 0.055778272 0.10501116 0.14212447
0.06540938 0.12214297 0.04053877 0.1253771 -0.018352535 0.12240014 0.087996416 -0.008703503
-0.0063218377 -0.09399875 0.024978679 -0.010615688 0.06317757 0.13052672 0.0044271867 0.011216973
0.025138987 -0.049314898 -0.019216554 0.0534629 0.16217767 0.040032152 -0.055853017 0.09317586
0.010586748 0.007941108 0.08989294 -0.027470334 0.063733324 0.0209554 0.13954303 -0.072202966
-0.009644605 0.15817952 0.062954485 0.007735941 0.014066364 0.13904443 -0.03439432 0.05341537
0.1435669 -0.039914045 0.046448838 0.032274876 0.03573664 0.06856108 0.049066644 -0.030978343
0.057249397 0.07176655 0.00545789 0.026298342 0.16449064 0.108678915 0.034291152 0.081267804
0.052889157 0.05099534 -0.0022015758 -0.013849433 -0.006449327 -0.07287844 -0.08183258 -0.0022527617
0.08174825 0.027438015 0.03689734 -0.050070006 0.05553801 0.14681093 0.06932085 0.10337614
0.1539268 0.09529847 0.0797498 0.07664498 0.028716713 0.09293943 -0.068962835 0.04825347
-0.033247974 -0.011804505 0.08948924 0.12688018 0.0477245 0.068459846 0.043120064 0.106613696
0.14543109 0.19576047 0.048676986 0.10498873 0.08696399 0.027070416 0.084360875 0.081057385
-0.05354445 0.0027550524 -0.014200948 0.019145211 0.15473656 0.08506148 0.14605694 0.045682292
0.07361132 0.078900546 0.034623194 0.10205952 -0.0009027111 0.01912824 0.113187574 0.0350025
0.025545755 0.07665308 0.015227157 0.054110605 0.02569516 -0.016641283 0.020240022 0.012231439
0.033360753 0.0066977465 -0.02320069 0.07389903 0.08886993 -0.014240953 0.11853595 0.07182637
0.10948386 -0.05223999 0.13334951 0.11520535 0.1495624 0.15833955 0.15375386 0.19935201
0.07041418 0.014182532 0.057771612 0.11614969 0.07924164 -0.08317605 0.014852419 0.040485922
0.10325315 0.11141248 0.028727928 0.0056216023 0.005697995 0.14922075 -6.205843e-05 0.0059999363
0.1675437 0.10297503 -0.030371565 0.011251425 -0.043116506 0.0027705468 0.15239857 0.0033023253
0.025346417 0.06405314 -0.04073537 0.12875533 0.0730754 0.10472246 -0.084075026 0.054435737
0.028425956 -0.032665025 0.086255535 0.03103823 0.0502975 0.062807105 0.055066265 -0.04071746
0.05677241 0.079741135 0.08701714 -0.06557715 0.017959928 0.00035400406 0.008151562 0.17871033
0.06237438 -0.04982231 -0.056106742 0.18160327 0.20827225 -0.4493199 -0.032679364 0.14349091
-0.15832232 0.03139542 0.32201898 0.3542315 0.08446223 -0.037825216 0.20303667 0.061655927
-0.16674499 -0.089930005 0.06063789 0.2928292 0.17770663 -0.10406113 -0.21021107 -0.09029291
0.08099913 0.15885775 0.18807927 -0.014897095 -0.047933683 -0.16870035 -0.054188203 0.35052836
0.029079268 -0.009010331 0.08881864 0.31952763 -0.16345762 -0.29574212 0.22221923 -0.09126846
-0.15895437 -0.21298838 0.259765 -0.064393334 -0.03205846 0.04637835 0.12599374 -0.13103984
-0.15240449 0.09740906 -0.007759453 0.08248935 0.17153852 0.0025873927 -0.006241972 0.16623446

bias_hh_l0 f4 [400]
00000000: 7599 703d 1294 e23d 4d0d d63d 1082 b3bd
00000010: db89 6f3d bec9 953e 5482 953d 34a3 bd3d
00000020: ddca 453d 7540 143e a6b7 0e3e 5226 c53d
00000030: 68c4 c43d 1d21 e43d 9cdd a63d cd87 7b3d
00000040: a789 a3bc bb62 c93d 17df 433b 6539 df3d
00000050: f4a6 c6bc 23bc 013e ab2d 5a3e 1060 1f3e
00000060: 2128 ba3c 5dec 84bd f345 073d ad49 4c3d
00000070: 2f2d 933d d579 ac3a b0d8 f93d cc51 1c3d
00000080: 6199 21bd 9350 d23d 43b6 0a3e 66eb 173e
00000090: a67d 3b3a dbee ae3c 5348 ea3d b207 233e
000000a0: 6906 0e3d 0a25 7dbc 63da 4c3e 7d47 ef3d
000000b0: 53bf cf3d 84a4 27bd ed17 3dbc d916 c9bc
000000c0: aaae ef3d b7d6 663d e2cd e93d 6591 293e
000000d0: 58e5 b6bb 6261 813d f393 ff3d 0bbe 04bd
000000e0: af6c 4d3d 7b5b 9ebc 8572 56bd 6783 a93d
000000f0: 6473 273c 0f1f 0b3e 43f7 a33d 620f f43d
00000100: 935c dc3d 3b06 293e 3fa1 263d e36e 01bd
00000110: 55a8 3d3e a21b b93d 0a4f ba3d 7837 343c
00000120: 63a8 96bd e5e8 373d e210 c3bc 392f 98bd
00000130: a8b2 e43d e470 363b 4c57 cb3d 5db4 1d3d
00000140: a9eb 103e a909 90bd b71d 513d b250 0b3d
00000150: 5dcc 183d 9577 3abd a3d2 b63d 2dc7 e43c
00000160: 4deb d43d 41eb 073e 7762 593e 93f8 663d
00000170: d649 8abc 57d5 c73d dc26 3dbd d835 24bd
00000180: fecd c33d ba74 1b3c 4adc 65bd 231e cd3d
00000190: fc03 0d3d 1307 ad3d cdd3 94bc 333b 223e
000001a0: e54b 1c3e 6ff9 353e 3669 163d b486 263d
000001b0: b3a0 8cbc 3488 133e d3f0 91bc 23e8 9a3c
000001c0: 7b01 5b3d 2af7 e03d 8f3c 563d a6be bf3d
000001d0: 66ec 13bc 2855 2c3e 15ac 2d3e 7f06 fc3d
000001e0: 7108 363e 053e 173e 877c c53d 50cf 363e
000001f0: 696a c33d c917 a8bd 50dc 9b3c 2fac 923b
00000200: ab49 b83d 57cd 343e efa2 9b3d 3f0f 65bd
00000210: 4757 973d ff5c 0d3c 1aaf 4ebc aaa4 1a3e
00000220: 51c7 bd3d 7b28 8b3c eaeb d43d a473 393d
00000230: e831 f53d 3ad7 e53d 6aaf dc3d 1b14 dabc
00000240: 3c0a 463d e3fa cd3d 9dba b93d 1726 013e
00000250: 873a 743d c3cc 303e dca0 023d b3e0 103e
00000260: 421e 473d 3eab 2cbc 6773 68bc 661a b83d
00000270: 213f 953d fb3f 57bd bb7c 603d 320b de3c
00000280: d702 583c a058 68bc 0b8e 54bd 878a 7ebd
00000290: 14ad ae3c 6af3 023d 4f0d 48bd b755 04bd
000002a0: 8382 083e 7233 7cbc 4da3 8d3c 9151 853d
000002b0: 0ede cabc 83ac 243e 63cc 363e 2bb2 97bc
000002c0: 70d9 dd3d ff64 353b fa77 043e 0ccd 263e
000002d0: 75ed 063e 7374 043e e13f 8c3d c2f2 2bbd
000002e0: 0618 093d 5b3f 20bd 0ffd a93d 2d60 4b3d
000002f0: 97d8 c93d 2c56 173e d878 4d3e eab8 7abc
00000300: a2aa a43c b2ec 8f3d 4000 11bd 68da 173d
00000310: 92ab 29bd a433 1b3d 53a1 113e 43c5 ce3d
00000320: f75c 703d 84ff a1bd ab6e 97bd 6ee6 033e
00000330: 40aa 343e 3373 eebe cbce acba 38e7 053e
00000340: 6b73 babd 7ee9 2bbc f31d c13e 6b65 463e
00000350: dff3 cabd 4b1e 8abd bfd4 a43d 6ba5 343d
00000360: 955a c0bd a19e ba3d c915 1b3e 1353 8c3e
00000370: ba58 013e 6301 9dbd dbc3 41be 8a97 40be
00000380: 02c8 00bc 8fde e13d 451d df3d 379c b83d
00000390: 8028 6ebd 47c3 8dbe 2b59 6bbd fcd2 913e
000003a0: 174f 46bd 28b2 98bd 3f4b 253c f009 9a3e
000003b0: 976f 16be aef7 81be afe7 213e 8fb7 3cbe
000003c0: cf04 24be 6812 2abe 1fb1 063e 5fa2 90bd
000003d0: 4742 103e e3ca e03b de02 213e aeae 49bd
000003e0: dcc5 25be da25 d63d af13 08be a386 ae3d
000003f0: c710 083d a790 75bd 086c b5bc fe73 3d3e
0.058740098 0.110633984 0.10451756 -0.08765042 0.05848108 0.2925548 0.07300249 0.09259644
0.04828917 0.14477713 0.13937244 0.0962645 0.09607774 0.11139128 0.081477374 0.061408807
-0.019963099 0.098332845 0.002988761 0.10899619 -0.024249531 0.12669425 0.21306483 0.15563989
0.022724213 -0.06490395 0.033025693 0.04987495 0.071863525 0.0013158867 0.12199533 0.038163945
-0.039452914 0.102692746 0.1354609 0.14835891 0.0007152207 0.02135413 0.11439576 0.15920904
0.034674082 -0.015450725 0.20005183 0.11683557 0.10143914 -0.04092838 -0.011541349 -0.024547027
0.117032364 0.05635711 0.11416222 0.1655937 -0.005581539 0.063174024 0.12479391 -0.0324078
0.050152477 -0.01933073 -0.052355308 0.08277016 0.010220382 0.13586067 0.08006146 0.119169965
0.10759845 0.16506283 0.04068112 -0.03159989 0.18521245 0.09038474 0.09097107 0.010999553
-0.07356336 0.04489984 -0.023811761 -0.07430882 0.111668885 0.0027838284 0.0992876 0.038502086
0.14152397 -0.070330925 0.05105373 0.034012504 0.03730427 -0.0455242 0.089268945 0.027927006
0.103964426 0.13273336 0.21228968 0.056389403 -0.01688091 0.09757488 -0.046179637 -0.040090412
0.09560774 0.009488279 -0.056118287 0.10015514 0.034427628 0.08448615 -0.0181674 0.15842895
0.15263326 0.17770933 0.03672143 0.040655807 -0.017166471 0.14407426 -0.01781503 0.01890952
0.05346821 0.10984643 0.052303847 0.09362535 -0.00902853 0.1682936 0.16960175 0.123059265
0.17776658 0.14769752 0.09642892 0.17852521 0.095417805 -0.08207662 0.019025952 0.0044760923
0.08998426 0.17656456 0.075994365 -0.055922743 0.07389694 0.008628129 -0.01261499 0.15101877
0.09266532 0.016987076 0.103965595 0.0452763 0.119724095 0.11222692 0.10775645 -0.026620915
0.048349604 0.100576185 0.09068797 0.12612186 0.05962613 0.1726561 0.03189169 0.14148216
0.04861284 -0.010538874 -0.01418767 0.0898941 0.072874315 -0.05255125 0.054806452 0.027104948
0.013184271 -0.014181286 -0.051893275 -0.06214383 0.021322764 0.03197042 -0.048840817 -0.032308307
0.13331036 -0.015393125 0.017289782 0.06509698 -0.024764087 0.16081433 0.17851405 -0.018517574
0.108324885 0.0027678607 0.12936392 0.16289157 0.1317652 0.12935047 0.068481214 -0.04197956
0.033470176 -0.03912292 0.0830022 0.049652267 0.09855764 0.14778966 0.2006563 -0.015302876
0.020100895 0.07027568 -0.03540063 0.037073523 -0.041423388 0.037891045 0.14221697 0.100962184
0.05868241 -0.07910064 -0.07394155 0.1288087 0.1764307 -0.46572265 -0.0013184188 0.13076484
-0.091040455 -0.010492681 0.37718162 0.19374625 -0.09909796 -0.06744059 0.080483906 0.044103067
-0.09392277 0.09112287 0.15145029 0.2740713 0.12631503 -0.0766628 -0.18922369 -0.18807808
-0.007860186 0.11028778 0.108942546 0.090141706 -0.058144093 -0.27688047 -0.057458084 0.2848128
-0.04841527 -0.074558556 0.010088741 0.30085707 -0.14691006 -0.25384277 0.15811037 -0.18429397
-0.1601746 -0.16608584 0.13153504 -0.0706222 0.14087783 0.0068601235 0.1572375 -0.049238853
-0.16188759 0.10456438 -0.13288759 0.08521774 0.033219125 -0.059952404 -0.02214624 0.18501279

weight f4 [100, 100]
00000000: 33d9 be3a 082e 5d3d cbae 2c3c b34d c6bd
00000010: d283 a5bc a455 9ebd e027 8a3c 6882 c7bb
00000020: e263 933d 75ef 6d3d 65a8 043d 6b89 80bd
00000030: 1fcf 963c 6d47 6a3c a38c bf3d efeb d9bc
00000040: af38 903c 60d8 da3c 5795 0abd 1774 763d
00000050: 7f0f 16be 933f 553d 7c6a 973d 0f66 2a3c
00000060: f5c7 f9bc 1d38 af3c 018c b7bd 5789 c43c
00000070: f884 b83d a7c0 fabc e2e7 c8bd 7e76 a33d
00000080: 8bf4 d4bc d88d 66bd f59f afbd 3b64 7f3d
00000090: bbe8 a9bd c279 6e3c 4f99 03bd f0fc cf3d
000000a0: 655c 71bc 1372 b03c ed63 6c3d 92c1 ab3d
000000b0: d856 79bc 57bc ae3d ccf1 c1bd f702 d23d
000000c0: 7bad 99bd 779e ecbd aaa7 e9bd 061b c63b
000000d0: b8ae c4bd d7f0 a1bd 12ed 84bd 382a d53b
000000e0: 4515 58bd b1c5 81bd b146 9cbd fb1c 6ebd
000000f0: cf14 86bd 2a82 1dbd fd8d f73b 84c6 adbd
00000100: e0ff 683d afed bfbd 6984 15bb be9e afbd
00000110: 13dc f53d 5808 0a3e 9fb1 853d fa60 cdbd
00000120: 02ed 933d a95d a1bd 9375 903d fcb9 a83d
00000130: abd1 40bd bf0c c83d 3137 3abd a5ef d0bd
00000140: f3a1 843d a55c 4f3d 318a 96bd 6ee4 acbd
00000150: 2dd6 babd d090 24bd 760d acbd 455e d2bc
00000160: fa95 d9bd 8fdd cebd 9abe 75bb 9740 a43d
00000170: dfde 0bbd 0cb2 bdbd 7759 123d 308f 0a3d
00000180: 4bfb 1f3d 8d8b 3cbd 8e98 b6bc 23be 44bc
00000190: b4c6 c5bc 8844 72bd f898 5bbc 520c 19be
000001a0: 805f 7f3d 9e87 883d 01d0 13bc a24e 36bd
000001b0: 2f07 913d 50e9 90bd 7340 e73c 50b1 c53c
000001c0: 4b13 82bd 5532 3f3d 8324 8139 5f05 8b3d
000001d0: 78d2 0c3c bb2a 06bd d04b 52bd 7fdd 093e
000001e0: cdae e0bd 8ffc 99bd b529 953d 6888 c63c
000001f0: e32a babb b866 503d e48d 2c3d 7071 f83c
00000200: 9091 8cbc 48f5 03bb 9f22 593d c774 c93d
00000210: adef 893d 39b5 9abd e22f e23d a0d7 5a3d
00000220: ced4 acbd 9a51 dbbd 7004 edbc 83aa 1f3c
00000230: ce8d 36bd cb97 91bd 7a34 9c3c b842 a73d
00000240: c312 c53d 2a61 673b 176b 90bd 152f 6b3d
00000250: 6ad2 b13d 6eac 873c 97d0 313d 9893 e23d
00000260: 2e6e b2bd 217e b03d 72cc 98bd 3aee 90bc
00000270: 867d a8bc 1a19 81bd dce4 1abd 5288 8bbd
00000280: b342 093d f5bd de3d 2390 ee3d 2d18 e7bd
00000290: 6028 acbc 2543 f5bd b7db 69bd 577c 81bc
000002a0: 90a8 963c f789 e23d e2a7 803d 9e18 c33b
000002b0: 374a 98bc cb36 8e3d 12ff 293d 9d35 6dbc
000002c0: bb72 b2bd c26c a3bd 9ad3 71bc 2d84 d3bd
000002d0: 93eb a13d 81df 8ebd 165c 15bd ad27 293d
000002e0: e099 6c3c 83b7 87bd b58c 4fbc 2e4f 8dbd
000002f0: 7739 9ebd 0bb7 95bc 6d29 f3bd 5bf9 343d
00000300: 9061 ed3c 77fe f9bd 304b a83a 9d4c 71bd
00000310: 6dd3 5f3d 23b0 1dbd 7568 a2b9 97c5 07bd
00000320: e808 09bd cf59 833d 99d3 2d3d 6819 043e
00000330: 373b bdbd 0c20 92bd 6fc4 a13d 624e 9b3d
00000340: 82a0 833d 9a8c 7f3d fb9f 41bd 939e d8bc
00000350: a88f 53ba b970 463d e812 383b 3389 26bd
00000360: f248 91bd e30d 7b3d b3c9 79bc 9865 ebbc
00000370: faa5 22bc fb73 86bc 8559 acbd 0a75 bebd
00000380: bffa c9bc 1fbd 8a3d 5b8f b2bd 28a0 1e3c
00000390: 7abc 73ba 7a01 3b3d 72d8 dc3c 9325 e3bd
000003a0: b7ea 75bd 3a16 6e3d df42 23bd 5ab2 0d3d
000003b0: f2ae 27b7 4522 6e3d aa1e aa3c ca0b 073d
000003c0: fae3 923c d076 c83d 495b 02bc 5a0d f9bd
000003d0: d019 fb3c 1e3d 1a3d 77e2 573d f26d 52bd
000003e0: 2f77 8abd a0ef 46bd a3a0 af3c b912 a83c
000003f0: 0b7e 7e3d f1b4 16bc 1ca6 41bd 7faf 6e3c
0.001456058 0.053998977 0.010539721 -0.09682789 -0.020204458 -0.077311784 0.016864717 -0.0060885437
0.071967855 0.058089692 0.032387156 -0.062762104 0.01840931 0.014299256 0.09352996 -0.02660176
0.017605154 0.026714504 -0.033833828 0.060169306 -0.14654349 0.052062582 0.07393357 0.010400309
-0.030490855 0.021389062 -0.089622505 0.02399127 0.09009737 -0.030609442 -0.09809853 0.07981585
-0.025995513 -0.056287616 -0.08575431 0.062351447 -0.08296343 0.0145553965 -0.03212863 0.10155666
-0.014731501 0.02153877 0.057712484 0.0838653 -0.015218459 0.08532017 -0.09469947 0.10254472
-0.07503792 -0.11553662 -0.114089325 0.006045702 -0.096036375 -0.07907265 -0.0649053 0.006505277
-0.05275466 -0.06336535 -0.07630671 -0.058133107 -0.06546938 -0.038454212 0.007554768 -0.084851295
0.056884646 -0.093715064 -0.0022814518 -0.085751995 0.120048665 0.13479745 0.06528019 -0.100282624
0.0722294 -0.078791924 0.070536755 0.08238599 -0.047074955 0.09768056 -0.04546279 -0.102019586
0.06476202 0.050625462 -0.07350577 -0.08442007 -0.09122882 -0.040177166 -0.08401005 -0.025679717
-0.10624309 -0.10100853 -0.003749764 0.08020132 -0.034148093 -0.09262475 0.03572985 0.03382796
0.03905801 -0.046031523 -0.02228954 -0.012008223 -0.0241426 -0.059147388 -0.01340317 -0.14946106
0.062346935 0.06666492 -0.00902176 -0.044508584 0.07081448 -0.07075751 0.028228974 0.0241324
-0.06351336 0.04667886 0.00024632 0.06788134 0.008595102 -0.032755595 -0.05134183 0.134634
-0.109708406 -0.07518875 0.072833456 0.024234965 -0.005681382 0.05087921 0.042127505 0.030327529
-0.017159253 -0.0020135213 0.053011533 0.09836727 0.06735168 -0.07554097 0.11044289 0.053428292
-0.08439027 -0.10708924 -0.02893278 0.009745243 -0.04456883 -0.0710903 0.019067992 0.081670225
0.09622719 0.0035305717 -0.07051676 0.057417948 0.086827114 0.016561713 0.043411817 0.110633075
-0.08712421 0.08617807 -0.0746087 -0.01769172 -0.020567667 -0.06303616 -0.037815914 -0.068131104
0.033510875 0.10876075 0.11648586 -0.11283908 -0.021015346 -0.119756974 -0.057094302 -0.01580636
0.018390924 0.11061471 0.06282021 0.0059538623 -0.018590076 0.06944045 0.04150302 -0.014478114
-0.08713289 -0.07979728 -0.014759922 -0.10327945 0.0790626 -0.06976224 -0.036464773 0.041297603
0.0144409835 -0.06626799 -0.0126678245 -0.06899868 -0.07725804 -0.018275758 -0.11873136 0.044183116
0.028977185 -0.122067384 0.001283979 -0.058910955 0.05464499 -0.038498055 -0.00030976874 -0.03314742
-0.03345576 0.06413614 0.042438123 0.12900317 -0.0923981 -0.07135019 0.07898795 0.0758331
0.06427099 0.062389947 -0.04727171 -0.026442802 -0.00080704177 0.048447344 0.002808744 -0.040658187
-0.07093991 0.06129254 -0.015245843 -0.028734967 -0.009927267 -0.016412726 -0.08415512 -0.09299667
-0.024655698 0.06774353 -0.08718749 0.009681739 -0.00092977996 0.045655705 0.026958678 -0.11091151
-0.060038295 0.058126666 -0.039858695 0.034593917 -9.994708e-06 0.05813815 0.020766575 0.032970227
0.017930973 0.09788287 -0.007956334 -0.1216075 0.030651957 0.037655942 0.052706208 -0.051374383
-0.06761014 -0.048568368 0.021438902 0.02051674 0.062131923 -0.009198413 -0.047277555 0.014568209

bias f4 [100]
00000000: 607a 053e c0c3 b83d 8882 ef3c 75ba 293e
00000010: 670d 313d 2fcf 753c 0a80 8d3d 419f 12bd
00000020: 6d05 d03d 7d93 913d ec95 31be 7b75 34bd
00000030: 225c 543d 4a95 fe3b 9b55 023e 8ab4 bdbd
00000040: eb80 c53a dd9c f3bb d7b0 843d 4b04 00be
00000050: ea42 c53c ab59 8b3d f78c 8abc 3fa3 ba3d
00000060: 6f52 bebc 8820 fc3c 9088 30bd af4d 003e
00000070: 6012 c1bd 8acd 32bd 83e5 31bd 3710 0f3d
00000080: 8c45 3dbd 1202 efbb 8890 823a 0fa0 45bb
00000090: a39a a13d 25d9 14bd dbd1 83bc 4ad8 a5bd
000000a0: 2a99 103d e2dd 5f3d 248d 09be 305a 83bd
000000b0: 0d56 803c 0082 cbbd ed4e 543e f738 ac3c
000000c0: 8820 7f3d 2766 0dbe fd1c 103e 6d9c d93d
000000d0: bec1 3a3e 686e adbd ad95 5d3d 8f71 b0bb
000000e0: ddb6 c4bd bbf6 3fbd aec0 21be 8bb2 123e
000000f0: a7e2 cbbc 412c 0b3d d6b0 933b 45a4 f93d
00000100: 1b20 31bd 6583 ea3c a742 27be 6732 68bb
00000110: 1d36 ebbd 1659 03be 2f5b 423d 5ae2 00bd
00000120: 7351 0f3e 8d79 573b b77f 2bbd 2264 fabd
00000130: b0b1 85bd bbef 2e3d a790 af3c 6a05 f83c
00000140: ab6b aa3d 273b f43b b33e 6ebc 169e 01bd
00000150: 9dac 1ebd c508 9e3d 13ca b23d df94 44bd
00000160: 6f07 bb3d 1808 5a3e cf9f 083e c24f 0b3d
00000170: 4765 903d 9368 fabd d6aa 06be d04e da3a
00000180: 234b 80bd fb9f ffbc 2b19 f93c d3d6 a5bd
0.13034964 0.09021711 0.029237047 0.16575034 0.043225672 0.01500301 0.06909187 -0.035796408
0.10157285 0.07108209 -0.17342347 -0.04405735 0.051845677 0.0077692615 0.12727968 -0.09262951
0.0015068328 -0.007434471 0.06479042 -0.12501638 0.024079759 0.06804212 -0.01691292 0.09113168
-0.023232667 0.03077723 -0.043098986 0.12529634 -0.09427333 -0.04365305 -0.04343177 0.034927573
-0.046208903 -0.007293948 0.0009961287 -0.0030155217 0.07890823 -0.036339898 -0.016091278 -0.080978945
0.03530232 0.054654963 -0.13432747 -0.06413686 0.015666032 -0.09936905 0.20733233 0.021023257
0.062286884 -0.138085 0.14073558 0.10625539 0.1823797 -0.08468324 0.05409782 -0.005384631
-0.09605191 -0.04686616 -0.15796158 0.14325921 -0.02488835 0.03397775 0.0045071645 0.12189535
-0.04324351 0.028627107 -0.1633402 -0.0035430433 -0.11484931 -0.12826952 0.04745024 -0.031465866
0.13995914 0.0032878846 -0.041869845 -0.1222613 -0.06528032 0.042709094 0.02143128 0.03027602
0.08321317 0.0074533406 -0.014541316 -0.031644903 -0.038738836 0.077165164 0.08729949 -0.047993537
0.09132277 0.2129215 0.13342212 0.03401161 0.07050567 -0.12226977 -0.13151106 0.0016655568
-0.06264331 -0.031204214 0.030407509 -0.08097615

weight f4 [1, 100]
00000000: d083 dabe ff28 cfbe 467c 813e 085b 03bf
00000010: 26fe 8c3e 6ba4 9cbe 1784 c8be 662c 183d
00000020: a761 d5bd a853 593e 861f 1b3f 2abf 75be
00000030: 547b cbbe c6d5 adbe 5377 dbbe b143 0c3f
00000040: f7ba f7bc 6a22 eb3e aa2d 4dbe 9356 953e
00000050: 378c 7f3e 4ba9 183d 3222 c3be 5fed bbbe
00000060: 7ac9 e83c ba43 03bf 47aa d43e 6075 e7be
00000070: 14f5 b23e 885b 0abc 1bb4 8bbd 4f4b 1bbe
00000080: 2f9f bebe bb1c de3e 1adc e1be b02f 623d
00000090: 0d00 12bd 8386 6e3e 3295 00be 8535 64be
000000a0: 43dc fdbe 72ca e9be 335f 073f 76e0 053f
000000b0: 0f6e 10be 70b4 a33e 0e38 3abf 950b 85be
000000c0: 4511 3fbe 0dc7 fa3e e59a 04bf e28e 09bf
000000d0: e9c8 0dbf f75c 163f 879f c3be af6d c53e
000000e0: 16e1 8a3d e2d4 46be bf94 1a3f 151f f6be
000000f0: 0f66 063f 8f05 7dbe 788f 693e 807c a1be
00000100: f701 3cbe f955 313e 57b2 d43e 8ad6 d2bd
00000110: 1fee 9f3e e1e1 853e e8d5 93be bc2e 863e
00000120: 401c f2be 53a3 debe db6c 2e3d ed97 6f3e
00000130: b5e9 79be 7f11 82bc 7fb0 96be 7204 f9bd
00000140: 7e4e 183e e586 7a3e 888a aa3e 1f65 893e
00000150: 973b e83e 0f82 59bc f9a5 0bbe 8fd0 0dbe
00000160: 0029 c9be c748 19bf df31 b5be c73a 76be
00000170: 578a 16be af6f 023f 2309 ff3e 7218 c03e
00000180: 4310 163e eb13 36be 3bee 873e 70db 553d
-0.4267869 -0.40460965 0.25290126 -0.5131078 0.2753765 -0.3059419 -0.39163277 0.037151717
-0.10419016 0.21223319 0.60594976 -0.23998705 -0.3974253 -0.3395216 -0.42864475 0.5479079
-0.030240519 0.45924693 -0.2003695 0.29167613 0.24955831 0.037270825 -0.38112026 -0.36704537
0.028416384 -0.5127522 0.4153616 -0.45206738 0.34952605 -0.008444674 -0.06821462 -0.15165447
-0.37230822 0.43381295 -0.44113237 0.05522126 -0.03564458 0.232935 -0.12556913 -0.22286041
-0.4958211 -0.45662266 0.5287964 0.52295625 -0.14104484 0.319736 -0.7274178 -0.259854
-0.18658932 0.4897999 -0.5179885 -0.53733647 -0.5538469 0.58735603 -0.38207647 0.38560244
0.06781213 -0.19417146 0.6038322 -0.4807059 0.5249948 -0.24709152 0.22808635 -0.31540298
-0.18360125 0.17317952 0.41542313 -0.10294826 0.3123636 0.26148894 -0.28874135 0.2620753
-0.47287178 -0.43483981 0.04258428 0.23397799 -0.24405558 -0.015877483 -0.2943153 -0.12159051
0.14873692 0.2446552 0.33308816 0.26834962 0.45357963 -0.013275637 -0.13637532 -0.1384909
-0.39289093 -0.59876674 -0.3538961 -0.2404586 -0.1470121 0.50951666 0.49811658 0.3751865
0.14654641 -0.17781036 0.26548943 0.052211225

weight f4 [19, 100]
00000000: 37c8 9fbe 7069 69be daa7 f53d d93a 073d
00000010: 2f72 1a3e 90b9 2dbe 3fc2 8fbe d27b 0abe
00000020: 7c6f 12be 1979 953e 0f66 ecbd 8b29 353e
00000030: 3c4a 323f d4e0 22be 2a74 65bd 5082 d0be
00000040: 3cf8 33bd 9fea c23d 9bd1 95bc 35f9 39be
00000050: 8a95 4dbe 1396 033f 3636 9b3e 4472 833e
00000060: 0197 b53e 6f10 4abd c018 833c cee9 bf3e
00000070: 6d1e 893e b094 dd3c 5f45 f5be a4b3 c63d
00000080: 75f7 70be affb 4f3e 2b77 07be f6e5 2f3e
00000090: 6257 5c3c 97b8 403e 5f7f 09be a397 c33e
000000a0: b42a 383e f0fb a13e 22fa 8e3e abf5 13bd
000000b0: d846 e23e 04a1 37be c21f 0bbf 209a 9e3e
000000c0: cad4 91be 15d5 70be 277d 053e ac10 023d
000000d0: 0d42 863e 689d 113e 6a2d 3abd 4f94 a8be
000000e0: a762 d33e 6439 87bd 0b4a c4be f313 943d
000000f0: 0c5f 1b3e 8507 533e 7a94 59be e8d6 a6be
00000100: 786d 5c3d 8fc7 0ebf 18d2 903e 08a5 69be
00000110: 9839 b43e 0827 b73e 833a fd3c e6fb 433e
00000120: e0a5 f6be 9d1a 0e3e c219 08be d929 903d
00000130: 88ef 79bd d5c6 ba3e bf78 263d ff7b 2f3d
00000140: 0770 723e 9a5f 53be 1d35 fa3d 8609 a53c
00000150: d1e4 38be a320 6f3e 9135 84be 87e9 06bf
00000160: 6511 afbe 07d0 9ebd 5866 b5be 9a1e 7fbd
00000170: 5a85 833e da1a 90be 9ab2 b2bd 9ab7 9a3e
00000180: 559e e63e 0d91 26bf 1b1e 2d3e e3d8 533e
00000190: 2304 66be 6b51 303e 1879 0c3e 6a12 573d
000001a0: 9cec 26bd 93a4 223e d948 3b3e 3aaf 9fbd
000001b0: 927f e83e e00f debb 95a6 6f3e a178 373f
000001c0: 6bba 683c a7e0 c43e 3bc8 b93e 724c 0ebe
000001d0: fa9e d33d b657 ba3e 1048 7ebe 677e 8dbe
000001e0: 27b7 97bd d5ae 75be 8c71 b93e 193c 223d
000001f0: af2f a73e 8ca6 01be 158f efbe 9bb9 51bd
00000200: 7db2 2abe 0fc4 193a e780 233c 1b78 5d3d
00000210: 1d7c fd3e c511 9b3d c3cd 193f 6413 963d
00000220: 5ff4 be3c 086b 803e 788e 2bbe 6aa8 a93e
00000230: 96cc 0dbd d072 a93e 975e bbbe 7302 a43e
00000240: afd2 af3e a8de 15bd ab40 05bf 372a b2bd
00000250: 894a a0bd 234b edbd 4a90 563d 6f39 f1bd
00000260: b565 733e c7b6 523e 5218 fc3d bc2c 42be
00000270: 15d2 03be 59a0 cabe cdb3 1ebf 37ed d9bd
00000280: e4fd 0cbf 0d8b 9f3e 9d07 c3bc 1b3e 5a3d
00000290: 55f9 043e 3752 433d 1a7e 79bc 2fc3 6a3e
000002a0: 5b94 2ebd 8e7f aabe 334c 8f3e ab4a 663e
000002b0: 1bc1 803e 6d55 6abe b8b0 95bc e28b 9fbd
000002c0: 9bbb 98bc 7fd3 4d3d 2371 5f3e b099 be3e
000002d0: 374d 3b3e b27a 673e e7f9 2abe e7f1 d1bd
000002e0: dc20 0ebe db4e abbe 0b1a d53e e142 0fbf
000002f0: e13b 00bf 5442 bbbd 7c29 43bc b2c4 26bd
00000300: 4a5c e9be 229b 27be c73a e5bd f43a b3bd
00000310: f8c6 903e 7b27 0d3e fb9b 683d 7757 81bb
00000320: 7044 66be 573d bf3e a354 a0be 8d12 d2bd
00000330: 1276 44bf 7493 22bf 5924 80be 7e98 9639
00000340: 5121 0cbc 2c8e b33e d074 8d3c 9f2e 433e
00000350: db0a 5e3e 67ef 773e 8382 8a3e 1c2f 2ebf
00000360: c54d 4abc 91ae 84be 8588 21bf 18dd bcbd
00000370: 4277 74bc f21d 753e 2d11 90bd c700 d63e
00000380: 97e4 013f c48b bd3e 53bd 2d3f 837d c33e
00000390: 2064 bbbd 2772 833d 1faf 963e 989b c8be
000003a0: f05c f1bb b31c 843e f790 323e 18f3 593e
000003b0: 105f fe3e 226f 903e df0a b43e 23ba d43e
000003c0: b596 e43e 132e e1be bf66 bd3d 7098 47bc
000003d0: 9dd5 323f b7d7 053e a36c cf3e 804c d93c
000003e0: 8183 393f f4d1 adbe 1737 d03e 951b 853e
000003f0: 706e 66be 0b84 c63d 3ca6 ca3e 9fa5 cebe
-0.3120744 -0.22794127 0.11994906 0.033015106 0.1508262 -0.16965318 -0.28077886 -0.13523796
-0.1430034 0.29193953 -0.11542904 0.17691629 0.6964452 -0.15906078 -0.056018986 -0.4072442
-0.043937907 0.09517407 -0.018288424 -0.18161471 -0.20076576 0.5140087 0.30314797 0.25673115
0.3546677 -0.04933208 0.016003013 0.37483066 0.26781026 0.027048439 -0.47904488 0.097022325
-0.23531897 0.20310853 -0.13229053 0.17177567 0.013448568 0.18820415 -0.13427494 0.38201627
0.1798504 0.31637526 0.2792521 -0.03612296 0.44194674 -0.17932516 -0.54345334 0.30976963
-0.28482658 -0.23518784 0.13036023 0.03175418 0.26222268 0.14220202 -0.045453466 -0.3292565
0.41286203 -0.06602743 -0.3833774 0.072303675 0.15172976 0.20608337 -0.21248046 -0.32585835
0.053815335 -0.5577325 0.2828529 -0.2281686 0.3520019 0.35771966 0.03091169 0.1913906
-0.48173428 0.1387734 -0.13291076 0.07039232 -0.06101945 0.36479822 0.040642496 0.04284286
0.23675548 -0.20641938 0.12217162 0.020146143 -0.18056037 0.23352294 -0.25822118 -0.52700084
-0.34192958 -0.07754522 -0.35429645 -0.062285043 0.25687677 -0.28145486 -0.08725472 0.30218202
0.45042673 -0.6506508 0.16906016 0.20688204 -0.22462516 0.17218558 0.13718069 0.052507795
-0.040752992 0.15883093 0.18289508 -0.07797094 0.45409828 -0.006776795 0.2340339 0.7166844
0.014204602 0.38452646 0.36285576 -0.13896349 0.10333057 0.36395043 -0.24832177 -0.276355
-0.074079804 -0.23992474 0.36219442 0.039608095 0.32653567 -0.12661189 -0.4678885 -0.051202398
-0.1666965 0.0005865702 0.009979463 0.05406962 0.49508753 0.07571749 0.6007959 0.07327917
0.023309885 0.25081658 -0.16753566 0.33136302 -0.034618936 0.33095407 -0.36595604 0.3203312
0.34340426 -0.036589295 -0.520518 -0.08699458 -0.078267165 -0.11586597 0.0523837 -0.11778533
0.23769267 0.20577537 0.12309326 -0.18962377 -0.12873109 -0.3957546 -0.61993104 -0.10640948
-0.55074906 0.31160775 -0.023807341 0.053281885 0.12985738 0.047685828 -0.015227819 0.22926019
-0.04262195 -0.33300442 0.27987823 0.22489421 0.25147328 -0.2288415 -0.018272743 -0.077903524
-0.018644145 0.050250527 0.21820502 0.3722663 0.18291174 0.22605398 -0.16696893 -0.10251217
-0.13879722 -0.334586 0.41621432 -0.55961424 -0.5009137 -0.091435105 -0.011911746 -0.040714927
-0.45578223 -0.16367772 -0.111928515 -0.08751479 0.282768 0.13784592 0.05678938 -0.003947194
-0.22487044 0.37351486 -0.31314573 -0.102574445 -0.7674266 -0.63506246 -0.2502773 0.00028723845
-0.008552865 0.35069406 0.017267615 0.19060753 0.21683829 0.24212418 0.27052698 -0.68040633
-0.012347643 -0.25914434 -0.6309894 -0.09221858 -0.014921011 0.23937204 -0.07034526 0.41797468
0.50739425 0.37020695 0.6786701 0.38181695 -0.09149957 0.06418257 0.29430482 -0.3918121
-0.0073658153 0.25803146 0.17438112 0.21284139 0.49681902 0.28209788 0.35164544 0.4154826
0.4464623 -0.43980464 0.09248113 -0.01218234 0.698572 0.1307057 0.4051257 0.026525736
0.72466284 -0.33949244 0.4066703 0.25997606 -0.22503066 0.09693154 0.39579952 -0.40360734

bias f4 [19]
00000000: a1d5 87be 92a3 71be 79c5 203e cda2 513f
00000010: 23ee 473e 08e6 613e ad6e 47be af5a 263f
00000020: 90f0 ccbd 2fe1 d6bd f31d 20be a55a d4be
00000030: 6b04 74be adc5 c4be 654e 68be dea1 aa3d
00000040: 83d2 92be 366d cc3d a270 ba3d
-0.26530173 -0.23597553 0.1570033 0.8188904 0.19524436 0.22060406 -0.19475813 0.6498212
-0.10006821 -0.10492169 -0.15636425 -0.41475406 -0.2382981 -0.38432065 -0.22686155 0.08331655
-0.28676233 0.09981768 0.09103514
