checkpoints/19_9feature_lstm_num_comm999_an19_sn3_D25_al0.8_E5_B64_lr0.05_num_clients100_cf0.1.pth (torch, 230167 bytes, 9 tensors)

weight_ih_l0 f4 [400, 9]
0	0x3d40beaa	0.04705683
1	0xbcbecbe0	-0.023290575
2	0x3e5cc0dd	0.21557947
3	0xbd49fb1b	-0.04931174
4	0xbd89a218	-0.0672037
5	0xbba94a08	-0.005166296
6	0x3d8c8f18	0.068632305
7	0x3da6e55b	0.08149215
8	0xbcebba50	-0.028775364
9	0x3ea0ec7b	0.3143042
10	0xbdd924ab	-0.10602697
11	0x3d694983	0.056954872
12	0x3d435f2b	0.04769818
13	0x3d084e93	0.03327806
14	0x3da489e6	0.080341145
15	0xbd231cb9	-0.039822314
16	0xbc55a8c7	-0.013040728
17	0x3d95c779	0.07313437
18	0xbbcf3d2b	-0.0063244305
19	0xbe4e0fd7	-0.2012323
20	0x3d706aeb	0.058695715
21	0xbd659013	-0.056045603
22	0x3dbbb1a3	0.09164741
23	0xbb892cb0	-0.0041862354
24	0xbcb2e0ee	-0.02183577
25	0xbd6e49f2	-0.05817599
26	0xbdd468b7	-0.10371535
27	0xbd7bc04b	-0.06146268
28	0x3db7e3ea	0.08979018
29	0xbd57c412	-0.05267722
30	0x3d41c457	0.047306385
31	0xbcea01f0	-0.028565377
32	0x3df83ca7	0.121209435
33	0xbc714cd0	-0.014727786
34	0x3c31b10b	0.010845433
35	0xbd1e4842	-0.03864313
36	0xbdbfeef9	-0.09371752
37	0xbde2b99f	-0.11070561
38	0xbcbac65b	-0.022799661
39	0x3d081a50	0.03322822
40	0x3aa17ea7	0.001232107
41	0x3db677ab	0.089095436
42	0x3e0e63a3	0.13905196
43	0x3db59b30	0.0886749
44	0x3cea2b8f	0.028585223
45	0xbe70ee15	-0.23528321
46	0xbd28cc67	-0.04121056
47	0x3dfdcbf3	0.12392416
48	0x3daa76e5	0.083234586
49	0xbd501268	-0.050798804
50	0xbe4c66df	-0.19961117
51	0x3ea409de	0.32038778
52	0x3de3caba	0.111226514
53	0x3e06ddb3	0.13170509
54	0xbdfb55ab	-0.12272199
55	0xbdda863b	-0.10670134
56	0x3eb19b55	0.3468882
57	0x3d91462f	0.070934646
58	0xbd87b7b2	-0.06626834
59	0x3c6c08dd	0.01440641
60	0xbcac99e8	-0.021069482
61	0x3e316582	0.17323878
62	0xbc2b6df5	-0.0104632275
63	0xbe368927	-0.17825757
64	0x3e16ff83	0.14745907
65	0x3e169a8d	0.14707394
66	0x3d2683eb	0.04065315
67	0x3cccecc5	0.025015244
68	0xbd192517	-0.037388887
69	0xbd8e6e35	-0.06954614
70	0x3c8310db	0.015999248
71	0x3d3db718	0.04631719
72	0x3db4b215	0.08823029
73	0xbec0a19f	-0.37623307
74	0x3d0f806b	0.03503458
75	0xbd1bc3b0	-0.03802842
76	0xbc63adb3	-0.013896394
77	0x3d683fba	0.0567014
78	0xbdcd5113	-0.10025229
79	0x3b872f3d	0.0041255043
80	0x3cfc5c40	0.030805707
81	0x3d7b2beb	0.06132118
82	0xbdd7da17	-0.10539644
83	0x3e39c9fa	0.18143454
84	0x3db0b3b0	0.08628023
85	0xbd97874d	-0.073988535
86	0xbdd2add2	-0.1028706
87	0xbd7a0973	-0.061044168
88	0x3cb7ad1b	0.02242141
89	0xbd77ec30	-0.06052798
90	0x3e91cc5a	0.2847622
91	0xbe8c2c0f	-0.27377364
92	0x3dd9a9e7	0.106281094
93	0xbca6ad7d	-0.020346398
94	0x3b6f5128	0.0036516879
95	0xbd85a297	-0.06525152
96	0xbc23b213	-0.009991187
97	0xbdbc902a	-0.092071846
98	0x3d98c447	0.07459312
99	0x3e8eac67	0.27865908
100	0xbdefbed5	-0.1170632
101	0x3e5c7465	0.21528776
102	0xbd55e8b5	-0.05222388
103	0x3da2cfb7	0.07949775
104	0x3bd5f4e3	0.006529437
105	0xbd4a13dd	-0.04933535
106	0x3b31023c	0.0027009388
107	0x3db57e2b	0.08861955
108	0x3e69f0c7	0.22845756
109	0xbe5286ad	-0.20559187
110	0xbe0846d7	-0.13308273
111	0x3dfa5783	0.12223723
112	0x3d0c443f	0.034244772
113	0x3c10e814	0.008844394
114	0xbdfde01a	-0.123962596
115	0xbd9e8593	-0.07740321
116	0xbd6f19a5	-0.058374066
117	0x3e0cfeaf	0.13769029
118	0x3ebf5f27	0.37377283
119	0x3e6ed170	0.23322082
120	0xbcd65950	-0.026165634
121	0xbde013da	-0.109412864
122	0x3cc5508e	0.024086263
123	0xbd7e99bb	-0.062158328
124	0xbbba0ff7	-0.0056781727
125	0xbe4d0997	-0.2002319
126	0xbd70b8c5	-0.05876996
127	0xbd1efc34	-0.03881474
128	0x3da78387	0.08179384
129	0x3d28f87f	0.04125261
130	0xbd48e45e	-0.049045913
131	0xbb90ca97	-0.004418682
132	0xbdc7e45b	-0.09760352
133	0x3da0630d	0.078313924
134	0xbbec6478	-0.0072141252
135	0x3e42249b	0.18959276
136	0xbdcf88a5	-0.10133485
137	0x3e0cc8bd	0.1374845
138	0x3d5b338f	0.053515967
139	0xbd76bbf0	-0.060237825
140	0x3d7e9870	0.062157094
141	0x3d470203	0.048585903
142	0x3d7a0895	0.06104334
143	0xbdaf313f	-0.08554315
144	0xbd0f2499	-0.03494701
145	0xbca1b41b	-0.019739201
146	0x3d3405de	0.043950908
147	0xbd6f248a	-0.058384456
148	0xbd46fb7b	-0.048579674
149	0xbcb40d0b	-0.021978876
150	0x3dff9f9a	0.124816135
151	0xbbbb0d6a	-0.005708386
152	0x3e5384f3	0.20656185
153	0x3cce85f5	0.02521036
154	0xbdc73bc3	-0.097281955
155	0x3e5d89bd	0.21634574
156	0xbd12cef3	-0.035841893
157	0x3cb33217	0.02187447
158	0xbbdded5d	-0.0067726807
159	0x3dbf37ed	0.09336839
160	0xbd96b614	-0.073589474
161	0xbda4373b	-0.08018347
162	0x3c796d8f	0.015223875
163	0xbd55a2a3	-0.052157056
164	0xbe3640d0	-0.17798162
165	0x3d814dbe	0.06313656
166	0xbcec9a07	-0.02888204
167	0xbb524680	-0.0032085478
168	0xbdb48273	-0.08813944
169	0x3d7105ea	0.05884353
170	0xbd70d207	-0.058794048
171	0x3e4ba213	0.19886045
172	0xbd98a402	-0.07453157
173	0x3e1bbd1a	0.15208855
174	0xbdcc3656	-0.09971301
175	0xbd3b211d	-0.045685876
176	0xbd5be46a	-0.05368463
177	0xbc2e4039	-0.010635429
178	0x37c3a67d	2.3323339e-05
179	0xbdcee5b0	-0.10102403
180	0xbdc780d8	-0.09741372
181	0xbcacab57	-0.021077795
182	0x3e2ede93	0.17077093
183	0x3c6a1b60	0.014288753
184	0x3d608fed	0.05482476
185	0xbdb5c361	-0.08875156
186	0xbd2e1b21	-0.04250634
187	0x3dc9f977	0.09862035
188	0xbd2070fb	-0.039170247
189	0x3ee14268	0.43995976
190	0x3e1c1820	0.15243578
191	0xbea83476	-0.32852525
192	0xbbfe84bd	-0.0077672885
193	0xbd78eb13	-0.06077106
194	0xbe0f47ac	-0.13992184
195	0x3dac176f	0.08402907
196	0xbded18c5	-0.1157699
197	0xbc9d2d35	-0.019186595
198	0x3ec1f18a	0.37879592
199	0x3d7c066f	0.061529573
200	0x3d3e7be5	0.046504874
201	0xbc75aff8	-0.0149955675
202	0x3cf497ea	0.029857595
203	0x3d170b29	0.036875878
204	0xbde230b8	-0.110444486
205	0x3c51331d	0.012768534
206	0x3d48a38f	0.048984107
207	0x3bef0b70	0.0072950646
208	0xbe313b93	-0.17307882
209	0x3e269a7f	0.16269873
210	0xbd48e0ff	-0.049042698
211	0xbc042b33	-0.00806694
212	0x3cf34523	0.029696053
213	0x3cfed30b	0.031106493
214	0x3b42825f	0.0029679758
215	0x3d87f1bb	0.06637903
216	0x3d999dc6	0.07500796
217	0xbe6e11b0	-0.23248935
218	0x3e110f3f	0.14165972
219	0x3dbaaf6e	0.09115492
220	0x3beeb2ba	0.0072844895
221	0xbc4d2d3b	-0.012522991
222	0x3c8d20ef	0.017227618
223	0xbab36c0f	-0.001368882
224	0xbca010fc	-0.019539349
225	0x3db89eb0	0.09014642
226	0xbe0b2e93	-0.13591985
227	0x3d070aff	0.03296947
228	0xbd0c6946	-0.034280084
229	0xbd94e889	-0.07270915
230	0xbd24790b	-0.040154498
231	0x3db08eaa	0.08620961
232	0x3da59788	0.08085543
233	0xbe069542	-0.13142875
234	0x3d1eec87	0.03879979
235	0xbe844eae	-0.25841278
236	0xbca77690	-0.020442277
237	0x3d83993b	0.06425711
238	0xbd95d3e8	-0.073158085
239	0xbd8788df	-0.06617903
240	0x3d704240	0.05865693
241	0xbd0c3ca8	-0.034237534
242	0xbde6ea5a	-0.11275168
243	0x3e4eb86b	0.20187537
244	0xbe1f97de	-0.15585276
245	0xbd84e337	-0.0648865
246	0xbd4b4cde	-0.049633853
247	0x3cbd64ba	0.02311932
248	0x3ddfa265	0.10919646
249	0xbd90fb74	-0.07079211
250	0xbcda1d37	-0.026625259
251	0x3de4955f	0.11161303
252	0x3dda37a2	0.10655142
253	0xbe720d4b	-0.23637883
254	0x3a01d763	0.00049530546
255	0xbc275c99	-0.010214948

weight_hh_l0 f4 [400, 100]
0	0x3c9f40e8	0.01944013
1	0xbd2746bf	-0.040838953
2	0xbd8e8456	-0.06958835
3	0xbd169b67	-0.036769297
4	0x3d844607	0.06458669
5	0xbc3c7229	-0.011501827
6	0xbda5b812	-0.08091749
7	0x3d7ccfa0	0.061721444
8	0x3d33c0cf	0.04388505
9	0xbcb8247b	-0.022478333
10	0x3d46bd63	0.048520457
11	0x3d97cddb	0.07412311
12	0xbc720538	-0.014771752
13	0xbd82ab6a	-0.06380351
14	0xbda015ea	-0.0781668
15	0xbc5bf0ca	-0.013424108
16	0xbdaf9597	-0.08573454
17	0xbd6f0bdd	-0.058360923
18	0xbd6ce727	-0.05783763
19	0xbd2cd55b	-0.04219566
20	0xba6ccf53	-0.0009033579
21	0x3d6eb89a	0.05828152
22	0x3c8d4def	0.017249076
23	0xbd9936b6	-0.074811384
24	0x3d275bad	0.040858913
25	0xbabd5853	-0.0014445878
26	0x3d400cef	0.046887334
27	0x3d172213	0.03689773
28	0x3ccacc68	0.024755672
29	0xbcafae59	-0.02144544
30	0x3d6823bd	0.056674708
31	0x3d8483fd	0.06470487
32	0x3cc5b419	0.024133729
33	0xbca93c01	-0.020658495
34	0x3d98c44c	0.07459316
35	0x3ddf28c5	0.10896448
36	0xbdb26ded	-0.08712373
37	0xbc5c14aa	-0.013432661
38	0xbc08038f	-0.00830163
39	0xbcf556c3	-0.029948598
40	0x3c6f1ac3	0.014593783
41	0xbdda220f	-0.106510274
42	0xbaac41ee	-0.0013142207
43	0x3d11d3bf	0.035602327
44	0xbde01502	-0.10941507
45	0xbdc54f97	-0.09634321
46	0x3c52b7ca	0.012861202
47	0x3dbbf1f3	0.091770075
48	0xbdb99a99	-0.0906269
49	0xbd65c89a	-0.05609951
50	0x3da8657b	0.08222481
51	0xbc7b83da	-0.01535126
52	0xbb298f21	-0.0025872665
53	0xbdd7ff12	-0.10546698
54	0x3c958b31	0.018254848
55	0xbcef5f5a	-0.029220272
56	0x3d1f64c7	0.03891447
57	0x3d8b4bc7	0.06801563
58	0xbb995c53	-0.0046801954
59	0xbcb4d36e	-0.022073474
60	0x3d9bd987	0.076098494
61	0xbcd82bf7	-0.026388152
62	0xbc530fbf	-0.012882172
63	0xbd803fe5	-0.06262187
64	0x3d91524b	0.07095774
65	0xbb53203f	-0.0032215265
66	0xbdeaa150	-0.11456549
67	0xbc8cc103	-0.017181879
68	0x3d92e3a5	0.07172326
69	0x3ce90b9d	0.02844792
70	0x3d712f65	0.05888309
71	0x3d17c347	0.037051465
72	0x3da1af1b	0.07894727
73	0xbdcc0c70	-0.0996331
74	0x3cf8a590	0.030352384
75	0x3d7ff798	0.062491983
76	0xbdbc0ca3	-0.09182098
77	0x3d84479e	0.064589724
78	0xbd38054b	-0.044926923
79	0x3d5b1b53	0.053492855
80	0xbd13988f	-0.036034163
81	0xbd304594	-0.043035105
82	0x3c659fda	0.014015162
83	0xbd5fd990	-0.054650843
84	0xbd56a833	-0.0524065
85	0xbb320265	-0.0027162072
86	0xbbb94dd7	-0.005655031
87	0xbd57a60b	-0.052648585
88	0x3d833e5f	0.06408381
89	0xbd894310	-0.06702244
90	0x3da8b05b	0.08236762
91	0xbdaefdb7	-0.08544486
92	0xbd876d37	-0.06612628
93	0x3d887c87	0.06664377
94	0xbb2d8557	-0.0026477182
95	0x3d8e901b	0.0696108
96	0xbd927f32	-0.07153167
97	0x3dbf269d	0.09333537
98	0x392fa5af	0.00016751022
99	0xbd8966a1	-0.06709028
100	0xbb33c89e	-0.002743281
101	0x3c86e6df	0.01646751
102	0x3d29ca53	0.041452717
103	0x3d030604	0.03198816
104	0x3c474e4f	0.012164666
105	0xbdb07a51	-0.0861708
106	0xbd166cc3	-0.036724817
107	0xbbcf7313	-0.0063308566
108	0x3c7b6233	0.015343237
109	0x3d3424eb	0.04398052
110	0xbdb31ae1	-0.08745361
111	0x3da0add0	0.07845652
112	0xbc8c99a6	-0.017163109
113	0xbd532a5b	-0.051554065
114	0x3da2f7d0	0.07957423
115	0xbd9aa4a3	-0.07550933
116	0xbdd78480	-0.10523319
117	0xbd4f487a	-0.05060623
118	0xbd883055	-0.066498436
119	0x3c9b7733	0.018977737
120	0x3dc354e7	0.09537678
121	0x3d03cc82	0.032177456
122	0x3dbe72ef	0.092992656
123	0xbd966f94	-0.073455006
124	0x3d88ef0f	0.06686222
125	0xbcb66bc2	-0.02226818
126	0x3d26f24c	0.040758416
127	0x3d175349	0.03694466
128	0xbc453696	-0.01203694
129	0x3dc6d97d	0.09709451
130	0x3c423421	0.011853249
131	0xbd55ddca	-0.052213468
132	0x3dc08097	0.093995266
133	0x3d75ed4f	0.06004077
134	0xbcde444b	-0.027132174
135	0xbd0f7f97	-0.03503379
136	0xbd0b4c4e	-0.034008317
137	0x3d53f745	0.051749486
138	0xbc41193f	-0.011785804
139	0xbcc949c8	-0.024571314
140	0x3d8dd2d3	0.06924977
141	0x3d4a6117	0.049409
142	0x3d54cded	0.0519542
143	0xbd87fb12	-0.06639685
144	0x3de11207	0.109897666
145	0x3d5babcb	0.05363063
146	0x3d8fa834	0.07014504
147	0x3c07a406	0.008278852
148	0x3cdc4c4f	0.026891856
149	0x3ce9e135	0.02854977
150	0x3cb55283	0.022134071
151	0x3d8a0d73	0.067408465
152	0x3da282b7	0.07935088
153	0x3d8b430e	0.06799899
154	0xbdc0fee6	-0.09423618
155	0xbd088eea	-0.03333942
156	0x3d050923	0.032479417
157	0xbc9cc3cb	-0.01913633
158	0xbcbe8cbe	-0.02326047
159	0xbd814652	-0.06312241
160	0xbbda991f	-0.0066710855
161	0xbd5bda85	-0.053675193
162	0xbdfe13a5	-0.12406091
163	0xbd35ef66	-0.04441776
164	0xbb9b8621	-0.004746214
165	0x3dc8d17b	0.0980558
166	0xbd9bd13b	-0.07608267
167	0xbd87b1da	-0.06625719
168	0x3dbcdf20	0.09222245
169	0xbd344a73	-0.044016313
170	0xbc65a8ca	-0.014017293
171	0xbda5609f	-0.0807507
172	0x3cd3370d	0.025783086
173	0xbdc70101	-0.09716988
174	0xbd059a42	-0.032617815
175	0x3da51526	0.08060674
176	0x3d8622c5	0.065496005
177	0xbd31fee1	-0.043455962
178	0xbd15357b	-0.036427956
179	0xbd56e9ba	-0.052468993
180	0x3c6a05bf	0.014283597
181	0x3da82592	0.08210291
182	0xbd1043cf	-0.035220917
183	0xbd5bd350	-0.05366832
184	0xbdcc4a43	-0.09975102
185	0x3dc05d2b	0.093927704
186	0xbde12ee7	-0.10995274
187	0x3bb571cb	0.005537247
188	0xbd8cc333	-0.06873169
189	0x3cc66e1a	0.024222422
190	0x3cac1f3b	0.021010986
191	0x3d3c22c7	0.045931604
192	0xbdb7e2d8	-0.08978814
193	0x3d76e9b5	0.060281474
194	0x3cf8a777	0.030353291
195	0xbd6dd657	-0.05806574
196	0x3d0611a7	0.03273168
197	0x3d402c8a	0.046917476
198	0x3dc4ca83	0.096089385
199	0x3d98f917	0.07469385
200	0x3d82ec84	0.06392768
201	0xbda0d5ad	-0.078532554
202	0x3da0ea14	0.07857147
203	0xbd580b28	-0.052745014
204	0x3deb82aa	0.114995316
205	0xbd76638d	-0.060153533
206	0xbd95a966	-0.07307701
207	0x3db53ec2	0.08849861
208	0x3d2d674f	0.04233485
209	0x3c7945b8	0.015214376
210	0xbd2dde93	-0.04244859
211	0x3cb04997	0.021519465
212	0xbda9e957	-0.08296459
213	0xbd3f4b10	-0.046702445
214	0xbdcf8733	-0.10133209
215	0xbd67ea87	-0.056620147
216	0xbc9c395d	-0.019070322
217	0xbd6b60a7	-0.05746522
218	0xbd77db50	-0.060511887
219	0xbd8e7335	-0.06955568
220	0x3d9b8c9d	0.07595179
221	0x3c8d5cd8	0.017256185
222	0x3c3967a3	0.011316213
223	0xbbe3fcbf	-0.00695762
224	0x3da0b0c7	0.078462176
225	0xbdb24c9c	-0.08706018
226	0xbc60e397	-0.013726137
227	0xbd875b29	-0.06609184
228	0x3c56c512	0.013108509
229	0x3d88ce7c	0.06680009
230	0xbd5849a2	-0.052804597
231	0xbd96f443	-0.07370808
232	0x3da36a67	0.07979279
233	0xbcca6167	-0.024704648
234	0xbdc98667	-0.09840088
235	0xbda743e7	-0.08167248
236	0xbda3c8e1	-0.07997299
237	0xbd9de6c8	-0.07710034
238	0xbd2d56c7	-0.042319085
239	0xbc9eea0c	-0.019398712
240	0x3c1bf228	0.009518184
241	0xba25eded	-0.0006329704
242	0xbd738803	-0.059455883
243	0xbd2f7cad	-0.04284351
244	0x3c7cabe3	0.01542184
245	0xbd200f19	-0.0390769
246	0xbcd00213	-0.025391614
247	0x3d21882f	0.039436515
248	0xbd0a6267	-0.03378525
249	0x3cd5dfff	0.026107786
250	0xbbd37330	-0.0064529404
251	0x3d0980cf	0.033570107
252	0xbcbfa7c1	-0.023395421
253	0x3d165bc4	0.03670861
254	0xbcdde94d	-0.027088786
255	0x3d9ec864	0.07753065

bias_ih_l0 f4 [400]
0	0xbb9b5716	-0.004740606
1	0x3cdd65c5	0.027026067
2	0x3cfd1d3b	0.030897727
3	0xbca71b1c	-0.020398669
4	0x3db0de0a	0.086361006
5	0x3e5767d7	0.21035706
6	0x3bb1bbd8	0.005424004
7	0x3e1f93a6	0.15583667
8	0x3db90ae2	0.09035279
9	0x3c89db17	0.016828103
10	0xbc27ca88	-0.010241158
11	0xbccfe6ea	-0.025378663
12	0xbdc18b4f	-0.09450399
13	0x3d8f45b6	0.06995718
14	0x3dc0e92a	0.094194725
15	0x3e00411b	0.12524836
16	0x3d8f996b	0.07011684
17	0x3dfaf280	0.122532845
18	0x3d801f29	0.06255943
19	0x3df96975	0.121783175
20	0xbbe3712f	-0.006940983
21	0x3e021e85	0.12706955
22	0x3d9b62fa	0.07587238
23	0xbbb8ca34	-0.005639339
24	0xbcd91c93	-0.026502883
25	0xbd8e80f5	-0.0695819
26	0x3cff9d7a	0.03120302
27	0xbc20852b	-0.009797375
28	0x3d982502	0.07428934
29	0x3de88dbd	0.113551594
30	0x3cc148c7	0.023594273
31	0x3d00f138	0.031480044
32	0x3cb50f9b	0.022102168
33	0xbcf974c3	-0.030451184
34	0xbc1afc1e	-0.0094595235
35	0x3c436e76	0.011928191
36	0x3e241544	0.16023737
37	0xbcf44fc8	-0.029823199
38	0xbd46f1e1	-0.048570517
39	0x3dae6a85	0.08516411
40	0x3ccf1fb5	0.025283674
41	0xbb66642b	-0.003515492
42	0x3d72f3dd	0.059314597
43	0xbc8b3897	-0.016994758
44	0x3ca49304	0.020089634
45	0x3cbed922	0.023296896
46	0x3e02a7a6	0.12759265
47	0xbd834c5b	-0.06411048
48	0xba5f6ba5	-0.0008522815
49	0x3e17f781	0.14840509
50	0x3d737673	0.059439134
51	0xbc2c6348	-0.010521717
52	0x3c0581ce	0.008148624
53	0x3de85bd3	0.11345639
54	0xbd141e82	-0.036161907
55	0x3d8c9caf	0.068658225
56	0x3e0c92b8	0.13727844
57	0xbd268aac	-0.04065959
58	0x3d7fe618	0.062475294
59	0x3d4968ae	0.049172096
60	0x3c8f61b7	0.017502649
61	0x3d94d757	0.07267635
62	0x3d936885	0.0719767
63	0xbd46352f	-0.048390564
64	0x3cead0ef	0.02866408
65	0x3d7dedbb	0.061994296
66	0xbc69c387	-0.014267809
67	0x3d3b442f	0.04571932
68	0x3e0e2da3	0.13884597
69	0x3e0f3eeb	0.13988845
70	0x3d4b893f	0.049691435
71	0x3d5fa4d2	0.054600544
72	0x3dc12be3	0.09432199
73	0x3cfc8a60	0.030827701
74	0xbbe40c9d	-0.0069595114
75	0xbc408092	-0.011749404
76	0xbc1c7281	-0.009548784
77	0xbd8ebeaf	-0.06969964
78	0xbdaed37f	-0.085364334
79	0xbc3fb2fe	-0.01170039
80	0x3d9c9b97	0.07646864
81	0x3d1ab36a	0.03776876
82	0x3d84b9cb	0.0648075
83	0xbd792d1f	-0.060834046
84	0x3d8ce30b	0.068792425
85	0x3df5bd57	0.11999004
86	0x3dac3b4d	0.08409748
87	0x3dd1bf63	0.10241582
88	0x3e22b118	0.15887868
89	0x3e03f0ba	0.12884799
90	0x3df58950	0.11989081
91	0x3d9b0fdc	0.07571384
92	0x3d07915d	0.033097614
93	0x3d7397ad	0.05947082
94	0xbd68b20b	-0.05681042
95	0x3c995cd8	0.01872103
96	0xbcf5019b	-0.029907992
97	0xbcafc5b7	-0.021456582
98	0x3df33bf2	0.11876668
99	0x3e09537f	0.13410757
100	0x3c9960d3	0.018722927
101	0x3d11e137	0.035615172
102	0x3d55a15a	0.05215583
103	0x3d9bd6e9	0.0760935
104	0x3e0b37cf	0.13595508
105	0x3e45e857	0.19326912
106	0x3d22e129	0.03976551
107	0x3dba455d	0.09095261
108	0x3da0bd8f	0.078486554
109	0x3cc7bf2b	0.024383148
110	0x3da14cba	0.078759626
111	0x3d9f51d1	0.07779277
112	0xbd40e3e7	-0.047092345
113	0xbc21eef3	-0.00988363
114	0xbb924b23	-0.0044645234
115	0xbaffdbaf	-0.0019520427
116	0x3e1d399b	0.15354006
117	0x3dfd71c7	0.12375217
118	0x3e213063	0.15741114
119	0x3d54505b	0.051834445
120	0x3d5a691d	0.0533229
121	0x3d93932f	0.072058074
122	0x3d4b5409	0.04964069
123	0x3dd838ea	0.105577305
124	0xbc588740	-0.01321584
125	0x3cb7dbc4	0.02244366
126	0x3e0ec04a	0.1394054
127	0x3d1d302f	0.03837603
128	0x3c6f9722	0.014623435
129	0x3d62a9dd	0.055337775
130	0x3cf6a703	0.030108934
131	0x3d9028e7	0.070390515
132	0x3d0facca	0.035076894
133	0x3ca4c260	0.020112216
134	0x3d115796	0.03548392
135	0xbc89fc6a	-0.016843993
136	0x3d15d59d	0.03658067
137	0xbd3ced06	-0.04612448
138	0x3b9a1649	0.0047023636
139	0x3d310848	0.04322079
140	0x3de60a4b	0.11232432
141	0xbcefe25a	-0.029282738
142	0x3ddc7d37	0.1076607
143	0x3dd18e35	0.10232202
144	0x3d9883fe	0.074470505
145	0xbcf3fcda	-0.029783655
146	0x3daa63c3	0.08319809
147	0x3e0f07f2	0.13967875
148	0x3e16993b	0.1470689
149	0x3e2631ba	0.16229907
150	0x3e1fe7ef	0.1561582
151	0x3e461e01	0.19347383
152	0x3d70d873	0.058800172
153	0xbc6f39e7	-0.014601207
154	0x3d804063	0.06262281
155	0x3e11e8c5	0.14248951
156	0x3d7c4f98	0.061599344
157	0xbda0bff1	-0.0784911
158	0x3da178fa	0.078844026
159	0x3d0076f5	0.031363446
160	0x3e026e97	0.12737499
161	0x3e01baf7	0.12668978
162	0x3c114975	0.008867611
163	0x3c11474f	0.008867099
164	0xbce3d183	-0.027809864
165	0x3e077dbb	0.13231556
166	0x3d3106cc	0.043219373
167	0x3d0161d7	0.031587448
168	0x3e19cadd	0.15018792
169	0x3dc190f3	0.09451475
170	0xbbdf40ff	-0.006813168
171	0xbd0857d6	-0.033286892
172	0x3cc27780	0.023738623
173	0xbc86e04b	-0.016464373
174	0x3e086cd0	0.13322759
175	0x3b7d4af8	0.0038649421
176	0x3cbd53db	0.023111274
177	0x3d8b1bd3	0.067924164
178	0xbcc68bac	-0.024236523
179	0x3dfd3935	0.12364427
180	0x3da45693	0.08024325
181	0x3dcb3510	0.0992223
182	0xbd6d6be2	-0.057964213
183	0x3d2caa1a	0.04215441
184	0x3cf251ff	0.029580114
185	0x3c88d20a	0.016701717
186	0x3dbcb11d	0.09213469
187	0x3d5a8e9f	0.05335867
188	0x3db3d991	0.08781732
189	0x3dc158a5	0.09440736
190	0x3d604157	0.054749813
191	0xbd5f5785	-0.054526825
192	0x3d6bd5fb	0.057577115
193	0x3d13d7c5	0.036094446
194	0x3da9d556	0.08292644
195	0xbd9c0eab	-0.07619985
196	0x3cc4968b	0.023997566
197	0xbb80e7e5	-0.003933894
198	0x3c9ae32b	0.01890715
199	0x3e3eb093	0.18622045
200	0x3cda42fb	0.026643267
201	0x3cda6388	0.026658788
202	0xbe0cb9b2	-0.13742712
203	0x3e6166e2	0.22011903
204	0x3e48e298	0.19617689
205	0xbede7bbd	-0.4345378
206	0x3ca8b4ef	0.020594088
207	0x3e1d539b	0.15363924
208	0xbe061f98	-0.1309799
209	0xbd8e3c13	-0.06945052
210	0x3e8a6b31	0.27034906
211	0x3e9c621d	0.30543604
212	0x3dde6ffd	0.10861204
213	0xbd1529cf	-0.036416825
214	0x3d9bab32	0.07601012
215	0x3dc3c146	0.09558348
216	0xbe3d69ba	-0.18497363
217	0xbdc296db	-0.0950143
218	0x3e08b97f	0.13352011
219	0x3ec4cdf2	0.38438374
220	0x3e417675	0.18892844
221	0xbdea03b7	-0.1142649
222	0xbe83ae77	-0.25719044
223	0xbcb474b2	-0.0220283
224	0x3e16f1d2	0.14740685
225	0x3e3a3d67	0.18187486
226	0x3de6fff0	0.11279285
227	0xbd74666f	-0.059668
228	0xbd98f6cf	-0.0746895
229	0xbdf5fdc7	-0.12011295
230	0xbd8c78ec	-0.068590015
231	0x3ea0e416	0.31424016
232	0x3d956a67	0.07295685
233	0xbdb30e0b	-0.08742913
234	0x3da5fdb1	0.081050284
235	0x3e6a5503	0.22883992
236	0xbe255bbf	-0.1614828
237	0xbe8c5eab	-0.27415976
238	0x3dbc4bd4	0.091941506
239	0xbdcd71a7	-0.10031443
240	0xbe3c8e43	-0.18413644
241	0xbe57b052	-0.21063355
242	0x3e46334e	0.19355509
243	0xbd12d51b	-0.035847764
244	0xbd68b367	-0.056811716
245	0x3d7a0c83	0.06104709
246	0x3dc0f299	0.09421272
247	0xbe1378d7	-0.14401565
248	0xbe114ed7	-0.14190231
249	0x3e1d72ef	0.15375875
250	0xbd82cad5	-0.063863434
251	0x3dd1e4a3	0.10248687
252	0x3e318c65	0.17338713
253	0xbcca770b	-0.024714967
254	0xbd342ea1	-0.04398978
255	0x3dd9420f	0.10608303

bias_hh_l0 f4 [400]
0	0x3d504083	0.050842773
1	0x3da846ba	0.08216615
2	0x3dbddab9	0.09270234
3	0xbda083c6	-0.07837634
4	0x3d516907	0.051125553
5	0x3e8132dd	0.25234118
6	0x3d94d72b	0.072676025
7	0x3da1d49d	0.07901881
8	0x3d6d1a80	0.0578866
9	0x3e1c365d	0.15255113
10	0x3e166d62	0.14690164
11	0x3db2262b	0.08698686
12	0x3db4fe3e	0.08837555
13	0x3e00957f	0.12557028
14	0x3d90b67b	0.070660554
15	0x3d3668b8	0.04453346
16	0xbc79f2eb	-0.01525567
17	0x3dca2f0b	0.09872254
18	0x3ccce042	0.025009278
19	0x3dd7dd2d	0.10540233
20	0xbc525662	-0.012837978
21	0x3e06845d	0.1313643
22	0x3e4dc333	0.20093994
23	0x3e22835b	0.1587042
24	0x3b26aac3	0.0025431372
25	0xbd25d56a	-0.04048673
26	0x3d20c4cb	0.039250176
27	0x3d4fa403	0.050693523
28	0x3da9ef02	0.0829754
29	0xbc804819	-0.015659379
30	0x3e108d23	0.1411634
31	0x3d6f50c7	0.058426645
32	0xbd2e09d4	-0.04248984
33	0x3df8f26a	0.12155612
34	0x3e14b3e2	0.14521745
35	0x3ddac68b	0.106824
36	0xbaa0a652	-0.0012256599
37	0xbd46a8df	-0.04850089
38	0x3df93275	0.12167827
39	0x3e1ad369	0.15119709
40	0x3d4a3969	0.049371157
41	0xbcdc6caf	-0.026907293
42	0x3e2d8a81	0.16947366
43	0x3e025dd7	0.1273111
44	0x3d6cbb10	0.057795584
45	0xbd1e0cfd	-0.038586605
46	0xbcc06fd3	-0.023490822
47	0xbc86cc27	-0.01645477
48	0x3e00d832	0.12582472
49	0x3d3ecdcf	0.046582993
50	0x3de29b18	0.11064738
51	0x3e16df6f	0.1473367
52	0xbc3c672b	-0.011499207
53	0x3d19f420	0.03758633
54	0x3dfbf545	0.12302641
55	0xbc8c9d8f	-0.017164974
56	0x3d33aaa5	0.04386391
57	0xbca4764b	-0.020075938
58	0xbd14cda3	-0.036328923
59	0x3dcc1e63	0.09966733
60	0xbc034bcf	-0.00801368
61	0x3e0f55e9	0.13997616
62	0x3dd2e2d5	0.10297171
63	0x3dd0669f	0.101758234
64	0x3da1d1ea	0.07901366
65	0x3e1f046f	0.15529035
66	0x3cabaa9c	0.020955376
67	0xbc478a68	-0.012178995
68	0x3e23661b	0.15956919
69	0x3df905cf	0.12159311
70	0x3dd9d95d	0.10637162
71	0xbc80587a	-0.015667189
72	0xbd039b8e	-0.03213077
73	0x3cca9af6	0.024732094
74	0xbcea0a8d	-0.028569484
75	0xbd93e263	-0.07220914
76	0x3dde5982	0.10856916
77	0x3bc3602c	0.0059623923
78	0x3dc41b97	0.09575575
79	0x3cee0337	0.029054267
80	0x3e0b83aa	0.13624445
81	0xbd75c2bf	-0.060000177
82	0x3da1b7cc	0.078963846
83	0x3cbe7398	0.023248479
84	0x3d4f163a	0.050558306
85	0xbd942933	-0.072344206
86	0x3dd51612	0.104046
87	0x3cdce95a	0.02696674
88	0x3ddf0f92	0.10891642
89	0x3e2a45fa	0.16628256
90	0x3e813ea4	0.25243104
91	0x3d63288d	0.055458594
92	0xbc4ccd40	-0.012500107
93	0x3d834a37	0.0641064
94	0xbd0b607b	-0.034027558
95	0xbd8e96ac	-0.06962332
96	0x3dcaa505	0.09894756
97	0xb92bbcff	-0.00016378237
98	0xbcdbe19d	-0.02684098
99	0x3ddbeb5f	0.10738253
100	0x3bb1cbbc	0.0054258984
101	0x3d53861a	0.05164156
102	0xbc159b5b	-0.009131278
103	0x3e02fa78	0.12790859
104	0x3e1297d2	0.14315727
105	0x3e336c57	0.17521797
106	0x3ce3d14d	0.027809763
107	0x3cda10d7	0.026619358
108	0xbcd21258	-0.025643513
109	0x3e10c7c6	0.14138708
110	0xbcbfd331	-0.023416134
111	0x3c802a11	0.015645059
112	0x3d756f57	0.059920635
113	0x3dc714eb	0.09720787
114	0x3d7e1dd0	0.06204015
115	0x3d94896d	0.072527744
116	0xbc2786b5	-0.010224988
117	0x3e53f38a	0.20698372
118	0x3e394c8a	0.18095604
119	0x3e044ff8	0.1292113
120	0x3e2141ce	0.15747759
121	0x3e103c45	0.14085491
122	0x3de43df8	0.11144632
123	0x3e3a6969	0.18204273
124	0x3daa3302	0.0831051
125	0xbda14d7e	-0.078761086
126	0x3d39510a	0.0452433
127	0x3c009ba8	0.007849611
128	0x3da1eb3f	0.07906198
129	0x3e1ef99b	0.15524904
130	0x3dba1d42	0.09087612
131	0xbd22609f	-0.039642926
132	0x3daa8dfc	0.083278626
133	0x3d39e237	0.04538175
134	0x3b2c49cd	0.0026289106
135	0x3df9bced	0.12194238
136	0x3dc45f6f	0.09588515
137	0xbd12c806	-0.03583529
138	0x3e0708ef	0.13187002
139	0x3c6f2d2d	0.014598173
140	0x3e129d83	0.14317898
141	0x3dc70923	0.097185396
142	0x3dc669cf	0.0968815
143	0x3b7df3a5	0.003874996
144	0x3c5a80c0	0.01333636
145	0x3dfbf85a	0.12303229
146	0x3d260996	0.040536486
147	0x3e1a35b7	0.15059553
148	0x3d6a0423	0.05713285
149	0x3e34dade	0.17661616
150	0x3d0c7933	0.034295272
151	0x3e0adba7	0.13560353
152	0x3d178c25	0.036998887
153	0xbd2110cf	-0.03932267
154	0xbc18f782	-0.009336354
155	0x3dee0b5a	0.11623259
156	0x3d623ae0	0.05523193
157	0xbd440f07	-0.047865894
158	0x3df34c63	0.11879804
159	0x3c93508e	0.017982747
160	0x3d18ce9a	0.037306406
161	0x3a8fab9b	0.0010961177
162	0xbd92f3d7	-0.07175415
163	0xbd713f0f	-0.058898028
164	0xbc47a508	-0.012185343
165	0x3c76d490	0.015065327
166	0xbbb62dc2	-0.005559654
167	0xbbdc3a83	-0.0067208423
168	0x3ded78d7	0.11595314
169	0xbcc3689a	-0.023853589
170	0x3d27504a	0.040848054
171	0x3ca86b27	0.020558907
172	0x3d2c67b9	0.042091105
173	0x3e10fa20	0.14157915
174	0x3e232b02	0.15934375
175	0xbc931651	-0.017954977
176	0x3dd945ca	0.10609014
177	0x3bd98d4b	0.006639158
178	0x3e155d4a	0.14586368
179	0x3e21911b	0.1577801
180	0x3e0e44a6	0.13893375
181	0x3dfda4c7	0.123849444
182	0x3dc1b962	0.09459187
183	0xbd5e40ed	-0.054261137
184	0x3d0dd258	0.034624428
185	0x3c27d547	0.01024372
186	0x3db6076d	0.08888135
187	0x3d93665f	0.0719726
188	0x3e0b57f7	0.13607775
189	0x3e37b183	0.17938809
190	0x3e4d25b2	0.20033911
191	0xbcee7d37	-0.029112441
192	0x3cab427b	0.020905724
193	0x3cda2503	0.026628977
194	0xbd21c1e2	-0.03949154
195	0x3cd8ad6f	0.026449887
196	0xbd10f0f1	-0.03538603
197	0x3d09a3ac	0.033603355
198	0x3e1ca4d0	0.15297246
199	0x3dde2713	0.108472966
200	0x3cbc041c	0.022951178
201	0xbb2ba54b	-0.0026191052
202	0xbe1efd37	-0.15526281
203	0x3e2b56f8	0.16732395
204	0x3e28479f	0.16433571
205	0xbee6e1ca	-0.45094138
206	0x3d54ce9a	0.051954843
207	0x3e104b8b	0.14091317
208	0xbd82747b	-0.06369873
209	0xbde40595	-0.11133877
210	0x3ea6a9af	0.32551333
211	0x3e146dd8	0.14495027
212	0xbd997e65	-0.07494811
213	0xbd873bfe	-0.066032395
214	0xbd3ea33b	-0.046542387
215	0x3d9fce7e	0.07803057
216	0xbde5af75	-0.112151064
217	0x3db034f1	0.08603848
218	0x3e65b713	0.22433119
219	0x3ebb3352	0.36562592
220	0x3e0cd663	0.13753657
221	0xbdb1e71f	-0.08686661
222	0xbe71df4d	-0.23620339
223	0xbdf56112	-0.11981405
224	0x3d6fcf6a	0.058547415
225	0x3e0880d9	0.13330401
226	0x3d09db9b	0.033656698
227	0x3d39d68e	0.04537063
228	0xbdaddfe2	-0.08489968
229	0xbe69c50a	-0.2282907
230	0xbd932b49	-0.0718599
231	0x3e7e7d98	0.24852598
232	0xbb94b1d2	-0.0045377994
233	0xbe1ca63f	-0.15297793
234	0x3b181093	0.0023203238
235	0x3e573692	0.2101691
236	0xbe1469cf	-0.14493488
237	0xbe6dd5e3	-0.23226123
238	0x3ce40123	0.027832573
239	0xbe45fac3	-0.19333939
240	0xbe3dce23	-0.18535666
241	0xbe27a93f	-0.16373156
242	0x3d85ca02	0.065326706
243	0xbd2c5861	-0.042076472
244	0x3dedd23f	0.11612367
245	0x3cb05dbf	0.021529077
246	0x3e0077bf	0.1254568
247	0xbd7ed463	-0.062214267
248	0xbe1b04e7	-0.15138589
249	0x3e24c69f	0.16091393
250	0xbe418721	-0.18899204
251	0x3dd77af3	0.105214976
252	0x3d0fa300	0.03506756
253	0xbdb2b2e5	-0.08725528
254	0xbd75531d	-0.059893716
255	0x3dffb738	0.12486118

weight f4 [100, 100]
0	0xbc96aa43	-0.018391734
1	0x3d701a1d	0.058618654
2	0x3bcced42	0.0062538693
3	0xbd9cdc83	-0.07659247
4	0xbbf8cad8	-0.0075925402
5	0xbdb8d681	-0.090252884
6	0x3a98b480	0.0011650473
7	0xbb75fe12	-0.003753547
8	0x3cefb88d	0.029262805
9	0x3d31c07d	0.04339646
10	0x3cde715f	0.027153669
11	0xbda9e5a5	-0.08295754
12	0xbb528b53	-0.00321265
13	0x3bbf4d38	0.0058380626
14	0x3dc231b2	0.09482135
15	0xbc0aee77	-0.008479706
16	0xbb3b6886	-0.0028596236
17	0x3d0e7183	0.034776222
18	0xbd2ce743	-0.042212736
19	0x3d91a30b	0.07111176
20	0xbdce2a18	-0.100666225
21	0x3d86ae1b	0.06576177
22	0x3d71be28	0.059019238
23	0x3c4fa537	0.012673668
24	0xbce3d8df	-0.027813373
25	0x3c3c8d80	0.011508346
26	0xbdc4a0cf	-0.09600984
27	0x3cc9b135	0.024620632
28	0x3d87fb85	0.066397704
29	0xbcb45563	-0.022013372
30	0xbdc40924	-0.09572056
31	0x3d69644d	0.05698042
32	0xbd32ea53	-0.0436805
33	0xbd63ef27	-0.055647995
34	0xbd99feb9	-0.075192876
35	0x3d8185aa	0.063243225
36	0xbdaf411c	-0.085573405
37	0xbcfe9968	-0.03107901
38	0xbd043ad8	-0.03228268
39	0x3d9ffc37	0.07811778
40	0xbbe98588	-0.007126514
41	0x3d2b95fc	0.041891083
42	0x3d874abd	0.06606052
43	0x3d739d32	0.059476085
44	0xbd066183	-0.03280784
45	0x3cb0a751	0.021564158
46	0xbd5e3cad	-0.054257084
47	0x3dce0b8d	0.10060797
48	0xbd88a7ab	-0.06672605
49	0xbde95672	-0.11393441
50	0xbddc2edd	-0.10751126
51	0xbca2f0dd	-0.019890243
52	0xbddb5e0d	-0.10711298
53	0xbd8134ee	-0.06308924
54	0xbd83ac01	-0.064292915
55	0xbc183b78	-0.009291522
56	0xbd1419b6	-0.036157332
57	0xbda6c3a6	-0.08142786
58	0xbe0d0292	-0.13770512
59	0xbd00d2fa	-0.031451203
60	0xbd151d04	-0.036404625
61	0xbd2836db	-0.04106794
62	0xbd08a52f	-0.033360656
63	0xbd8a8017	-0.067627124
64	0x3d2759db	0.040857177
65	0xbd7578fd	-0.059929837
66	0xbc12d0f2	-0.008960949
67	0xbd9c5f9b	-0.07635423
68	0x3df534a3	0.1197293
69	0x3e0d4428	0.13795531
70	0x3d821ad1	0.06352771
71	0xbd970d67	-0.07375603
72	0x3d9738b6	0.07383864
73	0xbdc07b4b	-0.09398516
74	0x3da49ad2	0.08037342
75	0x3dbb95d7	0.09159439
76	0xbd3ac9f9	-0.045602772
77	0x3dcb0d40	0.099146366
78	0xbd1186f3	-0.03552909
79	0xbdb17f9c	-0.08666918
80	0x3d578c55	0.052624065
81	0x3d186973	0.03720994
82	0xbd5e71e2	-0.054307826
83	0xbd4a36d9	-0.049368713
84	0xbdbd93a7	-0.09256678
85	0xbd5970f8	-0.05308625
86	0xbdcb64df	-0.09931349
87	0x3bbefd70	0.005828552
88	0xbde083a5	-0.10962609
89	0xbdc31791	-0.09525979
90	0xbc7ab857	-0.015302739
91	0x3da6285a	0.08113165
92	0xbd162673	-0.03665776
93	0xbdefa2ca	-0.117009714
94	0x3cc4a2e5	0.024003455
95	0x3c9f471f	0.019443093
96	0x3d181add	0.037134994
97	0xbd4145ef	-0.047185834
98	0xbc863fed	-0.016387904
99	0xbb723c9f	-0.0036962403
100	0xbd0dfa1d	-0.034662355
101	0xbcf72cb3	-0.030172681
102	0xbad77937	-0.0016439323
103	0xbdf5dbd7	-0.12004822
104	0x3d99cbff	0.07509612
105	0x3d2788d8	0.04090199
106	0xbb9d8d38	-0.0048080944
107	0xbd183295	-0.037157614
108	0x3d04268b	0.03226332
109	0xbdad21cb	-0.08453711
110	0x3ce93c10	0.028471023
111	0x3caec340	0.021333337
112	0xbdd08f6d	-0.10183606
113	0x3cf5a643	0.029986506
114	0x3c98ba0f	0.018643407
115	0x3da467b0	0.08027589
116	0xbc966245	-0.018357405
117	0xbca7e0ba	-0.0204929
118	0xbd676adb	-0.05649839
119	0x3e1755b1	0.14778782
120	0xbd67eb27	-0.056620743
121	0xbd9f8213	-0.077884816
122	0x3d957d2f	0.072992675
123	0x3d0b410b	0.033997577
124	0xbc96439e	-0.01834279
125	0x3d0d22be	0.03445696
126	0x3d062bc1	0.03275657
127	0x3d02f9dc	0.031976566
128	0xbd4e0cfd	-0.050305355
129	0x3bbfda8b	0.00585491
130	0x3d913196	0.07089536
131	0x3db04f78	0.086089075
132	0x3d749b5f	0.059718486
133	0xbda11ce7	-0.07866841
134	0x3df7dce2	0.12102677
135	0x3d6fbdb7	0.058530536
136	0xbdbef5cc	-0.09324226
137	0xbe07624b	-0.1322109
138	0xbd30037d	-0.042972077
139	0x3ba87f8f	0.0051421593
140	0xbd2cae46	-0.042158388
141	0xbd64a3dd	-0.055820335
142	0x3d12ac98	0.03580913
143	0x3d9309c0	0.07179594
144	0x3da3f6a7	0.080060296
145	0xbd7a2f03	-0.06107999
146	0xbce545cf	-0.027987389
147	0x3d64e590	0.05588299
148	0x3db731e3	0.08945062
149	0x3ce5852b	0.028017601
150	0x3d86d556	0.06583659
151	0x3d977c8e	0.07396804
152	0xbdf673bf	-0.120337956
153	0x3dc474c3	0.09592583
154	0xbd9bebe8	-0.07613355
155	0xbd41149a	-0.047138788
156	0xbb9fbc99	-0.0048747775
157	0xbda47f27	-0.08032065
158	0xbdd49158	-0.103792846
159	0xbd37e45f	-0.044895526
160	0x3d9c777c	0.07639977
161	0x3dc83bbf	0.09777021
162	0x3dabd6d8	0.083905876
163	0xbdda5e87	-0.10662561
164	0xbce70628	-0.028201178
165	0xbdaca05b	-0.08429023
166	0xbd8303a0	-0.06397176
167	0xbc92e7dc	-0.017932825
168	0x3c77736b	0.015103201
169	0x3dfbc473	0.12293329
170	0x3d619173	0.05507035
171	0x3d01b78b	0.03166918
172	0xbcd2be62	-0.025725547
173	0x3d4c0ef0	0.049818933
174	0x3d84e84a	0.06489618
175	0xbbf35c52	-0.007426777
176	0xbdb21b0d	-0.08696566
177	0xbda48967	-0.0803402
178	0x3b52cf50	0.0032167025
179	0xbda63c38	-0.081169546
180	0x3d8c8e2f	0.06863057
181	0xbd97deb2	-0.07415523
182	0xbcf4f93f	-0.029904006
183	0x3d78fb9a	0.06078682
184	0x3c66db13	0.014090317
185	0xbd87be44	-0.06628087
186	0xbcef13d5	-0.029184261
187	0xbd49f5e9	-0.049306784
188	0xbdae18cc	-0.085008234
189	0x3b3718e0	0.002793841
190	0xbdf498cd	-0.11943207
191	0x3d06bf6d	0.0328974
192	0x3c34864d	0.011018348
193	0xbe0947cb	-0.13406293
194	0xbcaa9a7c	-0.020825617
195	0xbd8e411d	-0.06946013
196	0x3d3b0113	0.04565532
197	0xbd216de8	-0.039411455
198	0x3c32f1a3	0.0109218685
199	0xbc60cb2d	-0.013720316
200	0xbcf9dc47	-0.030500544
201	0x3d549935	0.051903922
202	0x3d23ddd9	0.040006492
203	0x3ddf2b6f	0.10896956
204	0xbdc585da	-0.09644671
205	0xbd7d58a0	-0.061852098
206	0x3da9e413	0.08295455
207	0x3d934f3e	0.071928486
208	0x3dae6c5e	0.08516763
209	0x3d6fd28a	0.058550395
210	0xbd27e75a	-0.04099212
211	0xbcc393be	-0.02387416
212	0x3c4883a8	0.012238421
213	0x3d8c0fea	0.06838973
214	0xbb2c282a	-0.0026269057
215	0xbd2d8bcb	-0.042369645
216	0xbd576278	-0.05258414
217	0x3d581f48	0.052764207
218	0xbcd0e658	-0.025500461
219	0xbc94d528	-0.018168047
220	0xbd1de017	-0.038543787
221	0xbcb9d1d3	-0.02268306
222	0xbda770be	-0.08175801
223	0xbdc1c25c	-0.09460899
224	0xbcbeb613	-0.02328018
225	0x3d9f1f5c	0.07769653
226	0xbdb16d8d	-0.08663473
227	0x3c3f3c7c	0.011672135
228	0x3be7ce1f	0.007074132
229	0x3d22355f	0.03960168
230	0x3cc65f6b	0.02421542
231	0xbdd7136d	-0.10501752
232	0xbd6d3108	-0.057908088
233	0x3d63882a	0.055549778
234	0xbd2d60d9	-0.04232869
235	0x3cd52e2a	0.02602299
236	0x3b8a2f57	0.004217069
237	0x3d8812d3	0.066442154
238	0x3c99ba17	0.018765492
239	0x3d2ad77e	0.041709416
240	0x3c93841a	0.018007327
241	0x3daebe2f	0.085323684
242	0xbca20d2c	-0.019781671
243	0xbdeeab80	-0.11653805
244	0x3d5d7dc5	0.05407502
245	0x3d78808f	0.060669478
246	0x3d1229e3	0.035684478
247	0xbd59bf4f	-0.05316096
248	0xbd95f928	-0.073229134
249	0xbd5e047a	-0.054203488
250	0x3bf97f4b	0.0076140515
251	0x3d2ce443	0.042209875
252	0x3da23c9c	0.079217166
253	0xbd04c9ef	-0.03241914
254	0xbd4211a5	-0.04738011
255	0x3cc8d7fb	0.02451705

bias f4 [100]
0	0x3deaa083	0.114563964
1	0x3dc8a7dc	0.09797642
2	0x3d034a29	0.032053147
3	0x3e3d3806	0.18478402
4	0x3d2e4e3d	0.042555083
5	0x3d2a1e2e	0.041532688
6	0x3d4fa600	0.05069542
7	0xbd0b1297	-0.033953276
8	0x3dcf5b10	0.10124791
9	0x3d92aa1e	0.071613535
10	0xbe3142ef	-0.1731069
11	0xbcd22eeb	-0.025657138
12	0x3d18fab4	0.037348464
13	0xbc2f0dc7	-0.010684437
14	0x3e0611c5	0.13092716
15	0xbdacc24b	-0.08435496
16	0x3bb41a50	0.0054963008
17	0xbc852d5b	-0.016256979
18	0x3d7b2bea	0.061321177
19	0xbe0aeae1	-0.13566162
20	0x3cc7cdc0	0.024390101
21	0x3d8c949d	0.06864283
22	0xbc4c9e0b	-0.012488852
23	0x3de8fbb5	0.11376134
24	0xbca4e370	-0.020127982
25	0x3d4ab0ff	0.049485203
26	0xbd35aa78	-0.044352025
27	0x3e03516a	0.12824026
28	0xbdcbd3de	-0.0995252
29	0xbd273993	-0.04082639
30	0xbd3b1806	-0.045677207
31	0x3d0ad724	0.03389658
32	0xbd2f7454	-0.04283555
33	0xbc1cc157	-0.00956758
34	0x3c9b29b5	0.018940786
35	0xbbf39f58	-0.0074347667
36	0x3da0e90a	0.07856949
37	0xbd4b9fce	-0.04971295
38	0xbcb40f98	-0.021980092
39	0xbd9983b9	-0.07495827
40	0x3cc1a62e	0.023638811
41	0x3d9f4db1	0.0777849
42	0xbe01c38f	-0.12672256
43	0xbd7ed537	-0.062215056
44	0x3ce7629f	0.028245268
45	0xbdf4d6ba	-0.11955018
46	0x3e61a08a	0.22033897
47	0x3cb9d53b	0.022684684
48	0x3d79b4c5	0.06096341
49	0xbe24ef4b	-0.16106908
50	0x3e068dcc	0.13140029
51	0x3deba1e7	0.1150549
52	0x3e474780	0.19460869
53	0xbdc3c0c7	-0.09558254
54	0x3d7a2c3b	0.061077338
55	0xbbb76ce7	-0.005597699
56	0xbdbff938	-0.093737066
57	0xbd43f085	-0.0478368
58	0xbe087163	-0.13324504
59	0x3e242169	0.1602837
60	0xbd2cc6e2	-0.042181857
61	0x3d29bd5d	0.041440357
62	0xbc777060	-0.015102476
63	0x3dff5c25	0.12468747
64	0xbd3df2e7	-0.046374228
65	0x3d1e6aeb	0.038676184
66	0xbe1919ef	-0.14951299
67	0x39706a05	0.00022927679
68	0xbdef7b07	-0.116933875
69	0xbdfeaef5	-0.12435714
70	0x3d7256d7	0.05916485
71	0xbd009ac8	-0.03139761
72	0x3e1a650d	0.1507761
73	0xb88cecef	-6.7198525e-05
74	0xbd1d3d13	-0.038388323
75	0xbdfb2f22	-0.12264849
76	0xbd8a280c	-0.067459196
77	0x3d1014c8	0.03517607
78	0x3c1649c5	0.009172861
79	0x3d16bbd6	0.036800228
80	0x3da3f26c	0.08005223
81	0x3ba1722d	0.004926941
82	0xbc17fbf3	-0.009276378
83	0xbd05d0d4	-0.032669857
84	0xbd82a2e3	-0.063787244
85	0x3da1d0e7	0.07901173
86	0x3dac8061	0.08422924
87	0xbd4641bb	-0.04840253
88	0x3daed0c2	0.08535911
89	0x3e58a82d	0.21157904
90	0x3de9708b	0.11398419
91	0x3d239608	0.039938003
92	0x3d903f5d	0.070433356
93	0xbe0e5c53	-0.13902406
94	0xbe1041fb	-0.1408767
95	0xbcb553ea	-0.02213474
96	0xbd6ff668	-0.0585846
97	0xbc270335	-0.010193636
98	0x3d01b1b3	0.031663608
99	0xbda93474	-0.08261958

weight f4 [1, 100]
0	0xbebc33f0	-0.36758375
1	0xbed3ff7b	-0.41405854
2	0x3e7a9b0f	0.24473213
3	0xbf041777	-0.51598305
4	0x3e99a4cb	0.3000854
5	0xbead917a	-0.33900052
6	0xbea90dee	-0.3301844
7	0xbcba7c16	-0.022764247
8	0xbe525392	-0.20539692
9	0x3e53e203	0.20691685
10	0x3f1de83e	0.616825
11	0xbeaadb0b	-0.33370242
12	0xbeabd45b	-0.33560452
13	0xbe786148	-0.2425586
14	0xbecbd095	-0.39807573
15	0x3f0322a5	0.5122474
16	0xbd7ef310	-0.06224352
17	0x3ef1939f	0.47182938
18	0xbe2bdde6	-0.16783866
19	0x3ec27560	0.37980175
20	0x3e896f78	0.26842856
21	0x3dc213a9	0.09476406
22	0xbeb1cc2c	-0.34726083
23	0xbee21710	-0.4415822
24	0xbd82917b	-0.063754044
25	0xbf05062f	-0.5196256
26	0x3ebf4f33	0.37365112
27	0xbedf44b5	-0.43607107
28	0x3eac6379	0.33669642
29	0xbd94ca6f	-0.07265174
30	0xbd62bcc2	-0.055355795
31	0xbe2573b7	-0.16157423
32	0xbeb50d1f	-0.35361573
33	0x3ec90fd1	0.3926988
34	0xbeda90d0	-0.42688608
35	0x3e1bef4a	0.15228
36	0xbae05637	-0.0017115538
37	0x3e958603	0.29203805
38	0xbe09932b	-0.13435046
39	0xbe6a8080	-0.22900581
40	0xbeefe4ab	-0.46854147
41	0xbf02f967	-0.5116181
42	0x3ee70bb7	0.45126125
43	0x3f05f551	0.5232745
44	0xbe82ac2a	-0.25521976
45	0x3ec7aad0	0.38997507
46	0xbf35e7f3	-0.7105705
47	0xbe9d7a75	-0.3075749
48	0xbe4ba34f	-0.19886516
49	0x3f06804b	0.5253951
50	0xbf05625f	-0.5210323
51	0xbeed1f3f	-0.463129
52	0xbf1e9aca	-0.6195494
53	0x3f137068	0.57593393
54	0xbed362e3	-0.41286382
55	0x3ecbdb9a	0.3981598
56	0x3cac41ab	0.021027407
57	0xbe7b262b	-0.24526279
58	0x3f09e012	0.5385753
59	0xbefa57e5	-0.48895183
60	0x3f000bee	0.50018203
61	0xbe98261d	-0.29716578
62	0x3ea219a3	0.31660184
63	0xbeac752e	-0.3368315
64	0xbe27ccc4	-0.16386706
65	0x3de27965	0.110583104
66	0x3ecdb5df	0.4017782
67	0xbe0d7314	-0.1381343
68	0x3e86f887	0.26361486
69	0x3e8d610e	0.2761311
70	0xbea7a19f	-0.32740495
71	0x3e892e48	0.26793122
72	0xbef052cd	-0.46938172
73	0xbed392f5	-0.41323057
74	0xbd00d58f	-0.031453665
75	0x3e91f869	0.28509834
76	0xbe85ff3d	-0.26171294
77	0x3dcf9ce2	0.10137345
78	0xbe7fc8c0	-0.24978924
79	0xbe2c9cc0	-0.1685667
80	0x3e3f8f7f	0.18707083
81	0x3e999c80	0.30002213
82	0x3e95b933	0.29242858
83	0x3e6690bb	0.22516148
84	0x3f06522b	0.5246913
85	0xbdd825f7	-0.10554116
86	0xbd288162	-0.041139014
87	0xbe54ae5b	-0.20769636
88	0xbeba6bf3	-0.36410484
89	0xbf1ca5da	-0.6119057
90	0xbe980a0a	-0.2969516
91	0xbe8e973f	-0.27849767
92	0xbe08d636	-0.13362965
93	0x3f01622c	0.50540423
94	0x3eec5d2b	0.46164832
95	0x3ee1cd6d	0.4410204
96	0x3d9fd5c7	0.07804447
97	0xbe94cce3	-0.29062566
98	0x3e7783b7	0.24171339
99	0x3e123697	0.14278637

weight f4 [19, 100]
0	0xbe460130	-0.1933639
1	0xbeb03762	-0.34417254
2	0x3e36afad	0.17840452
3	0x3e6a3bb0	0.22874331
4	0x3debb02f	0.11508214
5	0xbd76ae57	-0.060224857
6	0xbeca3967	-0.3949692
7	0xbd4675db	-0.04845224
8	0xbeaccc0b	-0.33749422
9	0x3ea10e0e	0.31456035
10	0x3d892e81	0.06698323
11	0x3ea5c9e3	0.3238059
12	0x3f1f7144	0.62282205
13	0xbe86c96f	-0.26325557
14	0xbe6db288	-0.23212636
15	0xbeaae73b	-0.3337954
16	0xbe7c5353	-0.2464116
17	0x3dcfc07f	0.101441376
18	0x3d0221f7	0.031770673
19	0xbe10c6ff	-0.14138411
20	0x3df0a0c8	0.117494166
21	0x3f0e8245	0.55667526
22	0x3e79bab7	0.24387632
23	0x3e49466d	0.19655772
24	0x3ee95010	0.45568895
25	0x3e00a1a7	0.12561665
26	0x3dbe7f8b	0.09301671
27	0x3e8803ab	0.26565298
28	0x3ec68036	0.38769692
29	0xbd60cd42	-0.05488325
30	0xbeacb545	-0.33732048
31	0xbe6ba477	-0.23011957
32	0xbe81b57d	-0.25333777
33	0x3eb15a50	0.34639215
34	0xbdf979d3	-0.12181439
35	0x3e06867f	0.13137244
36	0xbd07a24a	-0.033113755
37	0x3d9cf933	0.076647185
38	0x3e1b38e5	0.15158422
39	0x3ed367aa	0.41290027
40	0x3e039ec0	0.12853527
41	0x3e97c5a5	0.29642978
42	0x3eb27b50	0.34859705
43	0xbe284f38	-0.1643647
44	0x3e306622	0.1722646
45	0xbe5c98d3	-0.21542673
46	0xbefa11f5	-0.48841825
47	0x3eb71a5a	0.35762292
48	0xbe975a18	-0.29560924
49	0xbe0f1369	-0.13972248
50	0xbc04ba41	-0.008101047
51	0x3ba46e8d	0.0050180615
52	0x3de5f3e8	0.11228162
53	0xbdcaec79	-0.09908385
54	0xbd118750	-0.035529435
55	0xbed9de42	-0.42552382
56	0x3ee38a53	0.4444147
57	0xbdef089f	-0.11671566
58	0xbf05094a	-0.519673
59	0x3e7e3630	0.24825358
60	0x3e9c141a	0.30484086
61	0x3c55dd88	0.013053305
62	0xbe8f741d	-0.28018275
63	0xbcf01513	-0.029306924
64	0x3dd70352	0.1049868
65	0xbeeef3a7	-0.46670267
66	0x3e9fcec3	0.31212434
67	0x3d39c39f	0.045352574
68	0x3e3fcea5	0.18731172
69	0x3f1430f3	0.5788719
70	0x3eb25c55	0.3483607
71	0x3e79dd2a	0.24400774
72	0xbeb30d0b	-0.34970888
73	0x3eaac63a	0.3335436
74	0xbe970daa	-0.29502612
75	0x3d91ccfd	0.071191765
76	0xbe5f923a	-0.21833125
77	0x3eaaa8fa	0.33332044
78	0xbe18c148	-0.14917481
79	0xbe0c4243	-0.13697152
80	0x3e93d171	0.2887073
81	0xbeb0a0f2	-0.34497792
82	0x3e2fe085	0.17175491
83	0xbd131465	-0.03590812
84	0xbe361361	-0.1778083
85	0xbde5d407	-0.11222082
86	0xbea1cb31	-0.31600335
87	0xbea3d8a0	-0.3200121
88	0xbea29cbb	-0.317602
89	0x3dcf17b0	0.1011194
90	0xbeff5618	-0.49870372
91	0x3e9c3566	0.3050949
92	0x3edfa858	0.43683124
93	0xbe5334af	-0.20625566
94	0xbe8393b0	-0.25698614
95	0x3da0cb2f	0.07851254
96	0x3f0c4597	0.54793686
97	0xbef198fd	-0.47187033
98	0x3e8ac66d	0.27104512
99	0x3e27270c	0.16323489
100	0xbe53936d	-0.20661707
101	0x3e69b582	0.22823146
102	0x3e7ef418	0.24897802
103	0x3e1c6b90	0.15275407
104	0x3dde34e0	0.10849929
105	0x3ea7c1f8	0.32765174
106	0x3e3c034c	0.18360633
107	0xbd9398f1	-0.07206906
108	0x3ede2e93	0.43394908
109	0x3d4d9f70	0.05020088
110	0x3eb30614	0.34965575
111	0x3f31e515	0.69490176
112	0xbe0f30ef	-0.1398351
113	0x3bfb579b	0.0076703555
114	0x3e7f85f0	0.24953437
115	0x3e10b253	0.14130525
116	0xbb60c807	-0.0034298913
117	0x3ea59bb0	0.32345343
118	0xbe3fa3af	-0.18714784
119	0xbe9a7aaa	-0.3017171
120	0x3c09f8de	0.008421151
121	0xbeb685ef	-0.35649058
122	0x3eba5199	0.3639038
123	0xbe33590a	-0.17514434
124	0x3eb93f95	0.36181322
125	0xbe3c181d	-0.18368573
126	0xbf05b6d7	-0.52232116
127	0xbe19f651	-0.15035369
128	0xbe91645d	-0.28396884
129	0xbc0711e8	-0.008244015
130	0xbe0f7bb3	-0.14012031
131	0x3c4bfdf8	0.012450688
132	0x3ed1c017	0.40966865
133	0xbcf6fdcd	-0.030150319
134	0x3f12e333	0.5737793
135	0x3e0927f7	0.13394152
136	0x3c9482bb	0.018128743
137	0x3eabe5de	0.33573812
138	0xbe81efb7	-0.253782
139	0x3ea1d3f1	0.3160701
140	0xbdbb44b0	-0.091439605
141	0x3e3418ab	0.17587535
142	0xbee854f3	-0.4537731
143	0x3e7a2ee8	0.24431956
144	0x3ec38637	0.38188335
145	0xbcfc25c0	-0.03077972
146	0xbe927237	-0.28602764
147	0xbe484ed0	-0.19561315
148	0xbe67cf4b	-0.2263767
149	0xbb006ee0	-0.0019597337
150	0x3cea503b	0.02860271
151	0xbe2dd7e5	-0.16976888
152	0x3ec8b231	0.3919845
153	0x3ee85050	0.45373774
154	0x3dec2842	0.11531116
155	0xbe412f75	-0.1886576
156	0xbe7c1eba	-0.24621096
157	0xbecd63a7	-0.4011509
158	0x3e0cc5bb	0.13747303
159	0x3cde546b	0.027139863
160	0xbecb5b7e	-0.3971824
161	0x3edd4d65	0.4322311
162	0xbe321d14	-0.17393905
163	0x3e3338a4	0.17502075
164	0x3ea553c5	0.32290474
165	0x3e3d4897	0.18484722
166	0x3da0a211	0.07843412
167	0x3e63236a	0.22181478
168	0x3dd9cf3f	0.10635232
169	0xbe9b43f2	-0.30325276
170	0x3ea50e86	0.32237643
171	0x3e835459	0.2565029
172	0xbd840abc	-0.0644736
173	0xbc57cf03	-0.013171914
174	0xbe17a11f	-0.14807557
175	0xbe515d97	-0.20445858
176	0xbcf3c072	-0.029754851
177	0x3dc9531f	0.09830307
178	0x3d13665a	0.035986282
179	0x3e8d493f	0.27594945
180	0x3e9c6890	0.30548525
181	0x3e89695b	0.26838192
182	0x3e06e343	0.13172631
183	0xbe4fe6ea	-0.2030293
184	0xbe84e01b	-0.2595223
185	0xbe8461bb	-0.25855812
186	0x3ecc15b3	0.39860305
187	0xbf0d008e	-0.5507897
188	0xbeca36b2	-0.39494854
189	0xbe974584	-0.29545224
190	0xbdc36d65	-0.0954235
191	0x3d7fa788	0.06241563
192	0xbef67a8f	-0.4814038
193	0xbd808ae8	-0.06276494
194	0xbe6f0615	-0.23342164
195	0xbe70767a	-0.23482695
196	0x3dede612	0.11616148
197	0x3e818c25	0.25302234
198	0x3e1bec7c	0.1522693
199	0x3dc32da4	0.0953019
200	0xbe31d656	-0.17366919
201	0x3e7a02ea	0.24415174
202	0xbe4c4032	-0.19946364
203	0x3da04112	0.07824911
204	0xbf392395	-0.7231992
205	0xbf26d2a7	-0.6516518
206	0xbeb31791	-0.34978917
207	0x3edb9625	0.4288799
208	0xbe8b2aaf	-0.27181002
209	0x3ea05040	0.31311226
210	0x3e011d2f	0.12608789
211	0x3ea6fda1	0.32615378
212	0x3e8a5c74	0.2702366
213	0x3e78c9ea	0.24295774
214	0x3e59f445	0.21284588
215	0xbf1b5dac	-0.60689807
216	0xbd84f8fb	-0.06492802
217	0xbedaca3d	-0.4273242
218	0xbefd8908	-0.4951861
219	0xbe55b86a	-0.2087113
220	0x3dae0b27	0.08498221
221	0x3ea00cd6	0.31259793
222	0xbe4eb703	-0.20187001
223	0x3f1d70a5	0.61500007
224	0x3e9aa087	0.30200598
225	0x3e45910f	0.19293617
226	0x3f400486	0.750069
227	0x3eb0ca27	0.3452923
228	0xbd02d202	-0.03193856
229	0xbc0908d2	-0.008363919
230	0x3ef0da5d	0.47041598
231	0xbdd52d42	-0.10409023
232	0x3d5277d7	0.05138382
233	0x3eca2339	0.39479998
234	0x3e2d40db	0.16919272
235	0x3e2444bf	0.1604185
236	0x3f08d614	0.5345166
237	0x3dba567b	0.09098526
238	0x3edc4d52	0.4302774
239	0x3eefd17d	0.46839514
240	0x3e88cd50	0.2671914
241	0xbeed72fa	-0.46376783
242	0x3dcbd122	0.09951998
243	0xbe59136d	-0.21198817
244	0xbd964b34	-0.073385626
245	0x3e2bd450	0.1678021
246	0x3ed57650	0.41691828
247	0x3dbf5365	0.09342078
248	0x3ee8187a	0.45331174
249	0xbdd30adf	-0.10304808
250	0x3f12efd6	0.5739721
251	0x3e5154a3	0.20442443
252	0xbecb8bbe	-0.39755052
253	0x3d37b995	0.04485472
254	0x3ec12af6	0.3772809
255	0xbed424ed	-0.41434422

bias f4 [19]
0	0xbae94da5	-0.0017799629
1	0xbd039333	-0.032122802
2	0x3ef6a712	0.4817434
3	0x3f82a354	1.0206094
4	0x3ee59de7	0.44847032
5	0x3eeca73b	0.46221337
6	0x3cf5f547	0.030024184
7	0x3f7c40d5	0.98536426
8	0x3dfec46f	0.124398105
9	0x3e15f452	0.14643982
10	0x3d48f364	0.04906024
11	0xbdbba3df	-0.09162115
12	0x3c8b245e	0.016985115
13	0xbe0799b3	-0.13242225
14	0x3d796b43	0.06089331
15	0x3ec823ac	0.39089715
16	0xbd8a9ef3	-0.067685984
17	0x3ea307a1	0.31841758
18	0x3eca0483	0.39456567
