checkpoints/19_9feature_mlp_num_comm999_an19_sn3_D25_al0.8_E5_B1024_lr0.05_num_clients100_cf0.1.pth (torch, 118239 bytes, 4 tensors)

weight f4 [1000, 9]
0	0xbd35686e	-0.044289045
1	0x3eb7da25	0.3590862
2	0x3e273d6b	0.16332023
3	0xbd4d2103	-0.05008031
4	0xbecb806b	-0.39746413
5	0xbe0250af	-0.12726091
6	0x3e42dbb2	0.1902912
7	0x3e9863a3	0.29763517
8	0xbdafe4a7	-0.08588534
9	0x3ddf6270	0.10907447
10	0x3e399822	0.1812444
11	0xbe8237ef	-0.254333
12	0x3ec95ac3	0.39327058
13	0x3e63e0fb	0.22253792
14	0x3ebf2b37	0.37337658
15	0xbc7afccd	-0.015319061
16	0xbc319737	-0.010839275
17	0x3e73e62d	0.23818274
18	0x3b879c5f	0.004138514
19	0xbe27ada5	-0.16374834
20	0xbd04e3cb	-0.032443803
21	0xbe4f6b53	-0.20255785
22	0x3e904175	0.2817494
23	0xbd9acd8b	-0.075587355
24	0xbe39de90	-0.18151307
25	0xbf0b3c2f	-0.5438871
26	0xbf2b74e5	-0.6697524
27	0x3ce0c06d	0.027435506
28	0xbd92f1b3	-0.07175007
29	0xbd9b6642	-0.075878635
30	0x3dd4ff7d	0.10400293
31	0xbcba4a69	-0.02274056
32	0x3eb46faf	0.35241458
33	0xbe2414d3	-0.16023569
34	0xbd4360fd	-0.047699917
35	0xbe875c8a	-0.2643779
36	0xbe12c6b7	-0.14333616
37	0xbe04b48a	-0.12959495
38	0x3c85c824	0.016330786
39	0x3dd5b29b	0.10434457
40	0x3d0cd3fd	0.034381855
41	0x3ea1224f	0.31471488
42	0x3edbe37a	0.42946988
43	0x3e39f222	0.18158773
44	0x3cb8a665	0.02254028
45	0xbebb9488	-0.36636758
46	0x3d2eef27	0.042708542
47	0x3d000d25	0.031262536
48	0x3e6ddc3f	0.23228548
49	0x3ea5c121	0.32373908
50	0xbea1e3bd	-0.31619063
51	0x3eb9b7d5	0.36273065
52	0xbe1237f4	-0.14279157
53	0x3e0c63b8	0.13709915
54	0x3d27725c	0.040880546
55	0x3e0444c1	0.12916853
56	0xbdd5e9cb	-0.10444983
57	0xbc5f87ab	-0.013643186
58	0x3dff7b2f	0.12474667
59	0x3eb2438f	0.34817168
60	0x3d581533	0.052754592
61	0x3ea08f12	0.31359154
62	0xbc5560df	-0.013023584
63	0xbc886c7c	-0.016653292
64	0x3eb50465	0.35354915
65	0x3eccf4ff	0.40030667
66	0x3e50b1f0	0.20380378
67	0x3dd7d02f	0.10537755
68	0xbde98642	-0.11402561
69	0xbeaa1c7a	-0.3322485
70	0x3df5c21d	0.11999915
71	0x3dbe92d0	0.09305346
72	0xbd71f847	-0.059074666
73	0xbe86ade9	-0.26304558
74	0xbdaef784	-0.085433036
75	0xbe2e8041	-0.17041112
76	0xbd9d6863	-0.07685926
77	0x3c359a76	0.01108419
78	0xbe9ad0e7	-0.30237505
79	0xbe68c1da	-0.22730199
80	0x3eb27719	0.3485649
81	0x3e826aa6	0.2547199
82	0x3eb55dd4	0.35423148
83	0xbea01958	-0.31269336
84	0x3ec5203b	0.38501152
85	0xbdbfdb6f	-0.093680255
86	0xbe8407a3	-0.25787076
87	0xbeaa99af	-0.33320376
88	0x3ca6217e	0.020279642
89	0xbe1665ae	-0.14687225
90	0xbe3dd160	-0.18536901
91	0xbe430cd3	-0.19047861
92	0xbda1a0d0	-0.07892001
93	0xbc89111d	-0.016731793
94	0xbc21eaed	-0.009882671
95	0xbea1c03e	-0.31591982
96	0x3e1292bb	0.14313786
97	0xbea5df1a	-0.32396775
98	0x3ecc23ab	0.39870963
99	0x3dd2aa3d	0.102863766
100	0x3ec41d66	0.3830368
101	0x3e699152	0.22809342
102	0xbe58f095	-0.21185525
103	0x3e692a73	0.227701
104	0xbe0c9bca	-0.13731304
105	0x3d1dfbe2	0.038570292
106	0xbe49f09d	-0.19720693
107	0x3efc70d2	0.49304825
108	0xbc4016d6	-0.0117241945
109	0xbe404f9a	-0.18780366
110	0xbd97f34c	-0.07419452
111	0x3eb2d24e	0.34926075
112	0x3e507527	0.2035719
113	0x3c9f26b0	0.019427627
114	0xbef0c547	-0.4702551
115	0xbf1cd48b	-0.61261815
116	0xbe9bad4d	-0.30405656
117	0xbeabef69	-0.33581093
118	0x3e9569df	0.29182336
119	0xbde6d947	-0.11271911
120	0xbe1db069	-0.15399326
121	0xbea42492	-0.3205915
122	0x3d3285ec	0.04358475
123	0x3dabb0c7	0.08383327
124	0xbd4c5f8d	-0.04989581
125	0xbe286b1f	-0.16447113
126	0x3d737bc7	0.059444215
127	0x3e037baf	0.1284015
128	0x3d8f443b	0.06995436
129	0x3e7fcb7b	0.24979965
130	0xbd92fa08	-0.07176596
131	0x3cf2bb65	0.029630372
132	0xbf0117f4	-0.50427175
133	0x3efd732a	0.49501926
134	0x3ea116db	0.3146275
135	0x3bfcca83	0.007714571
136	0x3d99a8d2	0.07502903
137	0xbdf77d0b	-0.12084397
138	0x3eced16b	0.40394148
139	0xbec3085e	-0.3809232
140	0x3ea8e99b	0.32990727
141	0x3efc0e5d	0.49229708
142	0x3dc01a96	0.09380071
143	0xbf14bac9	-0.5809751
144	0x3dc517c7	0.09623676
145	0xbd8dac4c	-0.06917629
146	0xbd756e00	-0.059919357
147	0xbe8458ec	-0.25849092
148	0xbdf25c92	-0.11834063
149	0xbdfc44bb	-0.12317797
150	0x3f07e3aa	0.5308176
151	0xbeb09b33	-0.34493408
152	0x3f00d2a0	0.5032139
153	0x3bf62c52	0.0075126076
154	0x3cb9556b	0.022623738
155	0x3cae9a9e	0.021313962
156	0xbc84b549	-0.016199725
157	0x3d9ef61b	0.07761785
158	0x3d2f8ac2	0.04285694
159	0x3ef34377	0.4751241
160	0xbeb9dcd8	-0.36301303
161	0xbed2085b	-0.41022
162	0x3cc8d03d	0.024513358
163	0x3df778fd	0.120836236
164	0x3d7817cd	0.060569573
165	0x3e17f61f	0.14839981
166	0x3ad1b950	0.0016000662
167	0xbd683267	-0.056688692
168	0xbf0e404f	-0.5556688
169	0x3f338d64	0.7013762
170	0x3d380be7	0.044933226
171	0x3c75ff28	0.015014447
172	0x3dea8238	0.114506185
173	0x3e2d23a9	0.16908135
174	0xbeff4732	-0.49859005
175	0xbed39ee5	-0.41332164
176	0xbeb68cb8	-0.35654235
177	0x3d6ef5b5	0.058339793
178	0xbe114923	-0.14188056
179	0xbf047f43	-0.51756686
180	0x3d488ba6	0.048961304
181	0xbd2bfa35	-0.041986663
182	0x3cd7d245	0.026345382
183	0x3ca6d3af	0.02036461
184	0x3e768453	0.24073915
185	0xbe79697d	-0.24356647
186	0xbf370577	-0.71492714
187	0x3edd0717	0.43169472
188	0xbeb8558a	-0.3600276
189	0x3c215996	0.009848019
190	0x3dff91bf	0.12478971
191	0x3d5e1c73	0.05422635
192	0x3dabec20	0.08394647
193	0xbef30eb2	-0.4747215
194	0xbeb3e9ea	-0.351394
195	0x3ebab550	0.36466455
196	0xbeb13b58	-0.34615588
197	0xbd08f89a	-0.03344021
198	0xbdcde3a8	-0.100531876
199	0x3e5ccf87	0.2156354
200	0x3e86f7ae	0.2636084
201	0xbd8efadc	-0.069814414
202	0xbd0edcfb	-0.034878712
203	0xbd9ee8b5	-0.07759229
204	0xbe5b77ed	-0.21432467
205	0xbde8fdbf	-0.11376523
206	0x3edb2b9d	0.42806712
207	0xbecd0192	-0.4004026
208	0xbe0b8f0b	-0.13628785
209	0xbe089513	-0.13338117
210	0xbd830336	-0.06397097
211	0xbd6a3fd8	-0.057189792
212	0x3dd1c66d	0.10242925
213	0x3dabb000	0.08383179
214	0xbe6eff25	-0.23339517
215	0x3dfa5448	0.122231066
216	0x3d94f71b	0.07273694
217	0xbd7cb4bd	-0.061695803
218	0xbd453087	-0.048141982
219	0x3eac7c10	0.33688402
220	0x3cadaf9a	0.021201897
221	0xbdf7943d	-0.12088821
222	0x3d867c60	0.065666914
223	0xbea24114	-0.31690276
224	0xbd1869c0	-0.037210226
225	0x3d7e1130	0.06202811
226	0xbd337cef	-0.043820318
227	0xbe22fed6	-0.15917525
228	0xbc03bcb7	-0.008040599
229	0xbec2d6fd	-0.38054648
230	0xbe266d01	-0.16252519
231	0x3ea3416e	0.31885856
232	0x3e6f4f60	0.23370123
233	0xbefc38ff	-0.49262235
234	0x3db69498	0.08915061
235	0x3da1c555	0.07898966
236	0xbdc62825	-0.09675626
237	0x3e802e3c	0.25035274
238	0xbebfd4f2	-0.37467152
239	0xbe9dd66b	-0.3082765
240	0x3e602433	0.21888809
241	0xbebf321a	-0.37342912
242	0xbee82805	-0.45343032
243	0x3dc43315	0.095800556
244	0x3dd0fa9a	0.102040485
245	0xbd98f88d	-0.07469282
246	0xbe274447	-0.1633464
247	0x3da0ea85	0.07857231
248	0x3eb8db5e	0.36104864
249	0xbebe2e25	-0.3714458
250	0x3ddfb095	0.10922352
251	0x3f04285f	0.516241
252	0xbc3f3e55	-0.011672576
253	0xbe9790e0	-0.29602718
254	0xbe6062df	-0.21912716
255	0xbe1c9936	-0.1529282

bias f4 [1000]
0	0x3e8ff11f	0.28113648
1	0xbdab258e	-0.08356772
2	0xbc309a62	-0.010778995
3	0x3eb16b8b	0.3465236
4	0x3e9f6150	0.3112893
5	0x39815389	0.00024667036
6	0xbe43826f	-0.19092725
7	0x3d6e1cfd	0.058133114
8	0x3ed55755	0.41668192
9	0xbeb3cb6f	-0.35116145
10	0xbe628e7d	-0.22124667
11	0xbeaa3b03	-0.33248147
12	0x3eaa632c	0.33278787
13	0x3e86b12c	0.26307046
14	0x3de2efb8	0.11080879
15	0x3ecd138b	0.40053973
16	0xbe311f06	-0.17296991
17	0x3ea573a8	0.323148
18	0xbd9acd1f	-0.07558655
19	0xbeae3c48	-0.34030366
20	0xbf3868af	-0.72034734
21	0xbe9fbe2d	-0.3119978
22	0x3e6634ca	0.22481075
23	0x3eb7fe4b	0.35936198
24	0x3f066a8d	0.52506334
25	0xbe8c5782	-0.27410513
26	0x3ea39842	0.319521
27	0xbebfc443	-0.37454423
28	0x3f0c76ce	0.5486878
29	0xbd9ff04f	-0.07809507
30	0xbe926ff7	-0.28601047
31	0x3d10b9af	0.03533333
32	0x3d99ec41	0.07515765
33	0xbe1c8567	-0.15285264
34	0x3e3a2611	0.18178584
35	0xbdc57dbf	-0.09643125
36	0xbe8a84fd	-0.27054587
37	0x3e658b0d	0.22416325
38	0x3e9e3e56	0.30906934
39	0xbe100326	-0.14063701
40	0xbef346c3	-0.47514924
41	0x3e153ebc	0.14574713
42	0xbe1a8b9f	-0.15092324
43	0xbea527a2	-0.322568
44	0x3e991ef8	0.2990644
45	0x3e1ee6fb	0.155178
46	0xbda7dfc8	-0.0819698
47	0x3ec1d5ca	0.3785842
48	0xbd96d648	-0.0736509
49	0x39c3b56f	0.00037328477
50	0x3e8e5cc7	0.27805158
51	0x3cce48b7	0.025181158
52	0x3e180ba2	0.14848188
53	0x3eac0466	0.33597106
54	0x3c866c4c	0.016409062
55	0x3dbf24c8	0.09333187
56	0x3dd95fa3	0.106139444
57	0x3e87223a	0.263933
58	0xbe358c7f	-0.17729376
59	0x3ed0b56d	0.40763417
60	0x3e6b61b3	0.22986488
61	0xbeb26ad7	-0.34847137
62	0x3e74b7ab	0.23898189
63	0x3e02506a	0.12725988
64	0xbec17281	-0.37782672
65	0x3e05c720	0.13064241
66	0xbbbd4865	-0.0057764524
67	0x3d8638d3	0.06553807
68	0x3ea535c7	0.3226759
69	0xbe19f5e8	-0.15035212
70	0x3ed98f9a	0.42492372
71	0xbe04519b	-0.12921755
72	0xbe2f3196	-0.1710876
73	0x3eda81ef	0.42677256
74	0xbe9e674f	-0.30938193
75	0xbde1d9d3	-0.11027875
76	0xbe702123	-0.2345014
77	0xbcdccc9d	-0.026953036
78	0x3f0300bb	0.5117299
79	0xbf261c79	-0.64887196
80	0x3d9fc0eb	0.07800468
81	0x3ed19337	0.4093263
82	0x3ece6c08	0.40316796
83	0xbecc173f	-0.39861485
84	0x3ed71e13	0.42015132
85	0xbc8be6bd	-0.017077798
86	0xbeb8a628	-0.36064267
87	0x3e94040d	0.2890934
88	0x3e10ebc6	0.1415244
89	0x3ca04c6a	0.019567687
90	0xbd74d727	-0.059775498
91	0x3ee37ae3	0.44429693
92	0xbdd2c3e8	-0.102912724
93	0xbb62419b	-0.0034523967
94	0x3f1718e1	0.5902234
95	0xbebd1112	-0.36927086
96	0xbea9701e	-0.3309335
97	0x3da80f3f	0.08206033
98	0xbe9b5d44	-0.30344594
99	0x3e9942d4	0.29933798
100	0x3dc3de9a	0.09563942
101	0x3dc1a2c6	0.09454875
102	0xbe14f28b	-0.14545648
103	0xbe79ad88	-0.24382603
104	0x3e72d032	0.23712233
105	0xba94d9ab	-0.0011356374
106	0x3e2e6793	0.17031698
107	0x3e636200	0.22205353
108	0xbdcacf14	-0.09902778
109	0x3ec018b0	0.37518835
110	0x3d8c52ba	0.06851716
111	0xbe8220ad	-0.25415555
112	0x3e1464ec	0.14491624
113	0x3f01c99a	0.50698245
114	0x3a09bebb	0.00052545563
115	0x3ec95c64	0.393283
116	0x3de424c0	0.11139822
117	0xbe6d7c8f	-0.23192047
118	0x392898fd	0.00016078721
119	0xbd70295f	-0.058633205
120	0xbe8df941	-0.27729228
121	0x3eabe72d	0.3357481
122	0xbd97cba2	-0.07411887
123	0xbd69ff2d	-0.05712812
124	0x3f10fbc2	0.5663415
125	0xbd0415ad	-0.032247234
126	0xbedb6612	-0.4285131
127	0x3eae8653	0.34086856
128	0x3c955472	0.018228743
129	0xbe8ad2ed	-0.2711405
130	0xbd82348c	-0.06357679
131	0x3ddef962	0.1088741
132	0x3ec09ef8	0.37621284
133	0x3eb5e14f	0.3552346
134	0x3e8dd78f	0.2770352
135	0x3ca20e63	0.01978225
136	0x3c9d8c87	0.019232048
137	0x3e2696fe	0.16268536
138	0x3d633322	0.055468686
139	0x3ef6534a	0.4811042
140	0x3eceecaf	0.4041495
141	0xbea72aff	-0.3264999
142	0x39bdf9bd	0.0003623496
143	0x3e0a9173	0.13532047
144	0xbdb611ae	-0.08890091
145	0x3e8e95b3	0.27848586
146	0x3e8a915a	0.2706402
147	0xbc97ce19	-0.018530892
148	0xbe9a37bb	-0.30120644
149	0xbefaa85b	-0.4895657
150	0x3b62528a	0.003453406
151	0x3f27bf18	0.6552596
152	0x3e0cab01	0.13737108
153	0xbef68ea0	-0.4815569
154	0x3d2c0e9d	0.042006124
155	0x3ccd70d5	0.025078217
156	0xbdc0a991	-0.09407342
157	0x3da08526	0.07837896
158	0x3dd204ba	0.10254808
159	0x3f0af605	0.54281646
160	0xbd7c106b	-0.061539095
161	0x3e4451c3	0.19171815
162	0xbf22b5fd	-0.6355894
163	0xbe429c3c	-0.19004911
164	0x3e9d01fc	0.30665576
165	0xbd9f3e9a	-0.07775612
166	0x3f4cd86d	0.8001774
167	0x3e0ca062	0.13733056
168	0x3e83bc76	0.25729722
169	0x3f187307	0.5955052
170	0x3ea918ec	0.33026826
171	0x3e7c1fd5	0.24621518
172	0x3f1a7a97	0.6034331
173	0x3e8b6b3a	0.27230245
174	0xbe41e64f	-0.18935512
175	0xbde89973	-0.11357393
176	0x3ed7c205	0.42140213
177	0x3f0566dd	0.5211008
178	0x3e722362	0.2364631
179	0xbe5eb45f	-0.21748494
180	0x3f0a2f3b	0.5397832
181	0xbdb256b2	-0.08707942
182	0xbe48d28f	-0.19611572
183	0xbc5ea34d	-0.013588739
184	0xbc5dd6a2	-0.013539942
185	0xbe90d34d	-0.2828621
186	0x3ece97f0	0.40350294
187	0x3ca093db	0.019601753
188	0x3ead88a0	0.338933
189	0x3eb1d99b	0.34736332
190	0xbe32474b	-0.17410009
191	0xbe918b2e	-0.28426498
192	0xbe2f8d81	-0.17143823
193	0x3b352bdb	0.0027644548
194	0xbecb5c92	-0.39719063
195	0x3eb48b21	0.35262397
196	0x3d805067	0.062653355
197	0xbeacf46b	-0.33780226
198	0xbeed6fd0	-0.4637437
199	0xbe3109f2	-0.1728895
200	0xbe852403	-0.26004037
201	0xbea44e0f	-0.32090804
202	0x3cb40c0a	0.021978397
203	0x3981eab5	0.00024779668
204	0x3e72f9c3	0.23728089
205	0xbe6fe330	-0.23426509
206	0x3eb0c5e7	0.34525988
207	0xbe917bc7	-0.28414747
208	0x3e8ae5bc	0.27128398
209	0x3e9521cc	0.29127347
210	0x3e5fe0d3	0.21863107
211	0xbe913943	-0.28364
212	0xbea793d7	-0.3272998
213	0x3d8ffac4	0.070302516
214	0x3e94fb82	0.29098135
215	0x3e481320	0.19538546
216	0xbe6cf9ca	-0.23142162
217	0xbe310d04	-0.17290121
218	0xbe8c5a4f	-0.2741265
219	0x3dd1848f	0.10230362
220	0xbe2c63d0	-0.1683495
221	0xbe88be82	-0.26707846
222	0x3d6985b0	0.05701226
223	0x3d9353f3	0.071937464
224	0x3cc430e0	0.023949087
225	0xbe9fc086	-0.3120157
226	0xbed36c13	-0.41293392
227	0xbed0ca13	-0.4077917
228	0xbe8fb143	-0.28064927
229	0x3ee2b015	0.44274965
230	0x3ed04fdb	0.40685925
231	0xbc4b6f46	-0.012416666
232	0x3dfa1d1b	0.12212583
233	0x3e1bcf2c	0.15215749
234	0xbe86ddc4	-0.2634107
235	0x3e28dd03	0.1649056
236	0xbe720b52	-0.23637131
237	0xbdbed81c	-0.09318563
238	0x3e9fb776	0.31194657
239	0xbe9debf2	-0.30844074
240	0x3e49aa9f	0.19693993
241	0xbf04820e	-0.5176095
242	0x3eb72133	0.35767516
243	0x3d94a713	0.072584294
244	0xbd93c230	-0.07214773
245	0xba9c3bed	-0.0011919715
246	0x3f04f9ab	0.51943463
247	0xbe9cff0e	-0.3066334
248	0x3e92eb33	0.28695068
249	0x3a257baf	0.0006312681
250	0x3d7ae37f	0.061252113
251	0x3e2f36cf	0.17110752
252	0x3e846a93	0.2586256
253	0x3ee128f2	0.4397655
254	0x3ea57ac8	0.32320237
255	0xbd36b910	-0.044610083

weight f4 [19, 1000]
0	0xbdb4f71d	-0.088361956
1	0x3c6c8528	0.014436044
2	0x3e8367b0	0.25665045
3	0x3da6066b	0.08106693
4	0x3cb9f7bf	0.022701142
5	0x3dace435	0.084419645
6	0xbc1bdd7d	-0.009513256
7	0x3e36eb43	0.17863183
8	0x3e31b8e1	0.17355682
9	0xbb06b783	-0.002055616
10	0xbd843ec6	-0.064572856
11	0xbd82a169	-0.06378443
12	0x3e8513ab	0.25991568
13	0x3e1aa72d	0.15102835
14	0x3d32a25e	0.043611877
15	0x3ccffa6b	0.025387963
16	0xbd39f973	-0.04540391
17	0x3e1bf46c	0.15229958
18	0x3d108421	0.035282258
19	0x3deeaf85	0.116545714
20	0x3e6e6852	0.23281983
21	0x3c592d1a	0.013255382
22	0x3deb6a0a	0.11494835
23	0xbde61797	-0.11234968
24	0x3dc01db4	0.093806654
25	0xba2da4cc	-0.0006623983
26	0xbbe3b4d0	-0.0069490448
27	0xbc40c059	-0.011764609
28	0x3b3f2635	0.002916706
29	0x3d111593	0.035420965
30	0x3c43a1a9	0.011940398
31	0xbd5b0ed2	-0.05348093
32	0x3d03e70e	0.032202773
33	0x3d4a1422	0.049335606
34	0xbe50438b	-0.20338266
35	0x3e066524	0.1312452
36	0x3d1aa03d	0.03775047
37	0xbc73ca48	-0.014879771
38	0xbcaf2a9f	-0.021382628
39	0xbdde0962	-0.108416334
40	0x3dae6c92	0.08516802
41	0xbc8dc8d3	-0.017307675
42	0x3db5a75c	0.08869812
43	0xbcf5b343	-0.029992705
44	0x3c8c000f	0.017089872
45	0x3d5236e3	0.051321875
46	0x3c87c303	0.016572481
47	0xbdc90b15	-0.09816567
48	0xbc094a8d	-0.008379591
49	0xbd77075a	-0.060309745
50	0x3dbd6408	0.09247595
51	0xbe087c43	-0.13328652
52	0x3db5c39e	0.08875202
53	0x3d970cfb	0.07375523
54	0x3dcd64a5	0.10028962
55	0x3e22d6c3	0.15902238
56	0xbdc3d507	-0.09562116
57	0x3d78b420	0.060718656
58	0x3e23101c	0.15924114
59	0x3ddb5bff	0.10710906
60	0x3d0461a3	0.032319676
61	0x3da7312f	0.08163678
62	0x3d37f517	0.04491147
63	0xbdbf228d	-0.09332762
64	0x3cda6b00	0.02666235
65	0xbb8e2e9d	-0.004339053
66	0x3cd9a0d0	0.02656594
67	0xbdcdbd73	-0.100459
68	0x3bf9de6f	0.007625393
69	0xbc8f45b3	-0.01748929
70	0x3be5964d	0.0070064426
71	0xbd88a572	-0.06672181
72	0x3d9d1712	0.07670416
73	0x3d241714	0.04006107
74	0x3c410a69	0.011782267
75	0xbc87600e	-0.016525295
76	0xbac2474b	-0.0014822272
77	0x3dd46f8d	0.10372839
78	0x3e01728b	0.12641351
79	0xbd2e5324	-0.042559758
80	0x3d83cff7	0.064361505
81	0x3dbaf1ed	0.09128175
82	0x3e4116ff	0.18856429
83	0x3e39f665	0.18160398
84	0xbbb49a4f	-0.005511559
85	0xbd03b7e3	-0.03215779
86	0xbcf06332	-0.029344175
87	0x3d26cd03	0.04072286
88	0xbdcef8bb	-0.10106035
89	0x3c05f842	0.008176865
90	0x3d743ba7	0.0596272
91	0x3d1a447b	0.037662964
92	0xbd3a44a7	-0.04547563
93	0x3db6505f	0.08902048
94	0xbbe7319b	-0.007055474
95	0x3e8151f7	0.25257847
96	0xbccf1150	-0.02527681
97	0xbc2b4367	-0.010453082
98	0x3e31075a	0.1728796
99	0x3c9a0b83	0.018804317
100	0xbd21792e	-0.039422207
101	0xbcc35786	-0.023845445
102	0x3dd9d4fa	0.10636325
103	0x3e6f90c7	0.23395072
104	0xbd222d84	-0.03959419
105	0xbd16ee73	-0.036848497
106	0x3d9e639a	0.07733841
107	0x3ddc520a	0.10757835
108	0xbe2f68a7	-0.17129765
109	0xbb4290c1	-0.002968833
110	0x3c515627	0.012776888
111	0x3d2aa599	0.041661832
112	0xbc5cb0b5	-0.013469865
113	0x3d1a233b	0.037631255
114	0x3de5baa7	0.11217242
115	0x3d1799c3	0.037011873
116	0x3e4eb335	0.2018555
117	0xbdc08ba9	-0.09401638
118	0xbe0a9dcb	-0.13536756
119	0xbda81cc7	-0.08208614
120	0xbccdf6b8	-0.025142059
121	0xbd30d547	-0.043172147
122	0x3e22006a	0.1582047
123	0x3d09d2e3	0.033648383
124	0x3bd4f2c7	0.006498668
125	0x3e40c1fc	0.18823999
126	0x3d34aa42	0.044107683
127	0xbc3de5d5	-0.011590441
128	0xbb46dfd7	-0.0030345821
129	0x3e1311be	0.14362237
130	0x3de9130d	0.11380587
131	0x3c9202bd	0.017823571
132	0x3d4bca7e	0.04975366
133	0x3c918a0f	0.017766027
134	0x3d9a87fa	0.07545467
135	0xbda4b5ff	-0.080425255
136	0x3de3365d	0.11094353
137	0xbcb26029	-0.021774368
138	0x3c36c489	0.011155256
139	0x3e24b4bf	0.16084574
140	0x3e064f88	0.13116276
141	0x3bfcf633	0.007719779
142	0x3da1348e	0.07871352
143	0x3d6deb43	0.05808569
144	0x3e14b6d2	0.14522865
145	0x3d780d5a	0.060559608
146	0x3d22382e	0.03960436
147	0x3e1d3b4f	0.15354656
148	0x3e5432ed	0.20722552
149	0xbbf192e7	-0.0073722485
150	0xbe38dc60	-0.18052816
151	0x3ddd82d3	0.10815968
152	0xbbd3f2c8	-0.0064681508
153	0x3e345fb2	0.1761463
154	0x3c89b76f	0.0168111
155	0xb9269b4a	-0.00015888843
156	0x3e84eaeb	0.25960478
157	0xbdb7f6f3	-0.08982649
158	0x3dfb879f	0.12281727
159	0x3cdb1e82	0.026747946
160	0xbc90edff	-0.01769161
161	0x3d859641	0.06522799
162	0x3e2a11a7	0.16608296
163	0x3bbd6243	0.005779536
164	0x3e61627b	0.22010224
165	0xbd84c2d3	-0.06482472
166	0x3dc7d30a	0.097570494
167	0xbd4cffc2	-0.050048597
168	0x3d6c1915	0.057641108
169	0xbc9b108d	-0.01892879
170	0x3cc3b289	0.023888843
171	0x3e167f77	0.14697061
172	0x3c94f793	0.018184459
173	0x3d7cbd03	0.061703693
174	0xbe52e348	-0.20594513
175	0xbd03a66f	-0.032141145
176	0x3de72b10	0.112875104
177	0x3d9de78a	0.07710178
178	0x3d065ec2	0.03280521
179	0xbd314e7b	-0.043287735
180	0x3c2bdfc3	0.010490361
181	0x3dacd7e8	0.08439618
182	0x3ce3ea60	0.02782172
183	0x3d6ba06b	0.057526033
184	0x3e1e8d89	0.15483679
185	0x3c27f301	0.010250808
186	0x3d822b8b	0.063559614
187	0x3d339f27	0.04385295
188	0x3c801ab9	0.015637742
189	0x3e2339e5	0.15940054
190	0xbd3b8a2e	-0.045786075
191	0x3e47dc4d	0.19517632
192	0x3d196c5c	0.037456855
193	0x3d80761e	0.06272529
194	0x3cee6925	0.029102871
195	0x3d8cdc9e	0.06878017
196	0x3c7a2968	0.015268661
197	0x3c26956e	0.010167463
198	0x3d93d473	0.07218256
199	0xbb6cba5b	-0.0036121819
200	0x3d94f5cc	0.072734445
201	0xbc57e8bd	-0.013178048
202	0x3c854093	0.016266143
203	0x3e48603b	0.19567959
204	0x3d28c2de	0.041201465
205	0xbc2560a3	-0.010093841
206	0xbcf3e298	-0.029771134
207	0x3e54fa47	0.20798598
208	0x396ce563	0.00022592167
209	0xbe311057	-0.1729139
210	0x3def8e5d	0.116970755
211	0xbd021e18	-0.03176698
212	0x3c8c3b89	0.017118232
213	0x3d60f770	0.054923475
214	0x3d1ef7b7	0.038810458
215	0x3dfd3960	0.12364459
216	0x3de044e7	0.10950642
217	0xbc7b6380	-0.015343547
218	0xbb3fb30b	-0.0029251005
219	0x3dc9ea48	0.09859139
220	0x3d273286	0.040819667
221	0x3e7c05cd	0.24611588
222	0x3d8917ca	0.066939905
223	0xbc9fa622	-0.019488398
224	0xbc02e960	-0.007990211
225	0xbc97fc65	-0.018552968
226	0x3e396b4a	0.18107334
227	0x3e01ea64	0.12687069
228	0x3d3b6b0a	0.045756377
229	0xbe1d3684	-0.15352827
230	0x3d9e7d01	0.07738686
231	0xbba59d31	-0.005054139
232	0xbde2c07d	-0.110718705
233	0x3de0e847	0.109818034
234	0x3cca905f	0.024727045
235	0xbcd5b547	-0.026087416
236	0x3e0ad733	0.13558654
237	0x3e366e61	0.17815544
238	0xbd590782	-0.052985676
239	0x3e1c753c	0.15279096
240	0x3d22db43	0.039759886
241	0x3e3fe512	0.18739727
242	0x3e157f3b	0.14599316
243	0x3aa289cc	0.0012400686
244	0xbbd274f3	-0.006422633
245	0xbdcc3a78	-0.099720895
246	0x3d0f896f	0.035043176
247	0x3d636d0f	0.05552393
248	0x3dd907dd	0.10597203
249	0x3e3c1e7e	0.18371007
250	0x3e1f3891	0.15548922
251	0xbc4fcd6a	-0.012683252
252	0x3d845ddb	0.06463214
253	0x3d8601ab	0.06543287
254	0x3e83ec6c	0.25766313
255	0x3cd04765	0.025424669

bias f4 [19]
0	0x3dc9b043	0.098480724
1	0x3e4435b2	0.19161108
2	0x3cab7764	0.020930953
3	0x3d8b9e3e	0.06817292
4	0x3ea08c5d	0.3135709
5	0x3e6a188a	0.22860923
6	0x3eb03c6d	0.344211
7	0x3f07a0a6	0.52979505
8	0x3f26abf0	0.65106106
9	0xbead4223	-0.3383952
10	0x3ed9deef	0.42552897
11	0xbddcc34b	-0.10779437
12	0x3f0fc7b8	0.5616412
13	0xbebeb61f	-0.37248322
14	0x3e00902c	0.12554997
15	0x3d94d25f	0.072666876
16	0x3d539e1a	0.05166445
17	0x3f025e67	0.50925297
18	0x3e4d882b	0.20071475
