checkpoints/19_9feature_lstm_num_comm1999_an19_sn3_D25_al1_E5_B64_lr0.05_num_clients100_cf0.1.pth (torch, 230039 bytes, 9 tensors)

weight_ih_l0 f4 [400, 9]
00000000: dd9a dcbc 072e 4bbd ab1f 8f3e 6b04 38bd
00000010: 3aa8 5abd b041 653b 36ff 9f3d 66f1 ae3d
00000020: bb9d 80bd 6775 c93e d39e 22be e54f 623c
00000030: fb4a 383d 07b0 b33c 57cb b03d ef73 22bd
00000040: 81df 04bd 8075 883d 86db 133e be68 8abe
00000050: 85ba 033e 8023 7ebd 170a ea3d a3d8 3dbc
00000060: d780 1fbd 7011 7dbd 05eb dabd 87e5 f3bd
00000070: a171 4a3e 8963 8abe dda9 393d 9f3b cdbc
00000080: 633e 163e af90 cabd 1744 373d e3fb 1f3b
00000090: 3342 fd3b 0a39 d1bd 6584 00bd 0f36 7c3d
000000a0: 4aaf 5e3c 7b49 113e 0e5a bd3d 3397 b23d
000000b0: 47a5 e13c 3060 17be 5be8 103d 73ca 8c3d
000000c0: 7d82 0d3e b5b0 ab3c 18b2 53be 3f24 c63e
000000d0: 48f3 e43d 9a2a 093e 8ee2 11be fb5a c2bd
000000e0: 1ee8 ae3e ab09 f63d 5f2c e5bd 1c59 2a3d
000000f0: 7cca 8d3d ed94 ec3d 73f1 b7bc b302 64be
00000100: 20c8 2a3e c350 cf3d 4023 dd3c ce66 c03c
00000110: f6e8 25bd 9bff 1dbd e607 2a3d 1a3f 263d
00000120: 73e1 593c d686 03bf ff78 033d bb79 1dbd
00000130: fa87 fb3b 7663 b83d bd53 d3bd 1ba2 c63b
00000140: 67a5 d73c 81b0 cc3d d7a7 503d 2b3d 633d
00000150: d7f9 183e 8529 abbd 626c 61be b7e4 e4bd
00000160: 81b1 373c 8a74 5ebd 0511 933e 19cf 9dbe
00000170: 10fb 0f3d ea60 70bc 170d 62bc 4b59 b0bd
00000180: 78a8 c7bc 7619 abbd 1b2f ac3d d8e6 1f3e
00000190: 65bc 6fbe 323e 853e 3337 8bbd 8d13 9c3d
000001a0: 7997 023c 2708 79bd 737f 043d 7bcf ab3d
000001b0: 3640 1a3e bb53 9abe 37bf 94bd 6577 b03d
000001c0: 4a58 b93c 73b6 4d3d af39 93bd 43ff 66bd
000001d0: 67a6 93bd 4f19 ba3c 0f02 71bd 5d17 383e
000001e0: 7289 85bd 098f 19be fbb0 da3c 8354 613c
000001f0: a06a 4d3d 00ec 6cbd ea84 003d db27 20bd
00000200: c80b a63d ba2f 8d3d e3b5 cebc 97a2 f73b
00000210: 921c 6cbd 8a2e 5f3d bf5b 463b f260 013e
00000220: 285f d8bd bdeb 653e 6ff5 873d fd0e 93bd
00000230: fd5b f33c 9fb9 1e3d c3e3 623d 3f68 9cbd
00000240: 2d3f 0a3d b3da 473e ecee aa3b 5c15 3fbc
00000250: 1261 20be b0de 6cbd 2b3e 263e deed ae3b
00000260: c1ad 8a3e 4438 043e d261 17be e633 173e
00000270: 5df5 02bd 1845 8d3c 8d31 903b c88d ba3d
00000280: 7330 88bd f8a3 a2bd c275 833d 9b6c b63c
00000290: c7c2 5b3c 5872 0e3e 544e 353b bb87 813d
000002a0: 87f9 c1bd 0656 b33d 8273 50bd b3e9 253e
000002b0: 9f19 44bd 507c f63c 9b0c 39bd c576 06bd
000002c0: 1523 c7bd 62dd 573c 82a4 c4b9 b770 c5bd
000002d0: 0a30 bdbd c3da 1dbe 0f43 1dbd 4163 89ba
000002e0: 2ac0 5cba 936c 23be 27d4 a2bd 37f2 f93d
000002f0: f78e 6f3b ec72 073f b430 193e d297 b9be
00000300: 4d01 71bd f5f9 a0bd f060 64be df8e b63d
00000310: ecd3 15be 681e 13bc c13f 483e 8327 a3bc
00000320: cdf2 8f3d eb87 0b3c 953b bb3d c17c c8bd
00000330: 83d6 fdbd 4327 643d dd5c 843d 0667 4c3d
00000340: 559e f4bd 98cf 1a3e 5775 4ebc c53d 653b
00000350: 5986 3a3d 80d5 a03c e476 03bd 0371 373d
00000360: b968 cc3d daa6 89be b7ec ed3d 6882 ab3d
00000370: 3781 c3b9 2673 28bc 5fe6 c83c 130b 41bc
00000380: 9137 9ebc a57a da3c bcfd 1dbe 7785 d93c
00000390: 7db5 2dbd cb1c 17be 2572 a4bc fb9a 123e
000003a0: a01f 233d a0f3 f9bd ed08 edbc 530a 9abe
000003b0: 1f4f 2abd 11cf 313d c111 443a 9076 2fbd
000003c0: c2ad 7f3c a524 dd3b 5822 f7bd fb35 633e
000003d0: df67 5bbe fff2 fe3a 3f52 96bd a785 ca3c
000003e0: 0322 e73d 166b 83bd 3f0f fcbc 1f5b e53d
000003f0: 5144 803e 9344 f9bd 1e4d 00be 76a3 a63c
-0.026929313 -0.049604442 0.27953848 -0.04492609 -0.05338309 0.003498178 0.078123495 0.08542137
-0.06280085 0.39347383 -0.15880899 0.013812994 0.044993382 0.021934522 0.08632534 -0.039661344
-0.032439712 0.06663036 0.1443921 -0.27033037 0.1286412 -0.062045574 0.11427706 -0.011587295
-0.03894123 -0.061784208 -0.10689358 -0.11909013 0.19769908 -0.27029064 0.04532801 -0.025052844
0.14672236 -0.098908775 0.04474267 0.002441161 0.007728839 -0.102159575 -0.03137626 0.06157499
0.013591597 0.14188187 0.09245692 0.08720245 0.02754463 -0.14782786 0.03537784 0.068745516
0.13819309 0.020958284 -0.20673406 0.3869953 0.11179215 0.13395157 -0.1424658 -0.094900094
0.34161466 0.12013563 -0.11190104 0.041588888 0.069233865 0.11551843 -0.022454 -0.22266655
0.16677904 0.10122826 0.026994348 0.023486521 -0.040505372 -0.038573842 0.04151144 0.040587522
0.01329838 -0.5137762 0.032097813 -0.03844617 0.007676122 0.09003346 -0.10318706 0.006061805
0.026323987 0.09994603 0.050941315 0.055478256 0.14939056 -0.083575286 -0.22014001 -0.111764364
0.011211754 -0.05431036 0.28723922 -0.30822065 0.03515154 -0.014671544 -0.013797066 -0.08610781
-0.024372324 -0.08354466 0.08407422 0.15615404 -0.2341171 0.26024014 -0.06797638 0.076209165
0.007970684 -0.06079879 0.032348108 0.08389183 0.15063557 -0.30142006 -0.07263034 0.08616523
0.022625107 0.050222825 -0.07188737 -0.05639578 -0.07209473 0.022717146 -0.058839854 0.17977662
-0.06520356 -0.1499597 0.026695719 0.013753059 0.050150514 -0.057842255 0.031376757 -0.03910051
0.08107716 0.06893869 -0.025233215 0.007557224 -0.057644434 0.054487742 0.0030267087 0.12634638
-0.105650246 0.22453208 0.066386096 -0.07180593 0.02970695 0.03875124 0.05539299 -0.07637071
0.033751655 0.19517021 0.00521647 -0.011662807 -0.1566203 -0.05782956 0.16234653 0.0053384146
0.2708569 0.12912089 -0.14783409 0.14765891 -0.031972278 0.01724486 0.004400438 0.09109074
-0.06649866 -0.07941431 0.06418945 0.022268584 0.013413138 0.13910806 0.0027665095 0.06324717
-0.09471422 0.08756642 -0.050891407 0.1620243 -0.047875997 0.030088574 -0.045178037 -0.03282811
-0.09723488 0.01317534 -0.000375066 -0.09640639 -0.09237678 -0.15415482 -0.03839403 -0.001048185
-0.00084209687 -0.15959387 -0.07950621 0.12204402 0.003655372 0.5290973 0.14959985 -0.36248642
-0.05883913 -0.078601755 -0.22302604 0.08913969 -0.14631623 -0.008979417 0.1955557 -0.019916302
0.070287324 0.008516292 0.09142224 -0.0978942 -0.123944305 0.055701505 0.06463025 0.04990294
-0.11944262 0.15118253 -0.012601218 0.0034979444 0.04553828 0.019633055 -0.032095805 0.04478551
0.09980912 -0.2688511 0.116174154 0.083744824 -0.0003728957 -0.01028136 0.024523912 -0.011782425
-0.019313606 0.02666981 -0.15428823 0.026552899 -0.04240941 -0.14757077 -0.02007396 0.14316933
0.03982508 -0.12204671 -0.02893492 -0.30086002 -0.041579362 0.043410365 0.0007479452 -0.04283768
0.015605392 0.006748753 -0.120670974 0.2218856 -0.21426342 0.0019451081 -0.07339906 0.024721934
0.11285784 -0.064169094 -0.030768989 0.111990206 0.2505212 -0.121712826 -0.12529418 0.020341616

weight_hh_l0 f4 [400, 100]
00000000: 1072 bd3c 439f 77bd dac2 6fbd 1fe1 39bd
00000010: 375c 793d ba2f 66bc 0db7 aabd abd3 343d
00000020: e395 083d a2f0 723c 88dd 343d e7b3 b63d
00000030: 7d72 30bc 00e1 c2bd d0ae 86bd 0ad5 59bc
00000040: 608b a4bd bbfe 90bd 10e1 57bd 6828 5ebd
00000050: 1798 66bb 40c5 753d 1d1c 853c c2a9 6fbd
00000060: 18dc f13c 706f d2bb 5b57 643d d0a7 363d
00000070: 3457 c83c d45a 26bd 77a6 223d 732a 3e3d
00000080: 4386 c43c 7295 aebc 0e4a 933d 3fe1 ed3d
00000090: 5a2c 93bd 8fb2 46bc 8557 c6bb e71f 20bd
000000a0: f56f 323c 4aa9 07be e7d1 cabb 7a8f 013d
000000b0: bde2 d4bd 0a29 bfbd b723 123c b168 c73d
000000c0: ff81 afbd 9afa 47bd 032e a93d c51c 20bc
000000d0: 5b22 0ebc e14c 00be a00a b9ba 27d5 81bb
000000e0: 18a9 0b3d 5375 773d d251 bd3c 68a5 b6bc
000000f0: f0ec 973d 6ab4 9abc 3274 68bb 9a53 86bd
00000100: 4f7e a13d 0307 4dbc ba5f febd 91ac 17bd
00000110: a526 823d e194 093d 5799 863d 9a6c ee3c
00000120: 63b9 793d 986c cbbd e7c3 033d 9768 8d3d
00000130: b58b c3bd 0771 583d c092 54bd 5701 3a3d
00000140: a3b2 e6bc a50b 52bd 4bbc fb3a 960b 88bd
00000150: 0fca d9bc ceef 433c 9dbd 89bc 4fd7 67bd
00000160: 3e0f 913d 4090 63bd b76e aa3d 86d8 98bd
00000170: 0776 11bd 0524 923d 578e 463c df6b 613d
00000180: 5201 80bd 467b bb3d 7559 4cbb 8587 90bd
00000190: db31 71bc 286e 9b3b 2754 1c3d ea32 2c3d
000001a0: 9045 623c d1ab a8bd 5aab 43bd 60c0 1c3c
000001b0: d7fa c03b 776c 173d 5155 9bbd 5d4e c33d
000001c0: df20 62bc dce6 2cbd 30de 813d 40c4 95bd
000001d0: 954a eabd 4e71 10bd c74f 8abd 4a79 b53c
000001e0: 03fc f13d 9b2d bc3c a276 a03d 4e09 a3bd
000001f0: 6a71 5f3d 1079 07bd 9d14 393d 0fcb 313d
00000200: d951 94bc 0dd5 c43d a72f 1a3c a7e9 87bd
00000210: 6ba0 a13d 5bd9 8e3d 5b60 efbc b8e3 3cbd
00000220: 5844 0cbd 4a53 013d 921a a1bb 3065 19bd
00000230: d888 8f3d 5bdc 423d a4ec 863d 372f 94bd
00000240: 6b93 d83d 2b85 4f3d 5a7a b83d 8287 d63b
00000250: 69cc 403c a646 113d 579c ca3b d520 8e3d
00000260: 87fd b03d 31f4 343d 09c8 b5bd 33ca c2bc
00000270: dbd9 343d 2045 fcbb bddb 52bd bd30 63bd
00000280: d303 07bc 8fb9 82bd 273c 08be 104b 50bd
00000290: 5b0e babb c058 f63d 5a28 a1bd e5fb 4ebd
000002a0: d187 ca3d 6019 83bd 60a1 68bb 228b 8fbd
000002b0: a576 693c 096e 98bd e90b 34bd 3c98 ab3d
000002c0: 755c 873d 1ae1 dbbc e099 16bd a037 44bd
000002d0: 2f05 883c 178e b63d 57e8 b2bc 5d51 70bd
000002e0: 8507 cbbd 2e97 823d 0061 e6bd 7ae8 9d3c
000002f0: 55a6 a0bd 6918 073c 1f69 3b3c 2fea 413d
00000300: b7e2 bbbd efb7 873d 1cd8 ca3c 2eea 0cbd
00000310: 074a e73c c3e7 223d 81a2 c63d 5332 a63d
00000320: eb24 fe3c 0099 60bd e803 a13d f861 24bd
00000330: 936d 003e 9111 25bd 031c 94bd cdc8 ac3d
00000340: 2b91 793d 73e5 403c 33c8 0dbd b719 a43c
00000350: b580 d6bd 404f 0cbd b3c5 cbbd b70e 46bd
00000360: 1a47 e9bc a8f0 1dbd 4206 52bd 30de 4ebd
00000370: a57b ce3d 56e9 89bb 6951 a73c b0d3 433b
00000380: dc1d b03d af88 b9bd c33d 21bc 3da3 86bd
00000390: e851 393b fbaf 673d e61a 31bd bbac 84bd
000003a0: 024f 943d cb33 c2bc 7454 ccbd 4a13 d2bd
000003b0: 28a5 8cbd 9cc4 9bbd e88d 9bbc cfde cfbc
000003c0: ccb1 833c 8bf2 9a3c c70d 91bd caa9 85bc
000003d0: 2d2e f83c 2708 57bd c09f 8d3c ad9c d13c
000003e0: 32ee 6fbd 18d9 0e3d 8d05 00bd 9b97 283d
000003f0: c008 92bc 7e6f 053d 207c e3bc 4d00 9a3d
0.023125678 -0.06045462 -0.058535434 -0.045380708 0.06087896 -0.014049465 -0.083356954 0.044147175
0.033346068 0.014827879 0.04415658 0.089210324 -0.010769484 -0.095155716 -0.065763116 -0.013295421
-0.08034396 -0.07079836 -0.05270487 -0.054237753 -0.0035185867 0.060002565 0.016248757 -0.058511503
0.029523894 -0.006421976 0.05574737 0.044593632 0.024455644 -0.040613964 0.039709534 0.0464272
0.023989802 -0.021311495 0.07191859 0.11615228 -0.07186194 -0.012127533 -0.0060529136 -0.039092924
0.01089095 -0.13248172 -0.006189573 0.03163097 -0.103948094 -0.093339995 0.008919648 0.09736765
-0.08569717 -0.048822977 0.08260729 -0.009772484 -0.008675183 -0.12529327 -0.0014117546 -0.0039621773
0.034096807 0.060414623 0.023110304 -0.022295669 0.07418239 -0.018884856 -0.0035469648 -0.065589145
0.078854196 -0.012513879 -0.12420602 -0.037029807 0.06355027 0.033589248 0.06572216 0.02910452
0.060967814 -0.09932822 0.03216925 0.069047146 -0.095481314 0.052842166 -0.051897764 0.045411434
-0.028161353 -0.051280636 0.0019205896 -0.06642835 -0.026585607 0.011959029 -0.016814047 -0.05660182
0.07082985 -0.05555749 0.083218984 -0.074631736 -0.03551295 0.071357764 0.012118897 0.055034515
-0.06250252 0.09154372 -0.003118125 -0.07057098 -0.014721359 0.0047433563 0.03816619 0.042040743
0.01381053 -0.082358964 -0.047770835 0.00956735 0.0058892774 0.036968675 -0.07584632 0.09536431
-0.013801782 -0.042212352 0.06341207 -0.07312822 -0.11440007 -0.035264306 -0.067534976 0.022152562
0.118156455 0.022970965 0.078351274 -0.07960759 0.05455152 -0.03307444 0.045185674 0.043406542
-0.018105434 0.09610949 0.009410775 -0.066363625 0.078919254 0.06975051 -0.02922075 -0.046115607
-0.034244865 0.03157357 -0.0049164975 -0.037450016 0.07008523 0.04757343 0.06588104 -0.07235568
0.10574993 0.05066411 0.09007712 0.0065469155 0.011767485 0.035467766 0.006183188 0.06939856
0.086421065 0.04417819 -0.08876044 -0.023778057 0.044153076 -0.00769867 -0.05147909 -0.055466402
-0.008240658 -0.06383049 -0.13304196 -0.050852835 -0.005677981 0.120286465 -0.078690246 -0.050533194
0.09889186 -0.06401324 -0.0035496578 -0.07008959 0.0142494785 -0.074428625 -0.04395667 0.08378646
0.06609432 -0.026840735 -0.03676784 -0.04790461 0.016604034 0.0891382 -0.021839304 -0.058671344
-0.099135436 0.063764915 -0.1124897 0.019275893 -0.07844225 0.008245566 0.011438637 0.047342476
-0.09174102 0.066268794 0.024761252 -0.03440302 0.028233541 0.039771806 0.09698964 0.08115067
0.031023463 -0.054833412 0.07862073 -0.040132493 0.12541799 -0.040299956 -0.07231905 0.08436737
0.06092946 0.011773455 -0.034614753 0.020031793 -0.10473768 -0.034255266 -0.099498175 -0.048353877
-0.028476287 -0.038559586 -0.0512755 -0.050504863 0.10082177 -0.004208724 0.020424562 0.0029880814
0.08599445 -0.090592735 -0.009841385 -0.06574104 0.002827758 0.056564312 -0.043238543 -0.06478258
0.07241632 -0.023706337 -0.09977046 -0.10257585 -0.068674386 -0.0760586 -0.018988565 -0.025374798
0.016075991 0.018914482 -0.07082706 -0.016316313 0.030295456 -0.05249801 0.017288089 0.025587404
-0.05857677 0.034875005 -0.031255294 0.041160207 -0.017826438 0.03257703 -0.027769148 0.075195886

bias_ih_l0 f4 [400]
00000000: 2407 a43c 02cb 7a3d cdcf 633d b8bc 07bd
00000010: b846 e33d ed56 983e ecc0 483c 94d3 393e
00000020: 9945 b03d 7f90 aa3c f2dd 8cbc f0f2 e93b
00000030: 8be3 b4bd 7bcf 803d 98ec d93d 5b84 0f3e
00000040: d7b8 8b3d a76b 033e 219d 0c3d 3f19 0e3e
00000050: b681 2dbd 4680 053e fad1 cb3d 4230 a23c
00000060: bcb2 903c 6b86 b8bd 825b f23c bdc5 26bc
00000070: 5de9 713d 6715 163e e8ed 5f3b 4484 903c
00000080: 3c14 1a3d e79c 44bd fbbf dabc 313e 9a3d
00000090: 5f9d 3b3e c33a 9b3d b888 4dbd 3a7b e93d
000000a0: cbda f43c 9abb ad3c b3c0 d73d 8bee e7bc
000000b0: db7d 9e3d c8e1 0a3d b7e5 173e d67a 9ebd
000000c0: 8770 aebb 10e8 3b3e 6ca3 983d d134 033d
000000d0: b2e3 833b bade 103e 8da0 7ebc f7d1 4e3d
000000e0: e897 2b3e 9bd1 0bbd 17b4 4b3d 24b5 913c
000000f0: 723f 323d a9dd 943d 3772 473d 5f2a dfbc
00000100: f5f5 6d3d 6bf6 c03d b483 ab3c 6727 d93c
00000110: 730e 413e 4011 e83d 424f 673d 7394 af3d
00000120: 8da8 6e3d f209 873d d976 913c 1f4e 1bbc
00000130: bfd0 2e3b d276 8abd 72ec b5bd e6bd 0c3c
00000140: d548 d13d cb1f 1f3d b797 a13c 9b9e 32bd
00000150: 201f 9e3d bed6 203e 9bff 853d 1596 cd3d
00000160: b312 353e 79e1 bd3d 75ae f03d 0a00 633d
00000170: 2bbf bf3c a5bc ed3d 5cb1 89bd 57d8 403d
00000180: 0d53 d5bc 5215 d83b 0fe9 b33d 7244 133e
00000190: fc0e a73d 47a2 9b3d eb1e 2c3d f975 1f3e
000001a0: 2c5e 2c3e 5392 573e a7d1 623d 573d fa3d
000001b0: c5f8 d13d ed44 d33c 82a1 a13d b752 b13d
000001c0: 2bf6 6bbd ca76 8f3c 9a34 86bc 98a0 db3c
000001d0: 8fc7 333e d137 c73d df94 213e 89a4 833d
000001e0: 5538 ba3d 531f cd3d 9dd4 303d e1b1 0c3e
000001f0: 96a4 9d3c 4141 0b3d 2a4c 053e d77f 303d
00000200: 421a 953c b776 bd3d f8fc c13c d81e 853d
00000210: f92e 023d 6af5 62bc 2951 c03c 2ed1 a03c
00000220: 3457 453d f669 483d 4a25 5cbc 8317 c53d
00000230: 803d d03d da22 283a f43a 003e 005e 8a3d
00000240: 1dec 063e 0793 f3bc 57f2 0e3e 6505 e63d
00000250: ac7e 1a3e 04c6 413e 3b12 2f3e 3f70 673e
00000260: f713 9c3d 6654 b73c f46b 943d c70b 063e
00000270: 525e d13d b8e3 a8bd 2114 b53b 5794 4d3d
00000280: d729 de3d 1255 e83d ae01 043d ad8a d43b
00000290: 9b2a 953c 6b2f 3a3e 2bda 2f3b 6729 dd3b
000002a0: 7778 443e 926b ea3d 71f6 93bb a70d 7b3c
000002b0: 29e0 26bd 5c03 c33c 135f 323e 3fc3 cf3b
000002c0: e0b4 223d 2224 9c3d d817 fcbc ae2a 1c3e
000002d0: ab78 c73d 7b38 f83d 90bf b1bd d8ca 833d
000002e0: fdb2 1f3d 582d acbc ad34 c33d 3a11 1e3d
000002f0: 774b 493d 886f 783d 485f 923d cfd2 0dbd
00000300: 8b71 873d 42ee cf3d b52b b43d 93fe 4fbd
00000310: dd59 673c d79a 803c b410 363c e116 403e
00000320: 45dc c73d 50a0 4fbd 5713 6ebd b0ba 393e
00000330: 1069 5a3e ea74 fabe d026 eabc 279c 003e
00000340: f75e 28be cfe7 553d 32de d73e 9240 dd3e
00000350: 231e 9e3d 690a 88bd 9f83 7b3e 6041 db3d
00000360: 6ede 35be 4b71 c6bd b3c9 993d 2ff7 a63e
00000370: 1da5 0e3e ffc4 06be c3ba 4dbe eb8a eebd
00000380: 1d0a 643d 8e4d 3b3e 953a 613e 2193 88bc
00000390: 3d40 21bd f7ac 4dbe 2793 88bd 6f2f d83e
000003a0: 983f 283c db16 b23c 608e e93d 5b18 b73e
000003b0: 4f60 26be 2eec c8be 73d1 8b3e 684e 05be
000003c0: 1f06 2fbe c01e 55be cb6e 943e f871 50bd
000003d0: d259 febc c85d d03c 6fcf 193e a23d 0abe
000003e0: bd81 25be 7f59 af3d f7b2 7abd e2fc e63c
000003f0: 37ea 323e 0ab6 7f3a 8643 2cbc 3136 433e
0.020022936 0.06122876 0.055618096 -0.03313896 0.11097473 0.2975382 0.012253027 0.18147117
0.08607025 0.020820854 -0.017195676 0.007139556 -0.08832463 0.06289574 0.1064083 0.14015333
0.06822365 0.12834035 0.034329537 0.13876818 -0.04236003 0.13037214 0.09952159 0.019798402
0.017663352 -0.09010013 0.02958465 -0.01017898 0.059060443 0.14656602 0.0034168903 0.017641194
0.037616953 -0.048001196 -0.026702872 0.07531393 0.18321751 0.07579567 -0.050179213 0.11400457
0.029889485 0.02120762 0.10534801 -0.028311988 0.07738849 0.033906728 0.14833723 -0.07738273
-0.005323473 0.18350244 0.07453045 0.03203279 0.004024946 0.14147463 -0.015541208 0.050493207
0.16757166 -0.034135442 0.049732294 0.01778657 0.043517537 0.07268841 0.04869291 -0.027241884
0.05809589 0.094220005 0.020936824 0.026508046 0.18853168 0.11331415 0.05647207 0.08573236
0.05826621 0.06593694 0.017756866 -0.009479075 0.0026674715 -0.067609444 -0.08882989 0.008590197
0.1021897 0.03884868 0.019725664 -0.04360829 0.077207804 0.15706918 0.065428935 0.100383915
0.17682914 0.09271521 0.11752025 0.05541996 0.023406586 0.11608247 -0.06723282 0.047081318
-0.026040578 0.0065943385 0.08784687 0.14381579 0.08157155 0.07599311 0.042021673 0.15572347
0.16832799 0.21051912 0.05537572 0.12218731 0.10252527 0.025789702 0.07892133 0.08658355
-0.05760781 0.017512698 -0.016382504 0.026809976 0.17556594 0.09727443 0.15779446 0.06427867
0.09092776 0.1001574 0.043171514 0.1373973 0.01924352 0.033997778 0.13017336 0.043090668
0.018200997 0.09251159 0.023680195 0.065000236 0.031783078 -0.013852457 0.0234762 0.019630995
0.048178867 0.048929177 -0.013436625 0.09623625 0.1016798 0.00064138847 0.12522489 0.0675621
0.13176008 -0.029733194 0.13959633 0.11231498 0.15087384 0.18923193 0.17096798 0.22601412
0.076209955 0.022379111 0.07247153 0.1309043 0.10223068 -0.08246559 0.005526081 0.050190296
0.10847824 0.11344351 0.032228164 0.006486258 0.018208792 0.18182151 0.002683292 0.0067493203
0.19186579 0.11446299 -0.004515462 0.015323079 -0.04074112 0.023805313 0.1741908 0.006340414
0.039723277 0.07624079 -0.030773088 0.15250656 0.097398125 0.12120148 -0.08679116 0.06435174
0.038989056 -0.021017715 0.095315315 0.038590647 0.049144235 0.06065324 0.0714708 -0.03462487
0.066134535 0.10152866 0.08797399 -0.05077989 0.014120546 0.015698833 0.011112381 0.18758728
0.0975881 -0.050689995 -0.058123913 0.18137622 0.2132914 -0.48917323 -0.02858296 0.12559567
-0.16442476 0.052223023 0.4216171 0.43213326 0.07720592 -0.066426106 0.24561928 0.10705829
-0.17760631 -0.09689578 0.07509174 0.3261046 0.13930173 -0.13161086 -0.20090775 -0.1164759
0.055673707 0.18291304 0.21995004 -0.016671719 -0.039367903 -0.20085512 -0.06668692 0.4222369
0.010269068 0.021739414 0.11404109 0.3576077 -0.16247676 -0.3924269 0.27308235 -0.13018191
-0.17092179 -0.20812511 0.28990778 -0.05088994 -0.031048689 0.025435343 0.15020536 -0.13500074
-0.16162772 0.08561992 -0.06120583 0.028196756 0.17472158 0.0009754604 -0.010514146 0.19063641

bias_hh_l0 f4 [400]
00000000: efd7 9a3d fd52 ee3d 907b f03d e49b babd
00000010: 281d 9b3d 37d6 ad3e 4ad4 a23d e053 d63d
00000020: d38f 5b3d ab4d 203e 1c4f 0f3e 7abf f43d
00000030: 4ea7 c13d e8b4 f23d 37ba a93d 9f72 733d
00000040: 2580 8cbc b313 d63d 671c 53bb 98a5 fa3d
00000050: 48a9 45bd 06e6 093e 9bfb 653e a790 3c3e
00000060: fb52 3f3d 0de0 79bd 2d24 1a3d a214 4e3d
00000070: e6be 8a3d e325 8e3c bdc7 f73d 68a2 363d
00000080: 52fd dcbc 4002 d53d a30c 033e 104c 2e3e
00000090: 2b32 b23c daf3 693d 53e8 f53d 545c 383e
000000a0: 4517 5d3d e32c 0fbb 55ae 5c3e 138f ed3d
000000b0: adb6 eb3d 9232 e5bc 4d43 34bb 9083 f3bc
000000c0: 3f89 f83d 1147 a73d 73c1 003e 4173 423e
000000d0: c0f8 7fbc d75a 863d 1f19 133e b4b7 10bd
000000e0: f6de 973d 7d08 5ebc 0f01 49bd 0ad8 8b3d
000000f0: 5376 933c 6759 0f3e 8233 a33d 63b7 fb3d
00000100: cf18 de3d 9d04 403e 9208 663d e593 00bd
00000110: 9d46 563e b899 c23d 5fbc e73d af56 7d3c
00000120: 6ba6 8bbd 301c 753d 3d8e 7cbb af3c 8fbd
00000130: 3a5f f73d 13f7 033c 4a04 bd3d c41e 4a3d
00000140: b2da 253e 2358 71bd 15c8 0a3d 00ca 253d
00000150: 0f8e 713d 6376 10bd e2d9 ae3d 9341 cc3c
00000160: 04e9 013e a046 053e 3308 803e a407 103d
00000170: b4cb b5bc 003b f73d f50f 36bd 8f04 29bd
00000180: ef91 d23d 7d74 e43c 7098 6cbd f0cc ef3d
00000190: 6bd3 8b3d 9f74 bc3d a1d5 9dbc 4b85 543e
000001a0: 4cbe 333e 3d16 453e 6ad9 313d b7f7 6c3d
000001b0: 009a d2ba 1839 123e a484 bebc 482b c83c
000001c0: 6a5e 4a3d 3031 ff3d 2a4e 4d3d a071 cf3d
000001d0: 6f4d 413c 11d7 383e ecb0 393e bb0e 113e
000001e0: 23c4 473e dc02 2d3e affe d63d 45ff 5a3e
000001f0: 8aad ec3d d6a4 89bd f27e 133d d3d7 4d3c
00000200: 8d3f a93d e80a 453e 62f3 ac3d 9076 38bd
00000210: b3cf a33d 3510 3b3c cfab 19bc 0239 223e
00000220: c820 dc3d f58e 723d 1bec e83d a878 8a3d
00000230: 10b7 073e 7929 023e 1f62 ea3d c306 fdbc
00000240: e3a3 903d 0a14 fc3d 4385 c63d 8561 fc3d
00000250: f796 793d ed6e 503e 5f20 493d e72d 2c3e
00000260: 20db 5e3d 6c88 19bb a8f2 053a d551 d63d
00000270: fb53 c43d 3f56 54bd e449 3a3d 5bc5 163d
00000280: 89cc 963c 931a 47bc b738 46bd 0201 7bbd
00000290: 5395 0a3d db3c 843d 5ecf 3cbd a344 01bd
000002a0: 8f6a 213e 8406 80bb a5ba 303d 1fa9 8d3d
000002b0: 5368 b7bc 3737 3a3e 351d 4d3e 9d9f 7dbc
000002c0: c04b fb3d 0d03 753c a7ac 0e3e 6e1f 3f3e
000002d0: d7d5 1f3e 1f55 153e 94b1 863d de56 03bd
000002e0: 5d5c 343d f014 e1bc 0d8b bc3d 504f 6a3d
000002f0: 217c c73d 0522 153e 8b45 5e3e 43e4 16bc
00000300: 655a f13c bb8b bc3d e116 0dbd cd77 543d
00000310: c966 39bd 5d0e 5a3d 30aa 143e d0f2 e03d
00000320: b54c c03d c7c6 a3bd b790 9bbd d3aa 033e
00000330: a0cd 393e 676d 01bf 6b18 363b a527 e73d
00000340: 05f2 c6bd a950 293c 671c f43e 3915 8b3e
00000350: abd1 d9bd c7b1 c4bd 8209 fc3d 724e b73d
00000360: 5398 d6bd 345c ac3d 37e3 293e 9d5c 9d3e
00000370: 6f09 b43d 086d d5bd 2b3d 38be cb67 5bbe
00000380: 60ef 07bd 1f91 093e fb30 103e e0fa b43d
00000390: a412 4bbd 453a 9ebe 8745 8fbd e789 b63e
000003a0: 1fae 89bd eb71 33bd fda0 103d 2b89 ad3e
000003b0: 6f6e 15be 4778 b3be a8fc 553e b090 64be
000003c0: ff45 30be 9217 25be 208e 253e 98f5 69bd
000003d0: eb4b 113e 1abf 66bc e8cd 393e 43e5 59bd
000003e0: 7b37 2fbe 0f01 be3d 17cf 3ebe f856 fd3c
000003f0: 6318 153d b52b 7cbd 086c d8bc ca70 563e
0.07560717 0.116369225 0.11742318 -0.09111765 0.075739205 0.33952495 0.07950647 0.10465217
0.05360396 0.15654628 0.13995022 0.11950584 0.09455739 0.118509114 0.08287471 0.059435483
-0.017150948 0.10452976 -0.0032212974 0.12238616 -0.048257142 0.13466653 0.22459261 0.18414555
0.046709996 -0.061004687 0.037632156 0.050312646 0.06774692 0.01735205 0.12098644 0.044588476
-0.026976261 0.1040082 0.1279779 0.17021203 0.021752438 0.05711732 0.12007203 0.1800397
0.05397727 -0.0021846823 0.21550877 0.11599555 0.11509452 -0.027978215 -0.0027505935 -0.02972582
0.121355526 0.08167852 0.12573795 0.18989278 -0.015623271 0.06560295 0.14365052 -0.035331443
0.07415573 -0.013551828 -0.049073275 0.068283156 0.018000757 0.13998948 0.07968809 0.122908376
0.108445756 0.1875176 0.056160517 -0.031391043 0.20925374 0.09501976 0.11315226 0.0154625615
-0.06818851 0.059841335 -0.003853693 -0.06993996 0.1207871 0.008054513 0.09229334 0.049345747
0.16196707 -0.058921944 0.03388222 0.040475845 0.05897337 -0.035269152 0.085376516 0.024933612
0.12686545 0.13015223 0.25006256 0.035163537 -0.02219186 0.120718 -0.04444881 -0.041264113
0.10281741 0.027887577 -0.057762563 0.117090106 0.06827434 0.09201931 -0.019266905 0.20753972
0.17553061 0.19246764 0.043420233 0.057853427 -0.0016067624 0.14279592 -0.023256607 0.0244347
0.049406447 0.12460554 0.05012337 0.10129094 0.011798247 0.18050791 0.18133897 0.14165775
0.19508414 0.16895622 0.10497796 0.2138644 0.115565374 -0.06720893 0.036009736 0.012563664
0.082640745 0.19242442 0.08444859 -0.045034945 0.079986 0.011417438 -0.009379341 0.15842059
0.1074844 0.059218366 0.113731585 0.067612946 0.13253427 0.12711133 0.11444496 -0.030887013
0.07062509 0.1230851 0.096933864 0.12323288 0.060934987 0.20354815 0.049103137 0.16814385
0.054408193 -0.002342726 0.0005109706 0.10464827 0.095863305 -0.051840063 0.045480624 0.036809307
0.018408077 -0.012152332 -0.04839393 -0.061280258 0.033833813 0.0645692 -0.0460962 -0.031559598
0.15763305 -0.0039070267 0.043146748 0.06917023 -0.022388613 0.18185125 0.20030673 -0.015479949
0.122703075 0.014954341 0.13933049 0.18664333 0.15608917 0.14583252 0.06576839 -0.032065265
0.044033397 -0.027475804 0.09206209 0.057204545 0.097404726 0.14563759 0.21706216 -0.009209695
0.029462049 0.09206339 -0.034445647 0.051872063 -0.04526404 0.053236354 0.14518046 0.10983813
0.09389631 -0.07996898 -0.075959615 0.12858133 0.18144846 -0.5055756 0.002778555 0.112868585
-0.0971413 0.010334172 0.4767792 0.2716463 -0.10635694 -0.09604221 0.12306501 0.08950509
-0.10478272 0.08416024 0.16590582 0.3073472 0.08790862 -0.10421187 -0.17992084 -0.21426313
-0.03318727 0.13434266 0.14081185 0.08836913 -0.049578324 -0.3090383 -0.06995683 0.35652086
-0.06722664 -0.043809813 0.03530978 0.33893713 -0.14592908 -0.35052702 0.20897162 -0.22320819
-0.17214201 -0.16122273 0.16167498 -0.057118982 0.14189117 -0.014083648 0.18144953 -0.053197157
-0.17111008 0.09277546 -0.18633686 0.030925259 0.03640021 -0.06156512 -0.0264187 0.20941463

weight f4 [100, 100]
00000000: 0bf0 75bb 35bc 573d 0877 283c 62a7 eabd
00000010: 6160 cabc 1493 9cbd e8ee bd3c 72b4 13b9
00000020: 03c1 953d 3746 773d 5ce5 b73c afeb 74bd
00000030: 216a bb3c 779e 7d3c ef8d ca3d b3ea e4bc
00000040: d2d9 213d 6d5d 063d 6468 09bd d21f 6e3d
00000050: ee85 2abe 5a54 4f3d e797 af3d 6869 e03c
00000060: db26 4dbd f3c8 4b3c 9e8a c6bd cd6f 073d
00000070: d999 c83d 559d 10bd 35c9 adbd fb1b b63d
00000080: 6909 00bd 67e9 81bd cdd7 b9bd 085c 663d
00000090: 335d 97bd d64b 173d 7782 12bd 88a9 ce3d
000000a0: d592 64bc 1866 763c 4f26 713d 490c c13d
000000b0: 46ea a3bc 6c01 ad3d ca6c d3bd df01 de3d
000000c0: 3351 89bd 325d 03be f353 ebbd 5055 023c
000000d0: 9f44 c5bd 3114 8cbd 638a 80bd 8d34 f83b
000000e0: 0f32 3ebd a319 4cbd a902 cbbd 7760 82bd
000000f0: 1a23 8bbd b39c 15bd a7fc 533c 2f9e a1bd
00000100: dae4 8d3d c2d1 e7bd 63fa 8bbb 9ba8 c6bd
00000110: f5e2 093e 074f fa3d aadd 8a3d 0559 debd
00000120: 7f25 883d bac4 abbd 6f86 a03d efa0 ba3d
00000130: f969 2cbd 523a e93d b2b7 37bd 251b c9bd
00000140: bb65 7f3d b034 693d 0f39 a3bd 922d a8bd
00000150: d602 c0bd d2c3 d2bc 1eea a9bd 24b9 0dbd
00000160: 9562 f2bd c0e0 cdbd 07a0 58bb 1e38 aa3d
00000170: 3310 07bd 9fe5 b1bd f474 383d a30e fb3c
00000180: d376 1d3d 70cc 8fbd 14dd b4bc a436 8bbc
00000190: 4809 18bd 7a15 77bd 3ab3 1cbc 552e 2dbe
000001a0: b0a3 6e3d cb9b 893d 0a0d d7bb fd2f 21bd
000001b0: 7d69 893d 8d87 92bd dd3a 963c a5b7 9b3c
000001c0: daa9 6cbd d8bd 403d e7e3 ceb8 fb28 823d
000001d0: 45f0 e63c 0e48 0dbd 8f73 58bd 808d 083e
000001e0: f719 04be 6a03 a0bd 3242 b03d c2a1 df3c
000001f0: c924 b2bb 5e29 493d 351e 303d c5d9 213d
00000200: 6926 01bc d005 fabb 60e0 583d 4919 cc3d
00000210: ac3a 833d 249f a7bd a275 ed3d 60be 573d
00000220: 90c4 96bd 2a81 d1bd e470 18bd 38ed 243c
00000230: f96a 2abd 3f5c 99bd 67e2 9b3c f084 9e3d
00000240: 3830 bd3d 1fbf dc3b ab2a 94bd 2ba5 803d
00000250: db1f c63d 6bb5 be3b 13e8 2f3d 8517 f03d
00000260: d540 afbd 8e74 c73d 0f29 90bd 9a7c 2ebc
00000270: b214 24bc 028d 68bd 777e 5abd f5f6 91bd
00000280: dd5d e43c 136d eb3d 10d7 f93d 736e dbbd
00000290: 9fb6 92bc 4bca 08be 4a5d 70bd 7f22 b9bc
000002a0: 63b9 d63c ed94 ce3d c2b1 7a3d f1da b43b
000002b0: 1074 aebc 0d68 7f3d 6975 2d3d 7692 b1bb
000002c0: 4d16 a8bd 61a7 8bbd 862c b0bc b2c2 d6bd
000002d0: 5554 a73d c886 89bd 233f 1bbd 8760 413d
000002e0: 650d f93b eb4b 72bd c4b5 29bc fb63 94bd
000002f0: 0dd9 99bd fd1e d6bc 7db5 fabd 68d0 393d
00000300: 68e7 0b3d a3e3 e9bd 507e e93b 77ab 78bd
00000310: 2b3e 4c3d abde 57bd 6d1c 60bb c3ad 1fbd
00000320: a408 06bd 11ac 8b3d a38b 363d dc7d 0c3e
00000330: 6a57 bcbd 2444 96bd 9877 a13d ae65 913d
00000340: f34c 893d 7b26 813d 2dc2 37bd 583d a1bc
00000350: 38fa c0ba fe03 4b3d 1f24 2a3b d805 24bd
00000360: 98c8 a3bd 307f 733d 0f03 45bc d5e0 e9bc
00000370: ec95 b1ba 4fb9 64bc c881 bbbd b729 bfbd
00000380: d372 b2bc ca3a 943d bdb7 acbd 3ab0 a03b
00000390: 7225 f3bb 0fe2 463d 68ab a23c 9fa9 edbd
000003a0: 17f4 65bd 002e 7f3d c8ad 23bd fa4b 233d
000003b0: d0e7 efbb 5093 653d 373a ac3c d37a ec3c
000003c0: 2254 963c 7b86 d03d 4682 38bc aa5d f4bd
000003d0: 85ce e63c 2229 173d 5d90 593d 0d17 59bd
000003e0: 8a22 91bd fffa 33bd 8f5c c23c 3e2a 943c
000003f0: 62fa 843d ba4f 21bc 82c4 4ebd bd63 3b3c
-0.003752711 0.052669723 0.0102822855 -0.11457707 -0.02470416 -0.076452404 0.023185208 -0.00014086234
0.07312205 0.060369696 0.022448234 -0.059795078 0.022877755 0.0154796755 0.09890353 -0.027943945
0.03951437 0.03280394 -0.03354682 0.058135815 -0.16652653 0.050617553 0.08573895 0.027394012
-0.050085884 0.012438047 -0.09694408 0.033065606 0.09794969 -0.035306294 -0.08485643 0.088920556
-0.031258974 -0.06343346 -0.09074364 0.05624011 -0.07390823 0.036937557 -0.035768952 0.10090929
-0.013951023 0.0150389895 0.058874425 0.09426171 -0.020009171 0.08447537 -0.10323484 0.10840201
-0.06704941 -0.1282852 -0.114906214 0.00795491 -0.09632229 -0.06839789 -0.06276395 0.007574624
-0.04643446 -0.049829137 -0.09912617 -0.063660555 -0.067938045 -0.036526393 0.012938655 -0.07891499
0.069284156 -0.11319305 -0.004271792 -0.09700128 0.13465483 0.122221045 0.0678056 -0.10856823
0.06647777 -0.08387132 0.07838141 0.09112727 -0.04209325 0.11388077 -0.04485292 -0.098196305
0.062352877 0.056935012 -0.079698674 -0.08211817 -0.09375541 -0.02572814 -0.082966074 -0.034600392
-0.11835209 -0.10052633 -0.0033054368 0.08311485 -0.032974433 -0.08686375 0.04503341 0.030646628
0.038443398 -0.07021415 -0.022078075 -0.016993828 -0.037118226 -0.060323216 -0.009564215 -0.16912206
0.058261573 0.06719168 -0.0065628337 -0.039352406 0.067095734 -0.071547605 0.018338615 0.019008467
-0.05777917 0.04705605 -9.8652956e-05 0.06355473 0.028190741 -0.034492545 -0.05284458 0.13335228
-0.1290053 -0.07813151 0.08606376 0.027298812 -0.005436514 0.049111716 0.042997558 0.03951432
-0.007882693 -0.0076300874 0.052948356 0.0996576 0.06407675 -0.081846505 0.11594702 0.05267179
-0.0736171 -0.10229714 -0.037217036 0.010066323 -0.041605923 -0.07488298 0.019028855 0.077401996
0.092377126 0.0067366506 -0.07234701 0.06281503 0.09674045 0.0058199666 0.042945933 0.11723236
-0.085572876 0.09739028 -0.07039081 -0.0106498245 -0.0100147 -0.0567751 -0.053343263 -0.071271814
0.027876789 0.11495414 0.12199223 -0.10714426 -0.017909346 -0.13358419 -0.058682717 -0.022599457
0.026211446 0.10086999 0.06120468 0.005519264 -0.021295577 0.06235509 0.0423483 -0.005419071
-0.082073785 -0.06819034 -0.021505605 -0.10486354 0.08170382 -0.067151606 -0.03790201 0.047211196
0.0076004737 -0.059154432 -0.010358278 -0.07245632 -0.07512102 -0.026137823 -0.122416474 0.045364767
0.034156233 -0.114203714 0.0071256533 -0.060710397 0.049863975 -0.052702587 -0.003419663 -0.03898407
-0.032723084 0.068199284 0.04456676 0.13719887 -0.091963604 -0.073372155 0.07884139 0.07099472
0.0670413 0.06306168 -0.044862915 -0.019682571 -0.0014723008 0.049564354 0.0025961471 -0.040044636
-0.079972446 0.059447467 -0.012024655 -0.028549591 -0.0013548709 -0.013960197 -0.09155613 -0.09334128
-0.021783268 0.072377756 -0.08433483 0.0049038203 -0.0074202353 0.04855543 0.019857123 -0.11604618
-0.056140985 0.06229973 -0.039960653 0.03986738 -0.0073213354 0.05604869 0.021023853 0.02886716
0.018350665 0.101819 -0.011261528 -0.119319275 0.028174648 0.03690446 0.05311619 -0.0530005
-0.07086666 -0.04394054 0.023725776 0.018086549 0.06493069 -0.009845668 -0.050480373 0.011437354

bias f4 [100]
00000000: 3acf 053e e82f b63d b3f0 d13c 2862 383e
00000010: 1f91 243d 8b7c 833c c385 9a3d 2843 14bd
00000020: fb99 d33d 7484 8b3d db0d 3bbe 4cec 30bd
00000030: a76c 883d 73c6 6d3c 7054 063e 05a5 cabd
00000040: 3a1b a23a 6cf9 02bc ae84 8b3d 6b09 04be
00000050: 3d1c bb3c cf60 8a3d 7d02 9dbc 4f57 c93d
00000060: 1188 c2bc 35ad 0e3d 02a1 55bd 289c 043e
00000070: b262 bdbd 2514 31bd 2905 2dbd 35af 143d
00000080: fb51 1abd c5e9 36bc a2df 243b 9bfc 45bb
00000090: 23fb a23d 13c8 1bbd 5a7d 45bc 03db a4bd
000000a0: fffe 603d 8b34 923d 84f1 0fbe d064 98bd
000000b0: 610c 903c 6232 d6bd e057 5d3e eadd d23c
000000c0: adfc 873d e71a 04be 27eb 1a3e 1537 ec3d
000000d0: efe9 423e 5386 bfbd 6770 7f3d 4763 26bc
000000e0: 0342 c7bd 0218 41bd 8980 34be d95f 0d3e
000000f0: 5acb edbc 7366 183d 6323 183b d3b4 f83d
00000100: 2aa7 2bbd d3c8 e63c 1d3a 40be dd6d 4aba
00000110: 2d47 efbd 6ebc 09be 7b7f 5f3d b57e f6bc
00000120: f4db 143e f040 f53b 5c87 2ebd 98f6 fcbd
00000130: 52da 7abd 8f97 2f3d 9f8e d73c 6adf f93c
00000140: d574 a93d f0e5 203b 269f 8dbc af31 0ebd
00000150: f585 1dbd 1f0e 9e3d 371a b43d 53b5 3dbd
00000160: b31d c73d c708 6e3e 566d 0d3e 5e40 123d
00000170: 6e20 963d 0fa3 00be afaf 05be 43ca 9cb9
00000180: eaad 84bd 9047 0abd 8038 cc3c ca5b a4bd
0.13067332 0.08895856 0.02562747 0.18006194 0.04017746 0.016050598 0.07545044 -0.036196858
0.10332104 0.06812373 -0.18267004 -0.0431941 0.06661349 0.014512646 0.13118148 -0.09894756
0.0012367733 -0.007994037 0.06812416 -0.12894218 0.022840613 0.06756746 -0.019166226 0.09831106
-0.023746522 0.03483315 -0.052155502 0.12950194 -0.0924734 -0.043232102 -0.04224125 0.036299903
-0.03767584 -0.011164133 0.002515771 -0.003021038 0.07958057 -0.038032603 -0.012053812 -0.08049586
0.054930683 0.07138928 -0.14056975 -0.074411035 0.017584028 -0.104588285 0.21615553 0.025740582
0.06639991 -0.12900887 0.15128766 0.115339436 0.19034551 -0.09351792 0.062363055 -0.0101555055
-0.097293876 -0.047142036 -0.17627157 0.13806094 -0.02902763 0.03720708 0.0023214452 0.121438645
-0.041907467 0.028171932 -0.18772168 -0.00077220594 -0.116834976 -0.13450786 0.054564934 -0.030089715
0.1453703 0.007484548 -0.042609558 -0.123517215 -0.061243363 0.042869147 0.026313124 0.03050204
0.08274237 0.0024551116 -0.017287802 -0.03471535 -0.03845783 0.07717537 0.087940626 -0.046315502
0.097224616 0.23245536 0.1381124 0.035705917 0.07330404 -0.12562202 -0.13055299 -0.00029905335
-0.06478484 -0.033759654 0.024929285 -0.0802532

weight f4 [1, 100]
00000000: 623d eebe 2dfb d5be 059c 8a3e d056 0bbf
00000010: 6e17 973e dfbd a8be 0b1c d2be 650e 123d
00000020: 7a4f eebd 001b 733e 354a 233f e133 8cbe
00000030: 288a d8be cffd b3be afc1 f1be f906 143f
00000040: a35c 1ebd 5348 003f adc1 4ebe fea6 9d3e
00000050: 9e4e 853e cf7b 2d3d 6513 cdbe c1cc c8be
00000060: 4e45 293d 5fa9 0abf 5b1d e53e 9881 f4be
00000070: b00e c03e c000 c3bc 0ffd 99bd 6b14 2abe
00000080: 3a02 cfbe 7822 f53e 5025 f3be c021 703d
00000090: 7cbb 19bd 3add 7d3e 3fff 0cbe 47dc 72be
000000a0: 3a77 08bf f301 fcbe 0849 143f ea07 133f
000000b0: fb01 11be 14df ad3e 10be 48bf f515 8abe
000000c0: b21d 4abe 62c6 093f 8b7b 11bf 9a22 15bf
000000d0: d710 19bf f1ff 233f 8d0b d5be 32f3 d33e
000000e0: aeea c03d 8a2e 57be 973e 243f da29 02bf
000000f0: 0576 133f 3814 84be 873d 743e ad92 aebe
00000100: cfda 41be af3d 423e 0f40 e83e 0dea e9bd
00000110: 2908 ab3e 19bd 903e 0579 a2be b203 9b3e
00000120: 5cb2 01bf 7ad1 f0be 3e23 173d fb68 7a3e
00000130: aa5c 8abe 55b0 fbbb 90dc a8be 05d5 05be
00000140: b5b0 223e dc53 8c3e 3711 bd3e eb43 983e
00000150: 25e1 f93e 777f 74bc 440c 1bbe b10c 08be
00000160: 35f9 d8be 5298 1dbf a087 bebe af1d 88be
00000170: 5474 23be f759 0c3f 39c4 073f 33ba ce3e
00000180: 4beb 1d3e 4e7c 3ebe 57b7 913e 2a7e 803d
-0.46531206 -0.41793194 0.27072158 -0.5442934 0.29510063 -0.3295736 -0.4103702 0.03565826
-0.11636253 0.23740768 0.63785106 -0.2738333 -0.42292905 -0.35154578 -0.4721808 0.5782314
-0.038662564 0.5011036 -0.20191069 0.30791467 0.26036543 0.0423544 -0.4005386 -0.39218715
0.04132586 -0.5416469 0.4474896 -0.47755122 0.37511206 -0.023804069 -0.0751897 -0.16609351
-0.40431386 0.4787786 -0.47489405 0.058625937 -0.037532315 0.24791422 -0.13769244 -0.23716842
-0.53306925 -0.49220237 0.57923937 0.5743395 -0.14160912 0.33959258 -0.7841501 -0.26969877
-0.1973789 0.53818333 -0.56829137 -0.5825592 -0.5979132 0.6406241 -0.41610375 0.4139648
0.094197616 -0.21013847 0.64158005 -0.5084511 0.5760196 -0.25796676 0.23851596 -0.3409628
-0.18931125 0.18968843 0.45361373 -0.11421595 0.33404663 0.2826927 -0.31732956 0.30276257
-0.5066278 -0.47034818 0.036898844 0.2445411 -0.27023822 -0.0076809325 -0.32980776 -0.13069542
0.15887721 0.2740773 0.36927196 0.29739317 0.48804584 -0.014922968 -0.15141398 -0.13286091
-0.4237763 -0.6156055 -0.3721285 -0.26585147 -0.15962344 0.54824775 0.53033787 0.40376434
0.15421788 -0.18602106 0.2846019 0.06274064

weight f4 [19, 100]
00000000: fa85 a2be c018 7fbe 6d23 d03d 2268 473d
00000010: 3b8b 223e 0027 28be c650 98be 56c0 41be
00000020: 2a0b 16be 7e4a 983e 6210 d0bd 233c 6a3e
00000030: f34d 463f 468e 33be c808 eebc 4221 fabe
00000040: 435a 1fbd 4fc9 c83d 0b85 38bc 4c29 2ebe
00000050: 2f51 71be 40f2 0a3f 828d b43e 3828 9b3e
00000060: 63db af3e 98ea d7bd 2b05 233d 0f4f d43e
00000070: 4391 963e 0beb 0ebd 9312 04bf d9cc c53d
00000080: 33de 6dbe d580 773e 1338 30be 47f8 5c3e
00000090: c34f 403d 8dc2 3d3e 389a 31be b0a0 dc3e
000000a0: 33c9 793e 131e ad3e 4ee8 a43e df34 48bd
000000b0: 8821 013f cdb5 41be 7ac5 14bf 3f5a af3e
000000c0: 7efd 9dbe fc22 87be e0c9 2b3e 57cd 973d
000000d0: 432d a43e f6c9 0e3e b031 0dbe 620d bdbe
000000e0: e7c0 dc3e c82d 6bbd 1556 eebe 1caa 923d
000000f0: e9bf 2b3e 224d 723e 5763 72be 8930 ccbe
00000100: 9dca 8e3d 0a62 22bf 2756 883e 7bd4 94be
00000110: ef49 e33e 6d83 ca3e 53e8 d83c bc07 3a3e
00000120: da65 09bf bda5 2a3e c8f3 19be 5c1a 903d
00000130: d32a 09be 58a1 b93e 7823 6f3d 6588 a43d
00000140: a773 853e c627 80be 08a0 ee3d d928 2a3d
00000150: f552 1cbe dca4 aa3e febd 8bbe 3b81 18bf
00000160: 1b51 aabe a35b 8cbd 5b2f c2be 6972 09be
00000170: 5505 a33e cb27 85be 43cf a8bd 779e d53e
00000180: f280 fb3e 9b4a 47bf a53c 473e 2582 623e
00000190: 1b26 52be 0be6 383e bd21 0f3e 77c3 5d3d
000001a0: 2f51 3bbd 6a4c d53d cd0f 653e 318a 8dbd
000001b0: 2d8a ed3e b316 25bb b3f2 813e 7a3e 573f
000001c0: b273 cd3c 9fa1 cb3e 8a90 da3e 8b58 54be
000001d0: 5702 da3d 989a c83e 9713 7fbe c370 9dbe
000001e0: 0b72 8ebd c7a0 72be 5d8f d53e ea82 5b3d
000001f0: cb34 ba3e 10d6 13be d22f 00bf 9739 39bd
00000200: 6f7b 39be adf1 d73b b7ce 5f3d 90b9 dc3d
00000210: ac65 113f 9776 e33d ca68 223f 77bc cd3d
00000220: c3f7 a13c 6710 883e 6a7a 4dbe 48e4 bc3e
00000230: 8dc0 0bbd 93fd c43e 49d8 c9be 1062 a63e
00000240: 902e cf3e 47d6 c2bc 7e43 19bf 57b4 b0bd
00000250: 1ad0 97bd 7efd 04be 59c1 b63d a342 edbd
00000260: 3b5a 803e 3de5 703e e716 0b3e a2a7 62be
00000270: 7fd3 17be 5882 fabe 0645 4abf 5b9d e5bd
00000280: c944 15bf a914 a23e 6bed adbc e6ec 2739
00000290: 6371 253e 55be 033d ae1c bdbb 2a62 773e
000002a0: 399c 01bd 7205 c3be f3e5 8a3e 0734 763e
000002b0: 3b24 a03e afc3 93be 758d 65bc 4bda 95bd
000002c0: 1736 72bc d0cf 533d a705 693e 570d c43e
000002d0: 6a0d 343e 79b2 843e d253 65be 83c3 f6bd
000002e0: 98c0 19be a2a0 a8be 5b9c df3e 0f90 1ebf
000002f0: 8a7e 16bf cc8e 46bd dd16 fdbc 9f3a b4bd
00000300: 0550 f5be ef25 3cbe 7baa 05be a100 b9bd
00000310: 4987 8f3e c789 133e 0529 6e3d 1f5b 3fbc
00000320: fc64 8abe 1d39 d03e 3f70 a1be 785c f0bd
00000330: 23bc 51bf ea1f 2fbf 2754 75be 9b7f ffbc
00000340: 6aa1 fcba 26b4 ca3e d5d0 193c 6d2b 623e
00000350: 2bb3 7f3e 5747 6b3e 6d53 8f3e ce19 3bbf
00000360: 3347 3ebd 9396 8cbe f88d 2bbf f251 dcbd
00000370: a59b 8a3c fb86 8b3e 825f cfbd 6acd e63e
00000380: abeb 0c3f dfe8 ee3e d58a 3b3f 17af e13e
00000390: bd62 d1bd a150 8f3d d6ca 863e 2a71 d7be
000003a0: bfc0 1dbd c746 8f3e 6c36 443e eb81 673e
000003b0: 9bf3 f33e db21 9f3e 8461 c93e af56 fa3e
000003c0: 90f7 083f 4f70 e2be 985a df3d c56c 2cbc
000003d0: d074 4d3f 1199 363e 1726 df3e ec01 c2ba
000003e0: 97d1 4f3f 539c babe dd64 d43e 2af3 573e
000003f0: eaeb 78be 0780 b23d e81b 043f 6314 f5be
-0.3174284 -0.24911785 0.10163007 0.048683293 0.15873425 -0.16421127 -0.29749125 -0.18921027
-0.14652696 0.29744333 -0.10159375 0.22874503 0.7746269 -0.17534742 -0.029056922 -0.488535
-0.03890444 0.098040216 -0.011262189 -0.17007941 -0.23566125 0.54275894 0.35264212 0.30304122
0.34347066 -0.10542792 0.03979985 0.41466567 0.294077 -0.034892123 -0.5159084 0.09658212
-0.23229294 0.2417024 -0.1720889 0.21579085 0.046951067 0.18531246 -0.17343986 0.43091345
0.24393158 0.33812007 0.32208484 -0.048878547 0.5044179 -0.18917008 -0.58113825 0.3424854
-0.30857462 -0.26393878 0.16776228 0.07412212 0.32065782 0.1394423 -0.13788486 -0.36924273
0.43115923 -0.057416707 -0.4655005 0.07161352 0.16772427 0.23662236 -0.23670708 -0.3988078
0.06972239 -0.63430846 0.2662823 -0.2906836 0.44392344 0.39553395 0.026477968 0.18167013
-0.5367104 0.16664787 -0.15034401 0.07036278 -0.13395242 0.36255908 0.058383435 0.08033828
0.26064798 -0.25030345 0.11651617 0.04154286 -0.1526602 0.33328903 -0.2729339 -0.5957219
-0.33265004 -0.06853416 -0.37926754 -0.1342255 0.31840006 -0.26006922 -0.08242657 0.41722462
0.49121815 -0.77848214 0.19456728 0.22119959 -0.20522349 0.18056504 0.13977714 0.054141488
-0.04573172 0.104149655 0.22369309 -0.069111235 0.46394482 -0.0025190532 0.25380477 0.84079707
0.025079582 0.39771745 0.426884 -0.20736901 0.106449775 0.39180446 -0.24909817 -0.30750093
-0.06955346 -0.23694144 0.4171094 0.053591646 0.36368403 -0.14437127 -0.5007297 -0.045220938
-0.18113492 0.0065900893 0.054640498 0.10777581 0.56795764 0.111066036 0.63441145 0.100457124
0.019771462 0.26575014 -0.20066229 0.36892915 -0.034119178 0.38474712 -0.39422825 0.3249669
0.40465212 -0.023783816 -0.5986861 -0.08628147 -0.07412739 -0.12987325 0.08923597 -0.115849756
0.2506884 0.23524947 0.13582955 -0.2213426 -0.14826773 -0.4892757 -0.7901157 -0.11211654
-0.5830808 0.31656387 -0.021231374 0.00016014613 0.16156535 0.032163937 -0.005771241 0.2415854
-0.031643126 -0.38090092 0.27128562 0.24043284 0.31277642 -0.28860232 -0.014010777 -0.07317027
-0.014783404 0.051711857 0.22756062 0.38291427 0.17583242 0.25917414 -0.22395256 -0.1204901
-0.15014875 -0.32935053 0.43673977 -0.61938566 -0.58786833 -0.048476025 -0.030894691 -0.088002436
-0.47912613 -0.18373846 -0.13053314 -0.09033323 0.28032902 0.14408027 0.058144588 -0.01167944
-0.2703017 0.40668574 -0.3153095 -0.11736387 -0.819277 -0.6840807 -0.23957883 -0.031188777
-0.0019274179 0.39590567 0.009388168 0.22086878 0.24970691 0.22976433 0.27993336 -0.7308625
-0.04645462 -0.2745863 -0.670135 -0.10757817 0.01691992 0.2725142 -0.101256385 0.45078593
0.550471 0.46662042 0.73258716 0.44078895 -0.10223911 0.069978006 0.26326627 -0.42078525
-0.038513895 0.27983686 0.19161385 0.22608154 0.47646794 0.31080517 0.3933221 0.4889426
0.5350275 -0.4422631 0.10905951 -0.01052398 0.80256367 0.17831828 0.43583748 -0.0014801598
0.81179184 -0.3644739 0.41483203 0.21088853 -0.24308744 0.087158255 0.5160508 -0.47867116

bias f4 [19]
00000000: ffff 27be 7543 83be da7b bc3d 35ed 4d3f
00000010: 769f 0d3e cdbd 2f3e b50e 23be cd1b 513f
00000020: 1314 14be 632f edbd c8e0 fcbd 0536 f5be
00000030: 931b 8ebe 154e d4be 331d 65be 07e5 163e
00000040: b664 b3be 2d7f f13d e8dc 023e
-0.16406249 -0.25637403 0.0920331 0.80440074 0.13830361 0.17162247 -0.15923579 0.81683046
-0.14460783 -0.11581304 -0.12347561 -0.47892776 -0.27755412 -0.41465822 -0.2237442 0.14735804
-0.35037774 0.11791835 0.12779582
