checkpoints/45feature_mlp_num_comm999_an15_sn3_D125_al1_E5_B1024_lr0.05_num_clients100_cf0.1.pth (torch, 246175 bytes, 4 tensors)

weight f4 [1000, 45]
-0.026850259 0.18608807 0.033143632 -0.06949963 -0.15958418 -0.034952063 0.022543414 0.059476823
0.035450224 0.03287403 0.0038142975 -0.039354082 0.07721041 0.064937845 0.032745954 -0.007137473
0.05722448 0.13628922 0.064079724 -0.048571978 0.050428685 -0.091302946 0.119483314 -0.018989677
-0.074373834 -0.16088322 -0.089321315 0.2852701 -0.0948381 -0.038728144 0.023939995 0.00045542195
0.27300903 -0.058183413 0.027315155 -0.10499197 -0.15473934 -0.12123058 0.003400841 0.013951579
-0.020648887 0.32958296 0.12554309 0.00081179285 0.011968027 -0.14159112 0.032762896 0.06555682
0.08084061 0.10579858 -0.11459688 0.18387322 -0.07487177 0.017105151 0.0036245768 0.0775406
-0.02851872 0.0029272542 0.02574869 0.1580633 0.00846707 0.08942171 0.0025962787 0.09209823
0.090139166 0.24154583 0.039538886 0.023175111 -0.12998758 -0.07451174 0.045792725 -0.060233373
0.026817027 -0.16677003 -0.19287662 -0.14304766 -0.006699448 0.036615666 -0.18507077 -0.06075802
0.09618719 0.10602649 0.19802952 -0.119183294 0.21125698 -0.04039134 -0.079712 -0.10914321
-0.015010409 -0.05209123 -0.087590486 -0.11167403 -0.046344977 -0.0047128443 -0.023838533 -0.102708
0.11794224 -0.21134816 0.20053147 0.15059792 0.14434952 0.1386771 -0.07953689 0.12950523
-0.039601427 0.15890561 0.016147064 0.3050795 -0.012717056 -0.09906868 -0.06698608 0.14475077
0.06476524 0.033015903 -0.012873595 -0.30738097 -0.024328982 -0.070847526 0.10702183 -0.104049735
-0.098709546 -0.14202406 0.035019815 0.06772074 0.020956514 -0.2327011 0.14396636 -0.11942332
0.06548387 0.06964881 -0.04720366 -0.010851908 -0.13442603 0.116801634 0.16621612 -0.0037136842
-0.015296863 -0.063792236 0.1287278 -0.0883558 0.07167154 0.089401044 0.029612532 -0.14443994
0.12138388 0.052280247 -0.040182345 -0.072141506 -0.025242055 -0.022595633 0.12374989 -0.096908346
0.103771724 -0.035872355 0.040792663 0.02327627 -0.04774153 0.02185935 0.006873851 0.14325476
-0.12531994 -0.0976649 0.010470151 0.005458732 0.07744571 0.080722295 -0.0032812343 -0.014563647
-0.11337103 0.14136802 -0.004321038 0.083710246 -0.06575117 0.12143221 -0.13124707 -0.12697996
-0.0833332 0.0075686933 -0.01261647 -0.12932901 0.05878022 -0.17576484 0.035136405 -0.00061967864
0.11125566 -0.1296754 -0.19790965 0.117331445 -0.13079284 0.016689522 0.05468101 -0.05177463
0.06537359 -0.13530765 -0.13867538 0.15991937 -0.12684387 0.0034511506 -0.012180141 0.072753504
0.03141123 -0.032353204 -0.024876818 -0.050866354 -0.1016948 0.011999204 0.11749003 -0.22291552
-0.21946645 -0.108657695 -0.036525678 -0.030102223 0.052196532 0.072661094 -0.10074985 0.075124264
0.3249384 -0.08426338 -0.041897457 0.12336089 0.008870305 -0.006744135 0.060732562 -0.017972158
-0.035517756 0.072838664 -0.17543332 -0.0965622 0.0021750468 -0.11503297 -0.06211552 0.0009874649
0.10501724 -0.2380883 -0.036780935 0.018126745 -0.09080051 0.14496762 -0.12082853 -0.1426209
-0.0033347153 -0.2255491 -0.19991677 0.030133775 0.07846377 -0.11143994 -0.04401579 0.015462666
0.119835846 -0.11773578 0.1296505 0.08320094 0.048174478 -0.19090886 -0.09746354 -0.05756734
00000000: 13f5 dbbc df8d 3e3e 9ec1 073d d255 8ebd
00000010: 096a 23be e529 0fbd f7ac b83c f89d 733d
00000020: 4134 113d eba6 063d 4bf9 793b bf31 21bd
00000030: 7e20 9e3d 22fe 843d 9f20 063d 77e1 e9bb
00000040: 3764 6a3d 678f 0b3e 3b3c 833d 69f3 46bd
00000050: 4f8e 4e3d 0afd babd abb3 f43d 3d90 9bbc
00000060: 4f51 98bd 92be 24be 18ee b6bd ec0e 923e
00000070: 7a3a c2bd 67a1 1ebd cf1d c43c b3c5 ee39
00000080: d7c7 8b3e bb51 6ebd 08c4 df3c 0806 d7bd
00000090: fd73 1ebe bd47 f8bd a5e0 5e3b 2a95 643c
000000a0: db27 a9bc 19bf a83e 5e8e 003e 7fce 543a
000000b0: 8b15 443c 43fd 10be 6332 063d a742 863d
000000c0: c38f a53d edac d83d c5b1 eabd 4349 3c3e
000000d0: 5f56 99bd 1a20 8c3c 4f8a 6d3b 9bcd 9e3d
000000e0: 17a0 e9bc 2dd7 3f3b ebee d23c 59db 213e
000000f0: 77b9 0a3c bb22 b73d 5426 2a3b ff9d bc3d
00000100: e29a b83d ca57 773e 87f3 213d bbd9 bd3c
00000110: 771b 05be 9c99 98bd 2791 3b3d 45b7 76bd
00000120: 62af db3c c3c5 2abe 7381 45be 167b 12be
00000130: 0b87 dbbb 4ffa 153d 3183 3dbe 67dd 78bd
00000140: cafd c43d 6b24 d93d 40c8 4a3e 5f16 f4bd
00000150: c053 583e 6471 25bd 0c40 a3bd 7a86 dfbd
00000160: 38ee 75bc 9d5d 55bd a462 b3bd 5bb5 e4bd
00000170: 3bd4 3dbd 346e 9abb 0749 c3bc 9258 d2bd
00000180: b38b f13d a76b 58be 1f58 4d3e 5736 1a3e
00000190: 5cd0 133e 5f01 0e3e 3de4 a2bd 059d 043e
000001a0: 1b35 22bd 27b8 223e d946 843c 6133 9c3e
000001b0: 335b 50bc 85e4 cabd ff2f 89bd 8c39 143e
000001c0: a3a3 843d af3b 073d c5eb 52bc 0a61 9dbe
000001d0: 934d c7bc 8218 91bd 432e db3d 0718 d5bd
000001e0: 3b28 cabd c16e 11be f070 0f3d 2cb1 8a3d
000001f0: ffac ab3c 3249 6ebe eb6b 133e 3794 f4bd
00000200: 681c 863d 09a4 8e3d a058 41bd 33cc 31bc
00000210: faa6 09be b235 ef3d 8f34 2a3e 4861 73bb
00000220: b29f 7abc 81a5 82bd 38d1 033e e3f3 b4bd
00000230: 87c8 923d e517 b73d fb95 f23c 10e8 13be
00000240: 1d98 f83d d023 563d 3e96 24bd edbe 93bd
00000250: 6dc8 cebc 7a1a b9bc 9570 fd3d e277 c6bd
00000260: 4586 d43d e4ee 12bd 3516 273d e0ad be3c
00000270: 9f8c 43bd 6112 b33c 0b3e e13b 60b1 123e
00000280: df53 00be 8904 c8bd ff8a 2b3c 2adf b23b
00000290: db9b 9e3d bb51 a53d fa09 57bb 5d9c 6ebc
000002a0: 122f e8bd c7c2 103e 7e97 8dbb 4770 ab3d
000002b0: 8da8 86bd 73b1 f83d a265 06be 0907 02be
000002c0: 99aa aabd cd02 f83b 50b5 4ebc d36e 04be
000002d0: 87c3 703d b3fb 33be 31eb 0f3d ee71 22ba
000002e0: 02da e33d a1c9 04be d4a8 4abe 784b f03d
000002f0: 8fee 05be 77b8 883c 32f9 5f3d a211 54bd
00000300: 97e2 853d 178e 0abe eb00 0ebe e7c1 233e
00000310: 5ce3 01be b32c 623b 378f 47bc caff 943d
00000320: 10a9 003d cb84 04bd 78ca cbbc 3d59 50bd
00000330: 5d45 d0bd 4f98 443c 9d9e f03d f743 64be
00000340: d0bb 60be ed87 debd f39b 15bd f098 f6bc
00000350: 08cc 553d 57cf 943d f055 cebd c0da 993d
00000360: 535e a63e 4792 acbd ab9c 2bbd a2a4 fc3d
00000370: c154 113c e8fd dcbb b5c2 783d 593a 93bc
00000380: 117b 11bd 702c 953d cba4 33be 67c2 c5bd
00000390: 3b8b 0e3b 6896 ebbd d86c 7ebd d36d 813a
000003a0: 4713 d73d 6bcd 73be 9ba7 16bd 8a7e 943c
000003b0: 9ef5 b9bd 6472 143e f374 f7bd 370b 12be
000003c0: 3d8b 5abb 58f6 66be fbb6 4cbe 1bdb f63c
000003d0: 9db1 a03d a03a e4bd e749 34bd 1f57 7d3c
000003e0: 7f6c f53d 751f f1bd 1ac3 043e 4165 aa3d
000003f0: 9a52 453d 9d7d 43be f79a c7bd bbcb 6bbd

bias f4 [1000]
-0.012514295 0.08362829 0.13963567 -0.045276973 -0.12662153 0.00011719987 -0.11765554 0.08459704
0.22981584 -0.051443484 0.2117716 -0.104659654 -0.023874095 0.1960048 0.2417867 0.1811808
-0.03499997 -0.06661599 4.1416642e-05 -0.14080846 0.110072136 0.0004975211 -0.16853498 -0.13979079
-0.07276807 0.023834083 -0.007665071 0.088548 -0.08404794 -0.044799864 -0.13336924 -0.04595102
-0.11217548 0.1343548 0.13850978 0.112646796 -0.037849665 0.15048514 0.05130124 -0.017586563
0.31609908 -0.030992765 0.056682028 -0.10683429 0.05945616 0.1311136 0.24245715 0.1896017
0.15053727 -0.07659961 -0.12480476 0.18981881 -0.12011671 -0.109462395 -0.06804069 -0.15550974
-0.06084427 0.035565525 0.16479447 -0.10300088 -0.11022567 -0.09787252 -0.11263766 0.096389405
-0.034941763 -0.13693558 0.018600224 0.13595667 -0.0883526 -0.04004855 -0.01236745 -0.001682937
-0.0781533 0.120518304 -0.105499126 -0.052777644 0.28452402 -0.0068111042 0.16101001 0.114398025
-0.028227348 -0.049179703 0.086607106 0.040266387 0.19263808 -0.06263151 0.28842226 -0.105203785
-0.0562149 -0.07161869 -0.04611173 -0.17151864 0.18505347 -0.035638694 -0.019966623 0.18040054
0.074978106 0.13608478 0.13062753 -0.13979779 0.30639073 -0.13146755 0.06512763 0.21716474
0.26220363 0.16223507 -0.06331657 -0.092766665 0.029655525 -0.018871965 -0.12051421 0.034889635
-0.081031956 -0.04609011 0.19189566 -0.09506237 0.18351261 0.20856121 0.23516612 -0.085137956
0.046139594 -0.016857725 -0.115920104 0.19150452 0.14011364 0.26638803 0.0042427243 0.005897695
0.1665284 -0.09649316 -0.10879735 -0.12825942 0.026559085 -0.09996761 0.18038362 -0.019913143
-0.03157684 0.11079593 -0.1231422 -0.0464634 -0.118343554 0.089075886 -0.1192281 -0.049881916
0.16555142 -0.15341662 0.22298649 -0.03306581 0.090549104 0.15615569 0.18941116 0.10643788
-0.09002566 -0.038101267 0.09344689 0.07590284 0.078156434 -0.04082064 -0.08997332 0.15467738
0.12889819 0.07337081 -0.04806705 -0.0057511386 0.1731366 -0.035020836 0.05622205 -0.011029276
0.0659015 0.0997357 -0.12344557 -0.08657872 -0.09917759 0.07352393 -0.03161634 0.2707745
0.015657855 -0.13509217 0.1801018 0.18542401 -0.11733806 0.13005148 0.0956697 -0.046295006
0.12567252 -0.016282102 0.002244299 -0.06504911 -0.09497105 0.2572839 0.03621169 -0.13603504
0.11125673 0.22307737 -0.13755755 -0.118177846 -0.068603896 -0.13994473 0.23227659 -0.08963412
-0.099270865 0.10436767 0.2562786 0.10159208 0.33137384 -0.051089205 0.15592209 0.052055925
0.00026703576 -0.0957551 -0.061700832 0.18059026 -0.0010927812 -0.1453216 -0.12973331 -0.14882445
0.010811235 0.0060486156 -0.17475197 0.26751542 -0.043480784 -0.2216721 0.05212735 -0.06929275
-0.16979043 0.1967776 -0.077763535 -0.06298108 -0.14279625 0.08976255 0.37038478 -0.12699468
0.006655139 -0.05216684 0.15214919 0.22068422 0.19476376 0.18871216 0.2802201 0.15719658
0.26332802 -0.067313105 0.19710182 -0.020377968 0.20426992 0.04823983 -0.06162986 -0.053992677
-0.06174749 0.0484201 0.13966157 0.076853946 0.07564529 0.15521657 -0.0070847245 0.12373388
00000000: c208 4dbc 4f45 ab3d a7fc 0e3e 5974 39bd
00000010: 13a9 01be 33c9 f538 63f5 f0bd 3741 ad3d
00000020: d854 6b3e 67b6 52bd a8da 583e cd57 d6bd
00000030: 9b93 c3bc 7bb5 483e ef96 773e 7687 393e
00000040: 215c 0fbd f76d 88bd c8b6 2d38 1830 10be
00000050: 806d e13d 136c 023a 6f94 2cbe 5125 0fbe
00000060: 6d07 95bd b23f c33c 472b fbbb a758 b53d
00000070: 5421 acbd 1080 37bd f291 08be 2337 3cbd
00000080: 42bc e5bd 4e94 093e 82d5 0d3e 5db3 e63d
00000090: 4008 1bbd c718 1a3e 4021 523d b211 90bc
000000a0: bdd7 a13e 8ae4 fdbc 6a2b 683d f0cb dabd
000000b0: 4d88 733d a542 063e b046 783e f326 423e
000000c0: 7126 1a3e 42e0 9cbd a399 ffbd dd5f 423e
000000d0: c0ff f5bd d22d e0bd eb58 8bbd f23d 1fbe
000000e0: d737 79bd 28ad 113d e2bf 283e 20f2 d2bd
000000f0: ffbd e1bd 6371 c8bd 93ae e6bd cf67 c53d
00000100: 181f 0fbd d738 0cbe 7f5f 983c 3a38 0b3e
00000110: 35f2 b4bd f309 24bd d8a0 4abc ff95 dcba
00000120: d60e a0bd 4dd2 f63d ed0f d8bd 5f2d 58bd
00000130: 22ad 913e af2f dfbb cfdf 243e 8349 ea3d
00000140: 0a3d e7bc a870 49bd 115f b13d 5eee 243d
00000150: eb42 453e f344 80bd 15ac 933e 1575 d7bd
00000160: 9841 66bd d2ac 92bd a7df 3cbd 95a2 2fbe
00000170: a87e 3d3e e1f9 11bd 0b91 a3bc ebba 383e
00000180: 1f8e 993d cf59 0b3e 39c3 053e 2727 0fbe
00000190: 3fdf 9c3e 6e9f 06be a361 853d 6f60 5e3e
000001a0: 8e3f 863e f320 263e 1eac 81bd 73fc bdbd
000001b0: 25f0 f23c 6199 9abc 27d0 f6bd 6fe8 0e3d
000001c0: 15f4 a5bd fcc8 3cbd 4c80 443e 0fb0 c2bd
000001d0: bbea 3b3e 1291 553e 63cf 703e cf5c aebd
000001e0: dffc 3c3d 3619 8abc 8567 edbd c319 443e
000001f0: f379 0f3e 0364 883e 8d06 8b3b 7441 c13b
00000200: 6c86 2a3e 359e c5bd 25d1 debd 7056 03be
00000210: 7092 d93c d1bb ccbd 7cb6 383e e320 a3bc
00000220: b756 01bd fae8 e23d fa31 fcbd 6850 3ebd
00000230: 1b5e f2bd 6b6d b63d dd2d f4bd fb50 4cbd
00000240: 5086 293e 3f19 1dbe 9256 643e 0470 07bd
00000250: cf71 b93d 47e7 1f3e 00f5 413e 1afc d93d
00000260: 605f b8bd 1310 1cbd 1561 bf3d f372 9b3d
00000270: 7b10 a03d 8b33 27bd ef43 b8bd bf63 1e3e
00000280: e3fd 033e 6f43 963d f4e1 44bd 0c74 bcbb
00000290: b94a 313e 0272 0fbd 1849 663d 23b4 34bc
000002a0: 5ef7 863d 3b42 cc3d 08d1 fcbd 2f50 b1bd
000002b0: 9f1d cbbd b793 963d 2380 01bd f5a2 8a3e
000002c0: e744 803c 9a55 0abe 9b6c 383e cbdf 3d3e
000002d0: f04e f0bd 372c 053e 7aee c33d d59f 3dbd
000002e0: 4cb0 003e 0b62 85bc 1715 133b 7838 85bd
000002f0: 2f80 c2bd b7ba 833e b652 143d c54c 0bbe
00000300: 92da e33d 656e 643e e3db 0cbe 3a07 f2bd
00000310: 3380 8cbd ac4d 0fbe ead9 6d3e 1892 b7bd
00000320: 864e cbbd b8be d53d f336 833e 820f d03d
00000330: d5a9 a93e ea42 51bd 0aaa 1f3e 9838 553d
00000340: ef00 8c39 401b c4bd 03ba 7cbd a7ec 383e
00000350: a73b 8fba 2fcf 14be cfd8 04be 7065 18be
00000360: 9b21 313c 7733 c63b 2ef2 32be c8f7 883e
00000370: e818 32bd 03fe 62be 7d83 553d 5be9 8dbd
00000380: 8bdd 2dbe 1180 493e 7d42 9fbd 39fc 80bd
00000390: 2e39 12be 6ed5 b73d 13a3 bd3e e50a 02be
000003a0: 5a13 da3b e5ac 55bd ffcc 1b3e 0bfb 613e
000003b0: 2770 473e c33d 413e 0279 8f3e 24f8 203e
000003c0: eed2 863e 74db 89bd 0fd5 493e b2ef a6bc
000003d0: 222c 513e 2197 453d 986f 7cbd 6d27 5dbd
000003e0: f0ea 7cbd 2854 463d 7103 0f3e 9a65 9d3d
000003f0: ebeb 9a3d 18f1 1e3e fa26 e8bb 3068 fd3d

weight f4 [15, 1000]
-0.107815765 -0.005843624 0.017634736 0.025767824 -0.01211351 -0.0010290368 -0.06775078 -0.0024904977
-0.042015452 0.07860445 -0.015809702 0.029488651 -0.004127739 0.08309574 0.030364607 -0.072086774
-0.028131638 -0.06383362 -0.104074635 -0.010019455 -0.06684873 -0.05346507 -0.0023283872 -0.032487627
-0.03450211 0.023511443 -0.06677996 -0.01656119 0.01284496 0.010543353 -0.021909142 0.0013487386
0.059328984 0.013316373 -0.052330144 -0.045939375 -0.08284423 -0.0058607603 0.0021265035 -0.021677822
-0.060176294 0.07515213 0.025194151 -0.027593974 -0.0008972754 -0.114073336 0.013996963 -0.050906695
-0.04824763 -0.0456894 0.03807962 -0.03504013 -0.1048972 -0.021765709 0.053955585 -0.054784697
-0.0036851873 -0.06363847 -0.086200304 0.005250159 -0.012199198 -0.035925675 -0.063112386 -0.042919528
0.10193485 -0.035915174 -0.02456737 -0.030301813 -0.022071406 0.00698687 0.012265092 -0.05601141
-0.027554015 0.05878157 0.009600715 0.017255267 -0.052535493 -0.034605425 -0.015343501 0.01789495
-0.008219406 -0.02071242 -0.03566436 -0.05958411 0.02771755 -0.002037852 -0.04258356 -0.030103145
-0.050952513 -0.044439755 -0.030878251 -0.07679024 -0.013534903 0.02975972 0.084052645 0.047820635
-0.053509433 -0.06402061 -0.01680231 -0.02985527 0.006672542 -0.06288069 0.027066693 -0.04401887
-0.015297676 -0.02909479 0.06791705 -0.052013613 0.055392977 -0.033012714 0.04867417 0.006682454
-0.027102087 0.009039545 -0.029148951 -0.025539955 -0.08079058 0.05390949 -0.032598097 -0.019996658
0.059963595 0.00038402388 -0.10620476 -0.07526784 -0.03736669 -0.0171452 -0.016079899 -0.0133413095
-0.066794954 0.04246906 -0.059953656 -0.053475447 -0.03755478 -0.053353276 -0.053373307 0.04433204
0.04722903 -0.011521921 0.015256208 -0.010818022 0.0026393412 0.011275791 0.013643461 0.0034472567
-0.028810984 0.06972573 0.010709989 -0.005673697 0.012062924 0.014169129 -0.042138785 -0.06449785
-0.023562336 -0.02757667 -0.06606753 -0.07304029 -0.085631385 -0.038139325 0.0016813489 -0.056644525
-0.0031454284 -0.006474337 0.01165849 0.064244285 0.07493098 0.06613704 -0.0011045568 0.10626649
-0.011991638 -0.0077174096 -0.023798987 -0.036773343 -0.032296136 -0.043413185 -0.014728884 -0.043817926
-0.029786676 0.06731246 0.012429382 -0.040290426 -0.021292632 0.08015097 -0.023530493 -0.09693128
-0.018746367 -0.04004248 0.0074693984 -0.07991493 0.030243902 0.015229966 -0.02941358 0.0070497165
0.022684779 0.0077216276 -0.022489576 -0.026109925 0.02137406 0.08609497 -0.038521625 -0.02123339
-0.048870854 0.0932386 -0.049610216 -0.03417724 -0.10495354 0.014446506 -0.017708411 -0.023926351
-0.06610256 -0.032270543 -0.06283267 0.0005499229 0.13281894 -0.021469617 -0.073328964 0.00042975997
-0.01380744 -0.052911784 -0.029241329 -0.049869392 0.06505568 -0.050914016 0.017188774 -0.04084
0.012317789 -0.042758293 -0.009622912 -0.034859326 0.010674639 -0.020339858 -0.10463654 0.0003578264
0.034014054 -0.015247852 -0.040648613 -0.03827356 -0.019737368 -0.073383406 -0.014803235 -0.025067633
0.0007216752 -0.056596484 0.00608426 -0.036416523 -0.049747717 -0.0005327276 0.028930014 -0.0042347223
-0.020002227 -0.014370941 -0.0073535405 0.06398137 -0.008562736 -0.008226311 -0.017489174 -0.04808466
00000000: 83ce dcbd df7b bfbb b976 903c 0b17 d33c
00000010: be77 46bc bfe0 86ba ecc0 8abd 9e37 23bb
00000020: 6518 2cbd 5ffb a03d 5983 81bc 2f92 f13c
00000030: fc41 87bb 192e aa3d 32bf f83c 3ba2 93bd
00000040: 5274 e6bc 33bb 82bd 1525 d5bd a428 24bc
00000050: fde7 88bd 30fe 5abd db97 18bb bf11 05bd
00000060: 1652 0dbd 129b c03c efc3 88bd 55ab 87bc
00000070: ab73 523c 07be 2c3c cd7a b3bc 28c8 b03a
00000080: f302 733d eb2c 5a3c 2258 56bd ed2a 3cbd
00000090: 3caa a9bd 9f0b c0bb cf5c 0b3b b095 b1bc
000000a0: 6b7b 76bd 5ce9 993d f763 ce3c c20c e2bc
000000b0: 2237 6bba 489f e9bd 8553 653c 8a83 50bd
000000c0: 4f9f 45bd cf24 3bbd 60f9 1b3d 3d86 0fbd
000000d0: 58d4 d6bd 004e b2bc 8800 5d3d eb65 60bd
000000e0: 2f83 71bb e354 82bd c989 b0bd 8709 ac3b
000000f0: 25df 47bc cd26 13bd 1141 81bd 63cc 2fbd
00000100: 38c3 d03d ca1b 13bd 8241 c9bc 823b f8bc
00000110: 18cf b4bc 1df2 e43b 86f3 483c 386c 65bd
00000120: f5b8 e1bc f2c4 703d 514c 1d3c eb5a 8d3c
00000130: 752f 57bd 6bbe 0dbd 4f63 7bbc 6e98 923c
00000140: b0aa 06bc 18ad a9bc cb14 12bd 780e 74bd
00000150: ea0f e33c 7c8d 05bb 196c 2ebd df9a f6bc
00000160: 95b3 50bd 7606 36bd 63f4 fcbc 3444 9dbd
00000170: 7fc1 5dbc a8ca f33c cb23 ac3d 92df 433d
00000180: b52c 5bbd 3d1d 83bd ffa4 89bc 0a93 f4bc
00000190: 57a5 da3b 97c7 80bd f8ba dd3c 214d 34bd
000001a0: 1ba3 7abc 3258 eebc 1818 8b3d 3a0c 55bd
000001b0: bfe3 623d 5738 07bd 915e 473d 7df8 da3b
000001c0: 3205 debc 9a1a 143c c8c9 eebc 2b39 d1bc
000001d0: 8875 a5bd 33d0 5c3d 9585 05bd 08d0 a3bc
000001e0: 639c 753d d056 c939 e281 d9bd 0626 9abd
000001f0: d00d 19bd 1774 8cbc feb9 83bc 8295 5abc
00000200: cbcb 88bd 09f4 2d3d f791 75bd 1209 5bbd
00000210: 0ad3 19bd f788 5abd f89d 5abd 8395 353d
00000220: 3a73 413d 70c6 3cbc 2df5 793c 133e 31bc
00000230: ccf8 2c3b 18be 383c d388 5f3c 5feb 613b
00000240: 0305 ecbc 5dcc 8e3d f378 2f3c 6cea b9bb
00000250: 92a3 453c a225 683c b899 2cbd 7317 84bd
00000260: cd05 c1bc 78e8 e1bc 6a4e 87bd 2696 95bd
00000270: 825f afbd fb37 1cbd b560 dc3a 1704 68bd
00000280: 8823 4ebb ad26 d4bb 4003 3f3c 8292 833d
00000290: 6a75 993d db72 873d c7c6 90ba 3fa2 d93d
000002a0: 9378 44bc 53e2 fcbb 18f6 c2bc a59f 16bd
000002b0: f448 04bd 06d2 31bd 6b51 71bc 6d7a 33bd
000002c0: 3003 f4bc 1ddb 893d 9ba4 4b3c 9307 25bd
000002d0: e36d aebc 3126 a43d 05c3 c0bc e883 c6bd
000002e0: fb91 99bc 9503 24bd dbc1 f43b 70aa a3bd
000002f0: 0fc2 f73c 1b87 793c c0f4 f0bc 4f01 e73b
00000300: 6ed5 b93c b505 fd3b 0f3c b8bc 7be4 d5bc
00000310: a718 af3c 8f52 b03d dac8 1dbd a5f1 adbc
00000320: ce2c 48bd e1f3 be3d 1534 4bbd 6ffd 0bbd
00000330: e2f1 d6bd 0ab1 6c3c 3b11 91bc 3201 c4bc
00000340: c760 87bd 1e2e 04bd 6aae 80bd b328 103a
00000350: b001 083e 0de1 afbc 7f2d 96bd 6851 e139
00000360: 9a38 62bc 07ba 58bd 838b efbc d943 4cbd
00000370: ea3b 853d 378b 50bd 79cf 8c3c d847 27bd
00000380: 8dd0 493c 5223 2fbd 6ba9 1dbc a7c8 0ebd
00000390: aee4 2e3c c69f a6bc af4b d6bd a59a bb39
000003a0: 5252 0b3d 20d2 79bc 297f 26bd bdc4 1cbd
000003b0: 43b0 a1bc 0a4a 96bd 4589 72bc a35a cdbc
000003c0: ce2e 3d3a b7d1 67bd 795e c73b 7e29 15bd
000003d0: 43c4 4bbd bea6 0bba a3fe ec3c 6dc3 8abb
000003e0: b6db a3bc 1874 6bbc f8f5 f0bb aa08 833d
000003f0: b84a 0cbc a6c7 06bc 7545 8fbc 6cf4 44bd

bias f4 [15]
-0.095706046 -0.0099963425 -0.16406977 -0.12608771 0.6285322 0.56930983 0.51462984 0.31231028
-0.4448424 -0.09656911 0.048193112 -0.62191373 -0.15141134 -0.16431825 -0.19790585
00000000: 8801 c4bd b3c7 23bc e801 28be 231d 01be
00000010: 7ce7 203f 4abe 113f c8be 033f 22e7 9f3e
00000020: 62c2 e3be 07c6 c5bd 2466 453d bd35 1fbf
00000030: 930b 1bbe 0b43 28be d5a7 4abe
