checkpoints/45feature_mlp_num_comm1999_an15_sn3_D125_al1_E5_B1024_lr0.05_num_clients100_cf0.1.pth (torch, 246175 bytes, 4 tensors)

weight f4 [1000, 45]
0	0xbc0ebcf2	-0.00871204
1	0x3e636fa3	0.22210555
2	0x3ce2946b	0.027658662
3	0xbd938a2b	-0.07204088
4	0xbe2e8333	-0.17042236
5	0xbd16489f	-0.03669035
6	0x3bfb3c17	0.0076670754
7	0x3d76a8c3	0.060219537
8	0x3d5d202a	0.053985752
9	0x3d2418d9	0.04006276
10	0x3c2c9635	0.010533859
11	0xbd80da86	-0.0629168
12	0x3dad0473	0.08448114
13	0x3d781d93	0.06057508
14	0x3c7222df	0.014778822
15	0xbca937c5	-0.020656476
16	0x3d8123eb	0.06305679
17	0x3e1cdb8b	0.15318124
18	0x3d85afbf	0.065276615
19	0xbcc2f47b	-0.023798218
20	0x3cbfa8cb	0.023395916
21	0xbda616b3	-0.08109798
22	0x3df5beb8	0.11999267
23	0xbca376b3	-0.019954061
24	0xbda331c2	-0.07968475
25	0xbe2c315f	-0.16815709
26	0xbd91c8eb	-0.071184
27	0x3ea62244	0.32448018
28	0xbd9072d5	-0.070531525
29	0xbd432a13	-0.047647547
30	0x3c1a2952	0.009409266
31	0xbaff17a7	-0.0019462005
32	0x3ea09e2b	0.31370673
33	0xbd8b6e1b	-0.0680811
34	0x3ce49797	0.027904315
35	0xbdeabd42	-0.11461879
36	0xbe4aed87	-0.19817172
37	0xbe0bb80a	-0.13644424
38	0x3b48549e	0.0030568014
39	0x3b59a713	0.0033211156
40	0xbcc715d0	-0.024302393
41	0x3ec6b7d7	0.38812134
42	0x3df6d480	0.1205225
43	0xbcc79c54	-0.024366535
44	0x3c654b73	0.013995039
45	0xbe239d55	-0.15977986
46	0x3d6b8623	0.05750097
47	0x3dcd9f93	0.10040202
48	0x3dabaa03	0.083820365
49	0x3dc117b7	0.09428351
50	0xbdde1410	-0.1084367
51	0x3e4a18b3	0.19735985
52	0xbda216ef	-0.079145305
53	0x3b966e29	0.004590769
54	0x3bc00194	0.005859563
55	0x3dbcc88d	0.092179395
56	0xbd1c7595	-0.038198072
57	0x3bf9f245	0.0076277577
58	0x3cce6565	0.025194833
59	0x3e28c411	0.16481043
60	0x3b518d62	0.003197514
61	0x3da2eea9	0.07955677
62	0x3c738beb	0.014864902
63	0x3dc8aa3b	0.09798094
64	0x3d9e3336	0.077246115
65	0x3e7c9330	0.24665523
66	0x3cf7a180	0.030228376
67	0x3c4a6347	0.012352771
68	0xbe17970b	-0.14803712
69	0xbd93307f	-0.07186984
70	0x3d305a34	0.043054774
71	0xbdabe21e	-0.08392738
72	0x3cc88ee3	0.024482196
73	0xbe40448d	-0.1877615
74	0xbe5e4f50	-0.21709943
75	0xbe3b6ce2	-0.18303254
76	0x3a181dc8	0.00058027776
77	0x3d24cd58	0.040234894
78	0xbe4d9145	-0.20074947
79	0xbd828d0a	-0.06374557
80	0x3dc00d88	0.09377581
81	0x3ddcbeea	0.107786015
82	0x3e694cda	0.22783223
83	0xbe0899cd	-0.1333992
84	0x3e727b5b	0.23679869
85	0xbd328abc	-0.04358934
86	0xbd732442	-0.05936075
87	0xbde16aed	-0.110067226
88	0xbd05bc65	-0.03265037
89	0xbd4ade68	-0.04952851
90	0xbda2493f	-0.07924127
91	0xbde56e55	-0.11202685
92	0xbd271537	-0.040791716
93	0xbbca5ab7	-0.006175365
94	0xbd0f0938	-0.0349209
95	0xbdca64ab	-0.09882482
96	0x3e128a7f	0.14310645
97	0xbe5ea308	-0.21741879
98	0x3e524e9d	0.20537801
99	0x3e24d5f0	0.16097236
100	0x3e0098bf	0.12558268
101	0x3e14c966	0.14529952
102	0xbd91857b	-0.071055375
103	0x3dfe6bcb	0.124229036
104	0xbd1393b8	-0.036029547
105	0x3e3b9147	0.18317138
106	0x3c87477b	0.016513577
107	0x3ea67472	0.32510716
108	0xbcaf3ba6	-0.021390747
109	0xbdb721ca	-0.089419916
110	0xbd62b8af	-0.05535191
111	0x3e1608b3	0.14651756
112	0x3d7c7653	0.06163628
113	0x3d138256	0.03601297
114	0x3cceeed7	0.025260372
115	0xbeaced80	-0.33774948
116	0xbca704dc	-0.02038806
117	0xbd987b89	-0.074454375
118	0x3def05fb	0.116710626
119	0xbddb5c3f	-0.10710954
120	0xbdcc00ee	-0.09961115
121	0xbe076ffa	-0.1322631
122	0x3cfbad47	0.030722274
123	0x3dbaed9c	0.09127352
124	0x3c39ab80	0.011332393
125	0xbe8ba62d	-0.2727522
126	0x3e0e6cc4	0.13908678
127	0xbdfeb80a	-0.124374464
128	0x3d63c740	0.05560994
129	0x3d821fbf	0.06353711
130	0xbd447639	-0.04796431
131	0xbcd7b6ed	-0.026332343
132	0xbe08ff78	-0.13378704
133	0x3dfddbf0	0.123954654
134	0x3e3efef7	0.18651949
135	0xbc285139	-0.010273271
136	0xbc79610f	-0.0152208945
137	0xbd734017	-0.059387293
138	0x3e06500f	0.13116477
139	0xbdb45580	-0.0880537
140	0x3d9253df	0.071449034
141	0x3db1efbe	0.08688305
142	0x3ceebe97	0.029143615
143	0xbe181282	-0.1485081
144	0x3e018821	0.12649585
145	0x3d47537c	0.0486636
146	0xbd2317df	-0.039817687
147	0xbd94f0a5	-0.07272462
148	0xbcc300e4	-0.023804136
149	0xbcc36491	-0.023851665
150	0x3e013f3a	0.12621775
151	0xbdce0a38	-0.10060543
152	0x3dd0ac65	0.10189132
153	0xbd416333	-0.047213744
154	0x3d37c497	0.044865217
155	0x3ca6541e	0.020303782
156	0xbd4223cb	-0.047397416
157	0x3cb74373	0.02237103
158	0x3c13dfb4	0.009025503
159	0x3e146fb7	0.14495741
160	0xbdf86ae8	-0.12129766
161	0xbdcff868	-0.101548016
162	0x3c0b9cd0	0.008521274
163	0x3c2f0473	0.010682213
164	0x3dabd357	0.08389919
165	0x3da80f34	0.08206025
166	0xbb8ec17b	-0.0043565608
167	0xbc28210e	-0.010261787
168	0xbde6309f	-0.112397425
169	0x3e0dde6b	0.13854377
170	0xbb71913a	-0.0036860243
171	0x3db59192	0.08865656
172	0xbd8f1351	-0.06986106
173	0x3dfa180d	0.122116186
174	0xbe0a7271	-0.13520218
175	0xbe0421e7	-0.12903558
176	0xbdabfa7f	-0.08397388
177	0x3c2d667e	0.010583518
178	0xbc202981	-0.00977552
179	0xbe03fbef	-0.12889074
180	0x3da571c1	0.080783375
181	0xbe4e51e0	-0.2014842
182	0x3c88e1ec	0.01670929
183	0x39a6ceb2	0.00031815987
184	0x3de2541a	0.11051197
185	0xbe05c416	-0.13063082
186	0xbe5bf8e0	-0.21481657
187	0x3df66cd7	0.12032478
188	0xbe16c814	-0.14724761
189	0x3ba5fe0f	0.0050656865
190	0x3d238a82	0.039927013
191	0xbd666783	-0.05625106
192	0x3d73fbd0	0.05956632
193	0xbe0674f8	-0.13130558
194	0xbe0be3dc	-0.1366114
195	0x3e2cd99b	0.16879885
196	0xbdfefcf0	-0.12450588
197	0xbb437010	-0.0029821433
198	0xbcb99b28	-0.022656992
199	0x3d2f0655	0.042730648
200	0x3ca0478c	0.019565366
201	0xbce7ec33	-0.02831087
202	0xbcecda93	-0.028912818
203	0xbd74abc0	-0.059734106
204	0xbde29c40	-0.110649586
205	0x3d04fe41	0.032469038
206	0x3de560fd	0.1120014
207	0xbe85102d	-0.25988904
208	0xbe7af54f	-0.2450764
209	0xbdf4a235	-0.11945001
210	0xbd371d98	-0.044705957
211	0xbcfce205	-0.030869493
212	0x3d57124d	0.052507687
213	0x3da251eb	0.07925781
214	0xbdd92ba2	-0.106040254
215	0x3dab2c1e	0.08358024
216	0x3eb62cc3	0.35581025
217	0xbdaca7e0	-0.08430457
218	0xbd5c8a58	-0.053842872
219	0x3de510a2	0.11184813
220	0x3c029e05	0.007972245
221	0x3ba429c3	0.005009861
222	0x3d976ad2	0.07393421
223	0xbc7bc73a	-0.0153673235
224	0xbd35df9b	-0.0444027
225	0x3dac9360	0.08426547
226	0xbe6a46c0	-0.22878551
227	0xbe11c406	-0.14234933
228	0x3c46ae28	0.012126483
229	0xbde64d32	-0.112451926
230	0xbd6cca03	-0.05780984
231	0xbd0a51c7	-0.033769395
232	0x3de5c898	0.11219901
233	0xbe845148	-0.25843263
234	0xbca35666	-0.019938659
235	0x3cf5fae8	0.030026868
236	0xbe016cf1	-0.12639214
237	0x3e18fa00	0.14939117
238	0xbdf000d5	-0.11718909
239	0xbe06e60f	-0.13173698
240	0xbc5cea47	-0.01348359
241	0xbe7ccf1d	-0.24688382
242	0xbe5c5e00	-0.21520233
243	0x3cb7f00b	0.022453329
244	0x3da4447d	0.080208756
245	0xbe110ead	-0.14165755
246	0xbd14ef52	-0.036361046
247	0x3c804883	0.015659576
248	0x3defe270	0.117131114
249	0xbe046d4c	-0.12932318
250	0x3e1a4adf	0.15067624
251	0x3d9e6dcb	0.07735785
252	0x3d67f367	0.05662861
253	0xbe4677de	-0.19381663
254	0xbddbbfc3	-0.10729935
255	0xbd949067	-0.07254105

bias f4 [1000]
0	0xbcd208b8	-0.025638923
1	0x3db1b993	0.086779736
2	0x3e34cf08	0.17657101
3	0xbd2a18d4	-0.041527584
4	0xbe14195c	-0.14462799
5	0x3962dce7	0.00021635332
6	0xbe0bfbad	-0.13670225
7	0x3db0f867	0.08641129
8	0x3e786b42	0.24259666
9	0xbd5b83c7	-0.05359247
10	0x3e778ff7	0.24176012
11	0xbdd4c21a	-0.103885844
12	0xbcaf8fe3	-0.021430915
13	0x3e549de3	0.20763354
14	0x3e7629ea	0.24039426
15	0x3e3f1185	0.18659027
16	0xbd0ecf4d	-0.034865666
17	0xbd8aed73	-0.06783571
18	0x38d6e5c5	0.00010247113
19	0xbe28ad07	-0.16472255
20	0x3db5f0e2	0.088838354
21	0x3abf9a66	0.0014618158
22	0xbe35e3ca	-0.17762676
23	0xbe0a0436	-0.13478169
24	0xbdb3e700	-0.08784294
25	0x3cb2013d	0.021729106
26	0x3baac931	0.005211972
27	0x3dc06ef0	0.0939616
28	0xbde8135f	-0.1133182
29	0xbd3a3197	-0.04545745
30	0xbe12b975	-0.14328559
31	0xbd4b5daa	-0.049649872
32	0xbe0b1628	-0.1358267
33	0x3e133a37	0.14377676
34	0x3e0f36c5	0.13985737
35	0x3de9ab92	0.114096776
36	0xbd172a9f	-0.03690588
37	0x3e23ffe3	0.16015582
38	0x3d55ae88	0.0521684
39	0xbc938b40	-0.018010736
40	0x3ecdd577	0.40201923
41	0xbd02e6e6	-0.031958483
42	0x3d7ef825	0.062248368
43	0xbdf3d038	-0.11904949
44	0x3d6bb20f	0.057542857
45	0x3e062033	0.1309822
46	0x3e87ed2d	0.26548138
47	0x3e524f27	0.20538007
48	0x3e15828f	0.14600585
49	0xbd9da722	-0.07697894
50	0xbe0f6cce	-0.1400635
51	0x3e475cf3	0.19469051
52	0xbdf63747	-0.12022262
53	0xbdf85825	-0.12126187
54	0xbd5d8518	-0.054082006
55	0xbe384ad8	-0.179973
56	0xbd577fc7	-0.052612092
57	0x3ce54038	0.027984723
58	0x3e2c2aad	0.16813155
59	0xbde05a3b	-0.1095471
60	0xbddc2457	-0.10749119
61	0xbdb7c287	-0.0897265
62	0xbe02e7bb	-0.1278371
63	0x3db6fb67	0.0893467
64	0xbd286631	-0.041113082
65	0xbe1a6a40	-0.15079594
66	0x3c88593f	0.016644118
67	0x3e14abb2	0.14518622
68	0xbdba8dc5	-0.09109072
69	0xbd206e3d	-0.03916763
70	0xbc509fed	-0.012733442
71	0xbc2c9b90	-0.010535136
72	0xbd91b2b5	-0.07114164
73	0x3e00258f	0.12514327
74	0xbdd7c807	-0.10536199
75	0xbd58e8c0	-0.052956343
76	0x3e98d1d6	0.29847592
77	0xbcc0eb95	-0.023549834
78	0x3e2e05cf	0.16994403
79	0x3dfe2ca7	0.124108605
80	0xbcd6b9b5	-0.026211599
81	0xbd485b87	-0.048915412
82	0x3dacc9a1	0.08436895
83	0x3d070fc6	0.032974027
84	0x3e4da39d	0.20081945
85	0xbd7cb303	-0.061694156
86	0x3ea2a906	0.3176958
87	0xbdd6bb7b	-0.10484978
88	0xbd2d96e5	-0.042380232
89	0xbd855d92	-0.06511988
90	0xbd385df5	-0.04501148
91	0xbe394c96	-0.18095621
92	0x3e4e91ba	0.20172778
93	0xbd410d2d	-0.047131706
94	0xbc3ab1a6	-0.011394894
95	0x3e4748be	0.19461343
96	0x3d9b2f23	0.0757735
97	0x3e0f8baa	0.14018121
98	0x3e109e2e	0.14122841
99	0xbe2b63ef	-0.1673734
100	0x3eae8e43	0.34092912
101	0xbe0b6872	-0.13614061
102	0x3d7f7d6a	0.062375464
103	0x3e695aba	0.22788516
104	0x3e8ce38f	0.27517363
105	0x3e2e4af4	0.1702078
106	0xbd742460	-0.059605002
107	0xbdc44f0c	-0.095853895
108	0x3cf7c0d2	0.030243311
109	0xbcb243b9	-0.021760808
110	0xbe0e55d0	-0.13899922
111	0x3d0f29c7	0.03495195
112	0xbda6461b	-0.0811884
113	0xbd383b8d	-0.044978667
114	0x3e52f16a	0.20599905
115	0xbdce2f3b	-0.10067602
116	0x3e49ae7b	0.19695465
117	0x3e69c112	0.22827557
118	0x3e7e7362	0.24848703
119	0xbdcad205	-0.09903339
120	0x3d5a746b	0.05333368
121	0xbcd56278	-0.02604793
122	0xbe14ed7f	-0.14543723
123	0x3e4aa1c7	0.19788276
124	0x3e196e8a	0.14983574
125	0x3e9c146b	0.30484328
126	0x3ba09824	0.004900949
127	0x3c2da91d	0.010599402
128	0x3e349b9a	0.17637482
129	0xbdbfccef	-0.0936526
130	0xbdfcd4fd	-0.12345312
131	0xbdfa5eef	-0.122251384
132	0x3cf77b42	0.030210141
133	0xbdbbb30f	-0.09165012
134	0x3e49468c	0.19655818
135	0xbc682223	-0.014168295
136	0xbc8ddff4	-0.017318703
137	0x3dee9038	0.11648601
138	0xbdfaa057	-0.12237614
139	0xbd3aee3b	-0.04563735
140	0xbded480b	-0.11586007
141	0x3dec9997	0.115527324
142	0xbdf5afca	-0.1199642
143	0xbd3467b9	-0.04404423
144	0x3e353ce8	0.17699015
145	0xbe212cd2	-0.15739754
146	0x3e777882	0.24167064
147	0xbc787715	-0.01516511
148	0x3dc29e32	0.095028296
149	0x3e25c74b	0.16189305
150	0x3e593745	0.2121249
151	0x3de5671a	0.11201306
152	0xbdb488d3	-0.0881516
153	0xbd3a7f90	-0.04553181
154	0x3da15f67	0.07879525
155	0x3da88361	0.082281835
156	0x3d9640ef	0.07336604
157	0xbd1bc900	-0.038033485
158	0xbdb78e29	-0.08962662
159	0x3e35677c	0.17715257
160	0x3e0be47a	0.13661376
161	0x3d9b43a8	0.07581264
162	0xbd3e900f	-0.046524104
163	0xbb821b01	-0.0039705043
164	0x3e3f1d37	0.18663488
165	0xbd1a953f	-0.03773999
166	0x3d7c3edd	0.06158339
167	0xbc92c71b	-0.017917207
168	0x3d905610	0.07047665
169	0x3dc06696	0.09394567
170	0xbdf61bdb	-0.12017032
171	0xbdb9a15b	-0.09063979
172	0xbdc7aafe	-0.09749411
173	0x3d9ee95d	0.07759354
174	0xbcf547ab	-0.0299414
175	0x3e9f5439	0.31118944
176	0x383ec9c5	4.5487443e-05
177	0xbe4178ef	-0.18893789
178	0x3e3c799e	0.18405768
179	0x3e465dc8	0.19371712
180	0xbdffd3cd	-0.1249157
181	0x3e0c7d3f	0.13719653
182	0x3dcbbb04	0.0994778
183	0xbda9cc41	-0.082909115
184	0x3e0e8b0d	0.13920231
185	0xbca0f06e	-0.019645896
186	0x3bb56490	0.0055356696
187	0xbd8c31b9	-0.06845421
188	0xbdc206cc	-0.09473953
189	0x3e8f5e77	0.28001758
190	0x3d08d6ef	0.0334081
191	0xbe0aee78	-0.13567531
192	0x3e077d3e	0.1323137
193	0x3e76c512	0.24098614
194	0xbe0bab4f	-0.13639568
195	0xbe0b0e8f	-0.13579772
196	0xbd87349f	-0.066018336
197	0xbe1fdbf3	-0.15611248
198	0x3e7e356b	0.24825065
199	0xbdcbf6c3	-0.099591754
200	0xbd715625	-0.058920044
201	0x3dcab758	0.09898251
202	0x3e889e07	0.26683065
203	0x3de2304a	0.11044367
204	0x3ec83609	0.39103726
205	0xbd40cafb	-0.047068577
206	0x3e29b9aa	0.16574731
207	0x3d5fd3fa	0.054645516
208	0x3995c584	0.00028566655
209	0xbda619fa	-0.081104234
210	0xbd4f8567	-0.05066433
211	0x3e43d57c	0.19124407
212	0xbafa730b	-0.0019107772
213	0xbe254a85	-0.16141708
214	0xbe08d73f	-0.1336336
215	0xbe1a2f2b	-0.15057056
216	0x3c845dcf	0.016158013
217	0x3c03855b	0.0080274
218	0xbe4aa34f	-0.1978886
219	0x3e92ee35	0.28697363
220	0xbd09c424	-0.03363432
221	0xbe7e2322	-0.2481809
222	0x3d58a52b	0.05289189
223	0xbda4c058	-0.08044499
224	0xbe450e97	-0.19243847
225	0x3e6a43e3	0.22877459
226	0xbd9a8ac7	-0.07546001
227	0xbd98911f	-0.07449555
228	0xbe0cfde2	-0.13768724
229	0x3d8d1e52	0.06890549
230	0x3ed327da	0.41241342
231	0xbe055610	-0.13021111
232	0x3c14f6ec	0.009092074
233	0xbd7fbe07	-0.062437084
234	0x3e23b495	0.15986855
235	0x3e7192ad	0.23591109
236	0x3e589af7	0.21152864
237	0x3e4bad65	0.19890364
238	0x3ea44269	0.32081917
239	0x3e2b8233	0.16748886
240	0x3e9181d7	0.28419372
241	0xbd86d79a	-0.065840915
242	0x3e61fe07	0.2206956
243	0xbca3d391	-0.019998344
244	0x3e5d6347	0.21619903
245	0x3d4bbe96	0.049742304
246	0xbd7597f5	-0.05995937
247	0xbd537deb	-0.051633757
248	0xbd1490b0	-0.036270797
249	0x3d4e251a	0.05032835
250	0x3e17d7db	0.14828436
251	0x3dd12abf	0.10213231
252	0x3da7782b	0.08177217
253	0x3e2bfaa2	0.16794828
254	0x3a45c07f	0.0007543638
255	0x3e073307	0.13203059

weight f4 [15, 1000]
0	0xbe11eb29	-0.14249863
1	0xbbcae843	-0.0061922385
2	0x3ca82f4b	0.020530364
3	0x3d0ff787	0.03514817
4	0xbc226e7c	-0.009914037
5	0xbb04dc0d	-0.0020272762
6	0xbda57cfc	-0.080804795
7	0xbb7fc338	-0.0039026272
8	0xbd30aeb0	-0.043135345
9	0x3dca29e4	0.09871271
10	0xbabeec58	-0.0014566286
11	0x3cf17ebf	0.029479383
12	0xba03d927	-0.00050296116
13	0x3dc8f427	0.09812193
14	0x3d00a063	0.031402957
15	0xbda52487	-0.08063608
16	0xbce67452	-0.028131638
17	0xbd8e1f97	-0.06939619
18	0xbdfd2daf	-0.12362229
19	0xbc34f677	-0.01104509
20	0xbd689635	-0.056783874
21	0xbd51a2f5	-0.0511808
22	0xbb392072	-0.0028248099
23	0xbd056942	-0.032571085
24	0xbd0a47ec	-0.033759996
25	0x3d027433	0.031849097
26	0xbd9749a2	-0.07387091
27	0xbc98172b	-0.018565735
28	0x3c426ea3	0.011867198
29	0x3c25064e	0.010072304
30	0xbcb51d9d	-0.022108847
31	0xbc126529	-0.008935251
32	0x3d856e8f	0.06515228
33	0x3b8d0aeb	0.00430428
34	0xbd5cd563	-0.05391444
35	0xbd570082	-0.05249072
36	0xbdca9482	-0.09891607
37	0xbc00c01b	-0.0078583015
38	0x3af209c8	0.001846605
39	0xbcce6175	-0.025192956
40	0xbd6d2725	-0.05789866
41	0x3dad31c7	0.0845676
42	0x3d24384d	0.040092755
43	0xbc9e7720	-0.019343913
44	0x3bd5e8ab	0.0065279803
45	0xbe03c3bf	-0.1286764
46	0x3c9c1858	0.019054577
47	0xbd6db96b	-0.058038156
48	0xbd4b7f13	-0.049681734
49	0xbd4ffdc0	-0.050779104
50	0x3cd471b2	0.02593312
51	0xbd101c49	-0.035183225
52	0xbe054287	-0.1301366
53	0xbcfdbc88	-0.030973688
54	0x3d8bed74	0.068324
55	0xbd7896b2	-0.06069059
56	0xbb918405	-0.004440787
57	0xbd9020dd	-0.07037518
58	0xbde16023	-0.11004665
59	0x3c8ce3de	0.0171985
60	0xbc10bb3c	-0.008833703
61	0xbd215715	-0.03938969
62	0xbd8aaa92	-0.06770815
63	0xbd45a465	-0.048252482
64	0x3de49a75	0.11162273
65	0xbd1d07c1	-0.038337473
66	0xbcb8bf20	-0.022552073
67	0xbd04756d	-0.03233855
68	0xbcadef89	-0.021232383
69	0x3c01800b	0.007904063
70	0x3c2f3dc3	0.0106958775
71	0xbd66d678	-0.056356877
72	0xbccd0742	-0.025027875
73	0x3d8908fe	0.06691168
74	0x3c1b3a67	0.009474373
75	0x3c894175	0.016754845
76	0xbd3bdbed	-0.045864034
77	0xbd1930fe	-0.03740024
78	0xbbc430d9	-0.0059872684
79	0x3ce065fa	0.027392376
80	0xbc682c95	-0.014170785
81	0xbca9d06a	-0.020729262
82	0xbd1198a7	-0.03554597
83	0xbd720bfb	-0.059093457
84	0x3d05da2e	0.032678775
85	0xbb3fe56f	-0.002928104
86	0xbd36472b	-0.044501465
87	0xbd00468c	-0.03131728
88	0xbd86ce3b	-0.06582304
89	0xbd5ce725	-0.053931374
90	0xbd30edd6	-0.043195568
91	0xbda3dd03	-0.08001139
92	0xbc05c981	-0.008165718
93	0x3d09003f	0.0334475
94	0x3db695aa	0.08915265
95	0x3d47ea45	0.0488074
96	0xbd5a437a	-0.053287007
97	0xbd950e81	-0.07278157
98	0xbc712efa	-0.014720673
99	0xbcea6d75	-0.028616646
100	0x3c5fccf0	0.013659701
101	0xbd80e29f	-0.062932245
102	0x3cf31d4d	0.029677058
103	0xbd3f1e17	-0.046659555
104	0xbc3058d1	-0.010763363
105	0xbcf6ee5a	-0.030142952
106	0x3d8de0c8	0.06927639
107	0xbd55c985	-0.052194137
108	0x3d6cc6fa	0.057806946
109	0xbd3b99ae	-0.045800857
110	0x3d415dbd	0.047208536
111	0x3bca6bc5	0.006177398
112	0xbce066d0	-0.027392775
113	0x3bf70e1f	0.007539525
114	0xbd13ca3e	-0.036081545
115	0xbcdacdb8	-0.026709422
116	0xbdb6947b	-0.08915039
117	0x3d8a16e7	0.067426495
118	0xbd17c98b	-0.03705744
119	0xbca18ded	-0.019720996
120	0x3d75bdba	0.05999539
121	0x3a4047eb	0.00073349354
122	0xbdfab498	-0.12241477
123	0xbda4bcbb	-0.0804381
124	0xbd1b6a48	-0.037943155
125	0xbc112c3f	-0.008860647
126	0xbc83e362	-0.016099636
127	0xbc584718	-0.013200544
128	0xbda7782f	-0.0817722
129	0x3d31e007	0.04342654
130	0xbd8ebc46	-0.06969504
131	0xbd66738d	-0.05626254
132	0xbd1a8a26	-0.037729405
133	0xbd63bbed	-0.055599142
134	0xbd5054dd	-0.050862182
135	0x3d3f4763	0.04669894
136	0x3d724052	0.059143372
137	0xbc4466d8	-0.0119874105
138	0x3cabe46f	0.020982949
139	0xbc833500	-0.016016483
140	0x3c06af6e	0.008220537
141	0x3c50d8d3	0.012747007
142	0x3bc3778c	0.005965179
143	0xba62f4d0	-0.0008657696
144	0xbcf2105a	-0.029548813
145	0x3d944ab7	0.07240813
146	0x3b10bd01	0.0022085311
147	0xbbdeb487	-0.006796423
148	0x3c387990	0.0112594515
149	0x3c93261d	0.01796251
150	0xbd13e875	-0.03611036
151	0xbd83cb50	-0.06435263
152	0xbce8835d	-0.028382951
153	0xbd16ff4c	-0.036864564
154	0xbd821fa0	-0.06353688
155	0xbda4577c	-0.08024499
156	0xbdcef848	-0.1010595
157	0xbd2732ea	-0.04082004
158	0x3b61ff23	0.0034484349
159	0xbd85b427	-0.06528502
160	0xbb8bd48a	-0.00426728
161	0xbc2c0efb	-0.0105016185
162	0x3c3f0207	0.011658198
163	0x3d83bd02	0.06432535
164	0x3d9fbbd0	0.07799494
165	0x3d8b3a56	0.06798236
166	0xbaacb6a1	-0.0013176986
167	0x3dfab015	0.12240616
168	0xbc0c5df7	-0.008567325
169	0x3c2847d3	0.0102710305
170	0xbcd396f0	-0.025828809
171	0xbd22a46f	-0.039707597
172	0xbd0537b7	-0.032523837
173	0xbd3d4d3b	-0.04621623
174	0xbc672cf8	-0.0141098425
175	0xbd150327	-0.03637996
176	0xbc98b3b7	-0.018640382
177	0x3d95e1e3	0.07318475
178	0x3c710f8b	0.014713178
179	0xbd287418	-0.04112634
180	0xbcafeb53	-0.021474516
181	0x3db0f42b	0.08640321
182	0xbcb22fae	-0.021751251
183	0xbdd2fef0	-0.10302532
184	0xbc9e0dc3	-0.019293671
185	0xbd23af1f	-0.03996193
186	0x3c8678e3	0.016415065
187	0xbdb9c723	-0.090711854
188	0x3cf7c20f	0.030243902
189	0x3c9c092f	0.019047348
190	0xbcf519c2	-0.029919509
191	0x3be6fd42	0.0070492337
192	0x3d082ef0	0.033247888
193	0x3c11ad92	0.00889148
194	0xbcbb05e7	-0.022829963
195	0xbce36b75	-0.0277612
196	0x3cb9810b	0.02264454
197	0x3dd48d95	0.10378567
198	0xbd3c37ff	-0.04595184
199	0xbceb663b	-0.02873527
200	0xbd26fe37	-0.040769782
201	0x3de64800	0.11244202
202	0xbd430998	-0.04761657
203	0xbd12da2a	-0.03585259
204	0xbe00c9e6	-0.12577018
205	0x3c7073cd	0.014676047
206	0xbcb1ac0d	-0.021688486
207	0xbcc59831	-0.024120422
208	0xbd84682f	-0.06465184
209	0xbd047b03	-0.032343876
210	0xbd9c2825	-0.076248445
211	0xb9443313	-0.00018711043
212	0x3e139a47	0.14414321
213	0xbcba8cd0	-0.022772223
214	0xbdbd0c14	-0.09230819
215	0xba381d22	-0.0007023384
216	0xbc80d97b	-0.015728703
217	0xbd67b303	-0.056567203
218	0xbcda4a8d	-0.026646877
219	0xbd670ed2	-0.056410618
220	0x3d9a3eb0	0.07531488
221	0xbd5652d0	-0.05232507
222	0x3cb4892f	0.02203807
223	0xbd29e3ec	-0.04147713
224	0x3bf222dd	0.00738941
225	0xbd36c59d	-0.044622052
226	0xbc1dae1d	-0.009624031
227	0xbd12c0ea	-0.03582851
228	0x3c9846f3	0.018588519
229	0xbc8d9971	-0.01728508
230	0xbde3797d	-0.111071564
231	0xbad086ad	-0.0015909277
232	0x3d4a3193	0.049363684
233	0xbc7f567a	-0.015584582
234	0xbd3a1a63	-0.04543532
235	0xbcff2a77	-0.031148179
236	0xbc59fab2	-0.013304399
237	0xbdd9b7ed	-0.10630784
238	0xbc5a0c53	-0.013308602
239	0xbcd36dc3	-0.025809174
240	0x3ad5816f	0.0016289185
241	0xbd7b18a8	-0.06130281
242	0x3c710af3	0.014712083
243	0xbd2da63c	-0.04239486
244	0xbd7154ea	-0.05891887
245	0xba8fa999	-0.0010960578
246	0x3ceb16a8	0.028697327
247	0xbaa16233	-0.0012312591
248	0xbcb7bbac	-0.022428356
249	0xbc72881b	-0.014802958
250	0xbbb8331a	-0.005621326
251	0x3da465b0	0.08027208
252	0xbb4118ae	-0.0029464173
253	0xbc001443	-0.007817331
254	0xbc874ec8	-0.016517058
255	0xbd6f50c2	-0.058426626

bias f4 [15]
0	0xbdc5ddce	-0.096614465
1	0x3c369099	0.011142873
2	0xbe315943	-0.17319207
3	0xbe0a2c4c	-0.1349346
4	0x3f2ad046	0.6672405
5	0x3f179ebd	0.5922659
6	0x3f28ee7e	0.6598891
7	0x3efbc560	0.49174023
8	0xbf16a6d7	-0.5884833
9	0xbdf494bd	-0.11942432
10	0xbc7c1ff5	-0.0153884785
11	0xbf37315e	-0.71559703
12	0xbe35e5aa	-0.17763391
13	0xbe3c5793	-0.18392782
14	0xbe5dfe6f	-0.2167909
