checkpoints/64sgd45feature_lstm_num_comm999_an15_sn3_D5_al1_E5_B64_lr0.05_num_clients100_cf0.1.pth (torch, 285975 bytes, 9 tensors)

weight_ih_l0 f4 [400, 45]
0	0x3d84f77d	0.06492517
1	0x3dab1e54	0.08355394
2	0x3d59b782	0.053153522
3	0xbcb6ad0e	-0.022299316
4	0xbdd05805	-0.101730384
5	0xbce66c04	-0.028127678
6	0x3d6480ff	0.055787083
7	0x3d6452a0	0.05574286
8	0xbb97809b	-0.0046234853
9	0x3ca7218b	0.020401737
10	0x3d480d11	0.048840586
11	0xbd4b2f3f	-0.049605604
12	0x3d785cd6	0.06063541
13	0x3d45bd7b	0.048276406
14	0x3d43a82c	0.047767803
15	0x3c2a880e	0.0104084145
16	0x3cc7b84a	0.024379868
17	0x3d8caae3	0.068685316
18	0x3c6cc505	0.01445127
19	0xbdd1d945	-0.10246519
20	0x3daaaf80	0.08334255
21	0xbd679d6b	-0.05654661
22	0x3d960ba7	0.07326441
23	0xbc4a3c35	-0.012343456
24	0xbcb5e1d7	-0.022202415
25	0xbd8f95e5	-0.07011012
26	0xbdc9c255	-0.09851519
27	0x3b642920	0.0034814551
28	0xbdacc8de	-0.0843675
29	0xbd450c55	-0.048107464
30	0x3d0f2c98	0.034954637
31	0x3ac2b507	0.0014854976
32	0x3dac2b2e	0.08406673
33	0xbd2af607	-0.041738536
34	0x3c7da229	0.0154805565
35	0xbd535366	-0.051593207
36	0xbdc66580	-0.09687328
37	0xbc0f6f03	-0.008754495
38	0x3ccb021f	0.024781285
39	0x3cff30e8	0.03115125
40	0x3b9adb0b	0.004725819
41	0x3d9e4bfe	0.07729338
42	0x3d9b198c	0.07573232
43	0x3d22ea4a	0.039774217
44	0xbbe3c97f	-0.0069515104
45	0x3ca08006	0.019592296
46	0x3ceeaa59	0.029133962
47	0x3c0e2529	0.008675852
48	0x3d55a30d	0.05215745
49	0x3da2436a	0.079230145
50	0xbdaf30cd	-0.0855423
51	0x3db16cb4	0.086633116
52	0xbd2e4647	-0.04254749
53	0x3d353e40	0.04424882
54	0x3cdae19f	0.026718913
55	0x3de5c6a5	0.11219529
56	0xbcff9a31	-0.031201454
57	0x3b493fc5	0.0030708176
58	0x3ce90448	0.028444424
59	0x3da76707	0.08173948
60	0x3c191877	0.009344212
61	0x3d9b9699	0.075970836
62	0xbc17fde0	-0.009276837
63	0x3d362f49	0.04447869
64	0x3ce23662	0.027613822
65	0x3e008a43	0.12552743
66	0x3d116609	0.0354977
67	0x3d1c53ca	0.038165845
68	0xbcf0be4f	-0.029387621
69	0xbd73c696	-0.05951556
70	0x3cd845aa	0.026400406
71	0x3ce8fd48	0.028441086
72	0xbda3fe69	-0.08007509
73	0xbdb05a13	-0.0861093
74	0xbd93d0e6	-0.072175786
75	0xbd28eb2a	-0.041239895
76	0xbca7dc3d	-0.02049076
77	0x3c02e244	0.007988516
78	0xbdc02244	-0.09381536
79	0xbcd1e2cb	-0.025620839
80	0x3d863009	0.06552131
81	0x3b73efc1	0.0037221762
82	0x3d13337e	0.03593778
83	0xbd87a63b	-0.06623503
84	0x3dc8fa4f	0.098133676
85	0xbcf4871a	-0.029849578
86	0xbd9e68b4	-0.07734814
87	0xbd7f6e78	-0.06236121
88	0x3b9276df	0.004469737
89	0xbd24af62	-0.04020632
90	0xbcc7aa8b	-0.024373313
91	0xbd83cf5c	-0.06436035
92	0x3c136131	0.00899534
93	0xbc263b40	-0.010145962
94	0xbc0f7e55	-0.008758147
95	0xbd98b74d	-0.07456837
96	0x3cc9df8f	0.024642734
97	0xbdae2809	-0.0850373
98	0x3dbaee2c	0.09127459
99	0x3de4f7a3	0.111800455
100	0x3dba10be	0.090852246
101	0x3dc72aa4	0.0972493
102	0xbd5279f5	-0.05138584
103	0x3da2753d	0.07932518
104	0xbc8d76f7	-0.01726864
105	0xbbe18121	-0.0068818484
106	0xbcafa5c2	-0.021441344
107	0x3db548e9	0.08851797
108	0xbb1d6a03	-0.0024019487
109	0xbdc75137	-0.097322874
110	0xbcd8349d	-0.026392275
111	0x3db709d8	0.089374244
112	0x3d48d5d8	0.049032062
113	0x3c5942c2	0.013260545
114	0xbdaf6597	-0.085642986
115	0xbdb7b5d7	-0.0897023
116	0xbd2abfa2	-0.04168666
117	0xbe280e2e	-0.16411659
118	0x3d7abfed	0.06121819
119	0xbdbc8a35	-0.092060484
120	0xbd374c3b	-0.044750433
121	0xbdc9e803	-0.09858706
122	0x3c7d52a6	0.015461599
123	0x3cd9c208	0.02658178
124	0xbc0be8c2	-0.0085393805
125	0xbd32872c	-0.04358594
126	0x3c3c6b4a	0.011500189
127	0xbc0f935f	-0.008763163
128	0x3da10cc6	0.078637645
129	0x3d97feba	0.07421632
130	0xbc70fa47	-0.014708108
131	0x3c355687	0.011067993
132	0xbd90808a	-0.07055767
133	0x3dc2e4cf	0.09516298
134	0x3d008e28	0.03138557
135	0x3dfe3b3e	0.12413643
136	0x3cfd28fb	0.03090333
137	0xbc881dcc	-0.01661577
138	0x3da8f4d8	0.08249825
139	0xbd8f2bb1	-0.06990755
140	0x3d3cffc7	0.046142366
141	0x3d97646b	0.073922
142	0x3cb75c8a	0.022382993
143	0xbdbeed32	-0.09322585
144	0x3d08b51d	0.033375848
145	0x3e21e7de	0.15811107
146	0x3dd39bb3	0.10332432
147	0xbd72e148	-0.059296876
148	0xbd4d763c	-0.050161585
149	0x3d03a2b1	0.032137576
150	0x3da17cca	0.0788513
151	0xbd6cb0d6	-0.05778583
152	0x3da32c98	0.0796749
153	0x3b4b4a9e	0.0031019817
154	0xbd8d8666	-0.069104
155	0x3e338364	0.1753059
156	0xbc9e2914	-0.019306697
157	0xbc9d5199	-0.019203948
158	0xbd793cb3	-0.060848903
159	0x3dfbf20c	0.12302026
160	0xbda6d493	-0.08146014
161	0xbd9a1727	-0.07523947
162	0x3e085d74	0.133169
163	0xbd840b6b	-0.0644749
164	0x3d1b1c5d	0.037868846
165	0x3d8f1243	0.06985905
166	0xbbf93342	-0.0076049874
167	0xbd8bcb80	-0.06825924
168	0xbdbd129e	-0.092320666
169	0x3dc842d5	0.09778372
170	0xbbb4f0f6	-0.005521889
171	0x3dde3eba	0.10851808
172	0x3d964012	0.07336439
173	0x3d6e7534	0.058217242
174	0xbdecd8f8	-0.11564821
175	0xbdafd17b	-0.08584877
176	0xbc9b6163	-0.018967336
177	0xbc864635	-0.0163909
178	0xbc86d86e	-0.016460624
179	0xbdbb3ab3	-0.09142055
180	0x3d91136d	0.07083783
181	0xbddbd4cd	-0.10733948
182	0x3d7abf07	0.061217334
183	0x3b8d68f7	0.0043154913
184	0x3d9a3a2b	0.07530626
185	0xbda465a4	-0.08027199
186	0xbdcb4ea9	-0.099271126
187	0x3d8c47bc	0.0684962
188	0xbd6c0065	-0.057617564
189	0x3c6c20ac	0.014412086
190	0x3d86717b	0.065646134
191	0x3bdddc9a	0.0067706825
192	0x3d4b8d46	0.049695276
193	0xbdc23588	-0.094828665
194	0xbdb61def	-0.08892428
195	0x3db8a97d	0.09016702
196	0xbdb5ae8f	-0.08871185
197	0x3c18c42e	0.009324117
198	0xbc152bb5	-0.009104659
199	0x3ce731fc	0.028222077
200	0x3db43f80	0.08801174
201	0xbcd78189	-0.026306884
202	0xbc111523	-0.008855137
203	0xbcf66d28	-0.030081347
204	0xbd3e36e3	-0.046439063
205	0xbcdf5cd5	-0.027265945
206	0x3da971a6	0.0827363
207	0xbe02669e	-0.12734458
208	0xbdaef256	-0.08542316
209	0xbdce62e9	-0.10077459
210	0xbcc543a2	-0.024080101
211	0xbcc48730	-0.023990244
212	0x3c9abac7	0.01888789
213	0x3c786c27	0.015162504
214	0xbd7a2613	-0.061071467
215	0x3d249472	0.04018063
216	0x3d69b5bd	0.057058085
217	0xbd293185	-0.04130699
218	0x3c4dfee8	0.012572981
219	0x3dcd17dc	0.100143164
220	0x3c06b4b8	0.008221798
221	0xbd0493db	-0.03236757
222	0x3be58ffa	0.0070056887
223	0xbd12bf49	-0.035826955
224	0xbc864ebb	-0.016394963
225	0xbd098e49	-0.03358296
226	0xbe16da8c	-0.14731807
227	0xbe2ed960	-0.1707511
228	0x3bdff450	0.0068345442
229	0xbd914343	-0.07092907
230	0xbd204118	-0.03912458
231	0x3d0c9b80	0.034327984
232	0x3e09d913	0.13461713
233	0xbe2bbf26	-0.16772136
234	0xbd57ab3f	-0.052653547
235	0xbe212c1b	-0.15739481
236	0x3c5178fa	0.012785191
237	0x3ddcb9a3	0.10777595
238	0xbd975017	-0.07388323
239	0xbdcd3075	-0.10019008
240	0x3c66bdc5	0.0140833305
241	0xbe08ebc4	-0.13371187
242	0xbe35c6e9	-0.1775166
243	0xbd4df4f2	-0.050282426
244	0x3cfa9625	0.030589173
245	0xbd81d80c	-0.06340036
246	0xbcd2c55c	-0.025728874
247	0x3a46cfdc	0.0007584074
248	0x3db3ea71	0.087849505
249	0xbd467696	-0.048452936
250	0x3dfd93f2	0.12381734
251	0x3de1a6c4	0.11018136
252	0x3d8dcab7	0.069234304
253	0xbde11f5d	-0.1099231
254	0xbd566b54	-0.05234845
255	0xbce7cf49	-0.028297083

weight_hh_l0 f4 [400, 100]
0	0xbcb37c1f	-0.021909771
1	0xbce7f10a	-0.028313179
2	0xbd15db47	-0.036586072
3	0xbc685961	-0.014181466
4	0x3d805ab5	0.06267301
5	0xbd1183f5	-0.035526235
6	0x3d8bbe7c	0.068234414
7	0xbdccf2bc	-0.100072354
8	0x3ce46385	0.027879486
9	0xbd7d8aa0	-0.06189978
10	0x3d760954	0.06006749
11	0x3ccee7bc	0.025256984
12	0x3db2df20	0.08733964
13	0x3d4b03fd	0.04956435
14	0xbdb6cdad	-0.08925948
15	0xbcd98634	-0.02655325
16	0xbd7d34d5	-0.061817963
17	0x3ccb5605	0.02482129
18	0xbd76ebfe	-0.060283653
19	0x3cc882a0	0.02447635
20	0xbd875b82	-0.066092506
21	0xbcd340e2	-0.025787774
22	0x3d56ad12	0.052411146
23	0x3d0c51c4	0.034257665
24	0x3d047941	0.0323422
25	0x3cc13c56	0.02358834
26	0x3db6163b	0.08890959
27	0xbba5e336	-0.005062486
28	0x3c972246	0.01844896
29	0xbd5b198c	-0.05349116
30	0x3db98af7	0.090597086
31	0xbd88ec57	-0.06685703
32	0xbcb3947d	-0.02192139
33	0xbdcb43af	-0.09925019
34	0xbdcd762e	-0.100323066
35	0x3c770c41	0.015078605
36	0x3a7db576	0.0009678224
37	0xbdc105b5	-0.09424917
38	0x3d43f474	0.04784055
39	0xbcff0151	-0.031128557
40	0xbda67010	-0.08126843
41	0x3d965ab1	0.07341517
42	0x3c900b73	0.017583584
43	0xbc12f607	-0.00896979
44	0xbd4f0cf2	-0.050549455
45	0x37831609	1.5626678e-05
46	0xbbcf8cdc	-0.0063339304
47	0x3c141943	0.009039226
48	0x3c65837e	0.014008401
49	0xbd1fcb5d	-0.0390123
50	0xbd05febd	-0.03271364
51	0x3d3f9aa9	0.046778355
52	0x3c34b9d0	0.011030629
53	0xb9877795	-0.00025838302
54	0x3d9bf04d	0.07614193
55	0x3c2daaee	0.010599835
56	0x3d492047	0.049103048
57	0x3dbbf4a5	0.091775216
58	0x3cefca0b	0.029271146
59	0x3dc2b502	0.09507181
60	0x3d15d05c	0.03657566
61	0xbd491cd5	-0.049099762
62	0xbdbed527	-0.09317999
63	0x3d99169b	0.07475015
64	0xbd47f627	-0.048818734
65	0x3d8db423	0.06919124
66	0x3dbcfec0	0.09228277
67	0x3ca4abf6	0.020101529
68	0xbdadb5bd	-0.084819295
69	0xbd48263b	-0.048864584
70	0x3d8edc10	0.06975567
71	0x3d5cffea	0.053954996
72	0xbc20fe97	-0.009826324
73	0x3d3c7c32	0.04601688
74	0x3d841012	0.06448378
75	0x3b975697	0.0046184766
76	0x3c899ffa	0.016799916
77	0xbb79d80f	-0.0038123166
78	0xbd29bbd2	-0.041438885
79	0xbd0c203d	-0.034210432
80	0xbd233ec2	-0.039854772
81	0x3dc6020b	0.096683584
82	0xbdc3851c	-0.09546873
83	0x3cb70684	0.022341974
84	0x3db05f20	0.08611894
85	0x3ce2b350	0.027673393
86	0xbc931eb0	-0.017958969
87	0x3d4b5f0d	0.049651194
88	0x3d2ec45e	0.04266774
89	0xbdaf6fcb	-0.08566245
90	0xb7a38bad	-1.9496156e-05
91	0xbd2444da	-0.040104724
92	0x3dc5616c	0.096377224
93	0xbc9b9a68	-0.018994525
94	0x3ce37fa3	0.027770823
95	0x3dc718bb	0.09721514
96	0x3cd2f61b	0.025752118
97	0x3d4f9c09	0.050685916
98	0x3dc77018	0.09738177
99	0x3cd3f8da	0.025875498
100	0xbc3b7e35	-0.011443664
101	0xbda8681f	-0.082229845
102	0xbcb85287	-0.02250029
103	0xbd76077b	-0.060065728
104	0xbd89c73d	-0.06727455
105	0xbd21ef5f	-0.039534923
106	0xbd8e6c6d	-0.06954274
107	0xbd808656	-0.062756225
108	0xbbe0c439	-0.006859329
109	0xbdcbf7f5	-0.099594034
110	0xbd38382e	-0.044975452
111	0xbc52e93d	-0.012872991
112	0xbd0b3b04	-0.03399183
113	0xbd9ed60b	-0.07755669
114	0x3d0d4a07	0.034494426
115	0x3d764252	0.06012184
116	0xbd09bf14	-0.033629492
117	0xbd3a168e	-0.045431666
118	0xbd14db2a	-0.036341824
119	0xbd85c2e4	-0.06531313
120	0x3baca407	0.005268577
121	0x3d961373	0.073279284
122	0xbce017ad	-0.02735504
123	0xbcadda23	-0.02122218
124	0xbce55c39	-0.027998077
125	0xbdb0bc50	-0.08629668
126	0xba999e9f	-0.0011720246
127	0x3b2ead95	0.0026653756
128	0x3d34f727	0.044181015
129	0x3d9553ba	0.0729136
130	0xbda353a0	-0.079749346
131	0xbdb4a817	-0.08821123
132	0x3d8c8123	0.068605684
133	0xbdc374ac	-0.09543738
134	0x3d755fe0	0.059905887
135	0x3d62f561	0.055409793
136	0xbda101fe	-0.07861708
137	0x3d2471ed	0.04014771
138	0xbcb1ecef	-0.021719424
139	0x3da25656	0.079266235
140	0xbdae8597	-0.08521574
141	0x39d2e6ad	0.00040226188
142	0x3d85922d	0.065220214
143	0xbc9ab7bd	-0.018886441
144	0xbd7cb67f	-0.06169748
145	0x3d60bb0e	0.05486589
146	0x3c8e6422	0.017381731
147	0xbdb516ec	-0.088422626
148	0x3d0f11b9	0.03492901
149	0xbdbcb19c	-0.09213564
150	0xbd9af60a	-0.075664595
151	0xbd924f95	-0.07144085
152	0x3d3cf919	0.046135996
153	0xbdc22b0a	-0.09480865
154	0x3becc145	0.007225188
155	0x3d0ee0eb	0.034882467
156	0xbb7dc410	-0.0038721599
157	0x3dbafc80	0.09130192
158	0xbd59ab6c	-0.053141996
159	0xbd61d292	-0.055132456
160	0xbda38256	-0.07983844
161	0x3d762370	0.06009239
162	0xbd9f1955	-0.077685036
163	0xbd8b7db1	-0.06811083
164	0x3d5a2466	0.05325737
165	0xbc964b10	-0.01834634
166	0x3ced26dc	0.028949194
167	0x3c9766b4	0.01848159
168	0x3d5ce48b	0.053928893
169	0x3d3d649c	0.046238527
170	0x3de20cec	0.11037621
171	0x3cd1e5f6	0.02562235
172	0x3d934825	0.07191495
173	0xbd67c1b6	-0.05658122
174	0x3c35fa95	0.011107107
175	0xbda586fb	-0.08082386
176	0xbd70b4e9	-0.05876628
177	0x3dc3fa65	0.09569243
178	0xbdbd90fc	-0.09256169
179	0x3c104ada	0.0088069085
180	0x3d150731	0.03638381
181	0xbc04d376	-0.008107057
182	0xbd2d87c4	-0.042365804
183	0x3cd82aa4	0.02638752
184	0x3d8a3d29	0.067499466
185	0x3dd4193d	0.10356376
186	0x3d9bfb30	0.076162696
187	0x3d84320b	0.064548574
188	0x3cbd14ec	0.023081265
189	0xbd2cd209	-0.042192493
190	0x3da90b0a	0.08254059
191	0x3cfe552e	0.031046476
192	0xbd3d8bb6	-0.046275817
193	0xbc9c1ea2	-0.019057576
194	0x3d2e460f	0.04254728
195	0xbdb04f9b	-0.086089335
196	0xbd3e324a	-0.046434678
197	0x3db4106e	0.08792196
198	0xbdc19201	-0.09451676
199	0x3d940390	0.07227242
200	0x3d8757c0	0.06608534
201	0x3d84f5c2	0.06492187
202	0xbd6d89c9	-0.05799273
203	0xbd1759ab	-0.03695075
204	0xbd391155	-0.045182545
205	0x3c84ae3d	0.016196365
206	0x3ce31ebb	0.027724614
207	0x3daea455	0.085274376
208	0x3d7f5440	0.062336206
209	0xbd644f3b	-0.055739623
210	0x3d242849	0.04007748
211	0x3cd989ab	0.026554903
212	0x3d954607	0.07288747
213	0xbd93a430	-0.07209051
214	0x3c962c9a	0.018331815
215	0xbb934e86	-0.0044954447
216	0x3daf1367	0.085486226
217	0xbc98adad	-0.018637503
218	0x3d959c1e	0.073051676
219	0xbd74056e	-0.05957549
220	0xbc610329	-0.013733664
221	0xbd80ca2c	-0.06288561
222	0xbd5bdb01	-0.053675655
223	0xbdaedc4b	-0.08538111
224	0x3d5666ed	0.05234425
225	0xbd8c18e7	-0.06840687
226	0x3c855d01	0.0162797
227	0x3d943b50	0.072378755
228	0x3cde85dc	0.027163438
229	0x3d45c9af	0.048288044
230	0x3d4bd550	0.049763978
231	0x3d8934b7	0.06699508
232	0xbdb2ab2f	-0.08724057
233	0x3d0b8979	0.03406665
234	0xbd76b0d2	-0.060227223
235	0x3d9e8238	0.07739681
236	0x3cd299b3	0.025708055
237	0xbc133505	-0.008984809
238	0xbd283a12	-0.041071005
239	0xbdb0b286	-0.08627801
240	0x3cb1c50a	0.0217004
241	0xbbf92397	-0.0076031196
242	0x3d775fea	0.060394205
243	0x3d6f9f6b	0.058501642
244	0xbd0bb505	-0.03410818
245	0xbc30f93d	-0.010801611
246	0x3d1e5615	0.038656313
247	0xbdad836c	-0.08472332
248	0x3b830965	0.0039989226
249	0x3dc6edb9	0.09713311
250	0xbd70eade	-0.058817737
251	0x3cb8c157	0.02255313
252	0x3d5bc2dc	0.05365263
253	0x3c4d2923	0.012522015
254	0x3da9ef21	0.08297563
255	0xbc502e0c	-0.012706291

bias_ih_l0 f4 [400]
0	0xbdb450be	-0.08804463
1	0x3d2d5b5a	0.042323448
2	0x3db035ba	0.086039975
3	0x3d807502	0.062723175
4	0xbbc35db9	-0.0059621003
5	0x3dc9a543	0.09845974
6	0x3d8a937d	0.067664124
7	0x3d9b1e71	0.075741656
8	0x3d8b7594	0.068095356
9	0x3d2e341d	0.042530168
10	0xbc885b0c	-0.016644977
11	0x3d3c6ade	0.046000354
12	0xbcdb7ab8	-0.026791915
13	0x3dbb63e9	0.09149916
14	0x3c9f1134	0.019417383
15	0x3d86ecec	0.06588158
16	0x3c9fe457	0.01951806
17	0x3c447e16	0.011992952
18	0x3ccf1998	0.025280759
19	0x3d164c8f	0.036694106
20	0xbc9e54d4	-0.019327559
21	0x3d91a543	0.07111599
22	0xbda90662	-0.082531705
23	0x3bb0c448	0.0053944923
24	0x3d26a214	0.040681913
25	0x3b95973f	0.004565149
26	0x3d9aa78a	0.07551487
27	0x3b4d92a4	0.0031367922
28	0x3d3aadb5	0.045575816
29	0x3d372954	0.044717148
30	0xbd23f713	-0.04003055
31	0x3ad040fb	0.0015888506
32	0x3cebcf5c	0.0287854
33	0x3ca60eb0	0.020270675
34	0x3dfd9a27	0.12382918
35	0x3ddc4c70	0.10756767
36	0xbd8eedff	-0.06978988
37	0x3d417545	0.047230978
38	0x3c6dbfe9	0.014511087
39	0xbd54b659	-0.051931713
40	0xbd2cfe16	-0.042234503
41	0xbd971648	-0.07377297
42	0x3de95529	0.11393196
43	0xbc9d6ea4	-0.019217797
44	0x3bbef05a	0.005826992
45	0x3cafa86d	0.021442616
46	0x3d96ca05	0.07362751
47	0xbcf0833e	-0.029359456
48	0x3d3826f7	0.044959035
49	0xbdacf54a	-0.08445223
50	0xbd96b33e	-0.073584065
51	0xbdbb2a1a	-0.091388896
52	0x3d98e095	0.074647106
53	0x3e0341cc	0.12818068
54	0x3a1715da	0.0005763449
55	0x3d72c245	0.0592673
56	0xbcc12ee4	-0.02358193
57	0x3d8255c1	0.063640125
58	0x3d6ffcc4	0.058590665
59	0xbd82cef6	-0.06387131
60	0xbd583dae	-0.052793197
61	0xbd658ad1	-0.05604059
62	0x3dbfe3d4	0.09369627
63	0xbc7b2871	-0.015329466
64	0xbd6d7ec0	-0.057982206
65	0x3b9fb1b9	0.004873481
66	0xbc62d9b6	-0.013845852
67	0x3d8d069e	0.06886028
68	0x3d8b3ba9	0.06798489
69	0x3d87a6a6	0.066235825
70	0x3dd80fae	0.10549866
71	0xbd9d37d9	-0.07676668
72	0xbd8dd964	-0.069262296
73	0xbcc1ce5f	-0.023657976
74	0x3c8ddec7	0.017318143
75	0xbcd60fe3	-0.026130622
76	0x3c9de4cf	0.019274144
77	0x3ca2f686	0.019892942
78	0x3dbd1dcb	0.09234198
79	0xbda47383	-0.080298446
80	0x3cd4fa5b	0.025998285
81	0xbd3a2967	-0.04544964
82	0x3deab758	0.11460751
83	0x3cd33b63	0.025785154
84	0xbd99a438	-0.07502025
85	0x3dbb3fee	0.09143053
86	0xbdc10825	-0.094253816
87	0x3d518f3f	0.051162
88	0x3d0094b0	0.0313918
89	0x3dd5b8a8	0.10435611
90	0xbcfe4125	-0.031036923
91	0x3cbccac0	0.023045897
92	0x3d0f4333	0.034976196
93	0xbd6de62e	-0.058080845
94	0xbcc96a40	-0.024586797
95	0xbcb4d066	-0.022072028
96	0x3cedca4b	0.029027125
97	0xbd387ce7	-0.04504099
98	0x3cdd40fa	0.027008522
99	0x3d44942d	0.047992874
100	0x3d1bdb7d	0.038051117
101	0xbc153357	-0.009106479
102	0x3cd50029	0.026001053
103	0xbd48504a	-0.048904695
104	0xbb519b30	-0.0031983368
105	0xbc603ecf	-0.01368685
106	0x3da6937e	0.08133601
107	0xbb845653	-0.004038611
108	0xbd9bed3c	-0.07613608
109	0xbd877d30	-0.066156745
110	0x3dfe63c5	0.12421373
111	0xbd38cec0	-0.045119047
112	0x3d1157ce	0.035484128
113	0x3e14fa66	0.14548644
114	0x3df34253	0.11877885
115	0xbd6f1af8	-0.05837533
116	0xbd374967	-0.044747736
117	0xbd3dceb0	-0.04633969
118	0x3d85074a	0.06495531
119	0x3d141727	0.036154892
120	0x3c0c2c4c	0.008555483
121	0x3d054ce7	0.032544043
122	0x3dbb437a	0.091437295
123	0x3d562086	0.05227711
124	0x3e09fce6	0.1347538
125	0x3d91d137	0.07119983
126	0x3d8e2098	0.069398105
127	0x3d85c78f	0.065322034
128	0x3d3cd51a	0.046101667
129	0xbd3bc925	-0.045846123
130	0xbd392218	-0.04519853
131	0x3d89903b	0.06716963
132	0xbc9e760b	-0.019343397
133	0xbcbb0c3f	-0.022832988
134	0x3c7b9832	0.01535611
135	0xbd3cadcf	-0.046064194
136	0x3d763307	0.060107257
137	0xbd2662c0	-0.04062152
138	0x3dd45a10	0.103687406
139	0xbd04d803	-0.032432567
140	0x3db505ef	0.08839022
141	0x3ddfb0ca	0.10922392
142	0x3e11bcab	0.14232127
143	0xbd538b84	-0.051646724
144	0xbd904acf	-0.070455186
145	0x3d9af44a	0.07566126
146	0xbc0435b1	-0.008069442
147	0xbd7685d1	-0.06018621
148	0x3da15238	0.0787701
149	0xbdb2e21b	-0.087345324
150	0x36eb65e9	7.0154097e-06
151	0xbd14ef84	-0.036361232
152	0x3db1deb5	0.08685056
153	0x3c945328	0.018106058
154	0xbd0a3966	-0.033746146
155	0xbce668d2	-0.028126154
156	0xbcc654ad	-0.024210298
157	0xbd868b56	-0.06569545
158	0x38cf134d	9.874124e-05
159	0xbcada874	-0.021198489
160	0xbc9bcacd	-0.019017601
161	0x3d1b7231	0.0379507
162	0x3cb7113f	0.02234709
163	0xbc3b39cf	-0.011427357
164	0x3dcee912	0.101030484
165	0x3dc66bdb	0.096885405
166	0xbd9b03bf	-0.07569074
167	0x3d66e38a	0.056369342
168	0xbd68858c	-0.056767985
169	0xbd18ef6a	-0.037337698
170	0x3e0e3e37	0.1389092
171	0xbd7ec416	-0.06219872
172	0xbcb94a5b	-0.022618463
173	0x3c4d3ec6	0.012527173
174	0x3c861046	0.016365182
175	0x3d24e6b1	0.040259067
176	0x3c956d05	0.018240461
177	0x3c96568a	0.018351812
178	0xbd8ee348	-0.06976944
179	0x3d856243	0.065128826
180	0x3ddd62a5	0.108098306
181	0xbd829a91	-0.063771375
182	0x3d6fc4fc	0.05853747
183	0x3dbd479b	0.09242173
184	0x3de85ab4	0.11345425
185	0x3ddbf2b3	0.107396506
186	0xbd0c97f7	-0.034324612
187	0xbd885fd6	-0.06658904
188	0x3dab12b5	0.083531775
189	0x3e1689e4	0.14701039
190	0x3de5cbe6	0.11220531
191	0x3ccbd44b	0.024881503
192	0x3cf806d3	0.030276692
193	0x3abe70fb	0.001452952
194	0xb9d1f2cf	-0.00040044493
195	0x3d8cf284	0.06882194
196	0xbc5ba2d3	-0.01340552
197	0xbc94c860	-0.018161952
198	0x3d0b2e8d	0.03397994
199	0xbcc32919	-0.023823308
200	0xbdf06cc2	-0.11739494
201	0xbe877961	-0.26459792
202	0x3d90d0a1	0.07071043
203	0xbdb5f288	-0.0888415
204	0x3dd2fc74	0.10302058
205	0x3da31ce1	0.079644926
206	0x3df138b4	0.117783934
207	0xbe810ceb	-0.25205168
208	0x3d91a644	0.07111791
209	0xbe3c5f5d	-0.18395753
210	0xbe42e554	-0.19032794
211	0xbdcd96f2	-0.10038556
212	0x3e413d61	0.1887107
213	0xbe6c3fa0	-0.23071146
214	0x3e44080e	0.19143698
215	0x3dae116e	0.08499418
216	0xbd3124ca	-0.043247975
217	0xbd7a649b	-0.0611311
218	0xbde5f2be	-0.1122794
219	0x3e4c32a0	0.19941187
220	0x3b4959e5	0.0030723747
221	0xbe1ad414	-0.15119964
222	0xbd4292b7	-0.0475032
223	0xbd8654ef	-0.065591685
224	0xbe2eae8a	-0.17058769
225	0xbcf3d44e	-0.02976432
226	0x3dd8591f	0.105638735
227	0xbd2852c1	-0.041094545
228	0xbcdeb74d	-0.027187014
229	0xbe032b82	-0.12809566
230	0x3e52343b	0.20527737
231	0xbe80a92c	-0.25129068
232	0x3e569741	0.20956136
233	0xbe028f7c	-0.12750047
234	0xbe42bd16	-0.19017443
235	0x3d0b2159	0.03396735
236	0x3e167588	0.14693272
237	0x3e1904be	0.14943215
238	0xbd8ef135	-0.069796
239	0xbdfecf34	-0.124418646
240	0x3e6a8c88	0.22905171
241	0x3d8043c5	0.06262926
242	0x3e278a8d	0.16361447
243	0x3c107139	0.008816057
244	0x3d95b3d8	0.07309693
245	0x3bde13fc	0.0067772847
246	0xbe41d39e	-0.18928382
247	0xbd4e3337	-0.05034181
248	0xbe1a82fb	-0.15089028
249	0xbca70839	-0.020389663
250	0xbda72995	-0.08162228
251	0x3d7f78f7	0.06237122
252	0x3d66a9e2	0.056314357
253	0xbe794225	-0.24341638
254	0xbd96f7cd	-0.07371483
255	0x3d345585	0.04402687

bias_hh_l0 f4 [400]
0	0x3d6f3efc	0.058409676
1	0xbc9826d6	-0.018573206
2	0x3dcb9ba0	0.099417925
3	0xbce25d21	-0.027632298
4	0xbc7d4c8c	-0.015460145
5	0x3d00e380	0.03146696
6	0xbc385f25	-0.011253153
7	0x3e087c80	0.13328743
8	0x3cd1ed5f	0.025625883
9	0x3b43cdfd	0.0029877417
10	0x3db3b354	0.087744385
11	0x3d77d332	0.060504146
12	0xbd4bce92	-0.049757548
13	0x3d303e6d	0.043028284
14	0x3d524e71	0.05134434
15	0x3d92f468	0.07175523
16	0x3dbdf3b2	0.09274997
17	0x3bc062e1	0.0058711623
18	0x3d8651eb	0.06558593
19	0x3ce1519f	0.02750474
20	0xbd812ae3	-0.06307008
21	0x3de5d205	0.11221699
22	0x3c7aa1a0	0.015297323
23	0x3d9446c6	0.072400615
24	0x3e0ec484	0.13942152
25	0x3d3115fc	0.043233857
26	0xbd6ddbaa	-0.058070816
27	0xbc43f9d0	-0.011961415
28	0xbd7a7c4a	-0.061153688
29	0x3c91ef3b	0.01781427
30	0x3d28b136	0.041184627
31	0x3df71c65	0.12065963
32	0x3d65f6a4	0.056143418
33	0xbd4ddbc0	-0.050258398
34	0x3e07eefb	0.13274758
35	0x3da54024	0.080688745
36	0x3c38df39	0.011283689
37	0xbc41e34e	-0.011833979
38	0xbb7537b1	-0.0037417228
39	0x3da2381e	0.0792086
40	0x3df4a7a0	0.119460344
41	0x3dab662c	0.08369097
42	0xbc6a370e	-0.014295353
43	0x3d75107c	0.059830174
44	0x3d19c127	0.03753772
45	0xbccd9791	-0.025096687
46	0xbcd57f30	-0.026061624
47	0x3dd52cfb	0.1040897
48	0x3cc1fed9	0.023681091
49	0x3da95e10	0.08269894
50	0x3d27c605	0.04096033
51	0xbc102f77	-0.008800379
52	0x3a68d321	0.00088815583
53	0x3da9953c	0.08280417
54	0x3db663c4	0.089057475
55	0xbb9237b3	-0.0044622063
56	0xbdc3c581	-0.09559155
57	0x3dd406a9	0.10352833
58	0x3d6b59a3	0.05745853
59	0x3d420c5f	0.04737508
60	0x3dd8b357	0.10581081
61	0x3d84de85	0.06487755
62	0x3c0813b6	0.008305481
63	0xbd3d7bd1	-0.04626066
64	0xbdaf77b3	-0.08567753
65	0x3dc8daed	0.09807382
66	0xbd6b46bc	-0.057440504
67	0x3cd25da0	0.02567941
68	0xbd9af6cf	-0.07566606
69	0x3dac52a6	0.084142014
70	0x3d51f150	0.051255524
71	0x3cdda9fe	0.027058598
72	0xbdb05f64	-0.08611944
73	0x3de7a07b	0.11309906
74	0x3dc3447b	0.09534546
75	0x3cc5f5d4	0.024165072
76	0xbd90c11c	-0.07068083
77	0xbb81dcde	-0.003963097
78	0x3c79653e	0.015221892
79	0x3c342295	0.010994573
80	0x3cef8603	0.029238706
81	0x3d59f777	0.053214516
82	0xbd0ee976	-0.034890614
83	0xbd9fe2a3	-0.078068994
84	0xbd793852	-0.060844727
85	0x3d0c1657	0.034200992
86	0x3d1b743e	0.037952654
87	0x3dd3d457	0.10343235
88	0xbd663c79	-0.056210015
89	0x3da9868b	0.08277615
90	0xbd8fd93d	-0.07023857
91	0xbc53421a	-0.012894178
92	0x3d7adc91	0.061245505
93	0xbd2364eb	-0.039891165
94	0xbd5cc87f	-0.053902145
95	0x3d82562b	0.063640915
96	0xbd86109c	-0.06546137
97	0x3dd19835	0.10234109
98	0x3d9cb654	0.07651964
99	0xbd8bdb93	-0.0682899
100	0xbd7af9a3	-0.06127323
101	0xbd1941be	-0.037416212
102	0x3d99a12b	0.075014435
103	0x3dfdcc10	0.123924375
104	0x3c9fd63f	0.01951134
105	0xbc99c95b	-0.018772772
106	0x3de69f1d	0.11260817
107	0x3ddca9cc	0.10774574
108	0xbb8013ba	-0.0039086016
109	0xbd094839	-0.033516143
110	0x3e0298f8	0.12753665
111	0xbcb396ed	-0.021922553
112	0x3caa8e64	0.02081985
113	0x3e16f235	0.14740832
114	0x3d95f7ab	0.073226295
115	0xbd9d9a4e	-0.07695447
116	0xbd9639f4	-0.073352724
117	0xbd8a1ade	-0.06743406
118	0x3de7e53a	0.11323018
119	0xbc3da2b1	-0.011574433
120	0xbd5f82a1	-0.054567937
121	0xbd81c331	-0.06336058
122	0xbd9feaec	-0.0780848
123	0xbccd79eb	-0.02508255
124	0xbd1ddf79	-0.0385432
125	0x3c0862bf	0.008324324
126	0xbd581f3f	-0.052764174
127	0x3cc9548e	0.024576452
128	0x3daa4603	0.08314135
129	0x3d1f7ffc	0.038940415
130	0xbbdf6850	-0.006817855
131	0x3dd890b5	0.10574476
132	0x3d6b2c92	0.057415552
133	0x3e11ed48	0.14250672
134	0x3d82c66f	0.063855045
135	0x3b8c233d	0.0042766617
136	0xbc0e860d	-0.008698952
137	0xbd108b3f	-0.035289045
138	0x3debd4be	0.11515187
139	0x3df4ba2d	0.11949573
140	0xbc51b248	-0.012798853
141	0x3d966ea8	0.07345325
142	0x3db3a4c2	0.087716594
143	0xbd960805	-0.07325748
144	0x3d99a13b	0.075014554
145	0x3d40a63b	0.04703353
146	0x3cb4ac07	0.022054685
147	0x3cef2273	0.029191231
148	0xbd7807fc	-0.06055449
149	0x3d034c82	0.032055385
150	0x3d83b102	0.06430246
151	0x3d85866e	0.06519781
152	0xbd5936e0	-0.05303085
153	0x3e209fb8	0.15685928
154	0x3d11c0c9	0.035584245
155	0x3da99f6e	0.08282362
156	0x3d7d5a25	0.061853547
157	0x3dbb63b8	0.09149879
158	0xbd846b99	-0.06465835
159	0x3d813410	0.06308758
160	0x3c2965f4	0.010339249
161	0xbc4ea85b	-0.012613381
162	0x3c96e1ca	0.018418211
163	0xbd0d8e4c	-0.034559533
164	0x3dc26ce9	0.09493429
165	0x3d78f736	0.060782634
166	0x3d2f43fa	0.042789437
167	0x3d8806ad	0.06641898
168	0x3d1d2a57	0.038370457
169	0x3daf4c8a	0.085595205
170	0x3d3e780e	0.04650121
171	0x3de3a357	0.11115139
172	0x3d1a17cf	0.037620362
173	0x3d79598a	0.060876407
174	0xbd60851a	-0.054814436
175	0xbd2fb6c3	-0.042898905
176	0x3dab18e0	0.08354354
177	0x3d91f897	0.07127493
178	0x3de53e6d	0.111935474
179	0xbbd5d823	-0.0065260096
180	0x39b671b3	0.00034798458
181	0x3da954ad	0.08268104
182	0x3db46b50	0.08809531
183	0x3d0a77db	0.03380571
184	0xbc813c65	-0.015775869
185	0x3e05f785	0.13082702
186	0xbcb82638	-0.022479162
187	0x3dbeef41	0.09322978
188	0xbcfb7a3f	-0.03069794
189	0x3e1f1560	0.15535498
190	0xbc9c6a54	-0.01909367
191	0xbbfbf57d	-0.0076891766
192	0x3dbb1646	0.09135108
193	0x3db0bf85	0.086302795
194	0xbd0ab90c	-0.03386788
195	0xbd2e5f6a	-0.042571463
196	0x3dc363cc	0.09540519
197	0xbb6bf1f2	-0.0036002365
198	0x3de56d7d	0.11202524
199	0xbdadbea5	-0.08483628
200	0xbde38073	-0.11108484
201	0xbe4cb91a	-0.19992486
202	0xbb7a386e	-0.0038180607
203	0xbe5c5390	-0.21516252
204	0x3df82e74	0.12118235
205	0xbd0590a7	-0.032608654
206	0x3e0ea421	0.13929798
207	0xbe626eca	-0.22112575
208	0xbd600bd1	-0.05469877
209	0xbdd3606e	-0.10321127
210	0xbe8cfbb5	-0.27535787
211	0xbc1a02fb	-0.009400125
212	0x3deba35d	0.115057684
213	0xbe05a516	-0.13051257
214	0x3e0a9a9c	0.13535541
215	0x3def4115	0.11682335
216	0x3cf819c1	0.030285718
217	0x3c8f28b8	0.01747547
218	0xbe2d37c1	-0.169158
219	0x3e44f64e	0.19234583
220	0x3c7e6a26	0.015528237
221	0xbe3e690d	-0.18594761
222	0x3de31852	0.11088623
223	0xbdb1b092	-0.08676256
224	0xbe421a8a	-0.18955436
225	0x3dac1e50	0.08404219
226	0xbd3436e3	-0.043997657
227	0xbdcf89f4	-0.10133734
228	0x3dcc678f	0.0998069
229	0xbe5b28e9	-0.21402325
230	0x3d7b5f84	0.061370388
231	0xbddb3cab	-0.10704931
232	0x3e1bc03f	0.15210055
233	0xbe833e49	-0.25633457
234	0xbe8df1c7	-0.27723524
235	0x3d765972	0.060143895
236	0x3c0ea0b6	0.008705309
237	0x3da583f4	0.08081809
238	0xbb1f9044	-0.0024347464
239	0xbe210913	-0.15726118
240	0x3e07f013	0.13275175
241	0xbc413074	-0.011791337
242	0x3e980f6c	0.29699266
243	0x3cbe2b79	0.023214089
244	0x3e2ad1b1	0.16681553
245	0xbd7dec48	-0.061992913
246	0xbe706ea0	-0.234797
247	0x3c28a13f	0.01029235
248	0xbd55e3f4	-0.052219346
249	0xbd000c6f	-0.031261858
250	0xbe1e1734	-0.15438539
251	0x3de6d0eb	0.11270317
252	0x3b02f0ab	0.0019979875
253	0xbe864bee	-0.26229805
254	0x3ca34f43	0.019935256
255	0x3e1e1a8d	0.15439816

weight f4 [100, 100]
0	0xbdac446a	-0.084114864
1	0xbdaac5d3	-0.08338513
2	0x3dafecd2	0.08590092
3	0x3af1700c	0.0018420233
4	0x3db229b6	0.08699362
5	0xbd306bba	-0.043071486
6	0xbd903acb	-0.07042464
7	0xbd47f6d3	-0.048819374
8	0xbdee7b57	-0.11644619
9	0x3ad60d24	0.001633082
10	0x3dadc6fb	0.08485218
11	0x3d458052	0.04821808
12	0x3dc5013e	0.096193776
13	0xbc7847af	-0.015153809
14	0x3da9c06a	0.08288653
15	0xbb2a3f82	-0.0025977795
16	0xbdb39000	-0.087677
17	0xbd5d8e12	-0.054090567
18	0x3df347ad	0.118789054
19	0x3cfd5a16	0.030926745
20	0x3da947b5	0.0826563
21	0xbd84a6c1	-0.06477118
22	0x3d8556ab	0.06510671
23	0x3db22be6	0.08699779
24	0xbcc4e54a	-0.024035115
25	0x3b06198e	0.002046201
26	0x3c49ef66	0.012325143
27	0xbcef4551	-0.029207857
28	0x3d2290d6	0.039688908
29	0xbdacc8a4	-0.08436707
30	0xbc7f6ee9	-0.015590408
31	0x3d99a108	0.075014174
32	0xbbf8fb3d	-0.0075983093
33	0x3d665d5b	0.056241374
34	0x3d02f616	0.031972967
35	0x3d2d4b3f	0.04230809
36	0x3b88ddf0	0.0041768476
37	0xbd5da24c	-0.054109856
38	0xbdb1dc10	-0.08684552
39	0x3ce25307	0.027627481
40	0xbdc5db3b	-0.096609555
41	0x3d025c44	0.031826273
42	0x3ca0fc6b	0.019651612
43	0x3ca3d49d	0.019998843
44	0x3df1304c	0.1177679
45	0x3d0d3e23	0.034483086
46	0xbcdea0fa	-0.027176369
47	0x3c322a93	0.010874408
48	0x3d4bc719	0.04975042
49	0x3d82783b	0.063705884
50	0x3d22ae23	0.03971685
51	0x3d86d4f6	0.06583588
52	0x3d42eac7	0.047587182
53	0x3d44ee56	0.048078857
54	0x3dc683c9	0.09693105
55	0x3d8925f5	0.06696693
56	0xbe1678f6	-0.1469458
57	0xbdc8c1cf	-0.09802591
58	0xbda46ae9	-0.08028204
59	0xbb6a34ba	-0.0035736994
60	0x3daeebb9	0.08541054
61	0x3cb3ec6a	0.021963317
62	0xbda58e01	-0.08083726
63	0xbd9ee909	-0.07759292
64	0x3d484712	0.048895903
65	0x3d99057e	0.07471751
66	0xbd140ce9	-0.036145125
67	0x3c2a3065	0.010387515
68	0x3c556264	0.013023946
69	0xbd8f7442	-0.07004596
70	0xbda3c33d	-0.07996223
71	0xbe033925	-0.12814768
72	0xbd21fa92	-0.039545603
73	0x3d474a7b	0.048655014
74	0x3c02f86f	0.0079938015
75	0x3db3dd15	0.087824024
76	0xbd4ac66e	-0.049505644
77	0x3dcd19c2	0.100146785
78	0x3c9bc3b5	0.019014219
79	0x3dce4844	0.10072377
80	0x3dc2def2	0.0951518
81	0xbb592c5d	-0.0033138015
82	0xbd3e77d0	-0.04650098
83	0x3c3da1a2	0.011574181
84	0x3d4fea50	0.050760567
85	0x3d8f8a68	0.07008821
86	0xbdc39ffc	-0.09551999
87	0x3d87b01d	0.06625388
88	0xbcf6a1aa	-0.030106384
89	0x3d3fb188	0.046800166
90	0xbdd5ee09	-0.10445792
91	0xbc3360d8	-0.010948382
92	0xbccd41d1	-0.025055798
93	0x3b9cbf56	0.004783551
94	0xbd87be83	-0.06628134
95	0x3d8e7e32	0.069576636
96	0xbd12422d	-0.03570764
97	0xbd13e4ff	-0.03610706
98	0xbd92c6ea	-0.07166846
99	0xbd2f9617	-0.042867746
100	0x3d5b36ed	0.05351918
101	0xbd553600	-0.05205345
102	0xbafca37f	-0.00192748
103	0x3d39318c	0.045213267
104	0xbc2d3ae1	-0.01057312
105	0x3d50bf73	0.05096383
106	0xbd8a8e56	-0.0676543
107	0xbdd619d3	-0.10454144
108	0xbcbd35f4	-0.023097016
109	0xbd97ca71	-0.074116595
110	0x3c8cbe92	0.017180715
111	0x3dd9b845	0.1063085
112	0x3da141e0	0.07873893
113	0x3d7a5b43	0.06112219
114	0x3d57cd77	0.05268618
115	0xbda2e2ed	-0.07953439
116	0xbb2d7dd6	-0.002647271
117	0x3d26f3dc	0.040759906
118	0x3d3fc5c7	0.046819475
119	0x3d770c00	0.06031418
120	0xbc21bfbf	-0.009872376
121	0xbd8b0389	-0.06787784
122	0x3d1f2cff	0.03886127
123	0x3dc4cbe5	0.09609202
124	0x3d884c24	0.06655148
125	0xbd04f6d0	-0.03246194
126	0x3cba5432	0.022745226
127	0xbd5d4a35	-0.054025847
128	0x3bd7aee9	0.00658213
129	0x3da27ccb	0.079339586
130	0xbd44d3aa	-0.04805342
131	0xbd74d994	-0.05977781
132	0xbde39df4	-0.111141115
133	0x3d8b2d81	0.067957886
134	0xbce5e284	-0.028062113
135	0x3dbbd70b	0.091718756
136	0xbd882318	-0.066473186
137	0xbd7b08dc	-0.061287746
138	0xbd51fd72	-0.051267095
139	0xbd29ff3c	-0.041503176
140	0xbd960ef5	-0.073270716
141	0x3d968473	0.073494814
142	0xbd9caa4a	-0.076496676
143	0xbd3407cd	-0.043952752
144	0xbcbec6fe	-0.023288246
145	0x3cd76682	0.026293997
146	0xbd3f2f6a	-0.046676077
147	0x3dd5d026	0.10440092
148	0x3d39d111	0.045365397
149	0xbcc439cb	-0.02395334
150	0xba8f2ac7	-0.0010922783
151	0x3d676eca	0.05650214
152	0xbdb845cf	-0.0899769
153	0xbd99fc98	-0.075188816
154	0xbd9adf80	-0.075621605
155	0x3d17e65f	0.037084933
156	0x3c0071e0	0.00783965
157	0xbcdcb259	-0.026940512
158	0xbd9bcb10	-0.076070905
159	0x3cf905a8	0.030398205
160	0x3daeeca8	0.08541232
161	0xbd9d76b2	-0.07688655
162	0x3cf4afcd	0.029868985
163	0xbcfa856f	-0.030581204
164	0x3d34d9be	0.044152968
165	0xbd32aa59	-0.043619487
166	0x3d9e7445	0.077370204
167	0x3c11b8bc	0.008894142
168	0x3d8b10c9	0.06790311
169	0xbd9d5fdb	-0.076842986
170	0x3c5c9f76	0.013465753
171	0xbd8e55e6	-0.069499776
172	0x3c9d1cf3	0.019178843
173	0xbd643aa0	-0.05571997
174	0x3d8b4125	0.06799535
175	0x3c96b2e2	0.018395845
176	0x3d414f0d	0.04719453
177	0x3bd8b950	0.006613888
178	0x3d091f55	0.033477146
179	0x3c02db36	0.007986834
180	0x3db06d6b	0.0861462
181	0x3d3d5f6c	0.04623358
182	0xbaf4c687	-0.0018674888
183	0xbd56aa87	-0.05240872
184	0xbdfe966e	-0.12431036
185	0x3d9b7b2a	0.07591851
186	0x3dc1b2b7	0.09457915
187	0xbdbabf6b	-0.09118541
188	0x3d7dfc78	0.06200835
189	0x3d206cec	0.039166376
190	0xbdd68311	-0.10474218
191	0xbaa498b7	-0.001255772
192	0xbd45875d	-0.048224796
193	0x3dad3539	0.08457417
194	0x3be3e799	0.006955099
195	0x3d3abd94	0.045590952
196	0xbd8d6869	-0.0690468
197	0x3d809b20	0.06279588
198	0x3ca907a9	0.020633535
199	0xbdc69c16	-0.0969774
200	0xbb2ac416	-0.0026056818
201	0x3cd503fa	0.026002873
202	0xbc0fa37e	-0.008767007
203	0xbb29f0c7	-0.0025930868
204	0xbd987037	-0.07443278
205	0x3d476328	0.048678547
206	0x3d1e8436	0.038700305
207	0x3d953bf2	0.07286824
208	0xbd87da89	-0.06633479
209	0x3dbef755	0.093245186
210	0x3d961196	0.07327573
211	0x3cae88da	0.02130549
212	0xbbfc8aa1	-0.0077069555
213	0x3d8f9545	0.07010893
214	0xbd9225ed	-0.0713614
215	0x3d115150	0.035477936
216	0xbd9f332a	-0.07773431
217	0xbd53099e	-0.051522844
218	0xbd977adb	-0.0739648
219	0x3d91e4bf	0.07123708
220	0xbda68d69	-0.081324406
221	0xbd884839	-0.066544004
222	0x3da20bf4	0.07912436
223	0x3d9086be	0.0705695
224	0x3dcf396b	0.101183735
225	0xbd406155	-0.046967823
226	0x3d539a7b	0.051660996
227	0xb9101218	-0.0001373965
228	0x3d3f5096	0.046707712
229	0xbdb6b257	-0.089207344
230	0xbbcc600f	-0.006237037
231	0x3d9182a0	0.07104993
232	0xbdb99e1a	-0.090633586
233	0x3d8f6b70	0.07002914
234	0x3cf2341b	0.029565861
235	0x3cdba261	0.026810827
236	0xbd8e11a9	-0.06936962
237	0x3ce1e01e	0.027572688
238	0x3d90727e	0.07053088
239	0x3de75e4c	0.112972826
240	0x3d756945	0.059914846
241	0xbd8a1fcd	-0.06744347
242	0x3c80a7d8	0.015705034
243	0xbdd93d29	-0.106073685
244	0xbc896a80	-0.016774416
245	0xbcd7f6f6	-0.026362877
246	0x3cb2bf54	0.021819748
247	0x3d88fd83	0.066889785
248	0xbcf8dde0	-0.030379236
249	0xbc89a18f	-0.01680067
250	0x3bdbbd0a	0.006705885
251	0x3b951927	0.0045501175
252	0x3dc019cd	0.09379921
253	0xbcc8fcaf	-0.024534551
254	0x3c8cac8f	0.017172126
255	0x3da7cf05	0.08193783

bias f4 [100]
0	0x3d4a365a	0.04936824
1	0x3d816c3f	0.063194744
2	0x3d87801a	0.0661623
3	0xbdbe8b71	-0.0930394
4	0x3d407d1d	0.046994317
5	0xbd7afa2d	-0.061273742
6	0x3dc82f55	0.09774653
7	0xbce0c403	-0.027437216
8	0x3d70c8ed	0.058785368
9	0xbd5a8810	-0.053352416
10	0xbd6f445f	-0.058414813
11	0x3d5cfb67	0.053950693
12	0x3d12126f	0.03566211
13	0xbd857ee5	-0.06518344
14	0xbde603e6	-0.11231212
15	0xbdd8ace4	-0.10579851
16	0x3bdaa23b	0.0066721714
17	0xbc6acf4e	-0.014331652
18	0xbc234230	-0.009964511
19	0xbc66d461	-0.014088721
20	0xbd24bd33	-0.040219497
21	0x3b2dd800	0.002652645
22	0xbdd5c484	-0.10437873
23	0xbd2f952b	-0.042866867
24	0x3dc10093	0.09423938
25	0x3dad1712	0.08451666
26	0x3d072096	0.03299006
27	0x3d7d2ffc	0.06181334
28	0xbcf4b4da	-0.029871393
29	0xbd824dca	-0.06362493
30	0xbca97cff	-0.020689486
31	0xbd894db9	-0.067042775
32	0x3d15e522	0.03659547
33	0xbd74d5b2	-0.05977411
34	0xbd106b93	-0.03525884
35	0x3c65f404	0.014035229
36	0x3d6d87c9	0.057990823
37	0x3e0d16ec	0.13778275
38	0xbc6912ba	-0.014225656
39	0x3d7596f7	0.059958424
40	0xbdc5841a	-0.09644337
41	0xbba832dd	-0.0051330165
42	0x3d5e736f	0.054309305
43	0xbccc40cd	-0.024933243
44	0x3d42a502	0.047520645
45	0xbc89495f	-0.016758619
46	0x3cb9c407	0.022676481
47	0xbd8acca0	-0.0677731
48	0x3d110143	0.035401594
49	0xbc764088	-0.015030034
50	0xbd986989	-0.07442004
51	0xbd098c79	-0.03358123
52	0xbd89279c	-0.06697008
53	0x3dcb1ea2	0.09917952
54	0x3dc4d3c4	0.096107036
55	0x3cb70b84	0.022344358
56	0x3dbfdb95	0.09368054
57	0x3d512b6e	0.05106681
58	0xbdbe2961	-0.09285236
59	0x3dc42491	0.09577287
60	0xbd5bff51	-0.053710286
61	0xbdb40b5d	-0.0879123
62	0x3d8f11a4	0.069857866
63	0xbdb0d2d5	-0.08633963
64	0x3da0ea23	0.07857158
65	0xbd480fc9	-0.04884318
66	0xbcdfbede	-0.027312692
67	0x3d16806d	0.03674357
68	0xbcf63bbe	-0.030057784
69	0xbd1da074	-0.0384831
70	0x3d6cf3ab	0.057849567
71	0xbdb0d2b5	-0.08633939
72	0x3d94f440	0.072731495
73	0x3d1c4e4a	0.0381606
74	0x3d7343ab	0.059390705
75	0xbd8497a5	-0.064742364
76	0xbda07e0b	-0.07836541
77	0xbd6cbbb9	-0.057796214
78	0xbce18d80	-0.027533293
79	0xbd4d0ec3	-0.050062906
80	0x3cba248f	0.02272251
81	0xbd8041c7	-0.06262546
82	0x3d077e4e	0.033079438
83	0x3cf18da4	0.029486485
84	0xbd0afa16	-0.033929907
85	0x3c910fb3	0.017707681
86	0xbc5e6185	-0.013573055
87	0x3d0577af	0.032584842
88	0x3da1a99b	0.07893678
89	0xbdc7472c	-0.09730372
90	0x3cbe30a5	0.023216555
91	0x3c0378e2	0.008024426
92	0xbda66162	-0.08124043
93	0x3dd0cb8a	0.10195072
94	0xbcd74719	-0.02627902
95	0xbd825f5a	-0.06365843
96	0xba7c7603	-0.0009630622
97	0x3dbe0614	0.09278503
98	0x3d5fca03	0.054636013
99	0x3b6ff475	0.0036614214

weight f4 [1, 100]
0	0xbe9b679f	-0.30352494
1	0xbeb2cd99	-0.34922484
2	0xbe39bd95	-0.18138726
3	0x3e76bb94	0.24094993
4	0x3eac7284	0.33681118
5	0xbe57a28c	-0.210581
6	0xbe76918f	-0.24078964
7	0x3d9e7681	0.077374466
8	0x3d91ddd7	0.07122391
9	0x3dcec45d	0.10096047
10	0xbe766409	-0.24061598
11	0xbd26f4c7	-0.04076078
12	0x3e3e7bea	0.18601957
13	0x3d443958	0.04790625
14	0x3e1efc76	0.15525994
15	0x3e86f943	0.26362047
16	0x3e9a5336	0.3014161
17	0xbdabe8cb	-0.08394011
18	0x3ef2268e	0.4729504
19	0xbe5db075	-0.21649344
20	0xbe82093a	-0.25397664
21	0x3e454571	0.19264771
22	0x3e7bbbed	0.24583407
23	0x3e48472e	0.19558403
24	0xbebe3050	-0.37146235
25	0x3e652408	0.22377026
26	0x3ec29a87	0.3800852
27	0x3cc8841f	0.024477063
28	0xbe933586	-0.28751773
29	0xbe08d4bc	-0.13362402
30	0x3def05d3	0.11671033
31	0x3ca7fa8a	0.020505209
32	0xbed243e7	-0.4106743
33	0x3d4d7acd	0.05016594
34	0x3e15e50d	0.14638157
35	0x3dff2074	0.12457362
36	0x3dcc367f	0.09971332
37	0xbed23a1e	-0.41059965
38	0x3c5d51e0	0.01350829
39	0xbe3e6706	-0.18593988
40	0x3ebb19c4	0.36543095
41	0x3c49c5a7	0.01231519
42	0xbe0084db	-0.1255068
43	0x3e0650ce	0.13116762
44	0x3e995987	0.29951116
45	0x3de3d1c2	0.111239925
46	0x3c4055bc	0.011739191
47	0xbe0ce74c	-0.13760108
48	0xbce3268b	-0.02772834
49	0xbe2c5bc1	-0.16831876
50	0xbdad13ee	-0.08451067
51	0xbc22306d	-0.009899241
52	0xbe8edac5	-0.27901283
53	0xbe011c08	-0.1260835
54	0x3d85ad24	0.065271646
55	0xbe37e386	-0.17957887
56	0xbef07492	-0.46963936
57	0xbe9f9566	-0.3116867
58	0xbd0ce2f2	-0.03439612
59	0xbe950d23	-0.29111585
60	0x3ce2a59b	0.027666857
61	0x3e4d6f80	0.20062065
62	0xbe9a72bf	-0.3016567
63	0x3e4b1f07	0.19836055
64	0xbeaa7832	-0.33294827
65	0x3e2d7712	0.16939953
66	0xbe4a7644	-0.19771677
67	0x3eb58b11	0.35457662
68	0x3ebffa6e	0.3749575
69	0x3d218536	0.03943368
70	0x3e8c643a	0.27420217
71	0x3e90f30a	0.28310424
72	0x3e8605d1	0.26176313
73	0x3e6a7f8f	0.22900222
74	0xbe940b5b	-0.28914914
75	0xbc8492cf	-0.016183285
76	0xbd796198	-0.06088409
77	0xbdf1d1ae	-0.11807571
78	0xbeacf294	-0.33778822
79	0x3daf9031	0.08572424
80	0xbcd82f7d	-0.026389832
81	0x3e99aaab	0.30013022
82	0x3dca0d6c	0.09865841
83	0xbebb4bee	-0.36581367
84	0x3eb74ccd	0.35800782
85	0xbe8828f9	-0.2659376
86	0x3eb1664e	0.34648365
87	0xbde1af29	-0.11019737
88	0x3dc0fba8	0.094229996
89	0xbe745683	-0.23861127
90	0xbd56d407	-0.0524483
91	0xbcf4d3a4	-0.029886074
92	0x3e30d6d6	0.17269453
93	0xbea456eb	-0.32097563
94	0xbd745c82	-0.059658535
95	0x3e3d55aa	0.1848971
96	0xbcac1625	-0.021006653
97	0xbe6ad81f	-0.22934006
98	0xbe09e877	-0.13467585
99	0x3e05b8a3	0.13058715

weight f4 [15, 100]
0	0xbe94453b	-0.2895907
1	0x3eaa294b	0.3323463
2	0xbe60e377	-0.21961771
3	0xbea42f29	-0.3206723
4	0x3e5f079c	0.21780246
5	0x3e1b62e2	0.1517444
6	0xbd7163c4	-0.058933035
7	0xbeaea9ea	-0.3411401
8	0xbe95943f	-0.29214665
9	0x3c7d757f	0.015469908
10	0x3e9e7332	0.30947262
11	0x3d7a1c39	0.06106207
12	0x3e2b7ec5	0.16747577
13	0x3dcdb0c9	0.10043485
14	0x3ea6fb18	0.32613444
15	0x3e1b0ded	0.15142031
16	0xbd162659	-0.036657665
17	0xbe4dd038	-0.2009896
18	0xbe4e328c	-0.2013647
19	0xbec9eb90	-0.39437532
20	0x3e0c6fd3	0.13714533
21	0x3e1f0988	0.1553098
22	0xbe4e95ef	-0.20174383
23	0x3de1ded9	0.11028833
24	0x3dc53ac0	0.09630346
25	0x3d1555c5	0.03645875
26	0x3c9e26a0	0.019305527
27	0xbead43b8	-0.33840728
28	0x39fee2ce	0.00048615638
29	0xbda5746a	-0.08078845
30	0x3de64c03	0.11244967
31	0x3e62e6cb	0.22158353
32	0xbeb901a7	-0.36134073
33	0xbcfcd0dd	-0.030861313
34	0x3e905c43	0.2819539
35	0x3e70a2d6	0.23499617
36	0xbc672554	-0.014108021
37	0x3ea44ed1	0.32091382
38	0x3c91e10d	0.017807508
39	0xbe37545d	-0.17903276
40	0x3e949310	0.2901845
41	0x3df2ec2a	0.11861451
42	0xbd1ff010	-0.0390473
43	0xbe55a8f6	-0.20865235
44	0xbdfe44da	-0.12415476
45	0x3ea85e88	0.32884622
46	0x3d98e640	0.07465792
47	0x3e98f947	0.29877684
48	0x3d903410	0.0704118
49	0x3c53a671	0.012918101
50	0x3e3b2ed9	0.1827959
51	0xbbbafd8a	-0.0057064937
52	0xbc861cf8	-0.016371235
53	0xbe22f0ce	-0.15912172
54	0xbea44d46	-0.32090205
55	0xbe523b85	-0.20530517
56	0x3deed979	0.11662573
57	0xbd13f4e0	-0.036122203
58	0x3daa5166	0.08316307
59	0x3e1ec058	0.15503061
60	0xbe5075e9	-0.20357479
61	0xbd9784a7	-0.07398348
62	0x3e94bacf	0.29048774
63	0x3d74a189	0.059724364
64	0x3c6912b5	0.0142256515
65	0xbea2e7e5	-0.31817546
66	0xbec654dc	-0.38736618
67	0xbdf5ef86	-0.12008576
68	0xbe4b5843	-0.19857888
69	0xbed1bf25	-0.40966144
70	0x3eaba4c2	0.33524138
71	0xbe075514	-0.13216048
72	0xbe31b2f7	-0.17353426
73	0x3da352d0	0.079747796
74	0xbe3832e5	-0.17988165
75	0x3e886a5f	0.26643655
76	0xbe3f80c6	-0.18701467
77	0xbdcbf3a3	-0.099585794
78	0x3e1b3301	0.15156175
79	0x3e4096bb	0.18807499
80	0x3d9a080e	0.075210676
81	0x3ec0362a	0.37541324
82	0x3da55d1b	0.08074399
83	0xbe185324	-0.14875466
84	0x3ea5ba96	0.32368916
85	0x3e6d2430	0.23158336
86	0xbe094d74	-0.13408452
87	0x3e9b09ad	0.3028082
88	0x3e4da49c	0.20082325
89	0xbe96e89d	-0.29474345
90	0x3e03ba14	0.12863952
91	0x3e159891	0.1460898
92	0xbe9c7798	-0.30559993
93	0xbdc764c2	-0.09736015
94	0xbde8b757	-0.11363094
95	0xbdbc4e44	-0.091946155
96	0x3d82063f	0.063488476
97	0xbd404265	-0.04693832
98	0x3d19e4ac	0.037571594
99	0xbe00236f	-0.12513517
100	0xbe35b343	-0.17744164
101	0xbe2da2d8	-0.16956651
102	0x3e5c9585	0.21541412
103	0xbee9e6fb	-0.45684037
104	0x3db74403	0.08948519
105	0xbe77ded6	-0.24206099
106	0xbe29bf91	-0.16576983
107	0xbdf9fd60	-0.122065306
108	0xbedff2a4	-0.43739808
109	0xbd7630ac	-0.06010501
110	0xbe84bcda	-0.25925332
111	0x3ea5e0d1	0.32398084
112	0xbe460754	-0.19338733
113	0x3e889ecd	0.26683655
114	0x3db6ef5f	0.08932375
115	0x3ecdf626	0.4022686
116	0xbea6dd77	-0.3259084
117	0x3c46a4ef	0.012124284
118	0x3ef1aeeb	0.47203764
119	0xbe12cd77	-0.14336191
120	0x3e07941d	0.13240094
121	0x3e46640f	0.19374107
122	0x3e027973	0.12741642
123	0xbf22bf5c	-0.6357324
124	0x3e67eda8	0.22649252
125	0xbe98a5fd	-0.2981414
126	0xbd035c93	-0.032070708
127	0x3e685b76	0.2269114
128	0xbef409e3	-0.47663793
129	0x3dfc50f3	0.12320127
130	0x3e68cfbe	0.22735497
131	0xbeec3561	-0.46134475
132	0x3d5567ba	0.052100874
133	0x3ecf9be2	0.40548617
134	0x3e017593	0.12642507
135	0xbe5478b5	-0.20749171
136	0xbf0e6588	-0.55623674
137	0xbe834086	-0.25635165
138	0x3ed52a5e	0.41633886
139	0xbdcee018	-0.10101336
140	0x3d1bb95b	0.038018566
141	0x3d5349d4	0.05158408
142	0xbeb478b4	-0.3524834
143	0xbe9a6a8c	-0.30159414
144	0xbdc4d33d	-0.09610603
145	0xbe402005	-0.18762214
146	0xbf123ebd	-0.5712698
147	0xbe9f0d36	-0.31064767
148	0x3e8fd36b	0.28090987
149	0x3e4d564e	0.20052454
150	0x3dafd919	0.0858633
151	0x3d24b762	0.04021395
152	0x3d8fdbe0	0.0702436
153	0x3f0caa7c	0.5494764
154	0x3e05b83c	0.13058561
155	0x3ec15c7d	0.37765875
156	0x3dda13e0	0.10648322
157	0xbeada0fe	-0.3391189
158	0x3c18e1dc	0.009331193
159	0x3de7be35	0.11315576
160	0xbe4ed589	-0.20198645
161	0xbe9e27bf	-0.308897
162	0xbeb4cc84	-0.35312283
163	0xbdb9624f	-0.09051954
164	0xbc94ea91	-0.018178256
165	0xbdf6b29d	-0.120457865
166	0xbde6880f	-0.1125642
167	0xbe71137d	-0.2354259
168	0x3b5d51fa	0.0033770786
169	0x3e61bea5	0.22045381
170	0x3e112b2b	0.14176624
171	0x3eaab605	0.33341995
172	0xbe5cd116	-0.21564135
173	0x3e375b82	0.17906001
174	0x3ec1c427	0.37844965
175	0x3e962d90	0.29331636
176	0x3cfef330	0.03112182
177	0xbdd34777	-0.10316365
178	0x3b11920c	0.0022212295
179	0xbd304157	-0.043031063
180	0x3e5a97a6	0.21346912
181	0x3ec75a08	0.38935876
182	0xbd607128	-0.054795414
183	0x3e3b7aa0	0.18308496
184	0xbef672dc	-0.48134506
185	0x3da726fe	0.08161734
186	0x3e0cdf3c	0.13757032
187	0xbd73c333	-0.05951233
188	0xbeb565d7	-0.3542926
189	0x3e72cd46	0.23711118
190	0xbeba1979	-0.3634756
191	0x3ea6d8b9	0.3258722
192	0x3e98f7f2	0.29876667
193	0xbdd0c7f9	-0.10194392
194	0x3f0264ad	0.5093487
195	0xbe550b98	-0.20805204
196	0xbe97ae99	-0.29625395
197	0x3eb231ef	0.3480372
198	0x3d2b1730	0.04177016
199	0xbbd30a45	-0.006440433
200	0xbd99c393	-0.07508006
201	0xbd5a8309	-0.05334762
202	0xbe3e2d52	-0.18571976
203	0x3e8ae2ba	0.27126104
204	0xbe0f893b	-0.14017193
205	0xbdc53dbe	-0.09630917
206	0xbcdc0077	-0.02685569
207	0x3ece61f9	0.40309122
208	0xbe15e3e1	-0.1463771
209	0xbd9d68f8	-0.07686037
210	0x3e99e931	0.30060723
211	0x3dbfe2a1	0.09369398
212	0x3d80ec6e	0.062950954
213	0xbe8205a2	-0.25394922
214	0xbcc87989	-0.024472015
215	0xbeb21b60	-0.3478651
216	0x3e27e43d	0.1639566
217	0xbe23bb8d	-0.15989514
218	0xbe25444e	-0.16139337
219	0x3ea5d927	0.32392237
220	0xbe7f0779	-0.24905194
221	0xbe3845de	-0.17995402
222	0x3dfb704a	0.12277277
223	0xbd42c8dd	-0.04755484
224	0xbe680537	-0.2265824
225	0x3e3be911	0.18350627
226	0xbdc8325b	-0.097752295
227	0xbecabce5	-0.3959724
228	0x3db462e0	0.088079214
229	0xbd91f5df	-0.07126974
230	0xbcfa8003	-0.030578619
231	0x3e5222e4	0.20521122
232	0xbecf575b	-0.40496334
233	0xbda949eb	-0.08266052
234	0x3d9d75cd	0.07688484
235	0xbe56c319	-0.20972861
236	0x3e5563bc	0.20838827
237	0xbd92a666	-0.07160644
238	0x3dd3ccab	0.10341772
239	0xbd2e6f54	-0.04258664
240	0x3da328d6	0.07966773
241	0x3e0cc4eb	0.13746993
242	0x3e595af8	0.21226108
243	0x3ee07d6f	0.43845698
244	0x3e553a6d	0.20823069
245	0xbe46e751	-0.19424178
246	0xbe5301f1	-0.2060621
247	0x3eb2d50b	0.34928164
248	0xbe7c10fa	-0.24615851
249	0xbe1e7a31	-0.154763
250	0x3e942846	0.28936976
251	0xbcca87e5	-0.024723003
252	0x3e050137	0.12988745
253	0xbd2b1614	-0.041769102
254	0xbea03a6f	-0.3129458
255	0xbe05c9dc	-0.13065284

bias f4 [15]
0	0xbe7f6d48	-0.24944031
1	0xbe1cc750	-0.15310407
2	0xbced735f	-0.028985677
3	0x3da57f6c	0.080809444
4	0x3f328b2c	0.6974361
5	0x3f18625d	0.5952509
6	0xbdb5556e	-0.08854185
7	0x3e255361	0.16145088
8	0xbdc28754	-0.09498468
9	0xbeabefdc	-0.33581436
10	0xbdb05518	-0.0860998
11	0xbcfce41f	-0.030870495
12	0xbe49058f	-0.19631027
13	0xbe41c23c	-0.18921751
14	0xbe1aa575	-0.1510218
