checkpoints/64sgd45feature_lstm_num_comm999_an15_sn3_D5_al0.9_E5_B64_lr0.05_num_clients100_cf0.1.pth (torch, 285975 bytes, 9 tensors)

weight_ih_l0 f4 [400, 45]
0	0x3d570ee4	0.052504435
1	0x3da5626b	0.08075412
2	0x3d876020	0.06610131
3	0xbcbf2fa7	-0.023338152
4	0xbdd30b67	-0.10304909
5	0xbce63e9d	-0.028106028
6	0x3d669c1f	0.056301232
7	0x3d5a83d3	0.053348374
8	0xbb4e7614	-0.0031503486
9	0x3c93f29c	0.018060021
10	0x3d38c83d	0.045112837
11	0xbd4013cc	-0.04689388
12	0x3d69107c	0.056900486
13	0x3d458f45	0.048232336
14	0x3d3fca3f	0.046823736
15	0x3c2bea91	0.010492937
16	0x3cc620f7	0.02418564
17	0x3d983c47	0.07433372
18	0x3b358601	0.002769828
19	0xbdc9a048	-0.09845024
20	0x3dbf7591	0.09348596
21	0xbd628177	-0.05529925
22	0x3d90d829	0.07072479
23	0xbc795d03	-0.01521993
24	0xbc9d178a	-0.019176263
25	0xbd9daf16	-0.076994106
26	0xbdd134af	-0.10215127
27	0x3bf7db66	0.007563996
28	0xbd0da2ab	-0.03457896
29	0xbd29c079	-0.04144332
30	0x3d037b8b	0.03210024
31	0x3ab6e177	0.0013952692
32	0x3daa2424	0.083076745
33	0xbd2494d1	-0.040180985
34	0x3c91751b	0.017756036
35	0xbd650a40	-0.05591798
36	0xbda1da0e	-0.07902919
37	0xbd647928	-0.055779606
38	0x3ce15f12	0.027511153
39	0x3cfb2fd8	0.030662462
40	0x3b5ebc38	0.00339867
41	0x3da7d688	0.081952155
42	0x3d9b11d4	0.0757176
43	0x3d156abb	0.03647874
44	0xbb528701	-0.0032123926
45	0x3c56ce52	0.013110714
46	0x3cfb8320	0.030702174
47	0xbb377a65	-0.0027996537
48	0x3d53f6c9	0.051749025
49	0x3d9efe32	0.07763328
50	0xbdaf86d8	-0.08570641
51	0x3db0cb07	0.086324744
52	0xbd2d6b04	-0.042338386
53	0x3d368282	0.044558056
54	0x3c54c4ab	0.012986342
55	0x3de214cf	0.11039125
56	0xbd1517b1	-0.036399547
57	0x3ae4b05f	0.0017447582
58	0x3ce5aeed	0.028037513
59	0x3da2ce64	0.07949522
60	0x3c1e1e01	0.009650708
61	0x3d9cebb8	0.07662147
62	0xbc0fb6ac	-0.00877158
63	0x3d1e782a	0.038688816
64	0x3ce21c25	0.027601311
65	0x3df2a73a	0.11848302
66	0x3d10cd0d	0.0353518
67	0x3d1e0bf0	0.038585603
68	0xbcfd5ece	-0.030928995
69	0xbd73c9e0	-0.059518695
70	0x3cdbca1a	0.026829768
71	0x3cef28b1	0.029194208
72	0xbda64591	-0.081187375
73	0xbdd5f664	-0.10447386
74	0xbd8f3984	-0.06993392
75	0xbd2be9cf	-0.041971024
76	0xbc9c81be	-0.019104835
77	0x3c42e4d8	0.011895381
78	0xbdbf8b09	-0.09352691
79	0xbccfdd23	-0.025374
80	0x3d86d5ed	0.06583772
81	0xbbcae482	-0.006191791
82	0x3d2915f1	0.04128069
83	0xbd7891fe	-0.060686104
84	0x3dc85253	0.09781327
85	0xbcf06f51	-0.029349955
86	0xbd9fa50e	-0.077951536
87	0xbd7d6b3e	-0.061869852
88	0x3b9d15a3	0.004793839
89	0xbd25ee32	-0.040510364
90	0xbbebdde6	-0.007198083
91	0xbd82d247	-0.063877635
92	0x3c265a3f	0.010153352
93	0xbc426a8c	-0.011866223
94	0xbc06ae6d	-0.008220297
95	0xbd9888f4	-0.07447997
96	0x3cbe03c1	0.02319515
97	0xbdaeec3f	-0.08541154
98	0x3db9910e	0.0906087
99	0x3ddcf835	0.10789529
100	0x3dd48475	0.10376827
101	0x3dcd8919	0.10035915
102	0xbd53b7f5	-0.051689107
103	0x3d9f4f5d	0.07778809
104	0xbc98ff1d	-0.018676335
105	0xbbde1cb4	-0.006778324
106	0xbcb4147b	-0.021982422
107	0x3db59a99	0.08867378
108	0x3bc6092f	0.0060435752
109	0xbdd0d523	-0.101969026
110	0xbc7cad0b	-0.015422116
111	0x3db5f013	0.08883681
112	0x3d49c1e0	0.04925716
113	0x3c5c0572	0.013429033
114	0xbdafe459	-0.08588476
115	0xbdb6e24b	-0.08929881
116	0xbd303d0a	-0.04302696
117	0xbe3740fe	-0.17895886
118	0x3d62674a	0.055274285
119	0xbdb86da8	-0.0900529
120	0xbd313f9b	-0.04327355
121	0xbdca65bd	-0.09882686
122	0x3c8d63e5	0.017259547
123	0x3ce3c1d4	0.027802385
124	0xbc0f586b	-0.008749108
125	0xbd3494de	-0.044087283
126	0xbbd84ae2	-0.0066007236
127	0xbc6f5b29	-0.014609137
128	0x3da0cd01	0.078516014
129	0x3d98dc55	0.074639
130	0xbc7b1121	-0.015323908
131	0x3c5528a6	0.01301018
132	0xbd8e4b2a	-0.0694793
133	0x3dc382e7	0.09546452
134	0x3d02964a	0.031881608
135	0x3dc8a0af	0.09796273
136	0xb87848ac	-5.919549e-05
137	0xbce88ee5	-0.02838845
138	0x3dae5953	0.08513131
139	0xbd8d3323	-0.06894519
140	0x3d4325c8	0.047643453
141	0x3d8397a9	0.06425411
142	0x3c95cc32	0.018285844
143	0xbdb415d4	-0.08793226
144	0x3d59036a	0.05298177
145	0x3dfa1c22	0.12212397
146	0x3d72eb10	0.059306204
147	0xbd68125b	-0.05665813
148	0xbcfd7a13	-0.030941999
149	0x3b54f7e7	0.0032496394
150	0x3da417de	0.08012365
151	0xbd783d63	-0.060605418
152	0x3d96cb45	0.07362989
153	0x3c9281e2	0.017884199
154	0xbd0fb988	-0.035089046
155	0x3df87045	0.12130789
156	0xbcb6b302	-0.022302154
157	0x360351aa	1.9568056e-06
158	0xbcc7c158	-0.024384186
159	0x3dd48943	0.10377743
160	0xbdbd8309	-0.092535086
161	0xbd93f2eb	-0.07224067
162	0x3d6ba1a2	0.057527192
163	0xbd902f6c	-0.07040295
164	0x3c31b739	0.010846906
165	0x3d741eff	0.059599873
166	0xbb43ce1f	-0.0029877496
167	0xbd0d16c2	-0.03444553
168	0xbda3bb86	-0.07994752
169	0x3dcc76f2	0.099836245
170	0xbc1149e8	-0.008867718
171	0x3d5b3ef8	0.05352685
172	0x3d24b91a	0.04021559
173	0x3d87f37e	0.06638239
174	0xbdd3853e	-0.10328148
175	0xbdb0e461	-0.0863731
176	0xbd1db6f5	-0.03850456
177	0xbb69237d	-0.0035574131
178	0xbc82ece8	-0.015982106
179	0xbdac1997	-0.084033184
180	0x3d5fa875	0.054604013
181	0xbddf01ee	-0.1088904
182	0x3d8164dc	0.063180655
183	0x3b5961cf	0.003316987
184	0x3d9dbbf1	0.077018626
185	0xbda4732a	-0.08029778
186	0xbdc90da8	-0.09817058
187	0x3d8cf74b	0.06883105
188	0xbd7309c6	-0.059335493
189	0x39e15a3c	0.00042982574
190	0x3d8a8106	0.067628905
191	0x3b0bc312	0.0021325988
192	0x3d47d551	0.04878742
193	0xbdc2edb9	-0.09517998
194	0xbdb630fc	-0.08896062
195	0x3db97d54	0.090571076
196	0xbdb7a11c	-0.08966276
197	0x3c07a5e0	0.008279294
198	0xbca5f0db	-0.02025645
199	0x3cdbb7a3	0.026820963
200	0x3dafb9b9	0.08580346
201	0xbcd763e9	-0.026292758
202	0xbc05b98d	-0.008161915
203	0xbced89cf	-0.028996376
204	0xbd388e6e	-0.045057707
205	0xbccea28b	-0.02522399
206	0x3da7c755	0.081923164
207	0xbdd2a6e7	-0.1028574
208	0xbd909196	-0.07059018
209	0xbdc32812	-0.09529127
210	0xbcb79abc	-0.02241265
211	0xbccd7a1e	-0.025082644
212	0x3cab628d	0.020921016
213	0x3c56cff6	0.013111105
214	0xbd820bbd	-0.06349895
215	0x3d2746e5	0.040839095
216	0x3da49b03	0.08037379
217	0xbd833a7a	-0.06407638
218	0x3c11009e	0.008850245
219	0x3dc6065e	0.09669183
220	0x3c07cd82	0.008288743
221	0xbcf249ee	-0.029576268
222	0x3bc67b14	0.0060571525
223	0xbd0cd671	-0.034384195
224	0xbc8cb966	-0.017178249
225	0xbd09cdf2	-0.03364367
226	0xbe2ddf18	-0.16979635
227	0xbe39aac7	-0.18131553
228	0x3afe537b	0.0019403541
229	0xbd9b1595	-0.07572476
230	0xbd21e2a9	-0.0395228
231	0x3d487bbc	0.048946127
232	0x3e107b17	0.14109455
233	0xbe2b8479	-0.16749753
234	0xbd96aea8	-0.07357532
235	0xbe2ab512	-0.16670635
236	0x3c61283f	0.013742506
237	0x3dc7d0fa	0.09756656
238	0xbd9f119c	-0.077670306
239	0xbdc5f12a	-0.09665139
240	0x3cd1fe22	0.025633875
241	0xbe0970ca	-0.13421932
242	0xbe3a9ec2	-0.18224624
243	0xbd8f2ee5	-0.06991366
244	0x3d10709e	0.03526365
245	0xbd421226	-0.04738059
246	0xbd060e1d	-0.032728303
247	0x3bbcae70	0.0057580993
248	0x3db688d1	0.089128144
249	0xbd02084d	-0.031746197
250	0x3dfba8b7	0.12288039
251	0x3de3b124	0.11117771
252	0x3dab9a96	0.08379094
253	0xbdb3f471	-0.08786858
254	0xbd539a01	-0.05166054
255	0xbce659e6	-0.028119039

weight_hh_l0 f4 [400, 100]
0	0xbcb0f6f6	-0.021602135
1	0xbcdf532b	-0.027261337
2	0xbd11f014	-0.035629347
3	0xbc0dc490	-0.008652821
4	0x3d802b01	0.06258202
5	0xbd0bd1b6	-0.034135543
6	0x3d86a50a	0.065744475
7	0xbdc4fac4	-0.09618142
8	0x3cdd9d91	0.027052673
9	0xbd8215cc	-0.06351814
10	0x3d7da0ce	0.061920933
11	0x3cda515d	0.026650125
12	0x3db8456c	0.08997616
13	0x3d545812	0.051841803
14	0xbdbba11a	-0.09161587
15	0xbcd40231	-0.025879951
16	0xbd7c0c45	-0.06153514
17	0x3cba1b59	0.022718119
18	0xbd6a39a8	-0.05718389
19	0x3cb5c40f	0.022188215
20	0xbd8e8366	-0.06958656
21	0xbccfaaf7	-0.025350077
22	0x3d5842e5	0.05279817
23	0x3d0bd1c7	0.034135606
24	0x3d0b74c0	0.03404689
25	0x3cba987b	0.022777786
26	0x3db3d909	0.087816305
27	0xbba2ef95	-0.004972408
28	0x3cbeabdf	0.023275314
29	0xbd5d738c	-0.054065272
30	0x3dbab57b	0.09116646
31	0xbd84accf	-0.06478273
32	0xbcbe1e93	-0.023207938
33	0xbdc64bc2	-0.096824184
34	0xbdc1ec57	-0.094689064
35	0x3c7f4ce4	0.015582297
36	0x3a839c2a	0.0010041047
37	0xbdc50950	-0.09620917
38	0x3d41d1e5	0.04731931
39	0xbcf5f2cd	-0.030023003
40	0xbdadf493	-0.084939145
41	0x3d9800d1	0.07422031
42	0x3c911716	0.017711204
43	0xbc5dc45b	-0.013535584
44	0xbd569584	-0.052388683
45	0x3abe51cb	0.0014520226
46	0xbbba1528	-0.0056787916
47	0x3c27ffab	0.010253827
48	0x3c4a2545	0.012337987
49	0xbd1d049e	-0.03833448
50	0xbce9d575	-0.028544167
51	0x3d3c5f82	0.04598952
52	0x3c2fd671	0.010732279
53	0x3a74b626	0.00093350036
54	0x3d9cac50	0.076500535
55	0x3c02f036	0.007991841
56	0x3d4d2e29	0.05009285
57	0x3db75789	0.08952243
58	0x3cf212f1	0.029550048
59	0x3dc07daa	0.093989685
60	0x3d0a892a	0.033822216
61	0xbd42378a	-0.047416247
62	0xbdbe9f23	-0.09307697
63	0x3d98c6db	0.07459804
64	0xbd5419b6	-0.051782332
65	0x3d8e337a	0.06943412
66	0x3dbc7448	0.092018664
67	0x3ca74ec2	0.020423297
68	0xbda44399	-0.08020706
69	0xbd4e70a0	-0.050400376
70	0x3d8861d7	0.066592865
71	0x3d5f76f7	0.054556813
72	0xbc237d3f	-0.009978591
73	0x3d33cf99	0.043899152
74	0x3d86af34	0.06576386
75	0x3bd672cf	0.006544448
76	0x3c8968e8	0.016773656
77	0xbb280765	-0.0025639173
78	0xbd241ec2	-0.040068395
79	0xbd0aae3a	-0.03385756
80	0xbd2c59fd	-0.042078007
81	0x3dc38f46	0.095488116
82	0xbdbe6125	-0.092958726
83	0x3cbacafc	0.022801869
84	0x3dac1150	0.084017396
85	0x3ce567c2	0.028003577
86	0xbca4ac37	-0.02010165
87	0x3d573f20	0.052550435
88	0x3d3de5ba	0.046361662
89	0xbdb9d857	-0.09074467
90	0x3b14527b	0.002263217
91	0xbd23b7cd	-0.039970208
92	0x3dbee1c2	0.09320404
93	0xbc88963c	-0.0166732
94	0x3cea5238	0.028603658
95	0x3dca5a32	0.09880485
96	0x3cd37a84	0.025815256
97	0x3d4b8834	0.04969044
98	0x3dc95d05	0.09832195
99	0x3cd1a0b7	0.02558933
100	0xbbfaef2e	-0.007657907
101	0xbda419d6	-0.0801274
102	0xbcdf4b6a	-0.02725764
103	0xbd706a9e	-0.058695428
104	0xbd8727b5	-0.065993704
105	0xbd230d3d	-0.039807547
106	0xbd93850e	-0.072031125
107	0xbd7d3bfd	-0.061824787
108	0xbb9813fc	-0.004641054
109	0xbdc879ad	-0.09788833
110	0xbd3445cb	-0.044011872
111	0xbc5feeb0	-0.013667747
112	0xbd00f902	-0.031487472
113	0xbd9b5e1b	-0.075863086
114	0x3d099956	0.0335935
115	0x3d769288	0.060198337
116	0xbd083d5f	-0.033261653
117	0xbd3d9cf0	-0.046292245
118	0xbd11f1c2	-0.03563095
119	0xbd8569a4	-0.0651429
120	0x3b9c0a3d	0.0047619627
121	0x3d8d93a2	0.06912924
122	0xbce21997	-0.027600093
123	0xbcb28303	-0.021790987
124	0xbce1658c	-0.027514242
125	0xbdb17fcd	-0.08666954
126	0xbb40fc22	-0.0029447158
127	0x3b0ccdab	0.0021484892
128	0x3d3c5d30	0.045987308
129	0x3d97db2f	0.07414853
130	0xbda4983c	-0.08036849
131	0xbdb00ef2	-0.085966006
132	0x3d8b16e4	0.067914754
133	0xbdbda9df	-0.09260916
134	0x3d7d28e7	0.061806586
135	0x3d61e599	0.055150602
136	0xbda0adaa	-0.07845624
137	0x3d13aac0	0.03605151
138	0xbc98a33d	-0.018632526
139	0x3da6d561	0.081461675
140	0xbdaf80d4	-0.08569494
141	0x3a9db03f	0.0012030675
142	0x3d8a0b88	0.06740481
143	0xbc92d68d	-0.017924571
144	0xbd7e745f	-0.0621227
145	0x3d668502	0.05627919
146	0x3c961ef2	0.018325303
147	0xbdaca675	-0.08430187
148	0x3d0ee91f	0.03489029
149	0xbdb8a15f	-0.09015154
150	0xbd9a0a46	-0.07521491
151	0xbd93d0f5	-0.0721759
152	0x3d3e313e	0.04643368
153	0xbdbf3ad5	-0.09337393
154	0x3bb6d092	0.0055790627
155	0x3d13d5b5	0.03609248
156	0xbb86fca4	-0.0041194726
157	0x3db9689d	0.090531565
158	0xbd562d0a	-0.052289046
159	0xbd5fc4fb	-0.054631215
160	0xbda50e01	-0.08059312
161	0x3d792124	0.06082262
162	0xbd9ac427	-0.07556944
163	0xbd8e08d5	-0.06935278
164	0x3d60c188	0.054872066
165	0xbc99fe69	-0.01879807
166	0x3ce806e1	0.028323593
167	0x3c9676a7	0.018367125
168	0x3d639478	0.055561513
169	0x3d3bb14d	0.045823384
170	0x3ddec403	0.1087723
171	0x3cda94ac	0.02668222
172	0x3d8ac250	0.067753434
173	0xbd68063f	-0.05664658
174	0x3c4f7768	0.012662746
175	0xbda43563	-0.08017995
176	0xbd70508e	-0.058670573
177	0x3dc66957	0.09688061
178	0xbdbc9293	-0.09207644
179	0x3c0cbcc9	0.008589932
180	0x3d1304dd	0.03589331
181	0xbbcdcccd	-0.0062805177
182	0xbd29dd43	-0.041470777
183	0x3cd66542	0.02617133
184	0x3d833523	0.064066194
185	0x3dc74cdc	0.09731457
186	0x3d9c1d83	0.076228164
187	0x3d85d8a2	0.0653546
188	0x3cccd662	0.02500457
189	0xbd309056	-0.0431064
190	0x3dab58d1	0.0836655
191	0x3d0262e9	0.03183261
192	0xbd53a680	-0.05167246
193	0xbc980b12	-0.018559966
194	0x3d33b190	0.04387051
195	0xbdb08078	-0.086182535
196	0xbd3508d2	-0.044197865
197	0x3db3030e	0.08740817
198	0xbdbeb3a6	-0.09311609
199	0x3d960901	0.07325936
200	0x3d8a9963	0.067675374
201	0x3d85a4f9	0.06525607
202	0xbd7057a0	-0.058677316
203	0xbd19f204	-0.03758432
204	0xbd313139	-0.043259833
205	0x3c82820c	0.015931152
206	0x3ce2676f	0.027637212
207	0x3dabb964	0.0838497
208	0x3d804ed1	0.06265033
209	0xbd6dd8f0	-0.058068216
210	0x3d21c2e7	0.039492514
211	0x3cd210f7	0.025642855
212	0x3d993cc9	0.07482297
213	0xbd94d773	-0.07267656
214	0x3c96106c	0.018318377
215	0xbb60c1ee	-0.0034295279
216	0x3daf8b16	0.085714504
217	0xbca5e9f4	-0.02025316
218	0x3d90a297	0.070622616
219	0xbd779966	-0.060449027
220	0xbc5fb63f	-0.013654291
221	0xbd853ce5	-0.06505755
222	0xbd5eaa01	-0.054361347
223	0xbdb023d0	-0.08600581
224	0x3d581408	0.05275348
225	0xbd8a87bf	-0.06764173
226	0x3c88a564	0.016680427
227	0x3d91239b	0.07086869
228	0x3ce83fa2	0.028350655
229	0x3d3b1bba	0.04568074
230	0x3d4c2334	0.04983826
231	0x3d84c612	0.064830914
232	0xbdb2c043	-0.08728077
233	0x3d0a27a7	0.03372922
234	0xbd7a2248	-0.06106785
235	0x3da1852c	0.07886729
236	0x3cdedd4a	0.027205128
237	0xbbfc3167	-0.007696319
238	0xbd278d83	-0.04090644
239	0xbdb29afc	-0.08720967
240	0x3cb8e96a	0.022572238
241	0xbc110fde	-0.008853881
242	0x3d7c31d1	0.061570946
243	0x3d7024c6	0.05862882
244	0xbd0dbf3a	-0.034606196
245	0xbc3d7217	-0.011562846
246	0x3d1a0869	0.037605677
247	0xbdac57a2	-0.08415152
248	0x3b38b5c9	0.0028184524
249	0x3dc620c4	0.09674218
250	0xbd70b623	-0.05876745
251	0x3cb92675	0.022601346
252	0x3d5df94e	0.054192834
253	0x3c4a6ad6	0.012354573
254	0x3da68714	0.08131233
255	0xbc4ebdb7	-0.012618474

bias_ih_l0 f4 [400]
0	0xbdc1af18	-0.094572246
1	0x3d178f9c	0.03700219
2	0x3db6b7af	0.089217536
3	0x3d995825	0.07487515
4	0x3b5e5b09	0.0033928773
5	0x3dc81c32	0.09771003
6	0x3d917bc7	0.07103687
7	0x3d933567	0.0718792
8	0x3d967eb9	0.07348389
9	0x3d258a6b	0.04041521
10	0xbc9ad8da	-0.018902231
11	0x3d359823	0.044334542
12	0xbcf153f1	-0.029458972
13	0x3da88af2	0.08229627
14	0x3cbb2130	0.022842973
15	0x3d8817ca	0.066451624
16	0x3c84d366	0.016214084
17	0x3c65bc91	0.0140220085
18	0x3d035168	0.032060057
19	0x3d149a53	0.036279988
20	0xbc88fcb2	-0.016722057
21	0x3dd8d05f	0.10586619
22	0xbdab905e	-0.08377145
23	0x3c0d4c64	0.00862417
24	0x3d54b127	0.05192676
25	0x3b971bfe	0.004611491
26	0x3da01aa1	0.07817579
27	0xbae264fb	-0.0017272526
28	0x3d425225	0.04744162
29	0x3cdfd4f3	0.027323222
30	0xbd296aeb	-0.04136173
31	0x3b8d7c46	0.004317793
32	0x3d22ce90	0.039747775
33	0x3c73fe9a	0.014892245
34	0x3df0c3de	0.11756109
35	0x3dd36901	0.10322762
36	0xbd968a05	-0.07350544
37	0x3d0d20bb	0.034455042
38	0x3c16d474	0.009205926
39	0xbd6b1976	-0.05739733
40	0xbd212ded	-0.03935044
41	0xbd9da92b	-0.07698282
42	0x3e08102e	0.13287422
43	0xbc5b65c2	-0.01339096
44	0x3c0c5797	0.008565805
45	0x3ca549da	0.020176817
46	0x3da5bfe3	0.0809324
47	0xbd01b8b4	-0.031670287
48	0x3d4dd870	0.05025524
49	0xbdab9259	-0.08377523
50	0xbd963239	-0.07333798
51	0xbdbcb35f	-0.092139
52	0x3d9aa705	0.07551388
53	0x3de2e608	0.11079031
54	0x3a7ee11f	0.0009722877
55	0x3d83e7a6	0.06440668
56	0xbcd13418	-0.025537536
57	0x3d88a764	0.06672552
58	0x3d6f8cdd	0.058483947
59	0xbd7a98de	-0.06118094
60	0xbd588d1c	-0.052868947
61	0xbd70b0bf	-0.05876231
62	0x3dbea41a	0.09308644
63	0xbc5677b2	-0.013090061
64	0xbd840567	-0.06446343
65	0x3b4078cd	0.0029368878
66	0xbc531dd3	-0.012885529
67	0x3db0925f	0.08621668
68	0x3d8b4c25	0.06801633
69	0x3d8acf5e	0.067778334
70	0x3de4267c	0.11140153
71	0xbd9534d8	-0.0728547
72	0xbd86cf8c	-0.06582555
73	0xbcb0190d	-0.02149632
74	0x3c218980	0.009859443
75	0xbd0a5eb5	-0.033781726
76	0x3c988251	0.018616827
77	0x3c9224e7	0.017839862
78	0x3dbbe9e7	0.09175473
79	0xbd9351df	-0.0719335
80	0x3cc1b8f0	0.023647755
81	0xbd3784b1	-0.04480428
82	0x3df0801a	0.117431834
83	0x3cd70985	0.026249656
84	0xbd8fab2a	-0.07015069
85	0x3d893603	0.06699755
86	0xbdbea897	-0.093095
87	0x3d2e778f	0.04259449
88	0x3cfe9d6a	0.03108092
89	0x3dcc5bea	0.09978469
90	0xbcadbe32	-0.021208856
91	0x3ca276f8	0.01983212
92	0x3c68b568	0.014203407
93	0xbd6d9d32	-0.05801124
94	0xbd1466ec	-0.036230966
95	0xbcb76773	-0.022388196
96	0x3d002753	0.031287502
97	0xbd3bdee9	-0.04586688
98	0x3cc3dca4	0.02390892
99	0x3d4360cf	0.047699746
100	0x3d078805	0.033088703
101	0xbc5d2ffd	-0.013500211
102	0x3cf9f542	0.030512456
103	0xbd49cf97	-0.04927024
104	0x3ba35280	0.0049842
105	0xbc41a90b	-0.011820088
106	0x3da6ef5f	0.08151125
107	0xbbb7e124	-0.0056115557
108	0xbd917ebb	-0.0710425
109	0xbd852972	-0.06502046
110	0x3dfe837b	0.12427422
111	0xbd3ac457	-0.0455974
112	0x3d2cb2aa	0.042162575
113	0x3e0adb22	0.13560155
114	0x3df0aceb	0.117517315
115	0xbd52cf11	-0.051467005
116	0xbd283d7d	-0.041074265
117	0xbd27f013	-0.041000437
118	0x3d975aa0	0.07390332
119	0x3d2e171f	0.04250252
120	0x3ba39fa0	0.004993394
121	0x3d895a97	0.06706732
122	0x3dc86e27	0.09786635
123	0x3d596053	0.053070378
124	0x3e180d4e	0.14848825
125	0x3d8b5f1c	0.0680525
126	0x3d8b6ac5	0.06807474
127	0x3d83c274	0.06433573
128	0x3d374d66	0.044751547
129	0xbd580c2c	-0.052745983
130	0xbd3dbad6	-0.04632076
131	0x3d747cf7	0.05968949
132	0xbcaf2597	-0.021380229
133	0xbd14eba8	-0.03635755
134	0x3c26e88d	0.01018728
135	0xbd40b32b	-0.047045868
136	0x3d7fe2ff	0.06247234
137	0xbd4220bb	-0.047394495
138	0x3dc62ec3	0.09676888
139	0xbd411601	-0.047140125
140	0x3dbc67c0	0.09199476
141	0x3dd8fd24	0.10595158
142	0x3e25cd3b	0.1619157
143	0xbd3f2b16	-0.04667195
144	0xbd93fea2	-0.07226302
145	0x3d96fc78	0.07372373
146	0xbb3980ab	-0.0028305452
147	0xbd76e6ed	-0.06027882
148	0x3d9ee08f	0.07757675
149	0xbdb16c30	-0.08663213
150	0x3a958acd	0.0011409164
151	0xbd175de4	-0.036954775
152	0x3db1c209	0.086795874
153	0x3c0463de	0.008080451
154	0xbd03e3a6	-0.032199524
155	0xbcb2fa8b	-0.021847984
156	0xbcd2b27b	-0.025719872
157	0xbd7545c1	-0.059880976
158	0xb9d13b67	-0.00039907845
159	0xbc9d8476	-0.019228201
160	0xbc9ce464	-0.019151874
161	0x3d0e13e9	0.034686957
162	0x3caba949	0.020954745
163	0xbc536471	-0.012902365
164	0x3dda01c7	0.1064487
165	0x3dc0369e	0.093854174
166	0xbda24f89	-0.079253264
167	0x3d98381e	0.074325785
168	0xbd5748a5	-0.052559514
169	0xbd33cce5	-0.043896575
170	0x3e139e05	0.14415748
171	0xbd6a8d63	-0.057263743
172	0xbc8c6b3a	-0.017140973
173	0x3c5f0e9b	0.013614322
174	0x3c4a01d3	0.0123295365
175	0x3d2c386e	0.042046003
176	0x3cb7d133	0.022438621
177	0x3c8c1afa	0.017102707
178	0xbd8e40e7	-0.06945973
179	0x3d98bb91	0.074576505
180	0x3dd5b3e7	0.10434704
181	0xbd8b696f	-0.06807219
182	0x3d737f6c	0.05944769
183	0x3dbaa67f	0.09113788
184	0x3de4311a	0.11142178
185	0x3dbbc0ba	0.09167619
186	0xbd0a4b8e	-0.03376346
187	0xbd83ae25	-0.064297
188	0x3da55330	0.080725074
189	0x3e14a06c	0.14514321
190	0x3dee88a2	0.116471544
191	0x3cd84557	0.026400251
192	0x3c163c05	0.009169583
193	0x3bd64d2e	0.0065399623
194	0xbc39f31f	-0.0113494685
195	0x3d8921dc	0.06695911
196	0xbc8cced4	-0.017188467
197	0xbca96de0	-0.020682275
198	0x3d001d6a	0.03127805
199	0xbccf793a	-0.02532636
200	0xbd30c07d	-0.04315232
201	0xbe870185	-0.26368347
202	0xbc4db008	-0.012554176
203	0xbdb813fa	-0.08988185
204	0x3e1c52e9	0.15266003
205	0x3d9e2336	0.0772156
206	0x3dc22c79	0.09481139
207	0xbe6f82e5	-0.23389776
208	0x3dfa71c2	0.12228729
209	0xbe39e07d	-0.18152042
210	0xbe3b4f85	-0.18292053
211	0xbdb87439	-0.09006543
212	0x3e344d86	0.17607698
213	0xbe4b7fdc	-0.19872993
214	0x3e327a6e	0.17429516
215	0x3dc0680e	0.09394847
216	0xbd345664	-0.0440277
217	0xbd9b41f0	-0.07580936
218	0xbdcba661	-0.09943844
219	0x3e47683d	0.19473357
220	0x3bcdb7c1	0.0062780087
221	0xbe7113d7	-0.23542725
222	0xbd550b6a	-0.05201284
223	0xbd6fb31d	-0.058520425
224	0xbe480a07	-0.19535075
225	0xbd422b33	-0.04740448
226	0x3dacd8d3	0.084397934
227	0xbd5f184f	-0.05446654
228	0xbcc29164	-0.023750968
229	0xbdced93f	-0.1010003
230	0x3e4e6182	0.20154384
231	0xbe6eebef	-0.23332189
232	0x3e6a7f23	0.22900061
233	0xbdd2f645	-0.103008784
234	0xbe2efa3f	-0.17087649
235	0x3a0a33c6	0.0005271997
236	0x3e10e9db	0.14151709
237	0x3e059564	0.13045269
238	0x3b505f2e	0.0031795013
239	0xbdcb397a	-0.09923072
240	0x3e6251e5	0.22101553
241	0x3d29ec95	0.041485388
242	0x3e4cf626	0.20015773
243	0x3d2b78e0	0.041863322
244	0x3d92524f	0.07144605
245	0x3ce78964	0.028263755
246	0xbe61571f	-0.2200589
247	0xbc76a1f4	-0.015053261
248	0xbe28897e	-0.16458699
249	0x3c9df17b	0.019280186
250	0xbdaa2016	-0.08306901
251	0x3d6e088f	0.05811363
252	0x3d76f3b1	0.060290996
253	0xbe6660f6	-0.22497925
254	0xbdd1fad8	-0.10252923
255	0x3d8e9e4a	0.06963785

bias_hh_l0 f4 [400]
0	0x3d54828f	0.051882323
1	0xbcc3be40	-0.02389443
2	0x3dd21d63	0.10259511
3	0xbc7da227	-0.015480555
4	0xbbc80eb5	-0.006105269
5	0x3cfba201	0.030716898
6	0xbc011df2	-0.007880675
7	0x3e048818	0.1294254
8	0x3cfe1163	0.03101415
9	0x3a64d2ef	0.00087289413
10	0x3daf13d4	0.08548704
11	0x3d71004c	0.058838174
12	0xbd56bafc	-0.052424416
13	0x3d0a8cbe	0.03382563
14	0x3d60565f	0.05476987
15	0x3d941ef8	0.07232469
16	0x3db72f48	0.08944565
17	0x3c016fd3	0.007900196
18	0x3d94343b	0.07236525
19	0x3cdded73	0.027090764
20	0xbd77a9d1	-0.060464684
21	0x3e167e66	0.14696655
22	0x3c6650f8	0.01405739
23	0x3d9ae3f9	0.075630136
24	0x3e1a4846	0.15066633
25	0x3d3146b7	0.04328033
26	0xbd62f527	-0.055409577
27	0xbc89d599	-0.016825484
28	0xbd72d7af	-0.059287723
29	0x39dc66b1	0.0004203818
30	0x3d233d79	0.039853547
31	0x3dfcb320	0.12338853
32	0x3d896e9c	0.0671055
33	0xbd63e3cb	-0.055637162
34	0x3e0183be	0.12647912
35	0x3d9c5c8a	0.07634838
36	0x3bf7fdf4	0.0075681154
37	0xbcc99ab8	-0.024609908
38	0xbc143914	-0.009046812
39	0x3d970656	0.07374255
40	0x3dfa8f3f	0.12234353
41	0x3da4d342	0.08048107
42	0x3b984594	0.0046469662
43	0x3d867764	0.06565741
44	0x3d24f91f	0.040276643
45	0xbcd7f65e	-0.026362594
46	0xbc99a77b	-0.018756619
47	0x3dd07166	0.10177879
48	0x3ced6191	0.028977187
49	0x3daac0dd	0.08337567
50	0x3d28c82c	0.041206524
51	0xbc1c7921	-0.009550364
52	0x3ae5faa2	0.0017546008
53	0x3d85f7f3	0.06541433
54	0x3db7334e	0.089453325
55	0x3a318577	0.0006771902
56	0xbdc7c6e3	-0.097547315
57	0x3dda584e	0.10661374
58	0x3d6ae950	0.05735141
59	0x3d4d1166	0.05006542
60	0x3dd88ba2	0.10573508
61	0x3d7e96d8	0.062155575
62	0x3bfc300f	0.0076961587
63	0xbd344fb6	-0.04402133
64	0xbdbcbddc	-0.092159
65	0x3dc4e375	0.096136965
66	0xbd675784	-0.056479946
67	0x3d30460b	0.04303555
68	0xbd9ae664	-0.07563475
69	0x3daf7baf	0.08568513
70	0x3d6a1e54	0.05715783
71	0x3cfdb55d	0.03097027
72	0xbda95566	-0.082682416
73	0x3dec0d93	0.115260266
74	0x3db3fe05	0.08788685
75	0x3c87485f	0.016514001
76	0xbd9219dc	-0.071338385
77	0xbbc5236b	-0.006016185
78	0x3c6fc800	0.014635086
79	0x3c9e96fe	0.019359108
80	0x3cdc449a	0.02688818
81	0x3d5c9c38	0.05385992
82	0xbd035797	-0.032065954
83	0xbd9eeecf	-0.07760393
84	0xbd6546a8	-0.055975586
85	0x3c200b6a	0.009768346
86	0x3d2032ec	0.039111063
87	0x3dc24864	0.09486464
88	0xbd6782a9	-0.05652109
89	0x3da029b3	0.078204535
90	0xbd77715f	-0.060410853
91	0xbc83f49d	-0.016107852
92	0x3d25c6c8	0.040472776
93	0xbd231bae	-0.03982132
94	0xbd863d0a	-0.06554611
95	0x3d81b06a	0.063324764
96	0xbd816f95	-0.06320111
97	0x3dcfe741	0.1015153
98	0x3d965d5b	0.07342025
99	0xbd8c7518	-0.06858271
100	0xbd87a64f	-0.06623518
101	0xbd2b4138	-0.041810244
102	0x3da2deb4	0.079526335
103	0x3dfd0c44	0.12355855
104	0x3ce2de2c	0.02769383
105	0xbc8a7e81	-0.016906025
106	0x3de6faac	0.112782806
107	0x3dd970e0	0.10617232
108	0x3a9b54e4	0.0011850861
109	0xbd04a0a4	-0.03237976
110	0x3e02a8de	0.1275973
111	0xbcb781f9	-0.022400843
112	0x3ce143db	0.027498176
113	0x3e0cd302	0.13752368
114	0x3d936240	0.07196474
115	0xbd8f747a	-0.07004638
116	0xbd8eb3e9	-0.06967909
117	0xbd7e577d	-0.062095154
118	0x3dfa38c4	0.122178584
119	0xbbab4714	-0.005226979
120	0xbd6e1995	-0.058129866
121	0xbcec3ac7	-0.028836621
122	0xbd92c032	-0.071655646
123	0xbcc6fadd	-0.024289543
124	0xbccb3be6	-0.024808835
125	0x3ba9a2f8	0.005176898
126	0xbd5d8af7	-0.054087605
127	0x3cc140d6	0.023590486
128	0x3da78224	0.08179119
129	0x3d033ce7	0.032040503
130	0xbc021654	-0.007939894
131	0x3dc93eed	0.09826455
132	0x3d62d4b8	0.055378646
133	0x3e041380	0.12898064
134	0x3d7060c2	0.058686025
135	0x3b57f134	0.0032950165
136	0xbbcf8d9b	-0.0063340194
137	0xbd2c4992	-0.04206235
138	0x3ddda9cc	0.10823402
139	0x3dd69aec	0.10478768
140	0xbc16a69e	-0.009194998
141	0x3d8fbaff	0.070180885
142	0x3ddbc601	0.107311256
143	0xbd8bd7a9	-0.06828243
144	0x3d95ed3c	0.073206395
145	0x3d38b6d1	0.045096222
146	0x3cdf96a2	0.027293507
147	0x3cee6004	0.029098518
148	0xbd7ceb50	-0.06174785
149	0x3d063852	0.032768555
150	0x3d8603a0	0.0654366
151	0x3d844f02	0.06460382
152	0xbd596fdf	-0.053085204
153	0x3e165b90	0.14683366
154	0x3d1816a8	0.03713098
155	0x3db67af3	0.089101695
156	0x3d772b3f	0.060343977
157	0x3dc74c17	0.0973131
158	0xbd85709d	-0.0651562
159	0x3d853d05	0.06505779
160	0x3c27333d	0.010205087
161	0xbc821152	-0.0158774
162	0x3c8b79f2	0.017025921
163	0xbd1398fa	-0.03603456
164	0x3dcd861d	0.10035346
165	0x3d6c8d0b	0.057751697
166	0x3d20ac9b	0.03922711
167	0x3daccced	0.08437524
168	0x3d2e678f	0.04257923
169	0x3da1dde5	0.07903651
170	0x3d53f840	0.05175042
171	0x3dedbea8	0.116086304
172	0x3d308741	0.04309774
173	0x3d7dcd8c	0.061963603
174	0xbd710cd3	-0.05885012
175	0xbd286545	-0.041112203
176	0x3db3b1e7	0.087741666
177	0x3d8f69fe	0.07002638
178	0x3de5e083	0.11224463
179	0x3b3f7959	0.0029216616
180	0xbb5efbd7	-0.003402462
181	0x3da08586	0.078379676
182	0x3db6487c	0.08900544
183	0x3d05358a	0.032521762
184	0xbc91e293	-0.017808234
185	0x3debbd06	0.11510663
186	0xbcb38d3d	-0.021917934
187	0x3dc3a124	0.095522195
188	0xbd093c2a	-0.033504643
189	0x3e1d2bdb	0.15348761
190	0xbc72f205	-0.01482821
191	0xbbca309d	-0.006170346
192	0x3d8fdc34	0.07024422
193	0x3dbb2a7d	0.09138963
194	0xbd379201	-0.044816975
195	0xbd360068	-0.04443398
196	0x3dbba477	0.091622286
197	0xbbc89036	-0.006120707
198	0x3ddfe4ba	0.10932298
199	0xbdb0d24c	-0.08633861
200	0xbd16e834	-0.03684254
201	0xbe4bc9d3	-0.19901209
202	0xbdb2584c	-0.087082475
203	0xbe5d6477	-0.21620356
204	0x3e2eec0c	0.17082232
205	0xbd0f83cd	-0.035037804
206	0x3dee3c2e	0.11632572
207	0xbe4fd7cd	-0.20297165
208	0xbb674985	-0.0035291624
209	0xbdce63b1	-0.100776084
210	0xbe89311f	-0.2679529
211	0x3a7115b2	0.0009196653
212	0x3dd1c332	0.10242309
213	0xbdc9cac3	-0.09853127
214	0x3df219de	0.1182134
215	0x3e00cbc7	0.12577735
216	0x3cf1b5f1	0.029505702
217	0x3b374f4e	0.0027970853
218	0xbe201171	-0.15631653
219	0x3e402bcd	0.18766709
220	0x3c997854	0.018734135
221	0xbe8a5479	-0.27017573
222	0x3dd9dbae	0.10637604
223	0xbda33507	-0.079690985
224	0xbe5b75a7	-0.214316
225	0x3d87fde0	0.0664022
226	0xbd859c0a	-0.06523903
227	0xbdeaecb8	-0.11470932
228	0x3dd37118	0.10324305
229	0xbe3f69cd	-0.18692704
230	0x3d6c1404	0.057636276
231	0xbdb66fd3	-0.089080475
232	0x3e2fa7f2	0.1715391
233	0xbe6d680c	-0.23184222
234	0xbe841057	-0.25793716
235	0x3cdac1aa	0.026703674
236	0x3b5797e9	0.0032896942
237	0x3d7d49dc	0.061838016
238	0x3d907784	0.07054046
239	0xbe073e3b	-0.13207333
240	0x3dff6a9a	0.124715045
241	0xbd06e764	-0.032935515
242	0x3eaac53b	0.333536
243	0x3d66725e	0.056261413
244	0x3e292118	0.1651653
245	0xbd25ea27	-0.04050651
246	0xbe87f91e	-0.2655725
247	0x3d3ab2bb	0.045580607
248	0xbd86fed8	-0.06591576
249	0x3c09c218	0.008408092
250	0xbe1f926a	-0.15583196
251	0x3dde18a5	0.10844544
252	0x3bc3c65e	0.005974575
253	0xbe79b64c	-0.24385947
254	0xbc1178a2	-0.008878859
255	0x3e38545f	0.18000935

weight f4 [100, 100]
0	0xbdce6cf7	-0.10079377
1	0xbdab54c8	-0.0836578
2	0x3dce4cdc	0.100732535
3	0x3ba5a2c9	0.005054806
4	0x3da0d848	0.078537524
5	0xbd15b892	-0.036552973
6	0xbd79979b	-0.060935598
7	0xbd55c5b6	-0.052190505
8	0xbe0e1b77	-0.13877665
9	0xbbba39d3	-0.0056831627
10	0x3dabe7c6	0.08393817
11	0x3d5c2b6e	0.053752355
12	0x3d8df95d	0.06932328
13	0xbcb7ca2c	-0.02243527
14	0x3db13545	0.086527385
15	0xbc6ce62c	-0.014459174
16	0xbdae2c01	-0.08504487
17	0xbd604114	-0.054749563
18	0x3dff0d34	0.1245369
19	0x3c5ffdf5	0.013671388
20	0x3da766cf	0.08173906
21	0xbca3ae7b	-0.01998066
22	0x3d613598	0.05498275
23	0x3d9cd8f9	0.07658572
24	0xbc9279cf	-0.017880348
25	0x3c668a97	0.014071128
26	0x3c52d9aa	0.012869278
27	0xbc92801e	-0.017883357
28	0x3d0adebc	0.033903822
29	0xbdb29989	-0.08720691
30	0xbca2cad1	-0.019872101
31	0x3dc89351	0.097937234
32	0x3bc51ece	0.006015635
33	0x3d19a6e5	0.03751268
34	0x3d318443	0.043339025
35	0x3d1a5b77	0.037684884
36	0x3be38519	0.0069433567
37	0xbd1226bc	-0.03568147
38	0xbdd6f21a	-0.10495396
39	0xbc01871e	-0.00790575
40	0xbdbbf8f6	-0.09178345
41	0x3cc670d8	0.02422373
42	0x3c81d434	0.015848257
43	0x3bd01ef4	0.006351346
44	0x3de55878	0.11198515
45	0x3cb75b16	0.0223823
46	0xbd50c46d	-0.050968576
47	0x3c0f3fa4	0.0087432
48	0x3d49d6a0	0.049276948
49	0x3d970d16	0.07375543
50	0x3d48d8e7	0.04903498
51	0x3d86885c	0.06568977
52	0x3d302d99	0.043012235
53	0x3d0d9384	0.03456451
54	0x3d6e375f	0.058158275
55	0x3d75bf4e	0.059996895
56	0xbe0fe593	-0.1405242
57	0xbdd3fa77	-0.10350507
58	0xbda2bb55	-0.07945887
59	0xbbadbdc6	-0.005302164
60	0x3db70560	0.08936572
61	0x3cd09fdb	0.02546685
62	0xbd94a059	-0.072571464
63	0xbd82fee9	-0.063962765
64	0x3d8c587e	0.06852816
65	0x3d8aab79	0.06770987
66	0xbd02ad42	-0.031903513
67	0x3d26caa2	0.04072059
68	0x3d0e0527	0.034672882
69	0xbd9ab1f4	-0.07553473
70	0xbd9f96c9	-0.07792432
71	0xbdc475b7	-0.09592765
72	0xbcb96b8a	-0.022634286
73	0x3d35398c	0.044244334
74	0xbc67c062	-0.014144989
75	0x3d7ea27f	0.062166687
76	0xbd1386d1	-0.036017243
77	0x3dd62eb5	0.104581274
78	0x3c913fdf	0.017730651
79	0x3ddea5de	0.108714804
80	0x3dbf97dc	0.09355137
81	0x3c1e563e	0.009664116
82	0xbd398e88	-0.045301944
83	0x3c62d91f	0.013845711
84	0x3d4c57f4	0.049888566
85	0x3dcd503b	0.10025068
86	0xbdd7c678	-0.10535902
87	0x3d7e6f14	0.06211765
88	0x3b193366	0.0023376583
89	0x3d54c1eb	0.051942747
90	0xbdcbe003	-0.09954836
91	0xbb34850b	-0.002754512
92	0xbcd39e78	-0.0258324
93	0x3c101d7d	0.008796093
94	0xbd8fbe32	-0.07018699
95	0x3d486c9a	0.048931696
96	0xbd27de0b	-0.04098324
97	0xbd1b5f43	-0.037932646
98	0xbd9274b3	-0.07151165
99	0xbd04637d	-0.032321442
100	0x3d2facf2	0.042889543
101	0xbd933094	-0.07187
102	0x3cb17bc2	0.021665458
103	0x3d5653d7	0.05232605
104	0x3b9b7958	0.00474469
105	0x3d6d2250	0.05789405
106	0xbd6d45ba	-0.057927825
107	0xbde3ebfe	-0.11128996
108	0xbd4853e0	-0.048908114
109	0xbda7fa73	-0.08202066
110	0x3c48a480	0.012246251
111	0x3de9a248	0.11407906
112	0x3d6f65f8	0.058446854
113	0x3d5609fd	0.05225562
114	0x3d4d5f6e	0.050139837
115	0xbdc0f0ba	-0.09420915
116	0xbb9e82b8	-0.0048373602
117	0x3d266d8a	0.04063181
118	0x3d6ff979	0.058587525
119	0x3ce854c2	0.028360728
120	0xbbdb3dde	-0.0066907248
121	0xbc4eaebe	-0.012614904
122	0x3ce6728b	0.02813079
123	0x3db37971	0.087633975
124	0x3db720b0	0.089417815
125	0xbc9a82ce	-0.0188612
126	0x3cde0e9b	0.027106574
127	0xbd0d0fdb	-0.03443895
128	0xbb711456	-0.0036785803
129	0x3d80abf0	0.062827945
130	0xbd648ee8	-0.05580035
131	0xbd3f6b1a	-0.046733
132	0xbdc715c9	-0.09720952
133	0x3d87d966	0.06633262
134	0xbc10517c	-0.00880849
135	0x3dbe1167	0.09280663
136	0xbd94a21a	-0.07257481
137	0xbd0efd23	-0.03490938
138	0xbd95f3a5	-0.07321862
139	0xbdb2b047	-0.087250285
140	0xbd920339	-0.07129521
141	0x3d37f7f1	0.04491419
142	0xbdb84d25	-0.08999089
143	0xbd870fe4	-0.06594828
144	0xbce9e20b	-0.028550168
145	0x3c385f24	0.011253152
146	0xbd92a730	-0.07160795
147	0x3dc55ab3	0.0963644
148	0x3d602029	0.05471817
149	0xbc374ccd	-0.011187744
150	0x3bea3803	0.0071477904
151	0x3d68fbab	0.056880634
152	0xbdc2e82d	-0.0951694
153	0xbdb06b0a	-0.08614166
154	0xbdeb9aed	-0.11504159
155	0x3cda1f28	0.026626185
156	0x3c1d9017	0.009616873
157	0xbcaae9db	-0.020863464
158	0xbd972b11	-0.07381261
159	0x3cd762dc	0.026292257
160	0x3dabbb95	0.08385388
161	0xbd92da59	-0.07170553
162	0x3d489a9e	0.04897558
163	0xbcde890b	-0.027164957
164	0x3d661daf	0.056180652
165	0xbd2c1f79	-0.042022202
166	0x3dacc830	0.0843662
167	0x3cb33db1	0.021880003
168	0x3da54548	0.08069855
169	0xbdad17a0	-0.08451772
170	0x3d254822	0.040351994
171	0xbcef4b1f	-0.029210625
172	0x3d2a59bc	0.041589484
173	0xbd73ab94	-0.0594898
174	0x3d5d4607	0.05402186
175	0xbb9c3e2f	-0.004768155
176	0x3d6aca54	0.05732186
177	0x3c27df79	0.010246151
178	0x3cf42fb9	0.029807912
179	0x3c2ab61d	0.010419396
180	0x3d9e3459	0.07724828
181	0x3d62f118	0.055405706
182	0xbb10c6b5	-0.0022091095
183	0xbd040c18	-0.032238096
184	0xbe079c9e	-0.13243338
185	0x3de5a516	0.11213128
186	0x3dae4748	0.085096896
187	0xbdaeba1f	-0.085315935
188	0x3db7f8cb	0.08983
189	0x3d42798a	0.04747919
190	0xbdcdb210	-0.10043728
191	0x3b91e937	0.00445285
192	0xbd4204f6	-0.047368012
193	0x3db85959	0.09001417
194	0x3cc2ad2f	0.023764221
195	0x3cc92a35	0.024556259
196	0xbd9de90e	-0.07710467
197	0x3d80f513	0.06296744
198	0x3cb3d327	0.021951271
199	0xbdaf9e29	-0.085750885
200	0xbc0fa35b	-0.008766974
201	0x3c8fe0eb	0.017563304
202	0xbb504ac0	-0.0031782836
203	0xbbd8335f	-0.006597921
204	0xbd8be841	-0.06831408
205	0x3d536b2e	0.051615886
206	0x3d29aef4	0.041426614
207	0x3d914eb3	0.07095089
208	0xbd9b3efe	-0.07580374
209	0x3db6c4cf	0.08924257
210	0x3d97bcfd	0.074090935
211	0x3ccdc61f	0.025118886
212	0xbc5478fa	-0.012968296
213	0x3d844a86	0.06459527
214	0xbd88a027	-0.06671172
215	0x3d01acf3	0.031659078
216	0xbd97bb3b	-0.07408758
217	0xbd4f884c	-0.050667092
218	0xbd86d396	-0.065833256
219	0x3d84d619	0.064861484
220	0xbdaa7fb8	-0.08325142
221	0xbd6d0b10	-0.05787188
222	0x3d9eda75	0.07756511
223	0x3d822457	0.063545875
224	0x3dd60d3d	0.10451744
225	0xbd2b90c5	-0.04188611
226	0x3d5fb0ac	0.054611847
227	0x3bbe9a03	0.0058166995
228	0x3d28df3a	0.04122851
229	0xbdce17bd	-0.100631215
230	0xbbdedf5d	-0.0068015293
231	0x3d9b746c	0.07590565
232	0xbdb80b6a	-0.08986552
233	0x3d8e4762	0.06947209
234	0x3d035b06	0.03206923
235	0x3cb90e14	0.02258972
236	0xbd8b51a8	-0.06802684
237	0x3d159440	0.036518335
238	0x3d781dbc	0.060575232
239	0x3dca61a2	0.09881903
240	0x3d81f4e5	0.06345538
241	0xbd991e7e	-0.07476519
242	0x3c966eb6	0.018363338
243	0xbde03214	-0.10947052
244	0xbc8c2395	-0.01710681
245	0xbd0c85a0	-0.034307122
246	0x3c153678	0.009107225
247	0x3d88cc95	0.06679646
248	0xbcfe8e4a	-0.031073708
249	0xbc3c7af8	-0.011503927
250	0x3bf73dbd	0.0075452016
251	0x3b92e34a	0.0044826614
252	0x3dbe9af4	0.09306899
253	0xbcecd30e	-0.028909232
254	0xba95c4b4	-0.001142642
255	0x3da812f5	0.08206741

bias f4 [100]
0	0x3d4dc0a4	0.050232545
1	0x3d869ef7	0.06573289
2	0x3d82b152	0.063814774
3	0xbdc1815d	-0.09448502
4	0x3d53c034	0.05169697
5	0xbd725e01	-0.05917168
6	0x3dcba7fa	0.09944148
7	0xbce15cf2	-0.02751014
8	0x3d6f3cf0	0.058407724
9	0xbd64019f	-0.05566561
10	0xbd7f4515	-0.06232174
11	0x3d5cb000	0.053878784
12	0x3d1b2287	0.037874725
13	0xbd84ff34	-0.06493989
14	0xbdeb279f	-0.114821665
15	0xbddd8630	-0.1081661
16	0x3c529f81	0.0128554115
17	0xbc70fc88	-0.014708646
18	0xbaf293c2	-0.001850717
19	0xbc22c3fc	-0.009934422
20	0xbd2a6e97	-0.041609373
21	0x3c02398c	0.007948291
22	0xbdd79e96	-0.10528295
23	0xbd2b98c1	-0.041893724
24	0x3dc2098f	0.094744794
25	0x3dc1dbcf	0.09465753
26	0x3d19d3e2	0.037555583
27	0x3d811dde	0.06304525
28	0xbcca58d9	-0.024700569
29	0xbd842bcd	-0.06453667
30	0xbcbba523	-0.022905892
31	0xbd894c09	-0.06703956
32	0x3d1b7fdc	0.037963733
33	0xbd6c4d33	-0.05769081
34	0xbd1dceef	-0.038527425
35	0x3c620199	0.013794326
36	0x3d6c1125	0.057633538
37	0x3e117e2a	0.14208284
38	0xbc6bd590	-0.014394179
39	0x3d8137f8	0.06309503
40	0xbdba902d	-0.091095306
41	0xbbd06a50	-0.0063603297
42	0x3d5b0588	0.053472072
43	0xbcc50c34	-0.02405367
44	0x3d2ae5e3	0.041723143
45	0xbc84ef14	-0.016227283
46	0x3cc8c380	0.024507284
47	0xbd8928ed	-0.06697259
48	0x3d13c044	0.03607203
49	0xbc1414a4	-0.009038124
50	0xbd9af707	-0.07566648
51	0xbd090ae9	-0.03345767
52	0xbd980bf8	-0.07424158
53	0x3dd5c079	0.10437102
54	0x3dc5f955	0.09666697
55	0x3cd04621	0.025424065
56	0x3dd6c6bf	0.104871266
57	0x3d69134c	0.05690317
58	0xbdbd1e79	-0.09234328
59	0x3dd05545	0.10172514
60	0xbd5cd8c6	-0.05391767
61	0xbdc132e1	-0.094335325
62	0x3d89452f	0.06702649
63	0xbdb9a549	-0.09064729
64	0x3daeffa4	0.08544853
65	0xbd58a85b	-0.05289493
66	0xbc9611c6	-0.018319022
67	0x3d098b10	0.033579886
68	0xbcbe4b25	-0.023229191
69	0xbd206b10	-0.039164603
70	0x3d6a4b32	0.057200618
71	0xbda1bdee	-0.07897554
72	0x3d932b5b	0.07186004
73	0x3cc1b92e	0.02364787
74	0x3d8c4e09	0.068508215
75	0xbd8527ea	-0.06501754
76	0xbd9e7dc3	-0.07738831
77	0xbd555799	-0.052085493
78	0xbd152aeb	-0.036417883
79	0xbd42e5e6	-0.04758253
80	0x3cb53270	0.022118777
81	0xbd7e98eb	-0.062157553
82	0x3d137e35	0.036009032
83	0x3cc0a759	0.023517298
84	0xbd1805e6	-0.037115
85	0x3c9ad6db	0.01890128
86	0xbc89690e	-0.016773727
87	0x3d1478de	0.03624808
88	0x3da65246	0.08121161
89	0xbdb91ac3	-0.090383075
90	0x3cb956b0	0.022624344
91	0x3bcdeae8	0.0062841065
92	0xbdb028b1	-0.08601511
93	0x3da17467	0.0788353
94	0xbcca0e30	-0.024664968
95	0xbd8927f1	-0.06697071
96	0xbaf14f09	-0.0018410395
97	0x3db5fabb	0.08885714
98	0x3d663fed	0.056213308
99	0x3b2df23b	0.0026542086

weight f4 [1, 100]
0	0xbe91101f	-0.28332612
1	0xbec86e75	-0.39146772
2	0xbe0f4498	-0.1399101
3	0x3e9184dc	0.28421676
4	0x3eb07616	0.34465092
5	0xbe5fe8a8	-0.21866095
6	0xbe5d39e0	-0.21604109
7	0x3d13752c	0.036000416
8	0x3d800fa9	0.06252987
9	0x3dee8692	0.11646761
10	0xbe4f8c99	-0.20268477
11	0xbd25bd86	-0.040463947
12	0x3dd57afb	0.10423847
13	0x3d470cd2	0.04859621
14	0x3e73f5dc	0.23824257
15	0x3e3df065	0.18548734
16	0x3e894788	0.26812387
17	0xbddd770a	-0.108137205
18	0x3eee6d42	0.46567732
19	0xbe23fd30	-0.16014552
20	0xbe82444a	-0.25442725
21	0x3defeb46	0.11714797
22	0x3ea1e192	0.3161741
23	0x3e52dfaf	0.20593141
24	0xbebafcfa	-0.3652113
25	0x3e926bd7	0.285979
26	0x3e8dc2be	0.2768764
27	0x3b36f6f2	0.0027918187
28	0xbea19a3e	-0.3156299
29	0xbe1196c7	-0.14217673
30	0x3e1cfb30	0.15330195
31	0xbbbd1588	-0.005770389
32	0xbec5a3de	-0.38601583
33	0x3e0f0cce	0.13969728
34	0x3e412e62	0.1886535
35	0x3e388181	0.18018152
36	0x3ddf220d	0.108951665
37	0xbec981dc	-0.39356887
38	0x3d2a9936	0.04165002
39	0xbe6265a0	-0.2210908
40	0x3e870f23	0.26378736
41	0x3de078c2	0.10960533
42	0xbcfbcc07	-0.030736936
43	0x3df81a6e	0.12114416
44	0x3e9d1ada	0.3068455
45	0x3d9a9603	0.07548144
46	0xbd7caf3f	-0.061690565
47	0xbdfe37a8	-0.12412959
48	0xbda1862c	-0.078869194
49	0xbe889745	-0.2667791
50	0xbe1ee576	-0.1551722
51	0xbd2d4b97	-0.042308416
52	0xbe7fe8cf	-0.24991153
53	0xbe448825	-0.1919256
54	0xba0a4a95	-0.0005275396
55	0xbe3e79cc	-0.1860115
56	0xbefd7de0	-0.49510098
57	0xbebb8ac3	-0.36629304
58	0xbd7e1bda	-0.06203828
59	0xbe8ae984	-0.27131283
60	0x3d64c312	0.055850096
61	0x3e7bc515	0.245869
62	0xbe8350be	-0.2564754
63	0x3eb07c95	0.3447005
64	0xbec32b7e	-0.3811912
65	0x3e3569e3	0.17716174
66	0xbe4d7a92	-0.20066288
67	0x3eb3ef61	0.3514357
68	0x3ea2b97f	0.31782147
69	0x3da8a55d	0.082346655
70	0x3e8767ee	0.2644648
71	0x3e8a14e9	0.26969078
72	0x3e8050d8	0.2506168
73	0x3e88dd07	0.2673113
74	0xbe98b0a6	-0.29822272
75	0x3b641d2c	0.0034807427
76	0xbdb8e785	-0.09028534
77	0xbe1d2845	-0.15347393
78	0xbeb7b0e0	-0.35877132
79	0x3d1adbaf	0.037807163
80	0xbd038d9e	-0.03211748
81	0x3ea5fe24	0.32420456
82	0x3da9aad7	0.08284538
83	0xbe8f10a3	-0.2794238
84	0x3ec9d40e	0.39419597
85	0xbe484390	-0.19557023
86	0x3eb85626	0.36003226
87	0xbdedfb10	-0.11620152
88	0x3d9c6255	0.07635943
89	0xbe785efc	-0.24254984
90	0x3ccab95f	0.024746595
91	0x3cbc59ab	0.022991976
92	0x3e862f3b	0.2620791
93	0xbe6f54cf	-0.23372196
94	0xbdeeed7b	-0.116663896
95	0x3e0bf324	0.1366697
96	0x3cb7763f	0.022395251
97	0xbe3eb301	-0.18622972
98	0xbe43986c	-0.19101113
99	0x3d43eded	0.047834326

weight f4 [15, 100]
0	0xbeb8e92e	-0.36115402
1	0x3e9bce93	0.3043104
2	0xbe51d75b	-0.20492308
3	0xbea9bd3e	-0.33152193
4	0x3e920221	0.2851725
5	0x3dee7c61	0.11644817
6	0xbd0c13bb	-0.034198504
7	0xbec32146	-0.38111323
8	0xbe83240b	-0.25613436
9	0x3c0fa961	0.00876841
10	0x3e9185ca	0.28422385
11	0xbc7e6ae9	-0.015528419
12	0x3e01bf85	0.12670715
13	0x3d8b4ef0	0.068021655
14	0x3eba8905	0.36432663
15	0xbd4a2ee5	-0.04936113
16	0xbccf490e	-0.02530339
17	0xbe66b133	-0.22528534
18	0xbe74df1c	-0.23913234
19	0xbedcfd8f	-0.431622
20	0x3e680170	0.22656798
21	0xbe674888	-0.22586262
22	0xbe5ddf4d	-0.21667214
23	0x3dba2bd1	0.090903886
24	0x3e0b00fc	0.13574594
25	0x3dbdfac3	0.092763446
26	0x3ca136ac	0.01967939
27	0xbea7d8e0	-0.3278265
28	0x3c5719b2	0.013128685
29	0xbdbb7253	-0.09152665
30	0x3e1d72b9	0.15375794
31	0x3e86df46	0.2634222
32	0xbeadad50	-0.3392129
33	0xbd703936	-0.05864831
34	0x3e8aac79	0.2708471
35	0x3eb77d90	0.35837984
36	0x3baf8af3	0.00535714
37	0x3e55de68	0.20885623
38	0x3c113d4a	0.00886471
39	0xbe63381d	-0.22189374
40	0x3ea54ef3	0.32286796
41	0x3e33de2a	0.17565218
42	0xbcd6119b	-0.026131442
43	0xbe434edd	-0.19073053
44	0xbdebb78a	-0.11509617
45	0x3e2295de	0.15877482
46	0x3e15fb5f	0.14646672
47	0x3ea94c8d	0.33066216
48	0x3d1cc291	0.03827149
49	0xbc775763	-0.015096518
50	0x3e47ecb7	0.19523893
51	0xbbd435b2	-0.0064761275
52	0x3c280337	0.010254673
53	0xbe3ed086	-0.18634233
54	0xbe8da1c7	-0.2766249
55	0xbe6eb3cd	-0.23310776
56	0x3e138eb3	0.14409904
57	0xbd653e96	-0.05596789
58	0x3dbc8439	0.09204907
59	0x3e16f15c	0.14740509
60	0xbe3b577d	-0.18295093
61	0xbe10a7c4	-0.14126498
62	0x3ea6118f	0.3243527
63	0x3d41e4f4	0.047337487
64	0x3d86e2d6	0.06586234
65	0xbe9d74c4	-0.30753148
66	0xbed25a1a	-0.41084367
67	0x3cb4813a	0.022034276
68	0xbe4c1abc	-0.19932073
69	0xbec5885f	-0.38580605
70	0x3e890846	0.26764125
71	0xbdab6585	-0.08368973
72	0xbe504552	-0.20338944
73	0x3e1ac1b4	0.15112954
74	0xbe69ec4a	-0.22844043
75	0x3eafbd33	0.34324035
76	0xbe689a9d	-0.2271523
77	0xbd78c354	-0.060733154
78	0x3e229bb1	0.15879704
79	0x3e7e1610	0.24813104
80	0x3d96b179	0.07358069
81	0x3e5391e2	0.20661119
82	0x3daf8430	0.08570135
83	0xbe45e589	-0.19325842
84	0x3ebf6868	0.37384343
85	0x3e6fbc8f	0.23411773
86	0xbe269396	-0.16267237
87	0x3e4ec564	0.20192486
88	0x3e5066f4	0.20351774
89	0xbe88df62	-0.26732928
90	0x3dd4bbe6	0.10387401
91	0x3e2221a0	0.1583314
92	0xbe7d181b	-0.24716227
93	0xbe387447	-0.18013106
94	0xbe3ee0f0	-0.18640494
95	0xbe01c3fc	-0.12672418
96	0x3e1976a2	0.14986661
97	0xbd1f9307	-0.038958576
98	0x3d230ab9	0.039805148
99	0xbdc214cb	-0.09476622
100	0xbcfd2b72	-0.030904505
101	0xbe280f2c	-0.16412038
102	0x3e4060a2	0.18786862
103	0xbee34b45	-0.44393364
104	0x3de271fc	0.11056897
105	0xbe693045	-0.2277232
106	0xbe06db83	-0.13169675
107	0xbe078509	-0.13234343
108	0xbed02ad2	-0.4065767
109	0xbc7de712	-0.015496986
110	0xbe8b2d25	-0.2718288
111	0x3e7626eb	0.24038284
112	0x3cb0d000	0.021583557
113	0xbeb80a3d	-0.3594531
114	0x3d105b61	0.035243396
115	0x3ee2fbf4	0.4433285
116	0xbec3dae4	-0.38252938
117	0x3d76eb21	0.06028283
118	0x3eaca7a6	0.33721656
119	0xbeb78c7c	-0.3584937
120	0x3eb4b152	0.35291535
121	0x3ee28e9e	0.44249433
122	0x3dc0292f	0.09382855
123	0xbef85b05	-0.48506942
124	0x3e83da6a	0.25752574
125	0xbe4845b5	-0.19557841
126	0xbddffe74	-0.10937205
127	0x3e9738fa	0.29535657
128	0xbf01b1f2	-0.5066215
129	0xbe67884a	-0.22610584
130	0x3e71e584	0.2362271
131	0xbe9f1d27	-0.3107693
132	0x3e4f7e36	0.2026299
133	0x3cb5beda	0.022185732
134	0x3e553de2	0.20824388
135	0xbe034854	-0.1282056
136	0xbeff1357	-0.49819443
137	0xbd0cdab8	-0.034388274
138	0x3e816acc	0.25276792
139	0xbdbb302d	-0.09140048
140	0xbd4a1877	-0.049339738
141	0xbec006b3	-0.3750511
142	0xbebe340f	-0.37149093
143	0xbe9d46aa	-0.30717975
144	0xbe218671	-0.15773942
145	0xbe354581	-0.17702295
146	0xbef17f4e	-0.47167438
147	0xbea38b05	-0.31942
148	0x3e8d0142	0.27540022
149	0x3dd0e6bb	0.10200258
150	0x3e16a980	0.14713097
151	0x3d388aa6	0.0450541
152	0x3d39f279	0.045397256
153	0x3ebb1a4e	0.36543506
154	0x3e442e53	0.19158296
155	0x3e97a515	0.29618135
156	0x3e168d0e	0.14702246
157	0xbc0c391e	-0.00855854
158	0xba9d84a0	-0.0012017675
159	0x3e02426c	0.1272065
160	0xbeb1d7a3	-0.3473483
161	0xbeac1e59	-0.33616903
162	0xbea9f8d7	-0.33197662
163	0xbe5e4826	-0.2170721
164	0xbe86e4b9	-0.26346377
165	0x3da0ea73	0.07857218
166	0xbdd8fb1a	-0.10594769
167	0xbeb51568	-0.35367894
168	0x3d8854c2	0.06656791
169	0x3e64a752	0.22329453
170	0x3e365d64	0.17809063
171	0x3e050618	0.12990606
172	0xbe874a37	-0.2642381
173	0x3e46da0b	0.19419114
174	0x3ead3e7e	0.3383674
175	0x3f0c85a1	0.548914
176	0xbd7c344f	-0.061573323
177	0xbe047f5a	-0.12939206
178	0x3bb468d9	0.005505663
179	0xbd8e3584	-0.06943801
180	0x3e66be87	0.22533618
181	0x3ead2f3a	0.33825094
182	0xbdb13501	-0.08652688
183	0x3e27de18	0.16393316
184	0xbea2e8d0	-0.31818247
185	0x3e4327cd	0.19058152
186	0x3e034298	0.12818372
187	0x3e2fe37d	0.17176624
188	0xbebd7b50	-0.37008142
189	0x3e6fba77	0.23410974
190	0xbef9a0a1	-0.48755363
191	0x3ebfd031	0.37463525
192	0x3e6782fe	0.22608563
193	0xbd85fc7e	-0.065423
194	0x3ee5cf73	0.44884834
195	0xbe5b0c10	-0.2139132
196	0xbeae2e41	-0.34019664
197	0x3e874e05	0.26426712
198	0x3d24ab24	0.040202275
199	0x3c6e61c4	0.014549676
200	0xbdef5790	-0.11686623
201	0xbd9bf63e	-0.07615326
202	0xbe284190	-0.1643126
203	0x3e87d3c7	0.2652876
204	0xbe734407	-0.23756419
205	0xbdc6e83b	-0.09712263
206	0xbc5eefa3	-0.0136069385
207	0x3ed3475f	0.4126539
208	0xbe2ffbd4	-0.17185909
209	0xbd9c3263	-0.07626798
210	0x3e90edbc	0.28306377
211	0x3dc574ed	0.096414424
212	0x3d72fad3	0.059321236
213	0xbe83912a	-0.2569669
214	0xbd18408a	-0.037170924
215	0xbea234ce	-0.31680912
216	0x3e2f2def	0.17107366
217	0xbe249f27	-0.16076337
218	0xbe2c4f51	-0.16827132
219	0x3e9ed66b	0.31022963
220	0xbea2aecf	-0.31773993
221	0xbe084ebd	-0.13311286
222	0x3e13f29b	0.14448015
223	0xbd541349	-0.051776204
224	0xbe746530	-0.23866725
225	0x3e400e38	0.18755424
226	0xbd953a8f	-0.0728656
227	0xbebf3fef	-0.37353465
228	0x3e017d7f	0.12645529
229	0xbd9978bf	-0.074937336
230	0xbcccba8b	-0.024991294
231	0x3e58a385	0.21156128
232	0xbea6ca55	-0.32576242
233	0xbdb6e1db	-0.08929797
234	0x3d77e589	0.060521636
235	0xbe28eef8	-0.1649741
236	0x3e4fca38	0.20291984
237	0xbd917d29	-0.071039505
238	0x3daba255	0.08380572
239	0xbd3b4dee	-0.045728616
240	0x3d7be73a	0.06149981
241	0x3e1ab995	0.15109856
242	0x3e5375dc	0.20650429
243	0x3ed1fcd3	0.41013202
244	0x3e50201e	0.20324752
245	0xbe29654d	-0.1654255
246	0xbe4f613f	-0.2025194
247	0x3eb0a190	0.34498262
248	0xbe633db9	-0.22191514
249	0xbe1cd015	-0.15313752
250	0x3e8cc72c	0.27495706
251	0xbcd38e8e	-0.025824811
252	0x3e0301b0	0.12793612
253	0xbd59d49d	-0.05318128
254	0xbe910b82	-0.28329092
255	0xbdfc9582	-0.12333204

bias f4 [15]
0	0xbe2834ab	-0.16426341
1	0xbe029bc0	-0.12754726
2	0x3c314b81	0.010821224
3	0x3e0caebf	0.13738535
4	0x3f4a298c	0.78969646
5	0x3f31ace8	0.6940446
6	0xbc95bdaa	-0.018278915
7	0x3e7e03e5	0.24806173
8	0x3da1788d	0.07884321
9	0xbe697fdf	-0.22802685
10	0xbc696ad2	-0.014246659
11	0x3d457d24	0.048215047
12	0xbdc0b2b0	-0.09409082
13	0xbdcd092b	-0.10011514
14	0xbdb890c2	-0.09011985
