checkpoints/9feature_mlp_num_comm999_an15_sn_D3_al125_E1_B5_lr250_num_clients0.05_cf100.pth (torch, 102175 bytes, 4 tensors)

weight f4 [1000, 9]
00000000: 730b a93c 52a7 9fbc a5ca 9a3c 435f 0abe
00000010: e714 fb3d 674c 31bb 48f5 e93e bb1b ec3c
00000020: 1cba 42be 750f 0fbe ecf0 263e 1bf3 aebe
00000030: cc40 913e ef92 843d c02e 5bbe f8b6 81be
00000040: ed3a db3c c5e7 fdbd cbe9 5fbe be78 9bbe
00000050: 3164 b7be da34 cf3d ebcf 09bf 1ac6 54be
00000060: 280f b0be 3308 513e 3005 56bd 436b 85be
00000070: 1f08 42be e0e2 08bd ad52 6f3e bca0 39be
00000080: 754e 94be 38ee b03c cf3a 84be 0a23 e3be
00000090: a596 65be efcd 8d3e b649 a8be ab44 3b3e
000000a0: fb65 5bbe 70dd 7fbe 5759 61be 0beb 883c
000000b0: 9243 513e 3fcb 9bbc 67ee afbe 0773 a5be
000000c0: 6164 97bd 7fee 383e b04c d63e 25cf 293f
000000d0: e200 babd b039 063c 0afe ddbc 886d ad3d
000000e0: 69d6 3cbd cbe7 adbe 2d32 c1bd cdea a93e
000000f0: 1d11 613e 1807 723f f714 f7be afc6 46be
00000100: a7eb c43d 90f7 a0be 9bfd 973d 173b b5be
00000110: 348a 833e 73e8 3bbd 7a21 9dbe 8e0a a73e
00000120: aa88 2cbd 025d 333d b9d9 bb3c af12 3b3e
00000130: 8bad 71bd 70d9 efbe c175 28be 5af3 60be
00000140: 8758 f3be 3254 61be 160d b3be 3705 a4be
00000150: 58e1 123e abad e73d 683e 53be e7dd 38be
00000160: 0e54 343d 2d52 4fbc 30bb 37bd 7910 90bc
00000170: 2745 80be 883d 523d 9bd1 97bd 9db7 f93e
00000180: 7812 ecbe 50df 28bd 893a af3e 8da8 c8be
00000190: 7022 7b3e 38a7 383e a356 5b3e f7d9 91be
000001a0: c27d 73be 258b 1b3d 92e7 8dbe 2be6 92be
000001b0: 19cd 1b3e f2a7 5b3f fd5d 823e 5349 6dbd
000001c0: cb0b ddbe 84a6 ae3e 0fa7 70be b09a 4c3e
000001d0: d30c 8bbd 3d27 b1bd d56d 98bd 1861 75bd
000001e0: 7373 6a3e 6e4e 3cbe 4b65 edbd 4f76 d7be
000001f0: 158a c5be 280e 3cbf f3d3 c8be bb38 fc3d
00000200: 2414 37bd 6315 593e 85df 42bd 21f8 9ebd
00000210: 12cd 933e bf71 c13e bb8e 873e ac59 ab3d
00000220: febc 093c 8bf7 dbbd bae6 07be 8bfd 7cbe
00000230: bf0e 433f 2be6 273f c10c adbe d93f 2bbe
00000240: 959a b7be 85e7 f23d 83ca 86be 4bfd 8abe
00000250: 6b4e 95be 85d8 fa3c 33bc 71bd 4bd3 b93e
00000260: 1764 13bd f30b 89be 6f55 51bc c540 853d
00000270: ab08 8d3e 858d e2be 3c51 90be 177e 68bd
00000280: 14cf a23d fdf4 113e 131d c3be 93e4 cbbd
00000290: 774c 3b3d bd50 a83e 40d8 c53e a3f5 05be
000002a0: 6f09 21be 8d12 c73c 7a53 993e dd37 7ebc
000002b0: 3cec 423c 601b 78bd 69b0 3dbe aa4a e33e
000002c0: ba0e 7fbe 0201 35bf bbfe 80bf 73fa 95be
000002d0: c98c a93d 29d3 c2bc ed72 4ebd fa11 d0bd
000002e0: cb85 eabd f846 74b9 8b92 b7be 1f8c f93e
000002f0: 087d 0b3e fffc 6e3b 676a 9a3d 0878 e93c
00000300: 7bb8 70bc e9f3 8fbd dd05 b33d c63b 153f
00000310: 500f b03f 888e 93bf 0de3 fdbd 4c4d b53e
00000320: d3f5 a43e 1266 58be 6349 12bd ef5b 4a3e
00000330: 3355 37bf e8c3 85bf 41ef 28bf 83e1 853c
00000340: e2c7 ec3e af1d c73e ea63 51be c777 c23e
00000350: b0dc f4bd fb88 573e 7679 82bd 083a 6fbd
00000360: 373b 0e3e 6087 48be 4b4e c6be 8e0a ac3e
00000370: 9eb6 40bc fdbe 07bd 05e3 fb3e 1f4b f6be
00000380: a30a c0be c144 2b3d e393 3fbd bb30 9b3c
00000390: 0555 12bf 88f4 2e3f 07c9 fabe e83b 12bd
000003a0: 8d5e 5839 fb4f 1a3e 3ed5 2ebe b51e 55bd
000003b0: 2b6a 4dbd d1fc 983e efa6 8dbe 5d8f 22bf
000003c0: 9285 883e 2b02 0e3e dde9 d33e f579 e63d
000003d0: 57e1 dfbc a9b3 0cbe da7c 0b3d 115a 2a3d
000003e0: 4a52 33be c7b1 3a3f a3ca 27be 4a55 0e3e
000003f0: 6334 f23d 607a cf3e e953 03bb c65c 27be
0.020635342 -0.019488964 0.018895457 -0.13512902 0.12259846 -0.0027053596 0.45694947 0.028821817
-0.19016308 -0.1397074 0.16302842 -0.3416985 0.2836975 0.06473338 -0.21404552 -0.25334907
0.026761496 -0.12397722 -0.21866529 -0.30365556 -0.35818627 0.101175025 -0.5383288 -0.20778695
-0.34386563 0.20413284 -0.05225104 -0.26058397 -0.1894841 -0.03341949 0.23371382 -0.18127722
-0.28966108 0.021597967 -0.25826117 -0.4436267 -0.22420748 0.27696177 -0.32868737 0.18287914
-0.21425621 -0.24986815 -0.22006737 0.01671364 0.20435932 -0.019017814 -0.34361574 -0.3231432
-0.07392193 0.18059729 0.41855383 0.663317 -0.090822 0.008192465 -0.027098674 0.08468157
-0.046102915 -0.33965907 -0.094333984 0.3318695 0.21979184 0.94542074 -0.48258182 -0.1941173
0.096152596 -0.31438875 0.07421418 -0.35396644 0.25691378 -0.045875978 -0.30689603 0.3262524
-0.04212252 0.04378987 0.022930967 0.18268846 -0.059003394 -0.4684558 -0.1645117 -0.21967831
-0.47528479 -0.22004774 -0.3497092 -0.3203523 0.14343774 0.113124214 -0.20629275 -0.18053399
0.044025473 -0.01265387 -0.04485625 -0.01758598 -0.2505276 0.051328212 -0.07413026 0.48772898
-0.4610784 -0.041228592 0.34224346 -0.39191094 0.24524856 0.18032539 0.21419768 -0.28486606
-0.23778442 0.037974495 -0.27715737 -0.2869123 0.15214957 0.8580314 0.25462332 -0.057931256
-0.4317306 0.34111416 -0.23501228 0.19980884 -0.067895554 -0.08650062 -0.07442824 -0.05990705
0.22895603 -0.18389294 -0.11591586 -0.4208245 -0.3858191 -0.734591 -0.39224204 0.12315508
-0.044696942 0.21199565 -0.047576446 -0.077621706 0.28867394 0.37782094 0.26476082 0.08366713
0.008406876 -0.107405744 -0.13271609 -0.24706094 0.76194376 0.65585583 -0.33798793 -0.16723575
-0.35860124 0.11860565 -0.2632638 -0.27146372 -0.2916139 0.030620823 -0.05901737 0.36294016
-0.035984125 -0.2676693 -0.012776717 0.065064944 0.27545676 -0.44248596 -0.28186977 -0.056760874
0.07949653 0.14253612 -0.3810812 -0.099557064 0.04572722 0.32874098 0.38641548 -0.13081984
-0.15726255 0.024300838 0.299465 -0.0155162485 0.011897143 -0.06057298 -0.18524326 0.44392902
-0.24907961 -0.7070466 -1.0077738 -0.2929264 0.08278806 -0.02378233 -0.05040257 -0.10159679
-0.114513 -0.00023296091 -0.3585399 0.48739716 0.13621914 0.0036466715 0.07539826 0.028499618
-0.014692421 -0.07028944 0.08741353 0.5829433 1.3754673 -1.1527872 -0.12396822 0.35410535
0.322188 -0.21132687 -0.03571452 0.19761632 -0.7161438 -1.0450411 -0.6599007 0.016342884
0.46246248 0.38889834 -0.2044827 0.37982008 -0.11956155 0.21048348 -0.06370823 -0.058404952
0.13889776 -0.19582891 -0.38731608 0.33601803 -0.011762289 -0.033141125 0.4919664 -0.48104188
-0.37508115 0.041813616 -0.046771895 0.018944135 -0.5716098 0.68341875 -0.48981497 -0.035701662
0.00020634588 0.15069573 -0.17073533 -0.052031238 -0.050150078 0.29880384 -0.27666423 -0.63500005
0.26664406 0.13868015 0.4138936 0.1125373 -0.02732913 -0.1374041 0.034054615 0.0415898
-0.1751186 0.72927517 -0.16385894 0.13899723 0.11826398 0.40523052 -0.0020039028 -0.16343984

bias f4 [1000]
00000000: 634f 22be 0e95 cc3d c80e 3e3e af8f c5bd
00000010: a1f6 24bc df4f f53d 826e 933e 9306 993d
00000020: 37ed b9bd de2f 8dbd a218 e73e 8a76 563e
00000030: 5c38 88be baf1 5a3d 4a38 d13e f90d 9e3e
00000040: c3f7 82be a7c7 81be dbc5 23be 7756 163f
00000050: d21a a1be a648 36be ee29 af3d 9728 72be
00000060: 9564 27be b446 1ebf 5bca 4cbd cfff 513f
00000070: 7a20 03b9 3292 69bd 7530 b53e 3f1f 5abd
00000080: 5fb1 cdbe e7d6 c03e 5a6e a7be 8e26 023f
00000090: 6b7d a8be d790 4b3d 8fc6 113d 9b9f 88be
000000a0: 0f8f 013e cae3 143d 0725 68be 7050 17be
000000b0: 973b 2a3f 3729 b23c a240 5f3e f27f 5fbe
000000c0: 85de e8bd b6e8 49be 5db8 b4be aa5d 3dbd
000000d0: fd85 80bc b527 56be 08a4 8f3d 4ac2 a23e
000000e0: 53cd bc3e c5a0 82be 1a6a 583e 7597 f73d
000000f0: f8aa 233e d0b5 7739 00ed 803d 3df5 8f3e
00000100: faca 62be 14c3 a33e badc 75bd e12a 3dbd
00000110: 96d5 93be b577 8abd 8b6e 423d 802d 8ebd
00000120: 294b b4bb 132c 433c d0ed 8abe 702a 8ebe
00000130: 150c ebbd e5cc b6be 17e4 8e3e 13c8 0a3d
00000140: b3ac d3bc f509 bbbe dae8 d73d 8b3a f9bd
00000150: 75a1 013f f2e4 c83d d3a9 5a39 828b 5d3e
00000160: 4210 41bf 53f7 9e3e da97 c53e 1a69 a03e
00000170: e7cb 2e3f bbc8 303e c3f9 0f3e b034 53bc
00000180: 6dfa 37be f590 96be 5362 8c3e 32bb 033c
00000190: ebe2 b1be 03f9 c53e 2758 a33e d8cd 68be
000001a0: 6a38 b8bd 32cd 15be bffe 05bf 6b22 3c3f
000001b0: 7f4f 82be c015 b9be bf3a 33bf 8c67 47be
000001c0: dd6e b8be 8b04 93bd be75 9e3e 67ad 63be
000001d0: 0b37 33bc f797 353d 593b 87be 05ac 76be
000001e0: 88c7 72be 979e 103f 15e4 aabd b87e 603e
000001f0: 729d 6f3d f0b9 3cbd 8582 f83e 979c 48be
00000200: ab92 f63e cca7 09bf 5dde 74b9 bf48 abbd
00000210: 85e1 83be 8323 5fbe 174d 233e 7851 6e3c
00000220: af1c 39be faba 3e3a 812a a53e 884f 9cbe
00000230: 823d 303d 54ea 133d cef6 243e 404e a93d
00000240: fef6 8abe a315 5b3e 63ce b0bd 781d 763e
00000250: 4aee 2f3e 1089 7abc 3283 ec3e 53f1 8dbd
00000260: 69ac 0ebe 52be 8ebe aa11 20bf a78d e7bd
00000270: 0a2a edbe aa22 d83d dbd9 14bf 74f6 b63e
00000280: 6468 933d e2ba e2be af8b 743e c563 b9bd
00000290: 6300 e5bd ada5 28be b253 653e 6ceb a73e
000002a0: 3de2 49be 8db2 21bf c615 b63e 655d 9bbd
000002b0: df66 4bbe 3a4c c33e c980 31bf 9173 b1bd
000002c0: efe7 3abe b87b 22be ce12 8fbd 7546 db3e
000002d0: 560e 13bf db70 a13d ad2a dd3e 8307 b1be
000002e0: 0397 a53d 650c ce3e 2357 0bbe 6ae9 f33d
000002f0: 9ee4 05be 4a37 e13e 5fc1 2bbc 5de1 11bf
00000300: 6805 5ebf 7742 973e 0d8e 38bb 3325 f8be
00000310: afbf c43e bec4 11be 8d06 283f 81ca 173d
00000320: adf6 d83e 27b9 1fbf 33e8 57be c715 febc
00000330: a0a6 58be 587f 83be 4332 b3be c4bd 00be
00000340: 7f77 af3e bdfa d13d ba29 b63e ebce 283e
00000350: 250b dfbb 3020 28be 4bf9 c53e ebb6 0f3e
00000360: 9935 86be 5472 cb3e 386c 90b8 c347 9abe
00000370: abd2 dc3e e3ff 89be 2d34 45be b3ab b53e
00000380: 4adf 5abe 1f33 bf3e c2fc ca3d f586 94be
00000390: 5301 b53e 235a 5ebe c319 f3bd f232 b83e
000003a0: 6727 05be f6ec 853e eabb ddbe 886f 923b
000003b0: bf1e c63e a489 b9bc 6b19 e63e 55e9 d93d
000003c0: b8ae f73e 1326 073f ab8f 2bbc 8a37 02bd
000003d0: ef4d 4cbd b004 013d 4216 34bf 8b60 68be
000003e0: b380 b0be c97f 133f d3bd 963e ea9f d63d
000003f0: d8e9 77be dd5a 203d d5b2 06bf 6a39 7b3d
-0.15850596 0.099893674 0.18560326 -0.09646546 -0.010068567 0.11978125 0.28795248 0.07471957
-0.09078448 -0.068938956 0.4513598 0.20943657 -0.266055 0.053453185 0.40863258 0.30870035
-0.25579652 -0.25347635 -0.15993445 0.58725685 -0.31465775 -0.1780115 0.08552919 -0.23648296
-0.16346963 -0.61826634 -0.04999767 0.8203096 -0.00012505232 -0.05702419 0.35388532 -0.053252455
-0.40174386 0.37663957 -0.3270138 0.5084008 -0.32908186 0.049698677 0.03558975 -0.2668427
0.12652229 0.03635005 -0.22670375 -0.14776778 0.66497177 0.021748168 0.21801999 -0.21826151
-0.11370567 -0.19717678 -0.35296908 -0.046231903 -0.01568889 -0.20913585 0.07013708 0.31788856
0.368754 -0.25513282 0.21134225 0.12089435 0.15983188 0.00023623486 0.06295204 0.2811679
-0.22147742 0.3198477 -0.060024954 -0.04618347 -0.2887389 -0.067611136 0.047468703 -0.06942272
-0.005502124 0.011912364 -0.27134562 -0.27766752 -0.11476914 -0.35703197 0.27908394 0.033882212
-0.025839185 -0.36531034 0.1054246 -0.12169369 0.5063699 0.09809293 0.00020853365 0.2163525
-0.7541543 0.31048068 0.38592416 0.31330186 0.6827988 0.17264073 0.1406012 -0.01289098
-0.17966624 -0.29407468 0.27418765 0.008040236 -0.34743437 0.38666543 0.31903192 -0.22734773
-0.08995135 -0.14629057 -0.52341837 0.7349002 -0.25451276 -0.36149406 -0.70011514 -0.19473094
-0.36022082 -0.07178601 0.30949205 -0.22234116 -0.010938416 0.044334378 -0.26412466 -0.24089058
-0.23708928 0.5649199 -0.083442844 0.2192334 0.05849976 -0.04607576 0.48537078 -0.19590984
0.48158774 -0.5377166 -0.0002335249 -0.083634846 -0.25757995 -0.2179089 0.15947376 0.014545791
-0.18077348 0.00072757865 0.3225899 -0.30529428 0.04302741 0.036112145 0.16109774 0.08266878
-0.27141565 0.21394973 -0.08633115 0.24034679 0.17180744 -0.015291467 0.46193844 -0.069307946
-0.13932957 -0.27879578 -0.62526953 -0.11306315 -0.46321136 0.10553487 -0.5814492 0.35734904
0.07197645 -0.44283205 0.2388141 -0.09052233 -0.111817144 -0.1646945 0.22395208 0.327968
-0.1971521 -0.6316307 0.35563487 -0.07586173 -0.19863461 0.38144094 -0.69337136 -0.08664621
-0.18252538 -0.15867507 -0.069860086 0.42827192 -0.5744375 0.078828536 0.43196622 -0.34576043
0.08085444 0.4024383 -0.13607459 0.119097546 -0.13075492 0.43987495 -0.010483115 -0.569845
-0.86727 0.29542896 -0.002816084 -0.4846588 0.38427493 -0.14235207 0.65634996 0.037058357
0.423757 -0.62391895 -0.2108467 -0.031016244 -0.21157312 -0.25683093 -0.34999284 -0.1257239
0.34270856 0.10252903 0.3557871 0.16485183 -0.0068067485 -0.16418529 0.38666758 0.14034621
-0.26212767 0.39735663 -6.8866124e-05 -0.30132875 0.43129477 -0.2695304 -0.19258185 0.3548256
-0.2137424 0.3734369 0.09911491 -0.29009214 0.35352573 -0.21714072 -0.11870148 0.35976368
-0.13003312 0.2615735 -0.4330743 0.004468862 0.38695332 -0.02264864 0.44941267 0.10640208
0.48375487 0.5279247 -0.010471265 -0.031791247 -0.04987901 0.03149861 -0.7034646 -0.22693078
-0.3447319 0.5761686 0.294417 0.1047972 -0.24210298 0.039149154 -0.52616626 0.06133405

weight f4 [15, 1000]
00000000: 2692 30bd 0b40 303d 4ce4 b13d 4255 fc3d
00000010: 935a 1f3d a0d9 edbd cdad f9bd d356 163d
00000020: f44d a43d cec6 2d3d cd9a eabd 94f6 403d
00000030: f5d3 74bc 8a5a 293e 8af4 773d 8587 8fbd
00000040: 7b28 923d 3de7 b43c 68c2 fbbd 0f83 5cbe
00000050: 7d37 313c 8520 eebd ef49 a53e 58ad fcbd
00000060: dd70 4fbe a947 27be 3e17 c43a 6bf7 6abe
00000070: 72f5 623d af1c 483c 226e 8f3d 2fe5 6f3d
00000080: 6f5c f13d e280 683d 9f7b 223b 9a7f 033e
00000090: 5865 853c 5758 293d 20b1 613d 9d7f b4bd
000000a0: e9bf 1c3d f6c1 08bd 4f80 1ebd d2aa f2bd
000000b0: 9fec afbd 5a23 ef3d 5cba 3dbc 7f88 673e
000000c0: 439e 1bbe 5077 89bd c7e5 92bd 8532 cf3d
000000d0: a298 ef3b e4d8 213e ebd8 b23b b8fb 8bbd
000000e0: 577d 6e3d ecf9 90bd 1b3b c9bd 0ffd 0a3d
000000f0: f0f3 dfbd 0eb8 c93d 0281 3dbd 9be8 9fbd
00000100: 50b8 f5bd 6345 4d3c 481a 2cbe a327 e0bc
00000110: 8bf3 d8bd 4509 66bd 7021 f6bd 603b 17be
00000120: 9f33 763c 18ab 2bbd 8550 75b9 296e 38be
00000130: 4a2d 88be 2b3c 623d 1f63 293e 7250 c3bd
00000140: 2dfe dbba c7a9 67bd 83a5 8c3d 2242 983d
00000150: b541 d6bd 2440 133c ba76 793d 9132 883d
00000160: 4729 273e b4e2 94bd cb35 73bd 8cf9 9f3c
00000170: d8a8 3ebe f675 34be d054 59bd f011 d23c
00000180: 833d 84be 3b2d 2dbd 9308 56be 6ffb ca3b
00000190: afdd 3ebd ddbc e6bc 45a9 11be 63d9 423d
000001a0: 688e 26bd e3ce 33be 2b37 e13d d8f9 3ebe
000001b0: e3c2 8fbd 171e 6d3e ddbb 8f3d 6516 c3bd
000001c0: 3356 17bc 773c 3ebe db9e 0f3c aac6 823c
000001d0: d34b 4abe 8380 dd3c 87fe 01be 1ab9 37bd
000001e0: 25ad 983c 6ff2 0bbe 5ab0 2bbb 4f3c 9cbd
000001f0: f7a9 d2bd 113e 8ebd bf85 343e b133 a93d
00000200: 33b1 89bd 07e1 5b3d 5399 eebd f599 4ebc
00000210: 176b 03be bf7d d2bc 285f 083e d507 52be
00000220: 81c5 a23c fa40 5c3d 4db5 d6bc 2d79 523e
00000230: 03a8 d63d 3b7f 923d 5be5 d43d 3e50 483e
00000240: d333 f63a 6f27 eebc c79d fabd cb56 c2bd
00000250: e239 d0bc 7a66 e0bc d010 acbd 1bf8 09be
00000260: f228 f1bd 80ab 033d ca9e 033d 2288 ad3d
00000270: 2508 56bd 781a 15bd 5f39 97bd c21e 67bd
00000280: cf4e 6a3c e550 203e 9fe5 08bd 08a7 1cbe
00000290: 0d31 4e3d dba0 ac3d efc8 783d 538f 223d
000002a0: 675e 8d3d aa75 ef3b 48f2 67bd 7bb8 46bd
000002b0: 8b19 823c c6bd 40bd 5fb3 003e 755e 82be
000002c0: 1022 0f3d 6a82 ccbd 77ad 1ebd 4352 70bd
000002d0: 140d a5bc 621d bd3d b0fd e93a c78a 0cbe
000002e0: ea71 9bbd ad00 efbd 3eb2 0bbe 74e0 32bc
000002f0: d347 07bd eabe 0fbd a5c3 b0bd 3952 3a3d
00000300: 979d df3c b204 b73d 6577 52be 3779 5ebd
00000310: 6e02 c4bd 8a33 88bd 1775 7a3d e799 a23d
00000320: f2b9 59bc cf98 cdbd 67a8 88bc c62f 1bbe
00000330: 7ed8 283c bd03 f8bc cdce fb3d d2f7 273e
00000340: f5d9 2c3e 5890 433c bb2b 48be 85a0 c33d
00000350: 9c50 80bd 520f 19bc 3652 bf3d 5b47 583c
00000360: afdb 7f3d d0f5 63be 4d35 67be 58f2 21bc
00000370: dbfc 303d f354 8cbc 6d4f 2f3d 5372 18be
00000380: 66c1 17be 8fc7 69bd 0d7f 6f3d 4256 e7bd
00000390: a22b 773d 4087 fe3d 31c2 b3bc bf2a 503e
000003a0: 4519 623d 4390 c7bd 02c3 bbba f21a 3bbd
000003b0: 7b44 6dbe 0274 763c 2f4a 173e 82a7 fabc
000003c0: 4fc9 8ebd fac6 573d ffa6 a43b d5d4 1cbe
000003d0: 13a7 ac3d a3f6 67bd 6bd2 bb3b 658f a93d
000003e0: 517c 1ebc 1d4e 20bd f3c3 64bd d38b 5bba
000003f0: 02ca e0bd 1fa6 f73d 37c1 c0bd 83f3 50bd
-0.043108128 0.043029826 0.08686122 0.12320949 0.038904738 -0.11613774 -0.12191353 0.036703896
0.08022681 0.042425923 -0.11455307 0.047110155 -0.014943113 0.16538444 0.060535945 -0.0700827
0.07136627 0.02208292 -0.122929394 -0.2153437 0.010816452 -0.11627296 0.3228297 -0.1233775
-0.20257898 -0.1633593 0.001496054 -0.22945945 0.055409856 0.01221387 0.07003428 0.058568176
0.117852084 0.056763537 0.0024792922 0.12841645 0.016283676 0.041344013 0.05510056 -0.08813403
0.038268957 -0.0333881 -0.038696583 -0.11848988 -0.08590054 0.11676665 -0.011580076 0.22610663
-0.15197091 -0.0671221 -0.07172733 0.10117058 0.0073118964 0.15805393 0.0054579875 -0.06835121
0.058225002 -0.07078919 -0.098257266 0.03393274 -0.10935199 0.09849559 -0.04626561 -0.07808038
-0.119980454 0.01252875 -0.168069 -0.02736265 -0.10593327 -0.056161184 -0.120180964 -0.14768744
0.015026956 -0.041911215 -0.00023395017 -0.18010773 -0.26597053 0.055233162 0.16541718 -0.09536828
-0.0016784124 -0.056558397 0.06867506 0.07434489 -0.10461751 0.00898746 0.060904242 0.0665027
0.1632434 -0.07269803 -0.059377473 0.019528173 -0.18619096 -0.17623124 -0.0530594 0.025643319
-0.2582818 -0.042279463 -0.20901708 0.006194524 -0.046598133 -0.028166229 -0.14224727 0.047570597
-0.040663153 -0.1755939 0.109968506 -0.18649995 -0.070195936 0.2315601 0.07018254 -0.09525756
-0.00923686 -0.18577753 0.008765901 0.015963871 -0.19755487 0.027038818 -0.1269475 -0.04485426
0.01863725 -0.136667 -0.0026197643 -0.076286905 -0.102863245 -0.06945432 0.17629145 0.082618125
-0.06723251 0.0536814 -0.11650338 -0.012609948 -0.1283382 -0.025694726 0.13317549 -0.205108
0.019869568 0.053772904 -0.026209498 0.20554037 0.104812644 0.071531735 0.103953086 0.1956186
0.0018783755 -0.029071538 -0.12237125 -0.09489211 -0.025418226 -0.027392615 -0.08401644 -0.13473551
-0.11775388 0.032145977 0.032133855 0.08473231 -0.05225386 -0.036402196 -0.073839895 -0.056425817
0.014301016 0.15655859 -0.03342211 -0.15298092 0.050339747 0.08429118 0.0607385 0.039687466
0.069027714 0.007307728 -0.05662754 -0.048515778 0.01588132 -0.047055982 0.12568425 -0.2546269
0.034944594 -0.09985812 -0.038739648 -0.0586722 -0.020147838 0.0923412 0.0017852094 -0.13724814
-0.07590087 -0.11670051 -0.13642213 -0.010917772 -0.03302748 -0.03509418 -0.08631066 0.04548857
0.027296824 0.089364424 -0.20553358 -0.05431482 -0.09570776 -0.06650455 0.06114682 0.07939511
-0.013288962 -0.100389116 -0.016681863 -0.15154943 0.010305522 -0.03027522 0.122953035 0.1640313
0.16880019 0.01193627 -0.19547932 0.09552101 -0.06265375 -0.009342032 0.09341852 0.013200606
0.062465366 -0.22261739 -0.22578926 -0.009884439 0.04320989 -0.01713035 0.042800356 -0.14887361
-0.1481987 -0.05707508 0.058470774 -0.11295749 0.060344346 0.12428141 -0.021943184 0.20328806
0.05519988 -0.097443126 -0.0014325085 -0.045679994 -0.23170654 0.015042307 0.14774393 -0.030597452
-0.0697199 0.052679993 0.0050247903 -0.15315564 0.084303044 -0.056631695 0.005731871 0.082793035
-0.009673194 -0.039136995 -0.055850934 -0.00083750224 -0.1097603 0.12092232 -0.09411853 -0.05101348

bias f4 [15]
00000000: cf5b 63bc f80e fa3d 1442 2abd e704 49bd
00000010: ebfb 7d3e d036 563e 70ed 013e 6b1b 4f3f
00000020: 7d23 cabe 598b 0bbf 9a3a cc3e e852 dcbe
00000030: 6e29 4a3f a029 91bf 00c8 07be
-0.013876869 0.12209886 -0.041566923 -0.04907694 0.2480313 0.20919347 0.12688231 0.8090121
-0.394802 -0.545095 0.3988846 -0.43032002 0.78969467 -1.1340828 -0.13259888
