checkpoints/9feature_lstm_num_comm799_an15_D5_al0.5_E5_B10_lr0.05_num_clients100_cf0.1.pth (torch, 228375 bytes, 9 tensors)

weight_ih_l0 f4 [400, 9]
000000 97 47 10 3e 7f 57 50 bc b1 8c 16 3e f8 06 44 bd
       0.1408981 -0.012716173 0.14702107 -0.04785821
000010 17 20 30 bd d3 d8 d8 bd 23 11 70 3d 15 ee 88 bd
       -0.042999353 -0.10588231 0.058610093 -0.066860355
000020 97 dc 0a be 27 c1 25 be b7 c4 b6 bb ef 91 48 bc
       -0.13560711 -0.16186963 -0.0055776495 -0.0122418245
000030 90 50 52 3d 38 07 8f bd fd 3a 4a bd 0e fc 2e bd
       0.05134636 -0.06983799 -0.04937266 -0.042720847
000040 cc 16 c5 3d f3 4e 99 bd 68 90 93 3e b1 31 a3 3d
       0.09623489 -0.074857615 0.2882111 0.07968462
000050 1f 24 fd 3d 00 e8 f0 bc 4f 5a 94 3d 0c b3 2c 3d
       0.12360405 -0.029407501 0.072437875 0.04216294
000060 e5 5c 29 be 53 22 32 bd 2b d7 ea bd 54 a2 2d be
       -0.16539343 -0.043489765 -0.11466821 -0.16956455
000070 d2 9a 07 3e 4a 7b a6 3c 1a b9 83 bd ba b5 7e 3d
       0.13242653 0.02032246 -0.0643179 0.062185027
000080 42 af 07 3d 57 79 c3 3d f7 47 9e 3d 8b 0c 93 3d
       0.033126123 0.09544628 0.0772857 0.07180127
000090 9a d4 8c bc f7 7f b4 3e 1a 3f e1 bc 9e e3 3d bd
       -0.01719122 0.3525388 -0.02749591 -0.04635965
0000a0 af e3 84 bc df fa cc 3d b7 d9 60 3d 75 8c 35 3e
       -0.01622185 0.10008787 0.05489513 0.17729361
0000b0 f5 fc f6 bd d3 b0 e6 bc c0 c5 ec bd 4a 2a dd bd
       -0.120599665 -0.028160488 -0.11561155 -0.107990816
0000c0 bd 98 7a 3d 9d 87 33 3d 8a e7 d5 3d 37 e6 57 bd
       0.06118082 0.043830503 0.10444553 -0.052709784
0000d0 77 d1 26 bd b7 8d 1b bd c2 b1 f8 3a 07 de 26 be
       -0.040727105 -0.037976947 0.0018973874 -0.16295634
0000e0 43 7f ce 3d 65 ff ba bc 77 e9 50 bb ff 78 a2 bc
       0.10082867 -0.02282686 -0.0031877437 -0.019833086
0000f0 0d 67 ff 3c 9b d9 ca 3c 8d 26 89 3d 2c f0 3e 3d
       0.031177068 0.024761965 0.06696806 0.046615764
000100 c3 05 a3 bd 95 10 1f bc 9f 9a 8e bc a5 5e 93 3d
       -0.07960083 -0.009708543 -0.017407713 0.071957864
000110 7d e4 86 3d 85 ec a6 3d 2f 80 a9 bc 9b f6 9c 3d
       0.065865494 0.08150581 -0.020691006 0.07664224
000120 bd 02 39 bd 99 1b 0e be 73 c1 9e 3d ea 82 66 3c
       -0.045168627 -0.13877715 0.07751741 0.014069298
000130 77 57 a8 bb d2 4c e2 3b b1 00 c7 3d 1f 8a e0 bc
       -0.0051373797 0.0069061304 0.09716929 -0.027409611
000140 bf bc 76 bd 47 f5 85 3b 92 8a 26 3d 02 a3 65 bd
       -0.060238596 0.004088077 0.040659495 -0.05606366
000150 3d 2a 6c bc 93 5b 5d 3d eb a0 64 bd f2 cc 16 3d
       -0.014414367 0.05404241 -0.055817526 0.036816545
000160 52 c3 2f 3d 2c 9e bb 3d b5 8f 89 bd 32 d8 43 be
       0.04291088 0.09161028 -0.06716863 -0.1912544
000170 7c 3e a2 3e 38 29 e0 bd 3a 2c 81 3d 2a a8 57 3d
       0.31688297 -0.10945362 0.06307264 0.052650608
000180 72 d5 23 3c 27 2b 35 3d 7b e6 06 be e3 5f 82 bd
       0.00999962 0.044230606 -0.13173859 -0.06365945
000190 74 17 25 be f2 3c 25 3e e7 fd a5 3d 98 e1 42 3c
       -0.16122228 0.1613653 0.08105069 0.011894606
0001a0 4e 31 37 bd cf 04 58 3d 00 56 3b bc 88 d9 f0 3c
       -0.044724755 0.05273896 -0.011434078 0.029400602
0001b0 d7 67 9f ba db 25 97 bd 1e 7d 43 3e b1 43 9c 3d
       -0.0012161684 -0.07380267 0.19090697 0.076300986
0001c0 95 2b ca bb 07 0b bb bc 34 08 98 bc 9b df 0e 3d
       -0.006169746 -0.022832407 -0.018558599 0.034881216
0001d0 19 81 88 3c 9c 48 b6 3e 8f 55 82 bb 27 fa ff 3d
       0.016663121 0.35602272 -0.0039774845 0.12498885
0001e0 13 da 94 3d 5d 0d 0b 3d 17 e2 54 bd f3 08 5a bd
       0.07268157 0.03394829 -0.05197343 -0.05323119
0001f0 0b 82 f7 bc 2f 92 b1 3c 72 8a 35 3d db 71 18 be
       -0.030213377 0.021676151 0.044321485 -0.14887182
000200 c8 18 5f 3d 4e 30 c2 3b d6 00 c6 bd ce e2 84 bc
       0.054466993 0.0059261685 -0.09668128 -0.01622143
000210 e4 51 2f 3e 55 87 9f 3d bb 9c e9 bb 28 77 70 3d
       0.17121083 0.077894844 -0.0071292794 0.058707386
000220 4d 0e 9b 3d 0a d6 71 3e c7 ea 35 bc c1 07 bf bd
       0.07571087 0.23616806 -0.011103339 -0.09327651
000230 79 ea 8c bd 76 42 1c 3c 64 1b a8 bc e2 10 e6 bd
       -0.068806596 0.00953733 -0.020520873 -0.11233689
000240 7a ce d5 3d 2d db 13 be 43 6d 18 3e bc 8a 0a 3c
       0.10439773 -0.14439078 0.1488543 0.008455928
000250 6a c7 a4 3d db c2 2a 3d 4d 62 5a ba 40 75 c2 bd
       0.08045848 0.041689735 -0.0008330688 -0.0949502
000260 c4 6a a0 bd 58 c1 cb 3d d6 79 15 be 9d b5 45 3e
       -0.07832864 0.09948987 -0.14597258 0.19307561
000270 ba 72 8c bd 32 18 b6 3c 4b 6e 8d bc 5d 06 db 3a
       -0.0685782 0.022228334 -0.017264506 0.001671027
000280 ce 1d 93 bb f9 b5 8a 3d c2 a4 a0 3d 62 f0 e9 bd
       -0.004489637 0.0677299 0.07843925 -0.114228025
000290 59 05 18 bd 6e be 90 3d 5d 31 f2 bc 27 61 4d 3d
       -0.037114475 0.070675716 -0.029564554 0.05014148
0002a0 24 53 c9 3c 40 2f 64 ba ab e0 b3 3a 63 66 c2 3d
       0.024575777 -0.00087045506 0.0013723572 0.09492185
0002b0 e7 a1 fb bd 02 77 f7 3c 48 12 8c 3d 8b 0e 17 3d
       -0.1228674 0.030208115 0.06839424 0.036879104
0002c0 86 91 82 3d 65 48 23 bd a3 52 1a bb 37 f9 ad bd
       0.06375413 -0.039863963 -0.002354779 -0.084947996
0002d0 82 1b 12 be 48 6f f2 3d aa 46 f9 bd 84 51 b4 3d
       -0.14268306 0.118376315 -0.12171681 0.0880461
0002e0 a7 07 4a 3d cd c4 ba bd c9 6d 10 3d 83 29 8e 3d
       0.049323704 -0.09119568 0.03526095 0.069415115
0002f0 00 a7 c6 3c bd 39 da bc 6d dd 0e be 83 53 dd 3c
       0.024249554 -0.02663886 -0.13951655 0.02701736
000300 e8 96 81 3d a7 03 ea bb 70 b9 b6 bd 48 9c 9d bd
       0.06327611 -0.0071415487 -0.08922088 -0.07695824
000310 99 16 a9 bd c1 a5 84 bd 7b f2 37 3e d3 16 61 bc
       -0.08256263 -0.064769275 0.17963593 -0.013738352
000320 8a a6 d0 bd 17 30 56 bd a1 b1 b0 3d 4d 31 80 bd
       -0.10188015 -0.052291956 0.0862763 -0.062594034
000330 d5 72 06 3d b7 1f dd bd dc fa 45 bd 57 4b f7 3d
       0.032824356 -0.10797065 -0.04833494 0.12074917
000340 2e d1 bb ba 38 f8 65 bd 1d b9 ba 3d e5 34 c5 3d
       -0.0014329308 -0.056144923 0.09117339 0.096292295
000350 9a 4b 08 3d 42 09 4a bc 16 23 17 bd c3 67 67 bd
       0.033275224 -0.012331309 -0.036898695 -0.05649544
000360 b7 0e 8d 3d 4c 10 9a bd cb 22 c9 bb 5f 12 3c 3d
       0.06887572 -0.0752264 -0.006138181 0.045915958
000370 0b 2b 3b bd 92 d0 8f 3d 17 db bc bc 22 1f d3 3d
       -0.045695346 0.070222035 -0.023053689 0.103086725
000380 e0 98 d8 bc db 2d 8f 3d 25 ba 74 bc 57 60 0e bd
       -0.026440084 0.06991168 -0.014936958 -0.034759846
000390 84 c9 1d 3c eb f8 ab 3c 0b d6 73 3c f7 f3 fa 3d
       0.009630565 0.020992717 0.014882575 0.12253564
0003a0 ab 46 56 3d 33 2e 0c 3d ef 95 6c 3e 87 b9 aa bd
       0.052313488 0.034223747 0.2310407 -0.08336168
0003b0 c0 4f 6a bd 87 35 07 3d cb db b3 3d c9 e9 ab 3d
       -0.05720496 0.033010032 0.087821566 0.083942
0003c0 23 78 7c 3d cf 4d 64 3d 1d ee 6d bd 52 49 ae 3d
       0.06163801 0.055738267 -0.05808841 0.085100785
0003d0 27 da 34 be cf 8c 1a bc 95 d5 ed bc 83 a3 a1 bd
       -0.17661344 -0.009432985 -0.029032508 -0.078925155
0003e0 40 cc bf bd 07 0b fd bd 85 b2 73 3d 33 86 1e bb
       -0.093651295 -0.12355619 0.05949642 -0.0024188876
0003f0 fd 33 6c 3d 3c 95 ad bc a7 cc 25 3d 8f 69 e8 bd
       0.057666767 -0.021189325 0.040478375 -0.11348259

weight_hh_l0 f4 [400, 100]
000000 28 d7 74 3d 0c 7d 8e 3d 9f ab 93 3d 4e 87 1d bd
       0.0597755 0.069574445 0.072104685 -0.038459115
000010 5a f3 9d bd bb 73 9d 3c 4f 4a 81 3b 07 6b f4 3b
       -0.07712431 0.019220224 0.003945626 0.0074590477
000020 5e cf cb bc f7 c8 0f bc 58 55 69 bc 47 97 a9 bc
       -0.024879154 -0.008775941 -0.014241539 -0.020702017
000030 19 bf 2b bd bf e6 86 3d ab 12 bb bc 53 c6 47 3d
       -0.04193029 0.0658698 -0.02283605 0.04877312
000040 7f 20 84 bd 45 bd 52 3d 63 14 cd 3d fe d9 c1 3d
       -0.06451511 0.051450033 0.10013654 0.09465407
000050 77 4d 70 3d 3e d7 8c 3b d0 c4 78 3a 3b 86 37 bd
       0.058667626 0.00429812 0.00094897766 -0.044805747
000060 13 60 6d bd 51 7f 90 bc b7 48 82 3d 43 cd a8 bd
       -0.05795295 -0.017638834 0.063615255 -0.082422756
000070 37 ee 8d 3d 61 24 99 3d d8 12 7c 3c 62 f6 a5 bc
       0.069302015 0.07477642 0.015385352 -0.020259086
000080 2b 23 cc 3c 1f 03 d8 bb 46 55 bd 3d db c0 33 bd
       0.024919113 -0.006592169 0.0924478 -0.043885093
000090 8e a2 93 bd 05 99 7e 3d 80 ce d5 3d 9b be c2 bc
       -0.07208739 0.06215765 0.104397774 -0.023772528
0000a0 bb e5 6d bc 4b f2 d9 bd d6 6a a0 3c 0b 18 fa 3c
       -0.014520104 -0.10641917 0.019582193 0.030529043
0000b0 a0 3e 7e 3d 25 7f ed 3d ac 9a 96 bd dd 6e 03 bd
       0.062071443 0.115965165 -0.0735372 -0.03208815
0000c0 f1 22 a4 bd 43 ba b1 3d c2 43 fe bc 4d 10 ac 3d
       -0.08014477 0.08678105 -0.031038169 0.084015466
0000d0 25 cb d8 3c f0 ce 60 3d b8 b1 8b bc 3e 25 2d 3d
       0.026464054 0.05488485 -0.017052516 0.042271845
0000e0 06 42 ab 3d 5a 71 ec 3c cd ea 3b 3d 7f a6 c7 bd
       0.08362202 0.028862644 0.04587822 -0.097485535
0000f0 d8 c5 d9 bd d5 3c 73 3d 77 aa be 3d 0b 9f 98 bd
       -0.10633439 0.059384186 0.09309857 -0.0745221
000100 ca 27 c2 3c bb 3f 9d 3b c3 2c a2 bb d8 46 8c bd
       0.023700614 0.004798857 -0.0049491837 -0.0684945
000110 12 27 aa 3c 4b 47 24 bd 13 22 06 bd 72 e0 50 3c
       0.020770583 -0.040107053 -0.03274734 0.012748824
000120 74 ed 46 3c 5c 2b a0 bb da 83 75 3d 0b 41 8c 3c
       0.012141574 -0.0048879813 0.059940197 0.017120859
000130 20 4e a7 bd e7 e6 09 bd 97 42 6f bd 4d 84 8f bd
       -0.08169198 -0.03366747 -0.058413114 -0.07007656
000140 1c e3 aa 3a e0 34 e3 3c 47 84 90 3d d2 b9 c4 bd
       0.0013037655 0.027735174 0.0705648 -0.09605755
000150 7f 0d 92 3d 26 ff 84 bb a0 c1 62 3d dc 7f 1b 3d
       0.071314804 -0.0040587364 0.055360436 0.037963733
000160 af 59 61 bd dd 29 65 3d 2f 99 8c 3c f7 6f a6 3c
       -0.05501717 0.055948127 0.017162887 0.02031706
000170 9f 40 32 3d 5f c8 49 3d 01 ae 3a bd fd f9 ce bd
       0.04351866 0.049263354 -0.0455761 -0.10106275
000180 e7 88 01 3d 15 93 8c bc a8 c2 5f bd 5e c1 90 3d
       0.0316247 -0.017159978 -0.054628998 0.07068132
000190 22 2b b2 bb c8 50 be 3d 1d 11 c1 bd 46 e2 0b 3d
       -0.0054372707 0.092927516 -0.09427092 0.034151338
0001a0 3b 2f 7d 3d 62 33 d8 3a ec 22 8b 3c a6 93 b0 3d
       0.06181262 0.0016494805 0.016984425 0.08621912
0001b0 a1 59 a0 3d fd ed 9c bd 8f 6d 72 3d 8d ab 1b 3d
       0.07829595 -0.0766258 0.059186514 0.0380054
0001c0 60 b8 2b bc f6 35 0b 3c 61 ad 82 3d 32 c0 4c bd
       -0.01048097 0.008496752 0.06380726 -0.04998798
0001d0 4e ae 92 3c 2a 2d df bc ad ed 96 bd 92 9b 9e 3c
       0.01790538 -0.027243216 -0.07369552 0.019361291
0001e0 0d be e5 3b 93 fa 4c 3d e0 90 7c 3d 08 32 65 bd
       0.007011181 0.050043654 0.0616616 -0.055955917
0001f0 e9 92 94 3d 9b 4a 30 3c 0b 24 a0 3d 9b b1 a6 3b
       0.072545834 0.010759975 0.07819375 0.00508709
000200 95 bf bf bd 6f cb 65 3c 43 bc 26 3d 5b 93 65 bd
       -0.09362713 0.014025553 0.040706884 -0.056048732
000210 40 77 06 bd 29 36 b8 bb 8f af ba bd 2f 10 49 3c
       -0.03282857 -0.005621691 -0.091155164 0.012271925
000220 da c8 7b bd b5 ac 10 bd f4 27 88 bc 56 c0 c3 3b
       -0.061470844 -0.035320956 -0.016620614 0.005973856
000230 a3 fd 0c bd 4b 90 2d 3d ac 62 4a bd 00 93 9b bd
       -0.034421574 0.042373937 -0.049410507 -0.075963974
000240 ba 13 bf 3d 05 16 bc bd df 44 a1 3d 92 ae 80 bd
       0.093299344 -0.091838874 0.07874464 -0.06283297
000250 2f d2 a9 bd 9c e3 be 3d 2a 15 de 3d 2a 2c 65 bd
       -0.082920425 0.09320757 0.108438805 -0.05595032
000260 55 ee 98 3d ee 27 b4 bd 80 32 bc 3d 70 32 f4 bb
       0.07467333 -0.087966785 0.091893196 -0.0074523017
000270 07 d2 3a 3d 1f 28 8a bd f0 30 a3 bd 2f bf 8b bd
       0.045610454 -0.06745934 -0.079683185 -0.06823575
000280 b7 75 10 3d 38 9f 4e 3d 2f 53 9d bc 49 13 a9 bd
       0.03526851 0.05044481 -0.019204704 -0.082556315
000290 de 64 a8 bd f9 a0 92 3c 7f 25 b2 ba c9 14 89 3d
       -0.08222364 0.017899023 -0.0013591497 0.066934176
0002a0 07 09 32 3d d0 a3 cd bc 05 10 a9 3d bf f6 16 3d
       0.04346564 -0.025102526 0.082550086 0.03685641
0002b0 9a aa 54 bc 2b 13 81 bd c2 63 cf 3d 27 e7 88 3c
       -0.012980128 -0.06302484 0.10126449 0.016711785
0002c0 d7 a4 a9 3d 2e 06 82 3d f7 4e d1 bc ff a3 84 3c
       0.08283394 0.06348835 -0.025550349 0.01619148
0002d0 d2 0f 6e bd 08 e3 cd bd 9f 26 1b bd 4f 8d c5 3c
       -0.058120556 -0.100530684 -0.03787863 0.024115233
0002e0 c5 5f 75 bd d7 42 07 3d 72 48 a4 3c d0 7c af bd
       -0.059905786 0.033022728 0.020054076 -0.08568728
0002f0 15 41 93 3d e2 2d 12 bd 18 df 5a 3d 5b 54 0e bd
       0.07190148 -0.03568829 0.053435415 -0.034748416
000300 fd 3a 6a bd b9 aa b6 bd f2 e4 c2 bc fe 48 29 bd
       -0.05718516 -0.089192815 -0.02379081 -0.041329376
000310 7e f6 c0 bd 28 89 f8 bc 82 19 a7 bd 88 66 97 3d
       -0.09422015 -0.030338839 -0.08159162 0.07392603
000320 21 7d a2 3b 24 93 a2 bd 95 25 d7 bd 43 ad a0 bd
       0.004958764 -0.07938221 -0.10505215 -0.07845547
000330 bd 54 bb 3c d2 05 6c bc bf 2a 73 3d 67 71 c8 3d
       0.022867555 -0.014405685 0.059366938 0.09787255
000340 d0 e4 f7 3c 07 0c 5e bd 9d d6 b4 3d 0f 13 8a 3d
       0.030260473 -0.05421069 0.08829997 0.067419164
000350 91 e6 85 3d 2f b5 52 3a b2 b1 3f bd dc c6 82 bd
       0.06538118 0.0008037863 -0.046800323 -0.06385586
000360 b7 4d e7 bc 58 c5 b7 3c 2d d7 7d bd e4 f1 92 bd
       -0.0282353 0.022432968 -0.061972786 -0.07175043
000370 bb 1d 3e 3d b6 6c 16 3d e2 1f 45 3d 37 c0 55 3d
       0.046415072 0.03672477 0.04812611 0.052185263
000380 a2 c9 4f bd b7 10 04 be ef 4c d2 bd 03 f4 7b bc
       -0.0507294 -0.12897001 -0.1026858 -0.015378001
000390 53 06 87 bd ce da b3 3d 8f 58 bc bd 4f fa 4d 3c
       -0.06593003 0.08781968 -0.09196579 0.012571885
0003a0 d7 dc 49 bd 22 c2 d0 3d 78 e2 88 3d 23 ca 49 bd
       -0.049282875 0.10193278 0.066838205 -0.04926504
0003b0 fb 5f 19 3d 7b fd 7f bd 45 b1 b6 3d 98 66 66 3d
       0.03744505 -0.062497597 0.0892053 0.056250185
0003c0 09 44 98 3d 00 8e 7a bc 0b 82 cd bc 52 a6 ae bc
       0.07434852 -0.0152926445 -0.025086423 -0.021319542
0003d0 cd 30 dd bd 97 cd a2 3c 05 a0 04 bc 78 f9 4b bd
       -0.10800324 0.019873424 -0.008094792 -0.04979846
0003e0 e2 01 43 bd 84 dd 3d 3d ef 8a 81 3d 44 57 b4 3d
       -0.047609217 0.046353832 0.063253276 0.08805707
0003f0 cf 0f 75 3d 45 61 a5 bc b3 a9 92 3d 74 50 a2 3d
       0.05982953 -0.020187983 0.07161274 0.079255015

bias_ih_l0 f4 [400]
000000 56 0c 02 3e 20 3f f2 3d cb 91 e0 3d 77 de 62 3d
       0.12700018 0.118284464 0.10965308 0.05538794
000010 3a 09 f3 3a 33 a5 f9 bb d2 2d c6 3d 33 27 a7 bd
       0.0018542178 -0.0076185702 0.09676708 -0.081617735
000020 b0 33 42 3d db 0c 21 bb b7 48 9c 3c 45 9c 82 3d
       0.047412574 -0.0024574313 0.019077642 0.06377462
000030 ba ab 8e 3d 68 06 b3 bd 9d 82 bf 3d 60 45 cc 3c
       0.06966348 -0.08741456 0.093510844 0.024935424
000040 f0 66 26 3d d0 53 00 3e ca 48 d9 3d f5 9b e4 3d
       0.040625513 0.12531972 0.106095865 0.11162559
000050 8f a4 ec bc 7f 01 85 3d 67 f9 c8 3d c2 96 55 3c
       -0.028887061 0.06494426 0.09813195 0.013036432
000060 9f 84 1b 3d 03 06 b0 bb f1 83 a3 3c a2 90 8e 3d
       0.037968274 -0.0053718104 0.019960376 0.0696118
000070 b3 fe 13 3d ef 21 08 3e 7a 75 81 3d 9a 4f 45 3d
       0.036131572 0.13294195 0.06321235 0.048171617
000080 f7 5b 15 bd af 21 f3 3d 50 6e d6 bc 57 33 db 3b
       -0.036464658 0.11871659 -0.026175648 0.00668947
000090 83 46 8a 3d 45 cd 1a 3e 39 cb 32 bd 6a cc f0 bc
       0.0675173 0.15117367 -0.04365084 -0.029394347
0000a0 4d 9a 88 bd 85 52 dc 3d a7 d1 0b 3e 5d 9a c4 bd
       -0.066700555 0.10757927 0.13654195 -0.09599755
0000b0 cb 12 3f bd 1d 5f 3b bd 6a f4 e7 3d df 35 51 bd
       -0.04664878 -0.045745004 0.11325915 -0.051076766
0000c0 a2 09 0d 3e 4f 95 6b 3c db a0 2e 3d c5 85 d9 3c
       0.13773206 0.01437886 0.042633872 0.026553044
0000d0 e6 a5 32 3d 00 65 7d bd 6e 18 89 bc 09 15 1e bd
       0.043615244 -0.0618639 -0.016735282 -0.03859428
0000e0 33 2c 8c 3d fb 7d a3 3c c7 4b cd 3d d5 95 46 bc
       0.06844368 0.019957533 0.10024219 -0.012120684
0000f0 44 c3 a6 bc 02 53 f9 3d 18 16 9a 3c ee b7 8f bd
       -0.020356782 0.121740356 0.018809363 -0.07017504
000100 55 05 63 bd 90 53 c2 3d 80 fa 7e 3c 63 27 84 3d
       -0.055425007 0.094885945 0.015562654 0.06452825
000110 9c f4 b9 3d fd c7 5b bd 7d 0e c6 3d cf 81 fd 3d
       0.09079859 -0.05365752 0.09670732 0.12378275
000120 c0 9c 22 3e 2b 38 c6 3d ea af 70 3d 3d 65 8a bd
       0.15880108 0.09678682 0.058761515 -0.06757591
000130 b5 ba b0 bd 2d 25 5f bd 1f 57 7a 3c 24 09 3b 3a
       -0.086293615 -0.054478813 0.01527956 0.0007134846
000140 31 7f ae 3c 45 b3 ad 3c 9a 93 69 3d 2a 7a 2d 3c
       0.021300884 0.021203646 0.05702553 0.010588208
000150 ad fb b2 3c 06 cb a4 bc 2e eb 81 bd bc 67 b4 3c
       0.021848524 -0.02011634 -0.06343685 0.02202212
000160 24 3b 8d 3c 35 49 63 bc 69 32 37 3b 5d 47 7b 3d
       0.017240115 -0.013872434 0.002795363 0.061347354
000170 83 21 fa bc 10 a1 67 3d 0f 50 8c 3c ca 9c dc 3d
       -0.030533558 0.056550086 0.017128019 0.10772093
000180 4c 04 2d bd e4 07 a5 3d 87 48 5c 3d af 5b a2 3b
       -0.042240426 0.08058146 0.053780105 0.004954777
000190 fb 97 fe 3d a2 30 63 3d 5b 2c 3b 3d 3d 0e 4c 3d
       0.12431332 0.0554663 0.045696598 0.049818266
0001a0 28 bd 07 3d 15 f0 e0 bc 9c ce 28 3d e8 e3 17 3d
       0.033139378 -0.02745823 0.041212663 0.037082583
0001b0 43 b2 03 3d 17 1d 6e bc 42 4f 4f bd 1a 7e d9 3d
       0.032152425 -0.014533303 -0.050612696 0.10619755
0001c0 d7 e8 b0 3d 23 e7 a9 bd c6 50 3e bd 12 58 cc 3d
       0.08638161 -0.08296039 -0.04646375 0.099777356
0001d0 9f 46 93 3d 3b 96 2a 3e f6 6c b2 3d 07 b2 ff 3d
       0.07191204 0.16658871 0.08712189 0.12485128
0001e0 4d 4e 1b 3e 3d ad 8d bc 85 10 0c bd 5b 92 66 bd
       0.15166588 -0.01729452 -0.03419544 -0.05629192
0001f0 88 59 fe 3c a9 85 26 bd 37 2a 27 3d 0d 22 fd 3d
       0.031048551 -0.040654812 0.040811744 0.1236001
000200 e3 d9 be 3c f3 4b d6 3d 1f 1e cc 3d 58 1c bb 3d
       0.023297256 0.10463705 0.09966683 0.091362655
000210 d3 b0 9e 3d 53 4b 6f 3d 94 2d a8 3d cf 06 b5 3c
       0.0774857 0.058421444 0.08211818 0.022097973
000220 0f 92 33 bd 6b 03 d8 3d 13 8b 10 3e 8d 91 6a bd
       -0.043840464 0.10547527 0.14115553 -0.057267714
000230 e0 d0 c8 3d 25 fb b0 bc 65 02 7c 3d f1 20 04 3e
       0.09805465 -0.02160413 0.06152572 0.12903191
000240 b7 27 fe 3d 7c 73 ba 3c cf bb a8 bc 42 09 76 3d
       0.12409919 0.022760145 -0.020597367 0.060067423
000250 d8 81 e7 3d 52 29 4c 3d 9b 41 cb 3b da 4c 68 bd
       0.113040626 0.049844094 0.006202889 -0.056713916
000260 f0 a5 7d bd cd b9 92 3d 0b 92 f7 3d 9b 6f b2 3d
       -0.06192583 0.07164345 0.12088402 0.08712693
000270 f7 0b d2 3d fb 6b 67 bd da cf 19 3d d6 d5 c9 3b
       0.10256188 -0.056499463 0.03755174 0.0061595244
000280 44 9b c7 3d f3 6c 77 3c 7a e8 13 3e 71 71 8f 3d
       0.097464114 0.015101659 0.14444152 0.07004059
000290 ff 27 1e 3d 38 12 23 3e 40 89 f8 3c 92 c6 ae bd
       0.038612362 0.15924919 0.030338883 -0.08533968
0002a0 1b 02 03 3e 7a f1 ce bc f9 2f 14 bd 2d a1 f6 3d
       0.12793772 -0.02526163 -0.036178563 0.120424606
0002b0 55 3f c1 bc 87 48 46 3d 9f e7 84 3d ab 0c 52 3d
       -0.02358977 0.04840901 0.06489491 0.051281612
0002c0 3a 07 fb 3c 4f 32 43 3d 12 87 79 3d 38 af 7b bc
       0.030643094 0.0476554 0.06091983 -0.0153616
0002d0 6f 38 3a 3d 02 4c 6b bd 3c 5f 15 bd 5d 0e dc bc
       0.045463976 -0.057445534 -0.036467776 -0.026862318
0002e0 70 5a 33 3d 98 9e fe 3d fd b2 06 3e 9b fe d7 bc
       0.04378742 0.12432593 0.13154216 -0.026366523
0002f0 5b 7e d2 3d 68 86 a1 3d f7 bf dc 3d 25 82 a0 3b
       0.10278007 0.07886964 0.10778802 0.004898327
000300 eb 3c e6 ba 68 ba 07 3b fb 5a 3c bd d8 68 a1 3b
       -0.0017565762 0.0020710472 -0.045985203 0.0049258284
000310 d2 6e bf 3c 52 2f c6 3d 58 c6 b2 bc 4f 5d 3a bc
       0.023368273 0.096769944 -0.021823093 -0.011374786
000320 6b 6c 29 be 30 e1 e3 3c 67 fc 5c be b6 ac b2 3d
       -0.16545264 0.027817339 -0.21580659 0.08724348
000330 67 82 88 bc fb 37 8c 3c 7b 5b 5e be 0f 19 b0 3d
       -0.016663743 0.017116537 -0.21714585 0.085985295
000340 11 e5 3a be af aa 20 3e da e8 73 3d b6 18 3a 3e
       -0.18251444 0.1569011 0.059548236 0.18173489
000350 b7 c5 a5 3d ed 17 19 3b 1b 9e 1c 3e 32 d4 a1 bd
       0.08094352 0.0023360208 0.15294687 -0.07901801
000360 a7 53 78 3d 17 2c 10 be 28 c8 d6 3d 89 86 07 3e
       0.060626652 -0.14079319 0.104873955 0.13234915
000370 20 bd dc bd af bc c9 3d 75 20 5d be 48 f9 53 be
       -0.1077826 0.09850442 -0.21594413 -0.20700562
000380 22 de 87 be 33 2b ca bd 0e e7 1a 3e 15 32 68 3e
       -0.2653666 -0.09871521 0.15127203 0.22675355
000390 73 9e 13 3e 20 3c ec 3d 6a b9 79 bd 6a 76 0c bd
       0.14415912 0.115349054 -0.06096784 -0.034292616
0003a0 90 83 50 bd c2 b9 a3 3d 2f ef b0 bd 23 e3 11 3d
       -0.050906718 0.07994415 -0.08639371 0.035617005
0003b0 4b 9e 51 3e 75 92 57 be 40 65 73 3d 5d d7 8c 3c
       0.2047054 -0.21051963 0.05942273 0.017192537
0003c0 fb 88 2d be 05 63 f7 bc af 91 d7 bd 9c 3c 04 3e
       -0.16946785 -0.030198583 -0.10525834 0.12913746
0003d0 5b 56 12 be 46 cb 13 3e 34 56 1b 3d 68 cb d5 bd
       -0.14290754 0.14433011 0.037924007 -0.10439187
0003e0 ab b1 40 bb 28 72 87 3d 31 3b 35 bd 13 95 3a 3e
       -0.0029402773 0.066135705 -0.044245902 0.1822093
0003f0 c3 fb ce bd 01 52 48 3d 3b e3 01 3e 08 8e 0f 3c
       -0.101066135 0.04890633 0.12684338 0.00876189

bias_hh_l0 f4 [400]
000000 a1 16 1c 3e a0 54 20 bc 6d f3 6d 3c 57 ad c5 3d
       0.15243007 -0.009785801 0.014523369 0.096522026
000010 eb 05 c9 3d 04 55 cb bc 67 35 5a 3d 2c fd 8e 3c
       0.09815582 -0.024820812 0.053273585 0.017454706
000020 b7 66 ba 3a 5a 59 de 3c bb 4b 0e 3d fd cf 09 3e
       0.0014221285 0.027142216 0.03474019 0.13458247
000030 95 37 78 3c 8a 2b 95 bd f2 09 72 bc 38 db 3a 3c
       0.015149971 -0.07283695 -0.014772879 0.011404805
000040 47 f4 b5 3d f5 a0 3a 3d c9 b0 0d 3e d4 08 97 3c
       0.08884483 0.045563657 0.1383697 0.018436827
000050 d4 d8 18 3d 9f d5 89 3d 33 17 5b 3d bb 0c 94 3d
       0.03731616 0.06730198 0.05348892 0.07228991
000060 4d ae 17 3e f3 2c 00 3e 3f 3e 80 bb ba 3f 10 bd
       0.14812584 0.12517147 -0.0039136703 -0.035217024
000070 97 f7 47 3c 5b 2f 11 bd ba d7 87 3d 3a c1 b0 3c
       0.012205026 -0.035445552 0.066329435 0.021576513
000080 57 50 f0 bc 9b c5 61 3a 47 b6 87 3c b7 4f 64 3d
       -0.029335184 0.00086125144 0.016566409 0.055740084
000090 05 3a eb 3d 5b b0 83 3d e9 93 99 bb ef 5a 4d 3d
       0.11485676 0.064301215 -0.0046868217 0.05013555
0000a0 63 af a0 3a 9a dd 5c 3c 8b df 18 3e 31 a2 8a 3b
       0.00122593 0.013480568 0.14929025 0.0042307605
0000b0 73 5c d0 3d 17 a9 90 3d 9b 8d 41 bd aa e6 1e bd
       0.10173883 0.07063501 -0.047254186 -0.038794197
0000c0 2a 10 b5 bc 69 a3 3f bd 9f 74 cf 3d a0 cb f6 3d
       -0.022102434 -0.0467867 0.101296656 0.12050557
0000d0 83 9c 94 3a 82 63 92 3d 19 8e c0 3b 86 86 14 3e
       0.0011338148 0.07147886 0.0058763144 0.14504442
0000e0 89 07 9f 3d b3 d1 04 bd 0b c8 af bd 19 0c 13 bd
       0.07765109 -0.032426547 -0.08583077 -0.03590021
0000f0 7d 6b 0f 3d 45 37 a3 bb 02 62 e7 3d ea b1 de 3d
       0.03501462 -0.004980954 0.112979904 0.10873778
000100 8a a3 2e bb 57 1a ec 3d 00 28 ba 3d 23 34 ed 3d
       -0.002664777 0.115284614 0.09089661 0.1158221
000110 7c 8a b1 3d 97 a8 b5 3d 4f 8f 44 bd ac 18 8c 3d
       0.08668992 0.088700466 -0.047988232 0.06840643
000120 f0 e4 3d bc 34 85 23 bd c2 65 89 3d ad 28 89 bd
       -0.0115902275 -0.039921954 0.06708862 -0.066972114
000130 55 89 d9 39 f0 79 0a 3d dd 47 f5 3c 90 96 a2 3c
       0.00041491786 0.033807695 0.029941494 0.019847184
000140 ff 1d d1 3d d8 6c 63 3d 08 0e 53 bd cf 6a d4 ba
       0.102107994 0.055523723 -0.051527053 -0.0016206148
000150 fd 9e b5 3c 34 73 ca 3c 23 cb a6 bc 5f ba 09 3e
       0.022170538 0.024713136 -0.020360535 0.13450001
000160 5c b9 9b 3c c2 cf 78 bd 4a cd 65 3c 90 b2 2a 3b
       0.019009285 -0.06074501 0.0140259955 0.0026046373
000170 ca d2 3f bd 47 b0 c5 bb 4a c2 62 3d 63 4b ec bc
       -0.046831883 -0.006032977 0.05536107 -0.028844541
000180 d3 c1 56 3b a8 9e 6c 3d f5 c3 7a bd 4a 2a de 3d
       0.0032769337 0.057768494 -0.061222035 0.1084791
000190 f2 c4 88 3d e6 55 be 3d 47 25 a9 bb 76 56 8b 3d
       0.06678189 0.092937276 -0.0051619145 0.068036005
0001a0 6d e4 6b 3d cf 83 e7 3d 9d b8 48 3c 27 7c 5b bd
       0.05759089 0.11304437 0.0122510465 -0.053585198
0001b0 38 b3 b0 3d b0 a7 ce 3d 22 58 2d ba 0a 9e d0 3d
       0.08627933 0.100905776 -0.0006612559 0.101863936
0001c0 d7 e8 bd 3d a4 15 30 3c 59 d6 82 3c 60 46 a3 3d
       0.09272926 0.010747347 0.01597135 0.07972407
0001d0 00 98 86 3d 09 5d b8 3d 0c 09 80 3d 20 23 01 3e
       0.065719604 0.0900212 0.062517256 0.12611055
0001e0 eb a0 fc 3d aa 38 17 3e a6 0f a6 3d 45 ce ef bc
       0.1233538 0.1476771 0.081084535 -0.029273162
0001f0 a6 ef 95 3d e6 15 c3 3d cb aa ea 3d ef c5 bc bc
       0.073211 0.09525661 0.114583574 -0.0230436
000200 f5 59 cd 3d 90 1e 8a 3c 67 aa a7 3d c8 65 c9 3d
       0.100269236 0.016860276 0.081867985 0.09833866
000210 39 fd b1 3d 4b 5b a5 3c 77 3e 33 3c 2b b4 e7 3d
       0.086908765 0.020185133 0.010940186 0.11313661
000220 82 35 f7 3d ab 23 de 3d 4d 66 ca bc 90 69 7b bb
       0.12070753 0.10846647 -0.024706984 -0.003836248
000230 df 5f 43 bb 76 66 a2 3a 68 94 eb 3d 2f 37 ca 3d
       -0.0029811782 0.0012390155 0.115029156 0.09873807
000240 82 7a 27 bd 6f 36 de 3b af 73 04 3e 58 f8 27 bd
       -0.040888317 0.0067813913 0.12934755 -0.041008323
000250 18 5b 01 bd 37 23 3d bd 42 e8 e6 3d d3 51 ee 3d
       -0.031581014 -0.04617616 0.112747684 0.116367005
000260 ab d6 b4 bc 5a fd 6d bd 03 7c 29 3d 92 f2 15 ba
       -0.022075018 -0.058102943 0.041378032 -0.0005720045
000270 6e da 99 3c cb dd 6d 3b c3 21 4e 3d c7 d0 ac 3d
       0.018780913 0.003629553 0.050325166 0.084382586
000280 bd 4b e9 bc 54 9f 0a 3e 00 b9 cf 3d f9 0b a1 3d
       -0.028478498 0.13537341 0.10142708 0.07863612
000290 05 54 f2 bc 13 81 14 3d 09 a2 2d 3d 8b 07 26 bd
       -0.02958108 0.036255907 0.042390857 -0.040534537
0002a0 ab b7 28 3d 23 be 87 3d d2 48 53 3c 22 a8 49 3d
       0.041190784 0.066280626 0.01289578 0.04923261
0002b0 0d 51 c2 3d e0 51 d2 bc 6b 2b d9 3d cc c0 81 bd
       0.094881155 -0.025673807 0.106039844 -0.06335601
0002c0 ef 5c ae 3d 9f 8e dd 3d d3 7a 10 3e 7e 36 26 bd
       0.085138194 0.108182184 0.14109354 -0.04057931
0002d0 7b 44 1b bd 93 23 ac 3d 13 6e 84 bd 19 32 10 bd
       -0.037907105 0.08405223 -0.064663075 -0.035204027
0002e0 cb e6 1a 3c 6a 2e 41 3d 21 56 ab 3d 08 3d 77 bc
       0.009454439 0.047163405 0.08366037 -0.015090235
0002f0 c3 02 58 3c cd 26 6e bd 87 16 09 3b 6e f3 b9 3c
       0.013184252 -0.058142472 0.0020917968 0.022699084
000300 7d b2 ed 3d 53 5d d7 3d 01 1d 9c 3d a3 c3 16 3d
       0.116063096 0.10515847 0.076227196 0.036807667
000310 74 e1 0f 3d 1b 15 61 3d ad e5 7d bd 65 f0 eb 3d
       0.03512712 0.05495177 -0.061986614 0.11520461
000320 7b 40 35 be eb df 01 3e 9a 24 47 be 2f 80 0d 3e
       -0.17700379 0.12683074 -0.19447556 0.1381843
000330 65 e0 1d be 3d 91 ef bd f0 d0 79 be 66 50 0e 3d
       -0.15417631 -0.11697624 -0.2439611 0.034744643
000340 43 6b 86 be af 71 44 3e cc da c5 bc ed f4 08 3e
       -0.2625371 0.19183992 -0.024152182 0.13374682
000350 96 a7 36 3e 85 ec 19 bb b1 4b c5 3d a7 a0 c6 3d
       0.17837366 -0.0023486924 0.096335776 0.09698611
000360 b3 01 aa bd d2 e6 0b be 68 8b e0 3d bc 45 18 3e
       -0.08301105 -0.1366227 0.1096409 0.14870352
000370 33 d6 a2 bc d7 19 69 3e a8 4f 24 be 7b ba 89 bd
       -0.019877529 0.22763763 -0.16046011 -0.067250215
000380 91 a4 9b be ca 6c 37 be 05 d2 42 3e ce e1 46 3e
       -0.30398992 -0.17912593 0.19025429 0.19422075
000390 40 ce 4d 3d 5a aa 15 3e fd bb 55 be c7 45 33 be
       0.050245523 0.14615765 -0.20872493 -0.17507087
0003a0 50 6a 13 bd a7 4a 4d 3e 28 f5 36 be c3 41 4d 3d
       -0.03599006 0.20048009 -0.17866957 0.050111543
0003b0 98 1c 93 3d 11 02 4b be 9d 11 c6 3d 96 e4 81 3d
       0.07183188 -0.19825007 0.09671328 0.063424274
0003c0 e3 19 85 bd af 0d 0b be 73 db b9 bd d2 4a ca bc
       -0.06499078 -0.13579439 -0.0907506 -0.02469388
0003d0 6b 19 96 bd df 2e b8 3d 43 5c 00 3e ff c8 9f bb
       -0.07329067 0.08993315 0.12535195 -0.0048762555
0003e0 ec ff 09 be eb bb e8 bc a2 a4 a3 bc 3d 71 d3 3d
       -0.13476533 -0.028409919 -0.019975964 0.10324333
0003f0 f3 2e 10 be 93 4b 97 bd 52 94 98 3d 48 b9 3e bc
       -0.1408041 -0.073874615 0.07450165 -0.011640854

weight f4 [100, 100]
000000 43 cf ee 3d 3c 58 cb 3d fa 81 ca 3c 99 fd 0e bd
       0.11660626 0.09928939 0.02472018 -0.03490982
000010 47 77 d2 bc aa 8d 84 bd af 10 98 bd 75 7a 4a 3c
       -0.025691641 -0.06472333 -0.07425057 0.012358298
000020 fb 10 d9 bc 29 c2 0a 3d 3d d3 27 bd d3 a4 6c 3d
       -0.026497355 0.03387657 -0.040972937 0.057774376
000030 62 cb ca bc a3 ff 81 bd 63 54 1e 3c f0 f9 4f bd
       -0.024755184 -0.06347587 0.009663674 -0.05077547
000040 38 e3 e9 3c 06 91 a1 bc a7 f2 0a bc 3e 7a 37 3d
       0.02855073 -0.019722473 -0.008480704 0.044794314
000050 62 9c 2f 3c 20 f0 c3 bd 53 c1 23 3d d2 e2 fa 3c
       0.010718437 -0.095672846 0.03997929 0.030625734
000060 6e 99 0f bd 2b 96 cb 3d e2 04 ca 3a a0 aa a0 bc
       -0.03505843 0.09940752 0.0015412832 -0.01961261
000070 20 ae de bd 2e d7 07 bd 3b c1 86 3c 09 19 c6 3d
       -0.108730555 -0.033164196 0.016449561 0.09672744
000080 63 50 b6 3c 44 a4 8b bd d9 bc 48 bd 47 90 7d bd
       0.022255128 -0.068184406 -0.049008224 -0.06190517
000090 ce 8a b6 3b fd 73 9d bd 7d 76 0c 3d 13 fe b7 3d
       0.005570746 -0.07688139 0.034292687 0.08984008
0000a0 1f 34 bf 3c 9f a0 0d 3d b4 33 2e bc c8 27 2d 3d
       0.023340283 0.03457701 -0.010632444 0.042274266
0000b0 e5 17 04 3d 93 b9 af bd 3b 50 86 bd 1f cd a5 bd
       0.03224935 -0.08580317 -0.065582715 -0.08095764
0000c0 16 cd 12 bd 68 81 8e 3d 8e d7 83 3c 25 79 7a 3d
       -0.035840116 0.06958276 0.016093995 0.06115069
0000d0 23 c5 67 bd 62 17 ab 3d 01 c7 c3 3d d2 cf a1 bd
       -0.05658449 0.08354069 0.09559441 -0.07900967
0000e0 5b f8 4d 3d dd 4a 06 3e df 51 1b bd fe 38 b5 3d
       0.05028568 0.13114496 -0.037919875 0.08848761
0000f0 9b e3 37 bd 2b 58 0c bd fc 1c a5 bd 50 ad a2 bd
       -0.044894796 -0.03426377 -0.08062169 -0.07943213
000100 ca 41 b2 bd f7 db b6 bc d0 23 c2 bd 17 db ca bd
       -0.087039545 -0.022321684 -0.09479487 -0.09905069
000110 2a 68 8e 3d b7 54 c3 3d 27 8d 83 3d 8a bb 1d 3d
       0.069534615 0.095376424 0.06423407 0.03850893
000120 c2 88 7e bd 15 d9 1c 3d c1 2c 3c 3d 5b 3e 4f 3d
       -0.06214214 0.038292963 0.04594112 0.050596576
000130 ff 12 c9 3d 67 c4 f0 bd b7 4b cd 3d 3b 80 ec 3d
       0.09818076 -0.11756211 0.10024207 0.115478955
000140 02 b7 43 3d b3 3f d4 3d 86 a6 bd bd 30 49 f5 bc
       0.04778195 0.10363712 -0.092602775 -0.029942125
000150 77 9d 30 3d a2 42 f3 3c 2e a9 96 3d 97 b3 64 bc
       0.04311892 0.029694859 0.07356487 -0.013958833
000160 27 ea 51 3c eb 60 c9 3d 03 da e8 3c dd 3d 46 3c
       0.012812174 0.09832939 0.028424269 0.01209971
000170 95 00 4b 3d 8b 9e 9b 3d e7 c4 99 3b 68 58 08 3c
       0.049561102 0.07598599 0.004692662 0.008321859
000180 53 48 92 3d 92 9b 3d 3d ef ad f1 bd a7 74 8e bd
       0.07142701 0.04629094 -0.11800753 -0.069558434
000190 e6 a7 11 3d db 8c 86 3d e2 79 89 3c 6d de 5b bd
       0.03556051 0.06569835 0.016781751 -0.05367892
0001a0 8c e7 26 bd 77 08 9e bd 62 70 bb bd a3 89 8e bc
       -0.040748164 -0.07716458 -0.09152295 -0.017399615
0001b0 df 7f bc 3c f3 92 61 3d c3 00 42 bd 10 fe a9 bb
       0.023010192 0.055071782 -0.047364008 -0.0051877573
0001c0 cc 7e c2 3c 3c 92 06 3d 23 11 5f bd 09 d2 06 bc
       0.023742102 0.032854304 -0.054459702 -0.008228787
0001d0 a7 9f bd 3d 7a 77 d1 bc 09 d4 89 3d 48 fd 7c 3d
       0.09258967 -0.025569666 0.067298956 0.061764985
0001e0 13 f1 08 bd 6a 08 97 3d 8f 13 97 3d 7f 61 d9 3c
       -0.03343303 0.07374652 0.073767774 0.026535748
0001f0 0f 5e 0b bd b7 ed 95 3c 80 cc ef bc 46 a0 aa 3d
       -0.03402525 0.018301828 -0.029272318 0.08331351
000200 15 b2 55 bd 49 dd 13 bd 6c af 13 3d e3 a2 78 3d
       -0.052171785 -0.036099706 0.036055967 0.060702216
000210 f3 1c ac 3b d7 12 10 3d d1 00 be bd 4f 36 80 bd
       0.0052524745 0.035174217 -0.092774995 -0.062603585
000220 e5 de e2 3b ea cd 2d bc eb da 86 3d ab e7 8d 3d
       0.0069235438 -0.010608176 0.06584724 0.06928953
000230 7e 4f 8b 3a 58 44 9b 3d e0 ee c2 bc 3b a8 16 bc
       0.0010628549 0.07581395 -0.023795545 -0.009195383
000240 57 c9 b6 bd cf 68 70 3d 9d 72 e6 3c 84 d5 a1 3d
       -0.08925121 0.058693703 0.028130824 0.07902053
000250 f0 be 80 bd 9c c3 b2 3d 47 59 5f 3d b6 2b b1 3d
       -0.062864184 0.08728716 0.0545285 0.08650915
000260 03 30 1f bc 8c 6e b9 3d 87 f8 3a bd 07 c4 94 3d
       -0.009716037 0.09054288 -0.04564717 0.07263952
000270 45 8b 8a bd 65 4d 97 bd 77 d1 c2 bd f5 eb 28 3c
       -0.06764845 -0.07387809 -0.095126085 0.010310163
000280 3a d0 53 3d 43 02 54 3d af 57 8e bc a0 7e 36 bd
       0.051712252 0.05175997 -0.017375795 -0.044554353
000290 5f 77 84 bb 8f 74 a4 bd 13 e9 be bd 02 70 73 3d
       -0.0040425505 -0.08030044 -0.09321799 0.05943299
0002a0 3a e3 a0 3d 10 e7 80 3c 19 bd c0 3c 27 f1 96 3c
       0.0785584 0.01573518 0.023527669 0.018425537
0002b0 c7 66 c1 bd 0d 7d 96 3d 39 de 48 3c 65 74 a4 3d
       -0.09443431 0.0734807 0.012260013 0.08030013
0002c0 10 5b 70 bd af 36 87 bb 03 04 7f bd 12 0c b2 3d
       -0.058680594 -0.004126392 -0.062259685 0.086937085
0002d0 3b 90 76 bb a7 2d 94 3d da e2 cf 3c 82 c8 63 bd
       -0.003762259 0.0723527 0.025376726 -0.05561114
0002e0 6a 59 f2 bc d9 be c4 3d e5 96 85 bd a2 3a 92 3c
       -0.029583652 0.09606714 -0.065229215 0.017850224
0002f0 30 cc 0d bd c2 28 82 bc 23 ea b0 3d 52 32 ab 3d
       -0.034618556 -0.015888575 0.08638408 0.08359207
000300 b3 a0 c4 3d 9d 0d c8 bd c3 68 cb bd db 2f 05 bc
       0.096009634 -0.097682215 -0.09932091 -0.008129085
000310 1c db 90 3d 1c 6b 0c bd 53 38 88 bc ae 02 3a 3d
       0.07073042 -0.034281835 -0.01662842 0.04541271
000320 ee d8 06 be 1d f3 77 bd f3 e5 4c bd 5d d6 b5 3d
       -0.1316869 -0.060534585 -0.050023984 0.08878777
000330 89 06 0a 3d 75 4e 6c 3d 80 2d ae bd 95 2b e7 3d
       0.03369764 0.05769201 -0.08504772 0.112876095
000340 0f 47 b3 3d d0 a3 b8 3d 10 df 45 bd 15 e6 62 3d
       0.08753788 0.0901562 -0.048308432 0.055395205
000350 aa b1 7c bd e3 4a 0d 3e 40 ac db 3d 43 e4 92 3d
       -0.06169287 0.13798098 0.107262135 0.07172444
000360 8d d0 82 3c cd 22 99 bd 8d cf aa 3d 67 d7 9c 3c
       0.015968585 -0.07477341 0.083403684 0.01914568
000370 c3 db 61 3d f3 db 9e 3d ea 9d e0 bd 11 6b a9 bd
       0.05514122 0.07756796 -0.1096762 -0.082723744
000380 b4 62 87 3d 27 0f 0e 3d 72 22 96 3d e7 af c6 bd
       0.06610623 0.03468242 0.07330789 -0.097015195
000390 53 75 a9 3d 4c b9 0b 3e ea b8 e1 bc 60 ff 5c bd
       0.08274331 0.13644904 -0.027553994 -0.053954482
0003a0 5b 23 11 bb c3 1e 4d 3b da 79 c8 bd 58 a3 b3 3d
       -0.0022146318 0.0031298853 -0.09788866 0.0877139
0003b0 4c c0 91 bd 35 25 ab 3d 0f 7b 7b 3c a7 2b 00 bd
       -0.07116756 0.08356706 0.015349164 -0.03129163
0003c0 1d 2f 98 3d 80 cf e7 bc c7 20 00 bd 9f c0 10 bd
       0.07430861 -0.028297186 -0.03128126 -0.035339948
0003d0 3f 57 a5 3d 39 af 09 3c e7 d0 96 3d 98 60 39 3d
       0.080732815 0.008403593 0.07364064 0.045258135
0003e0 17 fa 12 be 98 91 80 3d ce 75 46 bc 8d a7 98 3c
       -0.14353214 0.0627777 -0.012113048 0.018634582
0003f0 93 e0 73 3c 9b 61 59 bd 67 8f c3 bd e6 a2 2b bd
       0.014885086 -0.0530716 -0.09548836 -0.0419034

bias f4 [100]
000000 e0 a9 f9 39 ff c7 0d 3d cd 77 38 bc 2f c7 06 bd
       0.00047619548 0.03461456 -0.0112590315 -0.0329048
000010 fe 21 90 bd 97 8f 29 bb 1d a4 99 bd 38 07 49 3d
       -0.070377335 -0.002587294 -0.07502005 0.04907915
000020 4d 01 6c bd 98 14 9e bd 1a f3 c9 bd ab f9 2c 3d
       -0.057618428 -0.07718772 -0.09860821 0.04223029
000030 95 68 c6 bd db 9f bb 3d 87 43 48 bd 7b ae 8e bd
       -0.09687916 0.091613494 -0.048892524 -0.06966873
000040 4a 01 be 3d ba 18 e6 3c 24 69 14 3d b3 e9 94 bd
       0.092775896 0.028087962 0.036233082 -0.07271137
000050 a5 0d c9 3b ed 2a 5e bd 47 54 ae 3c 87 fa dc bc
       0.0061356598 -0.054240156 0.021280421 -0.02697493
000060 74 db ac 3d 0c cc c8 bc 1e 40 8b bd ad 6d e4 3b
       0.08440295 -0.02451136 -0.06799339 0.006971082
000070 6d 14 b8 bc 18 ca b7 3d b3 09 30 3d 3a 35 6e bd
       -0.022470677 0.08974093 0.042978 -0.05815623
000080 ed b3 93 3d c5 c8 70 bd a0 85 3b bd 16 a7 05 bd
       0.072120525 -0.05878522 -0.04578173 -0.03263005
000090 cd f3 17 3c 69 18 b0 bd a7 d9 7a 3d f4 b2 83 bd
       0.009274435 -0.08598406 0.061242726 -0.06430617
0000a0 45 18 bd bd be 65 8d 3d e8 84 79 3d 77 d5 a4 3d
       -0.09233145 0.069041714 0.060917765 0.08048528
0000b0 f8 a4 d2 3c a7 23 4f bd 1f 87 be bd 1b 71 1d bd
       0.025713429 -0.05057111 -0.09303116 -0.038437944
0000c0 4a fa 93 ba 5f 2b a3 3c 31 18 9d bc b7 0c 5c bd
       -0.0011289802 0.019918142 -0.019176574 -0.053723063
0000d0 5f 8d 4b bc e4 9a c9 3d 87 68 37 bc b3 2d c4 bd
       -0.012423842 0.09843996 -0.011194355 -0.09579029
0000e0 4e 5a 27 bc d8 83 5c bc 98 f7 39 bd 6d b9 dc 3c
       -0.010214401 -0.013459168 -0.04540214 0.026943887
0000f0 63 3e 83 3d 80 12 7e 3d f3 fa a5 bd 82 3f 7c 3d
       0.06408384 0.06202936 -0.081045054 0.061584003
000100 4b e0 37 3d 9c 6c 83 3c 70 50 58 bd 34 23 86 3d
       0.044891637 0.016043 -0.052811086 0.06549683
000110 e8 fd 23 bc 4b df 16 bd 65 04 3b 3d bb 7b b4 bc
       -0.010009266 -0.036834043 0.045658488 -0.022031656
000120 af 43 d9 bc 3a b2 18 bd 0f ae ab bd 27 79 0f 3c
       -0.026521532 -0.037279345 -0.083828084 0.008756912
000130 48 dc 40 bd eb 12 18 bd 46 30 a8 bd d5 64 d8 bb
       -0.047085077 -0.037127417 -0.082123324 -0.006603817
000140 4b 83 0a 3c 78 48 f4 bb 1f 31 2d 3b eb 4b a2 3d
       0.008454154 -0.007454928 0.0026426984 0.079246365
000150 f7 38 81 3c 3b 85 c6 3c 88 36 bb 3a 6b 98 44 bd
       0.015774233 0.024233451 0.0014283219 -0.04799692
000160 22 32 bd 3c 99 80 8e 3d 52 e3 d9 bc 01 02 a9 3d
       0.023095194 0.06958122 -0.026597653 0.08252335
000170 e0 e0 9a 3c 04 14 9b 3d c2 db c5 3c 26 68 ab bd
       0.018906057 0.07572177 0.02415264 -0.08369474
000180 47 fb 02 bd b3 15 e9 3c 27 9a 49 3d 1b 38 a4 3d
       -0.031977918 0.02845273 0.049219277 0.08018514

weight f4 [1, 100]
000000 2d 8e 84 be 77 d4 cc bb 4f 23 a8 3e 12 e7 1c be
       -0.25889722 -0.0062509137 0.32839438 -0.15322521
000010 42 db b0 3d 82 62 23 be ea 14 de 3d 6d 31 95 3e
       0.0863557 -0.15955546 0.10843833 0.2913927
000020 42 6c e3 bd 3f 46 99 3c 03 f5 04 3e bf ad 06 3e
       -0.11104633 0.018710254 0.1298409 0.13152216
000030 2f 49 99 3e eb 0c 9f 3d f3 e7 df 3d 8b 73 95 3e
       0.29938647 0.07766136 0.10932913 0.29189715
000040 cf d0 71 be 00 a0 1c 3d 33 e7 13 bd a8 8e 4f be
       -0.2361481 0.038238525 -0.03610916 -0.20269263
000050 8d 65 e1 bc 43 18 81 bd d5 d1 57 be 8b c1 93 3e
       -0.027514243 -0.06303456 -0.21076138 0.288586
000060 01 8c 93 bd fd a2 54 3e 5f 60 af bd 44 eb ab bd
       -0.07204438 0.207653 -0.08563303 -0.08394483
000070 80 4e ce 3d 40 ed e9 3a 98 50 57 be db 45 96 be
       0.100735664 0.0017847195 -0.21026838 -0.2935017
000080 b1 8a 48 3e 17 73 94 be b8 e3 85 be 1b e8 db 3e
       0.19584157 -0.28994057 -0.26150298 0.4295052
000090 05 72 20 3e c5 e1 88 bc 5e 5f 47 bd c5 24 bf 3c
       0.15668495 -0.016709218 -0.048674934 0.023332963
0000a0 c2 27 98 bc bd 17 31 bd 8f 31 be 3e a3 9f 25 3d
       -0.018573646 -0.04323553 0.37147185 0.040435445
0000b0 48 1a 73 3e c1 6b 80 3d b4 31 45 3d 6f 89 3f be
       0.23740494 0.062705524 0.048143104 -0.1870477
0000c0 23 05 06 be 82 08 98 3e 32 e0 f7 bc 38 d4 e6 3d
       -0.13087897 0.2969399 -0.030258272 0.11270946
0000d0 b1 4e 48 be 32 48 b1 3e 8a 6b 40 3d 87 bb 54 3e
       -0.19561268 0.34625393 0.046977557 0.20774661
0000e0 7a 44 3f 3e 06 cd 8d be e2 26 52 be 8d e2 70 3e
       0.18678465 -0.27695483 -0.20522645 0.23523922
0000f0 9a d8 1d 3e 3a e7 da be f5 4d 9f be b8 45 d3 bc
       0.15414658 -0.42754537 -0.31114164 -0.02579008
000100 3b 4e a2 be 2e 14 83 be f2 af 8b 3d ec f1 b7 bd
       -0.3170031 -0.25601333 0.06820668 -0.0898169
000110 1f a8 e6 be 67 54 84 3e d0 27 5d 3e dd b0 f4 bd
       -0.4505014 0.25845644 0.21597219 -0.119477965
000120 6a 99 81 be 52 62 33 3d 1f 49 aa bd 4b c3 47 3d
       -0.25312358 0.043794937 -0.08314728 0.04877023
000130 fb 5b be 3b ab 44 f2 bd 54 c3 ae be 74 4f a9 be
       0.005809305 -0.118295036 -0.341334 -0.3306843
000140 88 10 d4 3b b1 6c 48 3b a5 6c 92 3e e7 1d a9 3d
       0.0064716972 0.0030582363 0.28598514 0.082576565
000150 97 98 22 be 13 99 b1 be 0b d4 a3 be be 81 8e 3e
       -0.15878521 -0.346871 -0.31997713 0.2783336
000160 af 81 8d 3c da 05 8a bd c7 c9 fd bd 01 57 3e 3e
       0.017273752 -0.06739397 -0.123920016 0.18587877
000170 40 80 06 be f2 e0 57 3e 3b a6 e1 be 4a 5e 3c bd
       -0.13134861 0.21081904 -0.44072136 -0.04598836
000180 17 a3 14 bc 83 bf 1c be 5a 7d c6 3b 7d 8b 9e 3d
       -0.009072087 -0.15307431 0.0060574235 0.07741449

weight f4 [15, 100]
000000 0c d9 bc be 5d 26 fa bd 16 30 95 3e 13 74 40 be
       -0.36884344 -0.122143485 0.2913825 -0.18794279
000010 47 c2 4f 3c f8 0f 6a 3e 17 1f 84 be c2 8e e1 3d
       0.012680597 0.22857654 -0.2580497 0.11013557
000020 f0 72 84 3e c5 89 80 bd 35 25 b1 be 54 32 43 3e
       0.2586894 -0.062762775 -0.345987 0.19062167
000030 a9 2e af 3e 5c 98 bc 3e 53 4a 3c 3d 04 e7 af be
       0.34215286 0.3683499 0.04596932 -0.34355938
000040 da aa 71 3e 33 16 3a 3e 22 cf 4d be 53 90 97 3e
       0.23600331 0.18172531 -0.20098546 0.29602298
000050 b1 c6 0f 3e 32 b2 a3 3e 83 4a cc 3e 27 60 c9 3e
       0.14040639 0.3197189 0.39900598 0.3933117
000060 7e f9 41 be fe 00 8f bc 50 3c 1b be 43 35 d0 3e
       -0.1894283 -0.017456528 -0.15159726 0.40665635
000070 2c a3 b2 3d b3 69 bc 3e 82 48 bf 3e ef 92 e4 bd
       0.08722529 0.36799392 0.37360007 -0.11160838
000080 c4 61 9a 3e 34 4d a9 ba c2 76 59 3e a6 7c 2d 3e
       0.30152714 -0.0012916685 0.21236709 0.16942081
000090 9b a6 f9 3d 3a 7b 65 be 48 16 bb 3c bc 9f a9 be
       0.121899806 -0.22410288 0.022837773 -0.3312968
0000a0 cb 76 66 3e d1 cc 94 bc 59 8c 18 3e fd b4 91 3d
       0.22506253 -0.01816407 0.14897288 0.07114599
0000b0 d4 ee 06 be df cb cc be 7f a2 d1 bd e3 2f 1f bd
       -0.13177043 -0.3999929 -0.10236072 -0.038864028
0000c0 7f 83 88 be 9d b3 49 be 57 65 2f 3e 64 34 c7 bd
       -0.26662824 -0.19697423 0.17128502 -0.097267896
0000d0 40 12 17 be 88 64 e7 be 3b c1 87 3e a6 de 47 3e
       -0.14753056 -0.45193887 0.2651461 0.19518527
0000e0 0f 5c 4c be f0 81 4e be b1 79 91 3e c6 c0 2e be
       -0.19956993 -0.20166755 0.28413156 -0.17065725
0000f0 99 4d ac be 7d 4c 2b 3e df c1 85 3e b7 6a cb bd
       -0.33652952 0.16728397 0.26124474 -0.099324636
000100 50 1b 76 3e af 32 39 be d3 ab 60 3e 90 62 8f 3e
       0.24033856 -0.1808574 0.21940546 0.28004885
000110 b1 b4 ae 3e 8e 0e 8f be d0 5a cf 3e cb 9e d3 be
       0.34122232 -0.27940792 0.40498972 -0.41332087
000120 05 3a 33 be c9 e7 97 bd 58 1b 66 be d3 b8 88 be
       -0.17502601 -0.074172564 -0.22471368 -0.2670351
000130 70 93 60 be 43 22 80 3e 6d 38 b6 bd c6 38 af be
       -0.21931243 0.2502614 -0.08897481 -0.34223002
000140 c5 88 78 be 49 69 8d be 27 bc a4 3e ec a3 3f bd
       -0.24270923 -0.2761939 0.321748 -0.046787187
000150 18 95 35 be 3b a5 6c 3e d4 2d 8d 3e df 38 89 3e
       -0.17732656 0.23109905 0.27574027 0.26801202
000160 2c 64 36 3e ef 75 71 bd 2a 54 e5 bd 78 b9 29 bc
       0.1781165 -0.05895036 -0.11197694 -0.010359161
000170 60 f9 5d 3e 35 7c 24 3e 0f 6f 4e be 6c bd 96 3e
       0.2167716 0.16063006 -0.20159553 0.29441392
000180 55 71 83 be a1 d8 90 be 83 08 94 3e 61 26 1e be
       -0.25672403 -0.28290275 0.28912744 -0.15444328
000190 ea a4 79 3e 6a 63 8c bd db 92 43 be 48 98 e7 3d
       0.24379316 -0.06854899 -0.1909899 0.11308342
0001a0 66 e3 a5 be 9d d1 38 3e 10 9f a7 3e df 9c a1 3e
       -0.32400054 0.18048711 0.32738543 0.31564996
0001b0 8a 1e 6f 3e 7d a7 83 3e 54 92 c4 3e cd d7 57 3e
       0.23351493 0.2571372 0.3839289 0.21078415
0001c0 22 bb 6e 3e a5 4c df be 2f d6 5e 3e 38 0f 88 be
       0.23313573 -0.43613163 0.21761392 -0.2657411
0001d0 12 be a3 3e 11 f0 c5 3e f8 71 86 be 4f 9e b0 3e
       0.3198095 0.3865972 -0.26258826 0.3449578
0001e0 2f 19 1a be ab 7d a7 3e 79 fd c9 be 72 ff 02 bf
       -0.1504867 0.32713065 -0.39451197 -0.5117103
0001f0 60 2c c9 be 3f 67 59 be b4 88 26 3e 6f 8e 01 bf
       -0.39291668 -0.21230792 0.16263086 -0.5060796
000200 d2 8e 97 be c5 92 5d be 68 9b 9b be 91 1e a3 3d
       -0.2960115 -0.2163802 -0.30392003 0.079648145
000210 1a 18 90 be d3 1a da 3e 31 2c 09 3d 3e 95 8b 3e
       -0.28143388 0.4259859 0.03348941 0.272623
000220 b3 be df 3e e8 69 d9 bd 05 16 93 3e d2 22 f2 3e
       0.4370018 -0.10615903 0.28727737 0.4729219
000230 df e1 c1 3e f5 71 99 be 21 f7 8f 3e 2c 58 27 3e
       0.37867638 -0.29969755 0.28118232 0.16342229
000240 61 dd 0f bd 78 28 e0 3e 08 18 ec 3d 93 5d 36 3d
       -0.035123233 0.43780875 0.11528021 0.044522833
000250 97 1e 36 be 96 d4 89 3e e7 40 ec be d8 3f 9d be
       -0.17785107 0.26920003 -0.46143267 -0.3071277
000260 d7 e7 35 bd 57 91 a4 3e ca 9d 58 be 57 26 7d be
       -0.044410553 0.32142136 -0.21153942 -0.24721657
000270 67 0f 8b 3e 4f 12 80 3d 90 55 e7 3d 54 7d 35 be
       0.2716019 0.06253492 0.112956166 -0.1772359
000280 4f 7a d3 be 37 19 c9 3e 87 53 6c bd 53 48 c9 be
       -0.41304252 0.3927705 -0.057696845 -0.39312991
000290 4e 7d 05 3f 33 b8 31 be a7 cd 00 be 82 19 19 3e
       0.52144325 -0.17355423 -0.1257845 0.14951137
0002a0 cc 43 a2 3e 0e f2 b4 be bd 74 d2 be 01 48 ae bd
       0.3169235 -0.35340923 -0.4110469 -0.085098274
0002b0 2e 09 9a be 52 01 eb 3e c5 9d a2 3e ed 5f 36 3c
       -0.3008513 0.45899445 0.31760994 0.011131269
0002c0 da 01 1a be a3 92 08 be 5b 53 d1 be c5 c1 fb be
       -0.15039769 -0.13337187 -0.40883908 -0.49171272
0002d0 7b 99 61 3e c4 73 ac be d7 f9 b0 3e aa da c9 be
       0.22031204 -0.33682072 0.34565613 -0.3942464
0002e0 50 a0 d7 3e ab 4d b2 3e 93 b4 e7 3e ca 2c af 3e
       0.42114496 0.3482488 0.45254955 0.3421386
0002f0 af c5 fd bd eb 25 a0 be 1f 11 8c bb 3c 51 1a 3d
       -0.12391221 -0.3127893 -0.004274502 0.037675127
000300 e6 fb 2c 3e c8 af 00 3e 66 3d a6 bd ca 11 fc bd
       0.16892967 0.12567055 -0.081171796 -0.123080805
000310 03 01 9d be 5f bd 18 be 3b 05 50 3e b8 25 68 bd
       -0.30664834 -0.1491599 0.20314495 -0.056676596
000320 ed 0a 2b be 13 e6 bd 3e a5 3e 97 3e 2c 13 cb 3e
       -0.16703387 0.37089595 0.2953998 0.39663064
000330 40 64 bb be a6 7b c2 be 47 04 fc be b2 85 9d be
       -0.36599922 -0.3798496 -0.49222013 -0.30766064
000340 72 b7 f4 be 90 4c 8d be d3 1f 45 be 5f a7 dc 3e
       -0.47796208 -0.27597475 -0.19250421 0.43096444
000350 bb ad 62 3e 3b f0 60 3e b8 d1 c1 be 61 e1 0b be
       0.22136585 0.2196664 -0.37855315 -0.13660194
000360 a9 28 8f 3e 07 4f 80 3e 8d cc 7a be 53 f9 4e 3e
       0.2796071 0.25060293 -0.24492092 0.20212297
000370 6a 87 a7 3e d0 d8 8e bd 33 51 72 bc 9d 14 a6 3e
       0.327205 -0.069749475 -0.014789867 0.32437602
000380 2c d1 2d be 0c be 0e 3f d5 f5 ce 3e a1 6b c9 bc
       -0.16974324 0.5575874 0.4042193 -0.024587454
000390 f7 95 38 bd 71 5d 96 3e 29 44 96 3e f4 63 1b bf
       -0.045064893 0.29368165 0.29348877 -0.6069939
0003a0 bb 6b a4 3e 6c c4 97 be 83 6a 0a bf 40 7b ec be
       0.32113442 -0.29642045 -0.54068774 -0.46187782
0003b0 38 7a 08 bf ee 15 47 3d 99 00 29 bd 3b bb 0e bf
       -0.5331149 0.0486049 -0.041260336 -0.5575444
0003c0 3e 60 97 be 29 bc a4 3e b8 57 5b 3e d8 75 5a 3c
       -0.29565614 0.32174805 0.21420181 0.01333376
0003d0 bb 51 dd 3d b0 e4 5b be 87 6a e7 bd cf 8e 5b be
       0.108066045 -0.21473956 -0.11299615 -0.21441196
0003e0 15 01 fe be 9e 2a 17 3c 08 8c dd 3e e1 28 9e 3e
       -0.496102 0.009226469 0.43270898 0.30890563
0003f0 d8 d9 c9 be ad 1f 97 bd 25 77 d8 3e 0a 45 a5 3e
       -0.39424014 -0.073790886 0.422784 0.32279235

bias f4 [15]
000000 db 52 c3 3e 55 9d ae 3e 0b 60 33 3f ad c5 81 3f
       0.3814915 0.3410441 0.70068425 1.0138451
000010 82 e3 71 3f 9a 96 5e 3f 92 38 f0 3e ff b8 88 3f
       0.94487774 0.8694855 0.4691816 1.0681456
000020 03 7b ca bd c5 af 60 be bf 21 81 be 70 58 50 be
       -0.09886744 -0.21942051 -0.2522106 -0.20346236
000030 5b c5 63 be 31 14 c7 bd 18 ee e9 bd
       -0.22243254 -0.09720648 -0.11422366
