checkpoints/9feature_lstm_num_comm199_an15_sn_D3_al5_E0.5_B5_lr10_num_clients0.05_cf100.pth (torch, 228375 bytes, 9 tensors)

weight_ih_l0 f4 [400, 9]
000000 26 3b 01 3e aa 75 67 bd 33 22 e8 bd a7 ad 26 3e
       0.1262022 -0.056508698 -0.11334648 0.1627718
000010 9a aa 08 3d 97 3a b5 bb df 10 00 bd 62 85 a6 3d
       0.033365823 -0.005530666 -0.03126609 0.081309095
000020 4f 13 ad bd f3 dd cc 3c df b3 3a 3d f3 f2 80 3d
       -0.084509484 0.025008177 0.045581695 0.06296339
000030 77 18 86 3c 3a 17 88 3d 70 a4 c7 3d 20 8f 0e 3d
       0.016369088 0.06645055 0.09748161 0.034804463
000040 42 97 4a 3d 2b 1c 4a 3d 1e 13 95 bd 78 4e dd bd
       0.049460657 0.04934327 -0.07279037 -0.10805982
000050 9d e3 7b 3d 03 d3 67 3d 50 88 ad bd 0a 94 f3 3a
       0.061496366 0.05659772 -0.08473265 0.0018583548
000060 c0 ed 08 3d 5a 6f 57 3d a8 3f 7b bd 87 b0 92 3e
       0.03342986 0.052596428 -0.061340004 0.28650305
000070 ba ae c2 b7 75 b0 ca 3d 86 38 89 3d 2b e4 a4 3d
       -2.3207966e-05 0.09896938 0.06700234 0.08051332
000080 b3 5c 47 3a 26 eb 0a 3d 37 b7 92 bc 8d 5a dc bd
       0.0007605061 0.03391566 -0.01790963 -0.10759459
000090 c3 e2 70 be 70 57 9c be c6 77 0a 3e 79 6d b4 3d
       -0.23524003 -0.3053546 0.13522252 0.08809943
0000a0 39 68 8e 3d 25 87 22 3e 9b e8 ed bd 65 45 7a 3d
       0.06953473 0.15871866 -0.116166316 0.061101336
0000b0 4f 49 a5 3c bd 6d 7c 3e eb 7d 15 be 9d d4 cf 3c
       0.020176558 0.24651237 -0.14598815 0.025369937
0000c0 47 31 73 bd be 94 8b 3d 8d ac cf 3b 12 f6 ed bd
       -0.059373166 0.0681548 0.0063377083 -0.116192
0000d0 57 48 88 bd f6 ca 11 bd 85 f3 55 3e 6a 76 23 be
       -0.06654423 -0.03559395 0.20893677 -0.1596314
0000e0 72 8e ff 3d 12 40 f9 bd 4b 8e 97 3a 85 39 2c bd
       0.12478341 -0.121704236 0.0011562792 -0.042047042
0000f0 2b 2f 35 bd bb bf e8 3c 6b 52 b0 bd a2 3c aa bc
       -0.044234436 0.028411737 -0.0860947 -0.020780865
000100 1f ac 4b be 28 ab fa 3d f5 2f 51 3d b5 96 af 3d
       -0.19889878 0.12239677 0.051071126 0.08573667
000110 bf 78 c0 bd 10 a5 45 3c 28 1a cf bb 70 f9 01 be
       -0.093980305 0.01206328 -0.0063202567 -0.12692809
000120 c3 1c c1 be 74 a4 14 be 68 ea b1 bd ca c7 cc 3d
       -0.37717256 -0.14515859 -0.086872876 0.09999044
000130 ed 74 4d 3c 5f 6b e5 3d 93 8c a7 3c 21 9f 31 be
       0.012540084 0.1120212 0.020452773 -0.17345859
000140 40 12 15 3e cf 2c 86 bc 9f d9 d1 bd 38 e2 22 3d
       0.14557743 -0.016378788 -0.10246586 0.03976652
000150 2b 18 95 bd bd 81 65 3d 45 23 ec bc 38 e4 5e 3c
       -0.0728 0.05603193 -0.028825412 0.013604216
000160 db 2d 93 3d 90 1c bc bd 9b 9b 81 3d 21 53 96 bd
       0.071864806 -0.09185135 0.063285075 -0.07340074
000170 2e 90 44 3e 75 b7 7a 3d c6 2d 80 3d 6b d2 af 3c
       0.19195625 0.061210115 0.062587306 0.02146264
000180 6f ea 5c bd 60 37 10 3e 5c af b5 bd f0 d0 11 3e
       -0.05393451 0.14083624 -0.08871338 0.1423986
000190 46 6f c8 3d 4f 58 bc bd bd b4 45 bb a5 32 74 bd
       0.09786849 -0.09196531 -0.0030167543 -0.05961861
0001a0 f1 6b 38 3e 6e 25 a5 3d 82 ce aa 3d 25 6b b3 bc
       0.18009926 0.0806378 0.083401695 -0.021901676
0001b0 2d 35 5a bd 8d dd cf bd 63 21 67 3e 42 a6 f4 bc
       -0.05327337 -0.10149679 0.2257133 -0.029864434
0001c0 d8 f9 b7 bd 5e b6 46 3d f7 d1 d4 3d 73 98 a3 bd
       -0.08983201 0.048513763 0.1039161 -0.07988062
0001d0 9b 70 6a 3d 0f e0 9d 3d cf d3 95 bc 50 66 f6 3c
       0.057236295 0.077087514 -0.018289475 0.030078083
0001e0 3b 73 a0 bd a7 0c a7 bd 57 ff 5f 3d 35 f6 45 bc
       -0.078344785 -0.0815671 0.05468687 -0.012082626
0001f0 62 8f 4d bd e5 fd e2 3d c1 04 ab 3e 13 06 07 be
       -0.05018557 0.11083583 0.33402064 -0.13185911
000200 4d 34 90 be d5 53 0d 3d 28 4f 67 bd 16 e3 40 be
       -0.28164902 0.034503777 -0.056471974 -0.18836626
000210 10 a1 29 3e fe 62 97 bd ad 99 e7 bd 57 75 8c be
       0.16565347 -0.07391928 -0.11308608 -0.27433273
000220 56 9c 92 bd 12 45 5e 3d 75 33 e3 3d 03 31 9c 3d
       -0.07158725 0.05426509 0.11093799 0.07626536
000230 27 84 d6 3c 05 da 63 3c d1 c4 be bd 90 d7 6b bd
       0.026186062 0.01390696 -0.093148835 -0.057578623
000240 36 25 ae 3e 83 70 fa bd 84 1a 9c bd 98 a6 7f bd
       0.34012765 -0.12228491 -0.07622245 -0.062414736
000250 c2 12 b4 3c 17 21 ae bd 67 a6 a1 bc dd 7c 57 3d
       0.0219816 -0.08502405 -0.019732667 0.052609313
000260 72 e4 59 bd 1b 13 63 3e 83 d5 d4 3b 89 50 0d be
       -0.053196378 0.22175257 0.006495179 -0.13800253
000270 19 0b be bd 37 09 18 3d 88 0f db 3c b5 45 88 3b
       -0.092794605 0.037118163 0.026740804 0.0041587004
000280 dd 0b 7c bd 54 c1 9c bd 20 bc 90 3e 1b 6a d9 bb
       -0.06153475 -0.07654062 0.28268528 -0.006634963
000290 b5 36 94 3d 1b 69 5a bc bd 5b 42 bd 47 b2 20 bd
       0.07236997 -0.013330723 -0.04745077 -0.03923252
0002a0 cb 38 5a 3d e5 22 8b bd fd cc c4 bd 71 b1 33 3e
       0.05327682 -0.06793765 -0.09609411 0.17548157
0002b0 b5 4d e9 bc 3a c3 3c 3e 1a 87 e8 bc ed a2 35 bd
       -0.028479436 0.18433848 -0.028384734 -0.04434483
0002c0 ab 30 7f bd da 92 74 bd 17 8d 6b 3d ee 1c 2c 3d
       -0.062302273 -0.05971036 0.0575076 0.042019777
0002d0 bc 18 a0 be fd 87 bf be fd 0e d4 be 3a fe f5 bc
       -0.3126887 -0.37408438 -0.41417685 -0.030028451
0002e0 c9 82 8c bc 53 fa e3 bc 35 82 7e be 19 05 18 3d
       -0.017152207 -0.027829325 -0.24854358 0.037114237
0002f0 7f 6f e7 bd c0 bb 90 3d 7f 59 e2 bd 55 b5 e5 3d
       -0.11300563 0.070670605 -0.11052226 0.11216227
000300 2b fa 4d 3d e0 bc 96 3b 2a 89 22 3b 25 ff f2 ba
       0.050287407 0.0046001524 0.0024800994 -0.0018539174
000310 60 86 4d 3d d3 1c 0e bd 6f d0 e6 bd a1 b9 0e be
       0.050176978 -0.034695458 -0.11270224 -0.13938
000320 fb 87 c8 bb ff 77 d7 3d 23 17 c8 3d 8f be fa 3d
       -0.0061197258 0.10520934 0.09770038 0.122433774
000330 0b 7b 9f 3d 2a e5 a6 3a 9f 1d 60 3e bf 27 4f 3e
       0.077871405 0.0012733091 0.218863 0.20230006
000340 96 3d a0 bd 1b 53 e9 3d 3c 16 ac 3d 83 6b 8f bd
       -0.078242466 0.11392804 0.08402678 -0.07002928
000350 5d 5d 3d 3d 67 9a 22 3d e3 b6 dc 3c 36 c0 bb 3d
       0.046231616 0.03969803 0.026942676 0.09167521
000360 ad 9f 21 be ca ca 3e 3d 2e 26 07 3e b3 e1 39 3c
       -0.15783568 0.046580113 0.13198158 0.011345315
000370 ae 1a c2 3d 2d 7e 7c 3b e2 b4 0d 3d 0e 9e 81 bd
       0.09477745 0.0038527355 0.03459633 -0.06328975
000380 48 a7 4f 3e 60 cd 62 bd 1c 2f b4 bd 8f de 4c 3d
       0.20278656 -0.055371642 -0.08798048 0.050016936
000390 2a c7 f8 3b 36 08 93 bc 1e b8 bf 3c e2 21 9d 3d
       0.0075921016 -0.017948251 0.023403224 0.07672478
0003a0 34 56 27 bc 2b cf c5 3d 4a b2 4f be 98 b2 59 be
       -0.0102134235 0.09658655 -0.20282856 -0.21259534
0003b0 08 99 d4 bd 39 05 29 bd 4b 10 a0 bd c7 33 05 3d
       -0.10380751 -0.041264746 -0.07815608 0.03252008
0003c0 a0 97 a3 bb 89 be ac 3d 3a 3c ed 3d 8b 6e 76 3e
       -0.0049924403 0.08434779 0.11583753 0.24065606
0003d0 67 6d 7f be f6 90 8d 3d db c6 05 3e 78 3a 48 3d
       -0.24944077 0.06912415 0.13064139 0.048883885
0003e0 80 50 fa bd 2f 69 12 bd 00 66 5e bc db 09 db bc
       -0.122223854 -0.035744842 -0.013574123 -0.026738098
0003f0 b2 5a d6 3e 9f 2a 02 3e 30 d7 4d 3b 13 a1 89 3d
       0.4186607 0.12711571 0.003140878 0.067201756

weight_hh_l0 f4 [400, 100]
000000 ca 11 86 3d 25 1a d2 bd c9 45 35 bd dc c7 11 bd
       0.06546362 -0.10258893 -0.044256005 -0.03559099
000010 0b ab ce 3d 15 93 ce bc 44 b4 81 bd d1 58 8f 3d
       0.100912176 -0.025216619 -0.06333211 0.06999362
000020 6f 24 80 bd fc 73 b2 bd 4f a6 d7 3c 5b 86 ab bd
       -0.06256949 -0.087135285 0.02632442 -0.08375236
000030 84 a1 13 bd a3 58 1a 3d 1b db 24 3d 95 81 47 bd
       -0.036042705 0.037682187 0.040248018 -0.048707563
000040 af 28 db 3d 45 c2 f3 bc b2 e6 58 bc b2 c9 52 bd
       0.10701119 -0.02975572 -0.013238596 -0.051461883
000050 75 33 cb bc 3b 00 de bc 3c 60 c4 3d 71 82 bf bd
       -0.02480481 -0.02709972 0.09588668 -0.093510516
000060 2b e5 e1 bd c2 00 ec 3d 60 ec 7a 3c d8 6e 13 bd
       -0.110300384 0.11523582 0.015315145 -0.03599438
000070 43 c9 8b 3d 40 b7 92 bd e7 c1 7a bd 02 33 6f 3b
       0.06825497 -0.071638584 -0.061220076 0.003649891
000080 47 48 76 3c 4d 75 8a 3d a7 56 cd bd 12 9a 6b bd
       0.015031881 0.067606546 -0.10026293 -0.05751998
000090 8d bd a7 bd 88 79 96 bd 6a 60 24 bc 11 d8 ab 3d
       -0.08190451 -0.07347399 -0.0100327525 0.08390821
0000a0 7f 69 aa 3d 19 a0 88 3c af dc 83 3d e6 33 34 3c
       0.08320903 0.016677903 0.064385764 0.010998702
0000b0 ce c2 a2 bc 25 08 db bc 80 c5 53 3d f4 76 27 bd
       -0.01986828 -0.026737282 0.051702023 -0.040884927
0000c0 b0 27 61 3c b7 27 91 bc a2 34 9a bd ba 8c ee bc
       0.013742372 -0.017719133 -0.0752957 -0.029119838
0000d0 d1 52 91 bd ef d3 17 be 60 3a dd bd fa 4d 76 3c
       -0.07095874 -0.1482694 -0.1080215 0.0150332395
0000e0 ab 0b 3f 3d cb 88 c7 bd b5 e2 a2 bd c4 fc aa 3d
       0.046641987 -0.09742888 -0.07953397 0.083489925
0000f0 43 be 07 3d 90 72 69 3d b8 4f a1 bd 3b c4 58 bb
       0.033140432 0.05699402 -0.07876533 -0.0033075947
000100 50 63 73 3c 1f 7d 73 3c a7 61 b1 bc c0 2a 44 3d
       0.014855221 0.014861374 -0.02165301 0.047892332
000110 c4 5f 27 3d 36 ec 3f bd 7f 91 0c bd 43 35 49 3d
       0.040862814 -0.046856128 -0.034318443 0.04912306
000120 e9 86 95 3d b4 33 12 bd 89 69 05 bc d2 d9 b0 39
       0.07301123 -0.03569384 -0.008142837 0.00033731625
000130 ef 10 b8 bc f7 50 fa 3d 05 de 7d 3d 7d 2a fa 3c
       -0.022469012 0.12222474 0.061979312 0.030537838
000140 96 6f 95 3d 22 0d b1 bc b9 f2 0b bd 60 2d 6f bb
       0.07296674 -0.021612708 -0.034167025 -0.0036495551
000150 c2 df f5 bc 49 14 ba 3d f3 84 d8 bd 6f 9d ee 3d
       -0.030013923 0.090859 -0.10572233 0.11651122
000160 15 93 e0 bd 95 df 8b bd 2a db b0 3d db 45 d0 bc
       -0.10965554 -0.06829754 0.08635552 -0.025423935
000170 d7 04 17 3d 7f ec 84 3d a2 7a 87 bd 48 d0 d7 3c
       0.03686985 0.064904206 -0.06615187 0.026344433
000180 3b 39 3d 3c bf 52 81 3d 7d fd 0e bd 90 98 84 3d
       0.011549289 0.06314611 -0.034909714 0.064744115
000190 e3 92 a8 bd d3 e3 58 bd 70 bd 99 3d f3 a5 4e 3c
       -0.082311414 -0.052951645 0.075068355 0.012612808
0001a0 55 fb a3 3d b0 71 bc 3d 33 eb 04 bd d2 8e 63 bd
       0.08006922 0.09201372 -0.032450866 -0.055556126
0001b0 1c b1 3f bc e3 83 a8 bc 90 00 0d 3d 77 82 24 3d
       -0.011699941 -0.020570701 0.034424365 0.040163483
0001c0 f0 b6 79 3d 7e 1f 82 bc 52 8d be bd fe da 95 bc
       0.06096548 -0.015884157 -0.093042985 -0.0182929
0001d0 ec cc 1f 3d b9 59 99 3d 9e 85 88 bd 03 33 03 3d
       0.039013788 0.07487816 -0.066661105 0.03203107
0001e0 8b 40 50 bc d5 8b 5e bc 87 44 ad 3c 57 84 ca 3c
       -0.012710701 -0.013583143 0.02115084 0.024721308
0001f0 ba ef 8d 3d 54 e3 0e 39 89 15 b3 bc d7 08 0f 3d
       0.0693049 0.00013626862 -0.021860855 0.03492054
000200 4b b9 44 3d ee 83 1b 3c b3 33 0a bd 1c 2c af 3d
       0.04802827 0.009491904 -0.03374071 0.08553335
000210 2d bf 56 ba 7a ef a7 bd e5 1d 7a 3d 8b 2d 3e 3d
       -0.00081919396 -0.081999734 0.061063666 0.046430152
000220 d3 82 3b 3d 1a d4 6c bd 93 dc b1 3d 56 a3 81 3d
       0.04577906 -0.057819463 0.08684649 0.06329982
000230 67 78 29 3d 82 60 ca bc 4b 87 b4 3c 23 0e b5 bc
       0.04137459 -0.024704222 0.022037169 -0.022101467
000240 d5 31 42 3d fc 9a 92 bd 68 89 9a 3d 32 2a 07 bd
       0.047410805 -0.07158467 0.075457394 -0.032999225
000250 00 e9 36 bd 1b 4b b2 bc de 5e 86 3d f7 70 91 3d
       -0.0446558 -0.021764329 0.06561063 0.071016245
000260 cd c3 a2 3d 4e 9e b8 3d 3f 98 e1 3c a8 b2 1c bd
       0.07947502 0.09014569 0.027538417 -0.038256317
000270 cf 7a c1 bb 33 ac 7c 3d 52 74 11 3c 0d cf 79 3d
       -0.0059045325 0.06168766 0.008877831 0.060988475
000280 80 bf 94 bd bc d3 27 3c d4 5e 1c 3d aa f6 79 3d
       -0.07263088 0.0102433525 0.038176373 0.061026253
000290 43 db 61 bc 40 5b 95 3b e7 8d af bc aa 60 78 3b
       -0.013785186 0.004557997 -0.021429969 0.0037899413
0002a0 99 89 38 3d 64 da ae bd a0 bf dd 3d e5 de 1f bd
       0.0450531 -0.085377485 0.10827565 -0.03903093
0002b0 fd 45 77 bd b0 b1 c9 bd 1b 6b aa bd 7e 6d a9 bd
       -0.06036948 -0.09848344 -0.0832121 -0.08272837
0002c0 67 d3 a8 bd 18 50 76 3d 1b f7 ab 3d 98 4e ac bd
       -0.08243447 0.060134977 0.08396741 -0.08413428
0002d0 54 57 97 bd 9d 01 8e bb 4b e0 61 bd 68 e3 b4 bd
       -0.073897034 -0.0043336884 -0.055145543 -0.08832437
0002e0 02 a6 7f 3c 9e 53 93 bd bf d9 5c bd eb 3e 9b 3d
       0.015603544 -0.07193683 -0.053918596 0.0758036
0002f0 4b 96 a6 bd 69 0e 08 3d 67 45 bf bd b6 43 1e bd
       -0.08134135 0.033216868 -0.09339409 -0.038638793
000300 35 20 6d 3b c7 9c 38 3d 8d 91 37 3d ff 15 bd 3d
       0.0036182527 0.04507139 0.044816542 0.09232711
000310 96 cc 89 3d dd 49 32 bd 9b 65 85 bd df c6 39 bc
       0.06728475 -0.043527473 -0.0651352 -0.0113389185
000320 6f 37 57 bd 2a 02 dc 3b bf b6 2a 3c a0 1b ed bc
       -0.0525431 0.006714125 0.010419547 -0.028943837
000330 cc ef ab bb 4b 9f 8e bd 83 e3 d0 3b 8d 19 b2 bd
       -0.005247092 -0.069639765 0.0063747778 -0.0869628
000340 5c db 96 3d 2f 53 35 bd 85 0e 39 3d 1a fa 70 3d
       0.07366058 -0.044268783 0.045179863 0.058832265
000350 aa 5a 73 3d 21 ce 2b 3d a8 2b ed 3c 41 96 89 3a
       0.059412636 0.041944627 0.028951481 0.001049705
000360 af 49 83 3b 60 5d 67 bd 83 17 99 3d 79 97 a0 bc
       0.0040065865 -0.056485534 0.07475188 -0.019603478
000370 a8 93 41 3d 57 71 74 3d ff 39 06 3d e8 fc 54 bd
       0.047259957 0.0596784 0.032770153 -0.051999003
000380 80 52 cc 3c 49 53 c4 bd c7 0a 42 3d 17 a7 8e 3d
       0.024941683 -0.09586198 0.04737356 0.069654636
000390 1b f1 9c bc 9f 28 6f bd 22 32 5e bd 2b f3 81 bd
       -0.019157937 -0.05838835 -0.05424703 -0.06345209
0003a0 9c 78 3b bc 12 e0 0f 3b 92 cc 79 bd eb a6 15 3d
       -0.01144233 0.0021953625 -0.06098611 0.03653614
0003b0 8d a4 d9 bc 92 8d e1 bb 0f 67 89 bd d7 f2 38 3d
       -0.026567722 -0.0068833316 -0.0670911 0.045153465
0003c0 9d 58 67 bc f2 fd 12 bd 3c 87 90 3d c1 d6 87 bd
       -0.014120248 -0.035886712 0.07057044 -0.06632758
0003d0 d2 08 37 bc 9b 07 9a 3a 8c 73 01 bc 3f 19 8b 3d
       -0.0111715365 0.0011751534 -0.007901084 0.06791925
0003e0 76 df 99 3d 9e e6 2b 3d df 89 a8 ba 2b 58 a6 3d
       0.07513325 0.04196798 -0.0012858472 0.081222855
0003f0 13 5c 89 3d ac 33 49 3d 7d a1 15 3d 10 f8 7f 3d
       0.06707015 0.049121544 0.03653096 0.06249243

bias_ih_l0 f4 [400]
000000 51 6f 0a 3e 3b 11 f1 bc cd a1 df 3d 2a 80 90 3c
       0.13519026 -0.029427161 0.10919533 0.017639238
000010 76 80 a5 3d a3 b8 15 3d 30 5d 1b 3d 67 52 65 3b
       0.080811426 0.036553036 0.037930667 0.0034991743
000020 19 e0 c8 bc d2 0d 95 bc 25 d9 77 3d c1 e1 06 bd
       -0.02452092 -0.018195067 0.06050982 -0.03293014
000030 ab 40 6b bd 4b 04 85 3a ba f8 a9 bd 77 0a a7 bc
       -0.05743472 0.0010148374 -0.08299394 -0.020390732
000040 6f c1 75 3d 30 c9 fa 3d af 89 5c bc cb c1 c6 3d
       0.059998926 0.12245405 -0.013460561 0.09704932
000050 3b b6 e7 3d a5 32 c7 3d 32 82 b3 3d c8 c5 e8 3c
       0.113140546 0.097264566 0.08765067 0.028414622
000060 6f aa 3d 3d bf 12 ef 3d d4 87 41 3c a7 a0 c9 bc
       0.046305116 0.116734974 0.011812169 -0.024612738
000070 93 23 2a bc 03 de 25 3e df ca e9 3d 8d e0 de 3d
       -0.010384458 0.16197972 0.11415648 0.108826734
000080 d0 13 1e 3e d7 08 53 bd b0 23 dd 3d 00 32 ce 3d
       0.15437245 -0.051522102 0.107978225 0.100681305
000090 4b 28 14 3e 55 16 64 3c 8a ab d2 3d 25 3d d7 3d
       0.14468496 0.01392134 0.10286625 0.10509709
0000a0 6b ef 55 3d 23 2b b6 3d 03 8d 9a 3d d7 22 8b bd
       0.05223028 0.088949464 0.07546427 -0.067937545
0000b0 69 ec 40 3b 15 59 fb 3d ea b1 dc 3d ef cd 91 3d
       0.0029437786 0.122728504 0.10776122 0.07119357
0000c0 75 db 78 3d 7f d2 44 bd 63 59 39 3d f0 5e e6 3d
       0.060756166 -0.048052307 0.04525126 0.11248577
0000d0 35 2a 76 3d 6b e5 5e bd 30 29 78 bd 6c cb 86 3d
       0.060098846 -0.05441801 -0.060586154 0.065817684
0000e0 05 ed e0 3d d7 bb d6 3d d5 46 2d 3d 08 c3 20 3c
       0.10982708 0.10485046 0.04230388 0.009812124
0000f0 10 2b b6 3c ba 25 a8 3d 9d 7f 44 bc d7 3c 88 3d
       0.02223733 0.08210321 -0.011993316 0.06652229
000100 52 3f 55 bd 2b da df 3d b3 6f 98 3c fe c9 10 3d
       -0.05206234 0.10930284 0.01860795 0.035348885
000110 62 ef dc bb ef 01 14 3d c9 b4 b0 3c 19 d0 0d bd
       -0.006742404 0.036134657 0.02157058 -0.034622286
000120 23 b9 ab 3d 7c 7f 01 3e d1 88 83 3d 1b bf e9 3d
       0.083849214 0.12646288 0.0642258 0.114134036
000130 d3 04 fe 3d f1 e5 91 bc 22 f0 20 3a 48 0d 9a 3d
       0.12403264 -0.01780984 0.0006139298 0.075220644
000140 75 d9 22 3d 53 73 af 3c 29 e3 03 3c f8 a5 6d 3d
       0.039758164 0.021417296 0.008049765 0.05801961
000150 ce 6c 32 3d 79 92 1f 3d 05 67 6d 3d 87 4c 91 bb
       0.043560795 0.038958047 0.057959575 -0.0044341716
000160 e0 12 f3 bc 17 5c bc 3d 85 76 e2 3d f3 d2 22 bd
       -0.029672086 0.09197252 0.11057762 -0.039751958
000170 d3 db ca 3b 07 cc 3b 3d d2 ca 7f 3d a0 99 29 3d
       0.006190756 0.045848873 0.062449284 0.041406274
000180 93 38 10 3d 73 e7 f8 3d 9c 54 a8 3d 33 db 06 3e
       0.035210203 0.121535204 0.08219263 0.13169555
000190 1b c4 d1 3d 6b 51 a5 3d 07 97 84 3c 3f 69 89 3d
       0.10242482 0.0807217 0.016185297 0.06709527
0001a0 c7 10 b8 3d 2d 77 6d 3d b3 2c 6a bb d9 7b bc 3b
       0.08987575 0.057974983 -0.003573221 0.0057520685
0001b0 6d e2 fc bc e3 e0 fe 3d 25 5e f5 3d a5 2a 5d 3d
       -0.030869687 0.124452375 0.11980847 0.053995747
0001c0 2a 95 93 3d 8b b7 58 bc 53 d2 76 3d 47 01 eb 3d
       0.07206185 -0.013227354 0.060259175 0.11474853
0001d0 aa 4e 12 3e 15 4e e5 3d 15 3d 0f 3d 4c f9 b1 bc
       0.1428782 0.111965336 0.03497036 -0.02172532
0001e0 bb cb 90 3b b3 79 d9 3d 68 0b f9 3d b9 a7 93 bb
       0.004418818 0.106189154 0.12160379 -0.004506078
0001f0 a2 ff c1 3d b2 ee 0f bd 33 de a1 3d fa 96 93 3c
       0.09472586 -0.035139747 0.07903709 0.018016327
000200 ef 1d be 3d 1e 2f a6 3d 65 2b 27 bd b7 45 1e 3e
       0.09283053 0.08114456 -0.04081287 0.15456282
000210 38 9c c0 3d 22 92 f3 bb b6 62 85 3c d2 17 6f 3d
       0.09404796 -0.007433192 0.01628242 0.058372326
000220 6f 9a c0 3d f2 e2 97 3d 94 78 b8 3d bd 8d fd 3d
       0.09404456 0.07416333 0.090073735 0.1238055
000230 02 62 d9 3d 9b 10 bc ba 88 02 83 3d 76 02 2c bd
       0.10614397 -0.001434821 0.06396967 -0.041994534
000240 fd 50 dd 3d 46 f4 9a bd b2 d7 b0 3c a1 01 21 bd
       0.10806463 -0.07566123 0.021587227 -0.039308194
000250 bf e0 2b 3d da 88 7a bd 4a 0e fe 3d 53 3a 7c 3d
       0.04196238 -0.061165668 0.12405069 0.06157906
000260 1f 26 d7 3d 98 74 b9 3d 52 74 f1 3d 0f 33 da 3c
       0.10505318 0.090554416 0.117897645 0.026635675
000270 af 65 ca bc 57 85 17 3e 48 62 22 bd 05 bf f6 3d
       -0.02470669 0.14796959 -0.03964451 0.12048153
000280 e6 61 03 bb da 1e d6 3d 10 c3 7b 3d 6e a5 a1 3c
       -0.0020047366 0.10455103 0.061465323 0.019732203
000290 3a 7d 9b bc 28 59 cf 3d b2 53 76 3d b7 9e 89 3d
       -0.018980611 0.10124427 0.06013841 0.067197256
0002a0 92 51 60 3d df bf 69 bd 8b c4 3e 3d bd 6a d5 bc
       0.05476529 -0.05706775 0.046574157 -0.026051873
0002b0 c7 ea 74 bd a7 9f 66 3d 1d 79 27 bd 83 7e 07 bd
       -0.059794214 0.0563046 -0.040886987 -0.033079635
0002c0 07 c5 d6 bc 7a d7 55 bd 32 f3 25 3e 6f 10 17 bc
       -0.026216997 -0.052207448 0.16206053 -0.009220227
0002d0 22 60 af bd 7f 37 c8 3d ff 54 07 3e 12 e1 0f 3e
       -0.08563258 0.0977621 0.13216017 0.14050701
0002e0 ac 64 44 bd ab f1 14 3e 3b ff cc bc 4c 96 aa bb
       -0.04794757 0.14545314 -0.025024047 -0.005205905
0002f0 92 9e 7d 3d 14 5d 91 bc 9d 1b 5c bd 9c 4c b8 3d
       0.061918803 -0.017744578 -0.05373727 0.08998987
000300 cf 74 c0 3d db f2 10 bc c0 73 d1 3d cd 68 fc 3d
       0.093972795 -0.008846964 0.10227156 0.12324677
000310 7f 81 5b 3b 05 ee 74 bd c3 59 0e 3e e6 62 b9 bc
       0.0033493934 -0.059797306 0.13901429 -0.022630166
000320 bf 82 1d bc 90 92 ea bd c3 f7 ad bd da 13 a6 3d
       -0.009613692 -0.11453736 -0.084945224 0.08109255
000330 f5 c8 a5 3d 2d 71 3c 3e 08 f7 61 be 34 0f 28 bd
       0.0809497 0.18402548 -0.22066891 -0.041030124
000340 c3 32 50 bc c5 49 ab bd df 2a 31 be c5 b9 14 3e
       -0.012707415 -0.0836368 -0.1730151 0.1452399
000350 4d 24 2a be 9b a0 54 be 98 cf e6 3c 8b f1 18 bd
       -0.1661541 -0.20764391 0.02817516 -0.03733973
000360 ca d1 2b 3e 40 f2 44 3e 72 86 26 be ff 71 60 bd
       0.16779247 0.19233036 -0.16262224 -0.054796215
000370 ab b5 c2 bb 63 81 6f 3e d4 53 1f 3e b7 5f 05 3e
       -0.0059420667 0.23389201 0.15559322 0.13024794
000380 58 14 f2 bc 8f 19 1c 3e 6b 90 c4 3a e9 6e 12 bd
       -0.029550716 0.15244125 0.0014996653 -0.035750303
000390 0b c8 27 3c 3f 7a 4f bd 3d be 11 be db fc 20 be
       0.010240565 -0.050653692 -0.14232726 -0.15721457
0003a0 f6 99 81 be c4 a5 4c bc 4b 66 49 bb 1f 87 90 bc
       -0.25312775 -0.0124906935 -0.0030731137 -0.017642556
0003b0 9b 40 39 be b4 86 1b 3e 3d 03 2e 3a f2 1c 11 be
       -0.18091051 0.15188104 0.0006638056 -0.14171198
0003c0 57 c5 c2 bd 3f aa 96 bd d0 2d 0e 3d 3d 05 63 3e
       -0.09510296 -0.073566906 0.03471166 0.22169967
0003d0 b6 d1 2f be 37 d5 2c 3e 03 9d 8b 3d 78 57 75 3d
       -0.17169842 0.1687821 0.06817057 0.05989787
0003e0 00 b4 e8 3b 70 5c 4e 3d b0 2e 65 be c4 75 93 3d
       0.007101536 0.050381124 -0.22381091 0.072001964
0003f0 d2 42 5b bd f0 eb b7 bc dc 7a 17 bd 6b 91 fd bd
       -0.05353052 -0.022451371 -0.036982402 -0.12381252

bias_hh_l0 f4 [400]
000000 d8 f8 a5 3d 04 e1 b8 3d 3b 80 25 3d 07 d4 14 3c
       0.08104104 0.09027293 0.040405493 0.009083754
000010 ab df d6 bc 23 55 75 3d 33 4e 2a 3c db a7 ff 3d
       -0.0262297 0.059895646 0.010394621 0.12483188
000020 16 56 39 3d 6f 5d c8 3c 6d a8 b3 3d f3 c1 a0 3d
       0.045248114 0.024458615 0.08772359 0.07849493
000030 10 72 a8 3c 7a ab 7a 3d 7a bb d2 bd 5b ce 1e 3c
       0.020562202 0.06119869 -0.102896646 0.009692754
000040 60 0d 6b 3c 6a c4 68 3d d7 16 60 3d b2 1e 31 3d
       0.014346451 0.05682794 0.05470928 0.043242164
000050 de fc 83 3d f2 14 b3 3a c2 f9 8f 3c 81 41 1f bd
       0.06444715 0.0013662858 0.017575148 -0.03888083
000060 53 e0 0b 3e 7c ce 96 3d bc 03 31 3d e3 b0 d6 3c
       0.13659792 0.073636025 0.043216452 0.026207393
000070 8a 42 8a bc 3f ca 75 3d 64 77 b3 3d 48 2c 66 3d
       -0.016877431 0.06000733 0.08763006 0.056194574
000080 da c4 e4 3d 69 2f 0c 3e 90 82 f6 3d 41 5c 02 3e
       0.11170359 0.1368996 0.120366216 0.12730505
000090 98 3f e3 3d bc e7 33 3d b8 3e 19 bc 17 ea 98 3c
       0.11096114 0.04392217 -0.009353332 0.01866631
0000a0 fe dd 99 ba fb ba 96 3d 00 ab d8 3d 2d 26 7a 3d
       -0.0011739132 0.073598824 0.10579491 0.061071564
0000b0 28 d8 03 3e 02 3c fe 3c 2d 4e 7d 3c 73 8b 10 3c
       0.12875426 0.031034473 0.015460533 0.00882231
0000c0 f8 6e e0 3d d4 2a 88 bd f2 0c 05 3c be 88 a6 3d
       0.109586656 -0.06648794 0.008120762 0.0813155
0000d0 e5 be bf 3d 3e 07 8f 3c e2 f0 7d bd 57 ba 85 3d
       0.09362582 0.017459508 -0.061997302 0.06529682
0000e0 ed 01 84 3d 98 18 ad 3d da 3e b1 bc 69 44 0c 3e
       0.0644568 0.084519565 -0.021636415 0.13697971
0000f0 1b 2e e3 3d a7 01 3d bc 07 14 b1 3d 97 1a d5 bc
       0.11092778 -0.0115360385 0.08646398 -0.026013656
000100 42 ec e2 3d a0 79 b0 3d 93 42 e1 3d d9 aa 0b 3e
       0.11080219 0.08616948 0.10999026 0.13639392
000110 81 49 c2 3d 3b 1e 86 3d 88 c9 e5 bc 10 f8 cd bc
       0.09486676 0.06548735 -0.0280502 -0.0251427
000120 18 0a 76 bc 0b ac f4 3d bb 71 14 3b b8 c0 8b bc
       -0.015017055 0.11946877 0.0022650796 -0.017059669
000130 5b 06 4c 3d 5f aa 8a 3d ab 81 21 3e a7 d7 91 3d
       0.04981075 0.06770777 0.1577212 0.071212105
000140 63 28 ea bc b0 18 8f 3d d0 68 67 3d 64 5e 2b 3d
       -0.028583711 0.06987131 0.05649644 0.041838065
000150 b7 b7 f4 3c 20 6c 91 3d ea 89 72 3d ef 2b 25 bd
       0.029872758 0.07100701 0.059213556 -0.0403251
000160 1d 8b 10 3e a7 91 b9 3d 34 87 83 bc 43 97 56 3d
       0.14115568 0.09060984 -0.01605568 0.05239035
000170 2d 5f db 3d 15 b8 29 3d ea 92 5f bd 15 2b 8c 3d
       0.10711513 0.04143532 -0.054583468 0.06844155
000180 be 55 1d bd 43 68 a7 3d 47 91 39 3d 2e 97 00 bd
       -0.03841185 0.08174183 0.045304563 -0.031394176
000190 7a 45 44 bd 7a 71 dd 3d d3 4b 1a 3b a1 e0 26 3d
       -0.04791782 0.108126596 0.002354373 0.040741567
0001a0 08 cb 25 3d d7 b9 bc 3d 68 d0 89 3a 6b 68 35 bd
       0.04047683 0.09215134 0.001051438 -0.044289034
0001b0 6b ee 2a bd d7 a2 e7 3d 69 0c 9b 3d 1d bf e1 3d
       -0.04173128 0.11310356 0.075707264 0.1102278
0001c0 55 cc e0 bc 63 8e 0a bd 8f 70 ac bd 08 a1 dc bc
       -0.027441183 -0.033827197 -0.08419906 -0.026932254
0001d0 da d2 7b 3d 3c 04 c5 3d cc ee 15 3e 1f c7 0f 3e
       0.06148038 0.09619948 0.14641875 0.14040802
0001e0 ca 5d 6e 3d 8b 57 77 bc f3 e3 aa 3d aa c6 b5 bd
       0.058194913 -0.015096555 0.08344259 -0.08875783
0001f0 0b b8 35 3e a2 08 8b 3d 95 c6 2c 3e 46 86 9b bd
       0.17745988 0.06788756 0.16872628 -0.0759397
000200 09 e1 43 3d b0 6d 70 3d 08 94 06 3e b7 ab 1b 3e
       0.047822032 0.058698356 0.13142407 0.15202223
000210 dc 67 27 3d d4 9a 28 3d 83 4e b5 bd 37 24 d2 3d
       0.040870532 0.04116328 -0.088528655 0.10260814
000220 4b c4 0b 3e c9 cf 9a 3c 3b 41 15 3e ae 23 23 bd
       0.13649099 0.018897908 0.14575665 -0.03982895
000230 af 96 27 3e 68 1e 55 3c d7 dc 54 bc de 44 3b 3d
       0.16366075 0.013007738 -0.012992105 0.045719974
000240 af 29 59 bc 9f dc 5e 3c 5f 50 e5 bc 59 2f 00 3e
       -0.013254567 0.013602405 -0.027992425 0.12518062
000250 9a e3 82 bd be ef 30 bd 52 e5 05 3e 3b 5b 3d bb
       -0.06391068 -0.043197386 0.1307576 -0.002889349
000260 d1 94 c3 3d f2 8d 44 3d 4f 67 82 3b d4 2d 0d 3b
       0.09549869 0.047986932 0.0039796005 0.0021542208
000270 1f 88 53 3d 3d 2c f0 3d a3 9e 92 bc f3 ab 02 3e
       0.051643487 0.11727188 -0.01789791 0.12760906
000280 3b 4d 34 bd 9f 70 99 3d da e9 cc 3d 2d b1 81 3d
       -0.044018965 0.07492184 0.10005541 0.06332622
000290 2a fa 83 bd 5f 00 a6 bd a9 8a b9 3c 66 e4 a3 3d
       -0.064441994 -0.081055395 0.022649126 0.08002548
0002a0 59 08 95 3d cf 12 40 bd 67 50 6f bd 88 e2 a7 3d
       0.07276983 -0.046892937 -0.058426287 0.08197504
0002b0 aa dc 7c 3d b5 fe f3 3d 93 16 0f 3d 0b be 00 3e
       0.06173388 0.11913816 0.034933638 0.12572496
0002c0 45 2f a8 3c 25 8f dc 3d 5c fe 39 3d 36 c2 be 3c
       0.020530352 0.1076949 0.04540859 0.023285966
0002d0 43 1d 45 bc 68 4b f2 3d 96 54 18 bc ed e0 56 3d
       -0.012030902 0.11830789 -0.009297511 0.0524606
0002e0 d7 2f f5 3c 87 50 ac 3d e0 cf d7 3d 7a a7 9f bc
       0.029930038 0.08413797 0.10537696 -0.019489039
0002f0 ff 56 d7 3d ee bd 03 3d bf 4f 13 bd cd 7e ee 3d
       0.1051464 0.032163553 -0.035964724 0.11645279
000300 ef 86 b7 3d 20 6b 7a bd 6b 32 a2 bb 25 ed d9 3d
       0.089612834 -0.06113732 -0.004949858 0.10640935
000310 2f f8 ed 3b 0a d5 03 3e 3b c6 15 3e a7 01 f1 3a
       0.007262252 0.12874237 0.146264 0.0018387333
000320 9d 86 47 be b8 c6 20 be 0c 86 c5 bc 25 1c 03 3d
       -0.19484945 -0.15700805 -0.02411177 0.032009263
000330 b2 f5 0f 3d fd b1 3c 3e 83 1b 39 be 38 06 07 3d
       0.035146423 0.18427272 -0.18076901 0.032964915
000340 2e 9d 4c 3d 90 0d 4d be 28 aa 02 be a4 b9 b9 3c
       0.049954586 -0.20024705 -0.12760222 0.022671528
000350 a7 96 3f be 9b 7a 25 be c0 b8 d4 3d 13 95 08 3d
       -0.18709813 -0.16160052 0.10386801 0.033345293
000360 cb 65 51 3e bf 24 bc 3c 1f 86 05 be 1b aa 1c be
       0.20448987 0.02296674 -0.13039444 -0.15299265
000370 84 24 bd bd ca 4f 7f 3e f4 cd 25 3e c5 da 46 3d
       -0.092354804 0.24932781 0.16191846 0.04854848
000380 75 e7 1a bc 2f 34 da 3d 73 23 aa bd 7d 74 64 3d
       -0.009454598 0.106544845 -0.08307543 0.055775154
000390 d9 6b 1e 3d 72 52 c8 3d bf 62 1e be 5a 55 61 be
       0.03867707 0.0978135 -0.15467356 -0.22005215
0003a0 92 45 81 be bf 1b 23 be ca f6 9d 3b 56 5d 0d be
       -0.2524839 -0.15928553 0.0048206793 -0.13805136
0003b0 63 0e 8a bd a7 20 eb 3d a4 6e be 3d a3 ef ad bd
       -0.06741025 0.11480837 0.09298447 -0.08492973
0003c0 35 1b d1 bd 7a 2f 9b bd 16 c6 ac 3d fd 63 b6 3d
       -0.102102675 -0.07577415 0.084362194 0.0890579
0003d0 f6 e2 27 be b8 24 85 3d 3a cf ff bb 27 82 d7 3d
       -0.16395172 0.06501144 -0.0078066858 0.105228715
0003e0 8a ad 56 bd aa 4b 4a 3e 1f 20 57 be 5d b2 cf 3b
       -0.052411593 0.19755426 -0.21008347 0.006338401
0003f0 fb 98 df bc f5 c4 02 bd f6 af 85 bb 53 d2 d0 bd
       -0.027294626 -0.031926114 -0.004079814 -0.10196366

weight f4 [100, 100]
000000 4d 8e e3 bd 21 45 91 bc 17 08 d3 bd fa fc 83 bc
       -0.11111126 -0.017733159 -0.103042774 -0.01611184
000010 85 9e 58 3d 7d 19 1d bd c7 4b 4c bd b7 bd 6a 3d
       0.05288555 -0.038354386 -0.049876954 0.057309832
000020 bc 7e a6 bd 73 bb a1 3d 97 e3 2a bd af 87 51 bd
       -0.081296414 0.07897081 -0.041720953 -0.05115479
000030 6e 31 a8 bd 98 ce 33 3d 6b 6f 44 3d cb 25 53 bd
       -0.08212553 0.043898195 0.04795782 -0.051549714
000040 5e f5 07 3d 7c 19 89 3c 52 ef 37 bd 4b e3 13 bd
       0.033192985 0.016735785 -0.044905968 -0.036105435
000050 00 36 1a bd 60 01 97 bd 91 85 b4 bc b8 80 96 bd
       -0.037649155 -0.07373309 -0.022036346 -0.0734877
000060 17 68 c0 3d 3d eb 53 bd 67 fc 88 bd 75 8c 5e 3d
       0.093948536 -0.051738013 -0.06688767 0.05433317
000070 ed d2 74 3d 35 2c 6d 3d 06 1f 9e bc b7 a3 3e 3c
       0.059771467 0.057903487 -0.019301903 0.011635712
000080 66 2f 8c bc 64 51 ac 3d a3 c7 5b bb 33 0f 62 3c
       -0.017112445 0.084139615 -0.003353574 0.013797569
000090 c7 cf 47 3d ad 74 78 3d 52 05 19 bd 33 2c 81 bd
       0.048782136 0.060658146 -0.03735859 -0.063072585
0000a0 3f cf b4 3d 00 f1 02 be 53 60 09 bd b3 6f d0 3d
       0.088285916 -0.12787247 -0.033539128 0.10177555
0000b0 f5 da cc 3b a2 1f 93 3d 5a 39 26 3b be f3 99 3d
       0.0062516876 0.07183768 0.0025363774 0.07517193
0000c0 e8 78 a4 bd 7f 37 13 3d 72 91 84 bd 5f 00 33 3d
       -0.080308735 0.035941597 -0.06473054 0.043701526
0000d0 da c8 8c 3c 10 5c 9a 3d bb 4a 17 3d 07 1b d7 3d
       0.017185617 0.07537091 0.036936503 0.10503202
0000e0 40 b5 de 3c 9d 2d 77 3d b3 17 44 bc 08 24 fa 3b
       0.027186036 0.060346235 -0.011968541 0.00763369
0000f0 f5 be 6c bd b7 cb 1d 3e b2 6d 64 3d 06 c0 a6 3c
       -0.0577993 0.15409742 0.055768676 0.020355236
000100 b2 91 70 bc 38 c3 bc 3c 9b 2b 98 bd af 37 17 3c
       -0.014683174 0.023042306 -0.07430192 0.009229585
000110 0e 55 4c 3c 31 ed 3a 3c 3f b4 72 bd 85 90 5d bd
       0.0124714505 0.01140909 -0.059253927 -0.054092903
000120 df 77 e6 3d 28 7d f6 bc c7 b0 fb 3c e0 0f 76 3c
       0.11253332 -0.030088976 0.030723942 0.015018433
000130 e7 23 24 3d 55 03 78 3c 03 b9 a9 3d a2 5d 23 bd
       0.0400733 0.015137513 0.08287241 -0.039884217
000140 83 35 d4 3d 1a 93 94 bd 2f ec 97 3d 0f cb 31 3d
       0.10361769 -0.0725462 0.07418095 0.043406542
000150 80 48 07 3c 90 e4 bb 3d fd 15 b3 3b 03 0a 06 be
       0.008257031 0.09174454 0.0054652677 -0.13089757
000160 98 1f 0d bd c8 5b 1a bd 49 9a 28 3d 27 ec af bd
       -0.03445396 -0.037685186 0.041162763 -0.08589964
000170 e6 33 31 3d 3f 57 89 3d 3f e6 19 3d d5 01 96 3d
       0.043262385 0.06706094 0.037573095 0.07324568
000180 50 d6 ca bc 58 23 21 3d 51 aa 1a 3d 23 49 d3 bd
       -0.024760395 0.039340347 0.037760083 -0.10316684
000190 bb 60 d9 3d 85 7c f6 bc 76 a8 81 bd af 89 ae ba
       0.10614153 -0.030088672 -0.063309595 -0.0013316179
0001a0 08 75 59 ba 9d e5 b4 3d cb 4c a7 bd 11 c2 b4 bd
       -0.0008295332 0.08832858 -0.08168944 -0.08826078
0001b0 5c e9 88 bc 4d 30 05 bd 3a 55 56 bd 27 b5 83 bd
       -0.016712837 -0.032516766 -0.052327372 -0.064310364
0001c0 38 f5 16 3d f5 f0 98 3b 6e 13 38 3d f8 22 e4 3d
       0.036854953 0.004667396 0.044940405 0.11139482
0001d0 0b 23 14 3d bb aa 93 3d c3 58 1a bd 6a ac 50 3d
       0.036166232 0.07210299 -0.037682306 0.050945677
0001e0 53 60 3e 3d 40 99 18 3d 1a ce 08 bd be e2 b1 3d
       0.04647858 0.037255526 -0.03339968 0.08685826
0001f0 5d fb 87 bd 12 9c f1 3c 47 7e 03 3d ad 74 be 3d
       -0.066397406 0.029493365 0.03210285 0.09299598
000200 29 4c bc 3d 2f d5 8b 3d 4e a6 1a 3b 6b 70 97 3c
       0.09194214 0.06827771 0.002359766 0.018486222
000210 e4 90 a4 bd df 03 99 3d fa 9e ed bd 5e 6e 9e 3d
       -0.08035448 0.074714415 -0.11602588 0.077358946
000220 f3 b2 0a bd eb 4e 7b bc 6c 4a 91 bc 6b a7 49 bd
       -0.033862066 -0.01533864 -0.017735682 -0.049231928
000230 9f 54 c6 bd 1c fe ae 3c 8a 47 26 bd c7 e4 0a 3d
       -0.09684109 0.021361403 -0.04059557 0.033909585
000240 38 ec 0e bd da be e7 bd b3 33 e6 bd 7c be 96 3d
       -0.034893245 -0.11315699 -0.112403296 0.07360551
000250 1c 2c b9 bb 34 9b c7 bc 5f f7 80 ba 3b cf 61 bb
       -0.00565101 -0.024365999 -0.0009839347 -0.0034455794
000260 83 81 68 3d 79 ca 23 3d 14 9f 35 3d 2a 1f 48 bd
       0.056764137 0.039988015 0.04434116 -0.048857845
000270 12 64 a0 3d 7b eb 01 3d e7 0c 9b 3c 8a b7 49 3d
       0.07831587 0.031718712 0.01892705 0.049247302
000280 9d 68 04 3d 99 c8 22 bd 65 34 e0 bb c2 82 4b bc
       0.03232633 -0.039742086 -0.0068421834 -0.012421312
000290 5b 50 73 3d 5a 41 d1 bd 02 c7 59 bd c8 9f 1f bd
       0.059402805 -0.10217543 -0.053168304 -0.03897074
0002a0 17 c4 bf 3c b5 9a 68 3d a2 a4 d0 3d 3d 21 bf bc
       0.023408933 0.056788165 0.10187651 -0.023331279
0002b0 67 ca f2 bd a1 3e 9b 3d 2e de 10 be a8 48 7b bd
       -0.118550114 0.07580305 -0.14147255 -0.061348587
0002c0 94 1c ab 3d 8b bd b1 3c 87 c9 b5 3c be b6 b2 3d
       0.0835506 0.021696826 0.022190822 0.087262616
0002d0 0d a8 ec bd 6e 69 82 ba 5e a7 92 3d 0b b3 34 3d
       -0.11555491 -0.0009949633 0.07160829 0.04411606
0002e0 31 d7 3b 3b f2 f0 9e bd c3 dd bf bc 0b 11 9f b8
       0.00286622 -0.077608004 -0.023421174 -7.584885e-05
0002f0 eb 47 09 3d ef 44 ba bc 53 b1 30 3d d4 c8 46 3d
       0.033515852 -0.022737948 0.04313786 0.04853137
000300 13 08 dc 3b 85 7f e3 bd f7 24 f6 bd 6f fe bb bd
       0.0067148297 -0.11108307 -0.12018769 -0.09179389
000310 fb bf a5 3d 4f f4 da bc f0 76 e2 3d 1a da 1c 3d
       0.08093258 -0.026727824 0.11057842 0.038293935
000320 05 c6 50 3b 6b 3b b0 3c d0 87 a0 3a 20 56 4e 3d
       0.003185631 0.021512708 0.0012247507 0.050375104
000330 b3 76 50 bd a5 eb b6 bd 4d af df bb ff 84 46 3b
       -0.05089445 -0.089316644 -0.0068263174 0.0030291674
000340 61 d5 aa bd a7 0b 90 3d 9e d3 9c 3c b8 d2 2b bc
       -0.0834148 0.070334725 0.019143876 -0.010487251
000350 62 0f 8b 3c 28 0e 54 bd 26 13 99 3d 25 55 25 3c
       0.016975109 -0.051771313 0.074743554 0.010091101
000360 24 95 8b bd 16 10 23 ba 87 d2 41 3c 2f 47 39 bb
       -0.06815556 -0.00062203535 0.011829979 -0.0028271188
000370 b6 dd 45 3d e1 e9 c5 bc 27 5d 65 bd 38 90 ab bd
       0.048307143 -0.024159374 -0.05599704 -0.08377117
000380 1a 66 64 3c f2 cb 62 bd ed 38 c2 3d 52 bf 9a bc
       0.013940359 -0.05537028 0.09483514 -0.018890057
000390 ff 3d 43 bd 13 d5 85 3c f2 83 cf 3c fe 90 4b bd
       -0.047666546 0.016336953 0.025331471 -0.049698822
0003a0 e5 43 8b 3d dc 28 40 3d f4 96 44 3c db 90 c8 bd
       0.06800059 0.046913967 0.011998881 -0.09793254
0003b0 8f 1e f5 3c 3a 69 51 bc 7b 12 0f 3c 35 6e 37 3c
       0.029921798 -0.012781436 0.008732433 0.011195709
0003c0 e6 35 a3 bd 95 6e ff 3c 0a 3f e3 3c a3 33 b9 3d
       -0.07969265 0.03118066 0.02774002 0.09043052
0003d0 0d 38 fe bc 37 83 e8 3c db 94 12 3e 57 44 e6 3d
       -0.031032586 0.02838288 0.14314596 0.112435035
0003e0 b0 73 91 bd b1 0d 34 3c 46 ca c4 bd a1 eb 96 bd
       -0.07102144 0.010989592 -0.09608893 -0.073691614
0003f0 23 42 1a bc df d1 df 3d cd b6 97 bd 79 96 98 3d
       -0.009415182 0.109287016 -0.07407913 0.074505754

bias f4 [100]
000000 b3 fa bf 3d 15 8a 54 3c 43 1d a0 3d 63 24 eb 3a
       0.09373989 0.012972374 0.07818081 0.0017939921
000010 b5 47 f4 3c e8 31 2a bd 77 08 c7 bc 7f 01 01 bd
       0.029819349 -0.0415515 -0.024296029 -0.031495567
000020 d5 b1 d7 bb 1b 2e b7 3d 5f b1 9a bd 12 c0 ea bc
       -0.0065824785 0.08944341 -0.07553362 -0.02865604
000030 c4 7b af 3c 8c 7c c9 bd ac 3d 9e bd a5 ed d1 bd
       0.02142132 -0.098382086 -0.07726607 -0.10250405
000040 f7 62 4c 3d c2 34 04 bd bc f3 27 bc 9b 11 33 bd
       0.049899068 -0.032276876 -0.010250982 -0.04371796
000050 a7 80 c7 3d 18 d9 4f bc ef 9c 9e 3d d3 d8 ac 3d
       0.09741335 -0.0126860365 0.077447765 0.084397934
000060 b3 1a 36 3b 85 f9 30 bd 56 0b 31 bd 3d 52 a1 bc
       0.002778691 -0.04320671 -0.0432237 -0.019692535
000070 07 2b 87 3d 7e 5c 94 bd 6d f8 43 bd 38 65 b5 bb
       0.06600004 -0.07244204 -0.04784434 -0.005535748
000080 6c f9 01 bd 40 0d cd bd 38 f3 88 3d f5 ed 6c 3d
       -0.031732008 -0.10012293 0.06687015 0.05784412
000090 db 56 24 3d 8a ae ee bd ed 0e 3c bd 48 50 35 bd
       0.040121894 -0.116543844 -0.04591267 -0.044266015
0000a0 aa 9b b7 bd e6 ec c8 bb 29 a7 49 bd 5f 69 99 bd
       -0.089652374 -0.006131756 -0.049231682 -0.07490801
0000b0 82 c9 49 3c ca 04 52 bc d3 a6 31 3d 11 7c a8 3d
       0.01231611 -0.012818525 0.043371987 0.08226789
0000c0 a8 98 86 3d 87 26 09 3d 17 3d a8 bb cf eb 88 bc
       0.065720856 0.03348401 -0.0051342356 -0.016714005
0000d0 ca 57 8f bb 5b cf 91 3d 73 8b 2a bd 9f 5b 83 3d
       -0.004374479 0.07119628 -0.041636895 0.0641396
0000e0 b0 c7 e6 bc 92 49 fb 3c ae 8a 94 3d 9a b6 9d 3d
       -0.02817139 0.03067473 0.072530136 0.07700844
0000f0 07 8b cc 3b c0 39 d7 3c 67 6d a1 3d 84 29 af 3d
       0.0062421593 0.026272655 0.07882195 0.0855284
000100 9b 9d 7e 3d 47 f8 f5 bc 60 4c 91 3d 19 ae 4c bc
       0.062162023 -0.030025614 0.070946455 -0.01249268
000110 a3 75 8b bc d3 c3 72 3d 37 1e fe 3c e5 2c f4 bd
       -0.017023867 0.059268784 0.031020267 -0.119226255
000120 cb b9 69 bd f7 c1 60 3d a2 2c 35 bd b5 99 25 3d
       -0.05706195 0.05487248 -0.04423202 0.04042979
000130 40 59 c3 3d cd 13 c2 bc bb 82 00 be 06 58 18 3d
       0.095385075 -0.023691082 -0.1254987 0.03719332
000140 b0 20 db bc 7c 47 9e bd 41 60 af bd b4 68 89 3d
       -0.026748985 -0.07728478 -0.08563281 0.06709424
000150 36 ea 84 3d 12 f8 54 3c 2b df 4a 3b 67 ce 9d 3d
       0.06489985 0.012998598 0.0030955772 0.07705384
000160 b2 cf 89 3d 86 ac a7 3d 33 4e ae bd fd 3c 6e 3b
       0.06729068 0.08187203 -0.08511009 0.003635227
000170 7f 74 91 bd 45 fa 66 bd a1 af c2 3d 7b df 22 3d
       -0.07102298 -0.05639102 0.09506155 0.03976391
000180 31 bf 43 bd 6c 9a 8d 3d 82 5e 07 3d e3 db 57 3c
       -0.047789756 0.06914219 0.033049114 0.013174984

weight f4 [1, 100]
000000 76 c6 9f be 67 c7 aa 3e eb 8f c9 be 97 06 a4 3e
       -0.312061 0.33355257 -0.39367613 0.32036278
000010 83 9a d2 3e 4a e5 22 3f 8f 1f 3a 3e 70 11 10 be
       0.41133508 0.6363112 0.18176101 -0.14069152
000020 1c b2 4b 3e 3f a3 b7 be 57 7c 02 3f 6a 25 03 3f
       0.19892162 -0.35866734 0.5097098 0.51228964
000030 7b 98 a3 3d 27 62 be 3e 87 6c 67 be ad 31 14 3e
       0.07988068 0.3718426 -0.22599994 0.14472075
000040 5f 6d 0c 3e 7d 7b bf be 25 39 19 3f 52 7a 25 be
       0.13713597 -0.37398902 0.5985282 -0.16159943
000050 5b d9 04 3d 23 af f1 3e c8 bc 62 3d 32 57 fe be
       0.03243385 0.4720393 0.055355817 -0.496759
000060 50 e2 5f 3e 7f 70 b1 3e 37 b8 9e be 9b 73 49 be
       0.21863675 0.3465614 -0.3099992 -0.19673006
000070 93 5c 5d 3e 03 0f a9 3e d3 36 9b 3e 77 f1 84 3d
       0.21617346 0.33019266 0.30315265 0.06491368
000080 7e 84 2a be a8 f1 17 3e ea e1 43 3e 00 b9 a5 be
       -0.16652104 0.14838278 0.19129148 -0.32367706
000090 df 98 ba bd ed a2 d1 3e 93 29 05 bf ef 5d 84 3e
       -0.09111189 0.40944615 -0.5201656 0.25852916
0000a0 bd 81 a3 3e b3 bc 32 3f 3a 0d bc 3e ae ed 3b 3d
       0.3193492 0.6981918 0.3672884 0.045880966
0000b0 d8 4c ad 3e 08 c8 fe be 17 7d bb bd 18 e1 89 be
       0.3384769 -0.49761987 -0.09154718 -0.26929545
0000c0 9f 53 3b 3e 9f a1 f2 be de ab 9a be 1d 07 27 be
       0.18293618 -0.47388932 -0.3020925 -0.16311307
0000d0 12 1d b2 3e 4f fa b9 be 38 57 5c 3e 67 a4 86 3e
       0.34787804 -0.36323783 0.21517646 0.26297304
0000e0 a5 6f 51 be 8d 29 8a 3e fa 7d 5e bd 7f d0 27 bf
       -0.20452745 0.26984826 -0.05431936 -0.65552515
0000f0 fd bc 0d bf 41 32 09 bf ad 61 c5 be d8 8c 1d bf
       -0.553665 -0.53592306 -0.38551083 -0.61543036
000100 47 bb 28 3e bb 74 95 3c 74 56 90 be a6 8a 86 be
       0.1647769 0.018244138 -0.28190958 -0.26277655
000110 a2 31 bf 3e 03 2b a4 be 7b 95 74 3e be dc 0e 3f
       0.37342554 -0.32064065 0.23885147 0.55805576
000120 ab a5 55 3c ed 6e d3 bd 01 76 32 3e e3 43 01 3f
       0.013039987 -0.10323892 0.17427827 0.5049421
000130 ba 5b cd be e6 20 17 bd d2 dc d0 3e 06 08 27 bd
       -0.40109044 -0.03689661 0.40793473 -0.040779136
000140 fd 98 fd be aa 88 01 3c e1 22 86 3e d8 42 62 3d
       -0.49530783 0.007906118 0.26198485 0.05523953
000150 50 28 67 3e 31 28 c5 bc e0 a2 b9 bd eb 5a 79 3e
       0.22573972 -0.024067016 -0.09064269 0.24351089
000160 29 28 49 bd 70 e3 b2 be bb 6e 36 3d c7 da c1 be
       -0.049110565 -0.34939146 0.044539195 -0.37862226
000170 4b b2 8b 3e 9f 69 9c 3e 89 e3 8c be 6f 30 bd be
       0.27284464 0.30549332 -0.27517346 -0.36951014
000180 dd 2d 7c 3e af 79 50 be 3d 13 b2 3e 8b a7 db be
       0.2462687 -0.20358919 0.34780303 -0.42901263

weight f4 [15, 100]
000000 47 7e d0 3e c7 16 78 be cb 2f 37 3e e7 ff a6 be
       0.40721342 -0.24227439 0.17889325 -0.32617113
000010 18 2d 43 3e 3a 70 46 3c 21 0b 0a be 12 fb b8 3e
       0.1906017 0.012111718 -0.13480808 0.3612905
000020 fd 31 09 3e 5d 19 98 be 12 bb ae be b3 31 ba 3d
       0.13397975 -0.2970685 -0.34127098 0.090915106
000030 4b 8f fe 3e da 8f 47 3c 92 1e be 3d 7b 4b 85 3e
       0.497187 0.012180293 0.092831746 0.2603415
000040 b5 f4 7b be 83 1e 82 be 06 f8 33 3e aa c8 ff 3e
       -0.24605067 -0.25413904 0.17575082 0.49957782
000050 fe fb a0 3d 27 41 98 3e 43 78 8d 3e bd c4 a2 3e
       0.07860564 0.29737207 0.27630815 0.31790724
000060 d5 0c c0 be fc 85 37 3d ab 3b 22 3e 35 64 df 3e
       -0.3750979 0.04480551 0.15843074 0.4363114
000070 f7 8c d8 be ba cf 3c be 93 f4 78 be 01 14 ad 3e
       -0.42295048 -0.18438616 -0.24312048 0.33804324
000080 ba fe 40 be 6d 4a e9 be 6f ea 5e 3e 5b ec 8d 3e
       -0.1884717 -0.45564595 0.21769117 0.27719387
000090 85 63 d4 be e7 7c 74 3e c8 b7 aa 3e 6f 0b 71 be
       -0.41482177 0.23875771 0.3334334 -0.23539518
0000a0 fd bf 51 bd b9 fe c2 bd df 5e b9 be e5 b6 f9 be
       -0.051208485 -0.09521241 -0.36205193 -0.4877235
0000b0 b0 b2 a8 3e 18 7f cb 3e 3f c8 7a be 9e cb 2c be
       0.32948828 0.39745402 -0.2449045 -0.16874549
0000c0 09 8b 33 be d8 81 ba 3d 91 45 30 be 5f 61 77 3c
       -0.17533506 0.09106797 -0.17214037 0.015098899
0000d0 38 bd f8 3d 77 c8 86 3e 1b 47 db be 61 76 86 3e
       0.121454656 0.26324818 -0.42827687 0.2626219
0000e0 7d e9 e2 3e aa 36 de 3d b3 1a 85 3e b3 f5 20 bd
       0.44318762 0.1085027 0.25996932 -0.039296817
0000f0 c0 c8 d7 bd d4 1e 96 be 01 e2 bb 3e 43 f1 9d be
       -0.10536337 -0.29320395 0.36695865 -0.3084813
000100 cc c6 c2 3e db f9 88 3d 90 54 95 3b 43 fa 42 3e
       0.38042295 0.06688281 0.0045572 0.1904078
000110 d0 21 ed 3e bb 03 a9 3e 97 06 cf be f7 fe 0e 3e
       0.4631486 0.3301066 -0.40434715 0.13964449
000120 bd ad 53 be 53 b5 52 be e9 64 aa be ca 8b 67 be
       -0.20671745 -0.20576982 -0.33280113 -0.22611919
000130 50 a1 b0 be 98 2a 64 be 7d 7d 13 3e 57 02 4e 3e
       -0.34498072 -0.22281873 0.14403339 0.2011808
000140 b5 68 52 3e 27 7f 1b 3e 5d 1b bb bd 97 8f 8e be
       0.20547755 0.15185224 -0.091360785 -0.27843925
000150 0a 52 21 3d 89 88 2d be 9b d2 b5 bd 82 b8 0f be
       0.03938488 -0.16946615 -0.088780604 -0.14035228
000160 f9 85 24 3e 93 22 95 bd d5 ef bc bd 90 07 40 bd
       0.16066732 -0.07281985 -0.09225432 -0.046882212
000170 e3 67 f8 bc bf 2b a3 be 6f fd 82 be 82 bb 6b 3d
       -0.030322975 -0.31869313 -0.2558398 0.05755187
000180 bd 00 31 3e 9c 0e 9d bd dd b1 9f 3e 0d d3 5b 3e
       0.17285438 -0.07668802 0.31190386 0.21467228
000190 19 53 c7 be a3 fa bb be 92 d3 5c 3d fb 3f bd 3e
       -0.38930586 -0.36714658 0.053912707 0.36962876
0001a0 7f 42 76 3e 53 f3 45 3e f0 dc b8 be a3 88 84 3d
       0.24048804 0.19331102 -0.36106062 0.06471374
0001b0 69 6c 9a 3d 82 fa 2d be ab 3b 34 3e 30 b7 5d 3e
       0.07540209 -0.16990092 0.17600887 0.21651912
0001c0 58 76 82 be f2 76 4a be d0 15 cf be 1f 72 84 3e
       -0.25480914 -0.19771937 -0.4044633 0.25868317
0001d0 37 1c a4 3e e7 18 72 3d 48 99 90 3d e8 d2 80 be
       0.32052776 0.05910578 0.07060486 -0.2516091
0001e0 ff 68 dc be d6 40 a6 3e 30 f4 85 3e 9c bc 30 3b
       -0.43048856 0.3247134 0.26162863 0.0026967889
0001f0 e3 c7 45 bd 2b a0 0f 3e b8 32 99 3d 27 5f c9 be
       -0.04828633 0.14025943 0.07480377 -0.39330408
000200 77 51 e6 3d 1c e5 b9 bd 63 1c b2 be 35 09 36 3e
       0.11246007 -0.09076902 -0.34787282 0.1777695
000210 71 dc b1 3e c3 90 c1 3e ca e2 0a 3e d7 96 64 3e
       0.34738496 0.37805757 0.13563076 0.22323166
000220 f3 91 e7 bd 3f d6 f4 be a5 cf 0b 3e bb e5 0d 3e
       -0.113071345 -0.47819707 0.13653429 0.13857166
000230 0c 7e 37 3e 5f 1b cc be b7 4e 39 3e 53 a5 46 3e
       0.17919177 -0.39864632 0.18096434 0.19399004
000240 18 75 ab be a3 7f c2 be ad 2b 1c be 3d 38 22 3d
       -0.33487773 -0.37988004 -0.15251036 0.039604414
000250 cd c2 6b be 4f 2f 09 bd 6f 6d 86 be aa 2b b0 be
       -0.2302353 -0.033492383 -0.26255366 -0.34408313
000260 88 2b d5 3e c5 dd 98 bd 9f c9 8c be cf b0 d0 be
       0.41634774 -0.07464174 -0.27497575 -0.40759894
000270 47 90 b5 be cb 1e e0 3d 0a e2 3c be d5 6c 97 bd
       -0.35461637 0.10943373 -0.18445602 -0.07393805
000280 09 38 b3 bc e7 75 ac be 53 9e 05 3e be e1 28 3e
       -0.021877306 -0.33683702 0.13048677 0.16492364
000290 5f d0 b5 3e 4c d1 a8 3e cf 59 10 be 8e a1 c1 3e
       0.35510537 0.3297218 -0.1409676 0.3781857
0002a0 2d 9c 61 3e da d5 ba bd ea 03 c4 3e 9f 02 8b 3e
       0.22032233 -0.0912282 0.38284236 0.27150437
0002b0 0b d8 ea 3e 63 ea a3 3e a6 7a 89 3e f2 7e ba be
       0.45867953 0.3201476 0.26851386 -0.36424977
0002c0 d0 23 a8 be 5f 0a ee 3d 10 c2 d0 3d 17 38 99 3d
       -0.32839823 0.11623072 0.101932645 0.074814014
0002d0 6a b0 d5 bd d3 b8 7b bc e7 aa 35 bc 3a f8 75 be
       -0.10434039 -0.01536389 -0.01108811 -0.24020472
0002e0 7b cd 48 be 57 82 90 be 1b b2 10 be 82 2b e0 bd
       -0.19609635 -0.2822444 -0.14130442 -0.109457985
0002f0 53 14 af be 32 9a 6d bd 3f d5 aa 3e 93 1a 97 bd
       -0.34195194 -0.05800838 0.3336582 -0.073781155
000300 f7 19 90 3e 7f b3 36 3e 93 57 9b be bc 67 c1 3e
       0.2814481 0.1784191 -0.3034025 0.37774456
000310 88 e9 12 3e 24 c3 1a bd 6b 41 98 3e 58 c6 5c 3e
       0.14346898 -0.037783757 0.2973741 0.21560037
000320 3c b8 3c 3e 53 3d 9a bd 08 34 d2 be 55 ab 66 be
       0.18429655 -0.07531228 -0.41055322 -0.22526295
000330 13 3c 55 3e 1d f1 fb be 2d 97 f0 3d 27 66 b2 be
       0.20823698 -0.49207392 0.117475845 -0.3484356
000340 57 b2 00 be 41 8c 8c be e7 58 a8 be 33 bd e8 be
       -0.12568031 -0.27450755 -0.32880327 -0.45456848
000350 11 44 c5 3e 17 98 0c bf e3 ee fa 3e 4a 33 91 bd
       0.38528493 -0.5491957 0.4901038 -0.07089861
000360 4b f9 7c 3c f3 f9 67 3e da dc 64 3e 30 94 a8 3e
       0.015440295 0.22653942 0.22349873 0.32925558
000370 75 e2 00 3f 7b 84 cc bc 37 34 e9 3d d2 bc b0 3e
       0.50345546 -0.024965515 0.11386912 0.34519058
000380 bf 91 96 be a7 d2 22 be ca de ed be c4 3d c0 3e
       -0.2940807 -0.1590067 -0.46459037 0.37547123
000390 76 ea 42 3d c9 e0 80 3e ff 2a 19 3f 18 17 54 bb
       0.04758688 0.25171497 0.5983123 -0.0032362398
0003a0 33 83 9b 3e 50 b5 af be 90 8e 8e be b7 53 56 3e
       0.30373535 -0.34318018 -0.27843142 0.20930372
0003b0 21 a1 85 3e 6a ee 4c 3d 3f 12 36 3d 18 ae 6c be
       0.26099494 0.050032057 0.044450995 -0.23113286
0003c0 72 7c 8f be af ef 83 3e 3a 69 f4 bd 38 69 e9 be
       -0.28024632 0.25768802 -0.11934133 -0.45588088
0003d0 3f d8 0a bc cc fa 01 3f 5d ae e0 be 62 97 fc 3e
       -0.008474409 0.5077331 -0.4388303 0.49334246
0003e0 93 60 a6 be ef ed 47 3e 32 1c e5 3e 0b 5d d9 be
       -0.32495555 0.19524358 0.44748074 -0.424538
0003f0 4f 4e 6b be 33 c4 63 be bd 32 ad 3e 16 c6 3c 3e
       -0.22979091 -0.22242813 0.33827773 0.18434939

bias f4 [15]
000000 e8 b8 63 3e ab e0 d6 3d 4c 56 2b 3f 1f ad 47 3f
       0.22238505 0.10492071 0.66928554 0.77998537
000010 1c c4 3e 3f a7 4c 39 3f 89 2b c2 3e 53 23 96 3f
       0.7451799 0.7238259 0.3792384 1.172953
000020 61 01 b7 3e 37 48 52 3e fb 99 a1 3e b0 72 44 3e
       0.3574324 0.2053536 0.3156279 0.19184375
000030 ff c5 aa 3e 4a d2 19 3e c1 41 ca 3e
       0.33354184 0.15021625 0.3950329
