checkpoints/9feature_lstm_num_comm1799_an15_D5_al0.5_E5_B10_lr0.05_num_clients100_cf0.1.pth (torch, 228375 bytes, 9 tensors)

weight_ih_l0 f4 [400, 9]
00000000: e7e1 613e e0df 8aba 23b1 263e e1a4 3ebd
00000010: 5897 44bd 80c5 d8bd 8030 5f3d 4a9c 8abd
00000020: 2444 0cbe 7fc9 20be 283a f0bc 8654 01bd
00000030: a7f2 4a3d b81b 8abd 8d64 debc 5099 30bd
00000040: 032a d13d 7dff 9cbd bea0 913e 8361 d53d
00000050: e739 013e d02d 06bd 29de 9a3d 9516 113d
00000060: 782a 35be 4de5 5abd 1766 f3bd 3b35 3dbe
00000070: fb06 113e c504 6b3b dfe2 8cbd d31c 8b3d
00000080: 1a05 ee3c 93d3 d73d 4a31 ba3d 75ed 943d
00000090: 233f 6dbc ec71 173f 8470 c2bc c7b1 77bd
000000a0: 737d db3c 8bd2 003e 4bbf 603d 6dcb 7c3e
000000b0: 487d 32be 6f81 44bd 2f65 05be 7ff1 d3bd
000000c0: 5f49 923d f49e 1a3d 72ba da3d 43c6 4abd
000000d0: 4995 42bd 975b 23bd 78e7 64bc f35a 25be
000000e0: fdc0 dc3d 4b5b bdbc ef1a 41bb 9df2 9dbc
000000f0: 397e 053d 2d05 f43c 61de 863d 51bf 393c
00000100: 19bc acbd 1988 90bb 1283 6dbc f0e8 a03d
00000110: f44c 8c3d e149 aa3d 809d fbba a82e 8b3d
00000120: 9c17 18bd 1745 11be 17a0 c23d af65 2f3c
00000130: 7db6 8fbb 8a08 9239 2bb0 c93d f4a9 c0bc
00000140: 823b 78bd 128b 7f3b 4825 503d cd61 89bd
00000150: 159e 45bb 7048 513d 08bc 63bd 2b42 1b3d
00000160: 3c05 453d 6e9f c13d 8a36 28be 12ab 3bbe
00000170: b2e1 d03e ff5d 0fbe 25a3 b23d 9d81 763d
00000180: 57fe b53a 74ea b73d 84d9 23be 70d6 51bd
00000190: dbb5 3bbe ca51 303e 4375 a33d d821 97ba
000001a0: 1ac5 8abd f813 673d 01ed bdbc 06a9 243d
000001b0: a289 27bd b5c7 0cbd 4faf 5a3e e7dd 5b3d
000001c0: b163 82bb 3278 51bd c7bf 42bc 2fb4 233d
000001d0: 78fc df3c 0dd5 e53e 1d0e 12bd 7836 ef3d
000001e0: 6f6b ac3d d37c a73c fb4e 1abd 1890 6dbd
000001f0: 0336 f7bc 6fb4 a73c e5d4 393d be17 1cbe
00000200: 87ab ad3c b369 7a3c a852 ccbd 2030 58bc
00000210: ebc0 323e 2b7c a43d 004d fbbb 5daa 953d
00000220: c0bf 573b 9666 893e 1b04 c6bc bf06 a2bd
00000230: 94fa 37bd d29d dc3b 66ce 9abc 98fe eabd
00000240: 97ea b33d 5eb9 03be bd75 1b3e dbcb 123c
00000250: 37f9 a43d 8f94 133d 5358 813a 95d4 c6bd
00000260: cd03 9bbd 8251 d13d a2a0 10be 62fd 533e
00000270: c184 89bd 30d3 b03c 5f3b a3bc f880 e23a
00000280: 9f9f b3bb 9601 893d d015 d73d 57ba 09be
00000290: 0c86 46bd ea3b 8e3d bbff f0bc fe9e 493d
000002a0: 1750 9a3c 40a1 8eba 7634 923b 47c5 fe3d
000002b0: 6f19 13be ec0d 2b3d 71bc 943d 331b f23c
000002c0: 3f3a 843d 53d4 2cbd 0f4d cfbb 34a5 b1bd
000002d0: 16db 2bbe c7bd 113e 309b fbbd dceb bd3d
000002e0: fb73 483d f828 cbbd c51b 173d 27b4 853d
000002f0: e35a cc3c 7afd 7dbd b318 0cbe 6724 2d3d
00000300: 0749 7f3d 96c2 b1bb c894 babd d87a 9cbd
00000310: 9bab 9bbd fed1 89bd 7039 463e 6f48 5ebb
00000320: f0b7 dbbd 659f 4dbd 633d b03d 6b39 79bd
00000330: 2bff e93c 5b54 e1bd c70c 4ebd a3c3 003e
00000340: 0da6 e63b 47e7 5bbd 867c cb3d 4bc4 c13d
00000350: 16d9 0a3d fb3b 76bc c32e 24bd 4277 6fbd
00000360: 697d 3c3d b0ad b3bd 367a 933b fb81 5b3d
00000370: 933e 4abd 273a 8c3d 064c a8bc 936f cf3d
00000380: d28e d5bc f297 a83d af7d 4bbc dc08 35bd
00000390: f574 753c c2f2 8b3c 690f b63c 05be fc3d
000003a0: d56a 563d 5741 093d b877 6b3e e719 e3bd
000003b0: 40be 70bd befd 013d fb54 b13d 78cb a83d
000003c0: 3a39 763d c091 6e3d 3239 6abd 3544 cb3d
000003d0: 9469 44be 0cf0 adbb b468 ccbc 04dd a5bd
000003e0: 2ddc b9bd 3ba9 01be f09e 6d3d c7ac 3bbb
000003f0: cfbd 793d c2eb 86bc f733 143c 5562 e9bd
0.22058831 -0.0010595284 0.1627851 -0.04654396 -0.047995895 -0.10584545 0.054489613 -0.06768091
-0.13697869 -0.15701865 -0.029324606 -0.03157475 0.049547818 -0.06743568 -0.027147556 -0.04311496
0.10213091 -0.07665918 0.2844295 0.104189895 0.12619744 -0.032758534 0.07561905 0.035421927
-0.17691982 -0.053441335 -0.118847065 -0.18477337 0.14162819 0.0035860997 -0.0687921 0.06792607
0.029055167 0.105384015 0.090914324 0.07271854 -0.014480385 0.59158206 -0.023735292 -0.060472276
0.026793217 0.12580316 0.05486993 0.24686976 -0.17430604 -0.047975 -0.1302688 -0.10348796
0.07142901 0.037749246 0.10680093 -0.049505483 -0.04750565 -0.03988227 -0.013971202 -0.16147976
0.10778997 -0.023114821 -0.0029465517 -0.019280726 0.03259108 0.029787624 0.06585384 0.011337117
-0.08434314 -0.0044107554 -0.014496582 0.07856929 0.06850615 0.083148725 -0.0019196719 0.06796008
-0.03713189 -0.14186512 0.09503191 0.010705396 -0.004385768 0.00027853652 0.098480545 -0.02351854
-0.060603626 0.0038992804 0.050816804 -0.06708107 -0.0030154039 0.051094472 -0.055599242 0.0379049
0.048100695 0.09454237 -0.16427055 -0.18326977 0.40797192 -0.140007 0.087225236 0.060182203
0.0013885003 0.08980265 -0.16000944 -0.051229894 -0.18331091 0.172187 0.0798135 -0.0011530472
-0.067758754 0.056415528 -0.023184301 0.040200256 -0.04090274 -0.034370143 0.21355937 0.05367842
-0.0039791693 -0.051140018 -0.011886544 0.03996676 0.027342066 0.44889107 -0.03565799 0.11680311
0.08418929 0.020445263 -0.037672978 -0.057998747 -0.030177122 0.02047178 0.045369048 -0.15243432
0.021199955 0.01528399 -0.09976703 -0.013195068 0.17456405 0.08031496 -0.007669091 0.07307885
0.0032920688 0.2683608 -0.02417188 -0.07911443 -0.044916704 0.006732681 -0.018897247 -0.11474341
0.08784979 -0.1286368 0.15181632 0.008959736 0.080553465 0.03603035 0.0009868242 -0.097085156
-0.07569084 0.102206245 -0.14123777 0.20702127 -0.06714774 0.021585077 -0.019925771 0.0017280867
-0.005481675 0.066897556 0.10502207 -0.1344999 -0.04846768 0.069450215 -0.029418817 0.049223892
0.018837018 -0.0010881796 0.0044618202 0.124399714 -0.14365171 0.041761324 0.07262505 0.029553985
0.06456422 -0.042194676 -0.006326325 -0.08674088 -0.16782793 0.1423255 -0.12285459 0.09273502
0.048938733 -0.099199235 0.036891717 0.06528502 0.024945682 -0.062009312 -0.13681297 0.042271044
0.062325504 -0.005424808 -0.09110409 -0.07640618 -0.076010905 -0.06729506 0.19357848 -0.0033917686
-0.10728443 -0.05020084 0.086054586 -0.060845774 0.028564056 -0.11002418 -0.050305154 0.1257463
0.0070388378 -0.05368736 0.0993586 0.09461268 0.033898436 -0.015028949 -0.040083658 -0.058463342
0.046018038 -0.08773363 0.0045006527 0.053590756 -0.04937608 0.06847029 -0.020544063 0.10128703
-0.026069079 0.08232106 -0.012420102 -0.044197902 0.014981498 0.01708353 0.022224145 0.12340931
0.052347977 0.03350958 0.22994888 -0.11088925 -0.058775187 0.031736128 0.08658787 0.082419336
0.06011317 0.058244467 -0.057183452 0.09925119 -0.191809 -0.005308157 -0.02495227 -0.08098796
-0.09075198 -0.12662213 0.058012903 -0.002863692 0.06097203 -0.01646984 0.0090455925 -0.113957085

weight_hh_l0 f4 [400, 100]
00000000: f645 853d 6698 873d 958a 913d 3e56 36bd
00000010: 47fb 9fbd 0a7e b43c 1449 cb3b 10dc 1a3c
00000020: e326 bebc 259e 8abb f3ca 22bc d7a0 bdbc
00000030: 54d3 26bd 4a2c 803d 148b 9abc 338a 323d
00000040: 2f09 85bd bea6 3e3d 2802 cc3d 178e c13d
00000050: 9248 563d 92dc e13b cf67 30bb ad97 47bd
00000060: d0df 78bd eb91 b4bc 08e4 833d 21e0 acbd
00000070: ffb4 873d 16b3 883d 8abf 613c 7748 7cbc
00000080: 9c9d b33c 2362 0dbc f8e3 cd3d 7673 2bbd
00000090: 38e9 8abd 4292 6a3d 28d8 d73d 79e6 96bc
000000a0: 9cd6 89bc 9ba1 e2bd f58e a23c 635e 063d
000000b0: b88e 603d 75ea f43d cf7d 9cbd 48a0 ecbc
000000c0: 0f11 a8bd f705 b73d 9014 ebbc 3264 a63d
000000d0: a00b e73c 1a94 7f3d cd80 58bc e341 213d
000000e0: d4d7 a53d ea26 ec3c e4eb 473d db99 c6bd
000000f0: 0d3f d4bd 135b 833d 9298 b43d 6ad5 a1bd
00000100: 2fa3 9c3c 23c5 8cba f3f4 1fbc 8d54 8fbd
00000110: 9344 943c 35b4 36bd bb23 18bd a788 0d3b
00000120: edd8 b23b a9eb 40bb 16ca 833d bccc a63c
00000130: c87a 9ebd 0c09 2abd 4a0e 7ebd c4ce 8ebd
00000140: ff21 363a 3b47 ea3c 47b5 843d 0187 cbbd
00000150: 13da 973d 37d6 d9bb b06c 5d3d d84a 2f3d
00000160: ef6c 65bd 08c1 5b3d c2e8 8a3c 2fa9 a93c
00000170: 3391 473d ca1c 4c3d 3110 4bbd 4518 d2bd
00000180: 595a 0d3d eb9d 57bc e763 79bd 2921 823d
00000190: 870f d2bb db53 bf3d 604a c0bd 0abb 103d
000001a0: 1810 713d c83a 253b 35c4 7d3c 315e b43d
000001b0: 670d a13d 7b88 9dbd aff1 753d ba74 223d
000001c0: bb54 2cbc 13bf 373c dc91 833d a002 51bd
000001d0: 1dbc b13c d3f8 cbbc 889e 9abd 4b2f b33c
000001e0: e3f8 fb3b b32b 553d aac2 723d 62f0 6cbd
000001f0: 878c 8e3d 1e5e 273c e785 9e3d 5a3c 543b
00000200: 1b5e c0bd 1761 7a3c 57f5 233d 5d78 6dbd
00000210: 55d7 0cbd 63e3 0bbc 8f40 bdbd 8f53 583c
00000220: ca9b 76bd a0bd 0ebd 42e2 99bc 30e2 cc3a
00000230: 0dee 0bbd 4eeb 283d 4f67 40bd bdb8 9ebd
00000240: b357 bf3d 9b4b b9bd 53f8 9e3d 90aa 7fbd
00000250: 6b5d aebd 3fc1 c23d a8bd e13d 1573 66bd
00000260: 9aa3 963d 0745 b7bd 4368 c03d 90e4 9ebb
00000270: f482 3e3d 6cc6 90bd 40d5 9dbd dba6 91bd
00000280: 298b 0b3d 9ae1 4e3d 87e5 8dbc f32a abbd
00000290: 2f6f aabd 66f9 943c f1bb 89ba cb33 8b3d
000002a0: 1343 393d 6f35 d7bc 736c a73d 9b50 0f3d
000002b0: 4f98 4cbc 82a9 7fbd a5da cf3d bf4e 843c
000002c0: 1fc4 a83d 245a 873d b0da dbbc 776a 6a3c
000002d0: 9239 72bd e32b d4bd 7792 0fbd a3cc b93c
000002e0: 4f30 7ebd 11a9 113d 431a a63c 2d0d adbd
000002f0: be14 983d f4ef 22bd 9b04 613d 7e10 0dbd
00000300: ca08 69bd 0436 b1bd 3507 cebc e3dd 2bbd
00000310: ea5a c1bd 0758 f7bc fd92 a0bd 5d42 983d
00000320: b3c6 c03b 6370 a4bd d584 d6bd 32b7 a7bd
00000330: acf9 c23c 6b2a 72bc 731a 6f3d 8a85 ca3d
00000340: 9807 f93c d75c 5fbd 59d7 b63d f7d8 893d
00000350: f51a 893d d848 823a 2a31 32bd b360 87bd
00000360: 1716 e6bc c453 b63c 0587 71bd 9ed2 91bd
00000370: 4333 613d 7dcd 0c3d 4e6a 403d 18b4 543d
00000380: a501 4fbd 408b 06be 8f93 d3bd da3a 76bc
00000390: 37a3 83bd 6ce1 b33d 8141 bdbd 7f35 8b3c
000003a0: 91ba 43bd adf4 cd3d 2c41 923d 85f3 36bd
000003b0: 7aaa 1d3d a3ee 7dbd 558f b33d 700f 643d
000003c0: 383f 943d 986d 86bc 37f9 debc 6648 c7bc
000003d0: d28d e8bd 6982 ac3c 0def 16bc 787a 50bd
000003e0: 6f1e 3fbd cbd8 363d 5fd3 803d d61d b73d
000003f0: b099 683d 05ab c0bc 1d70 953d 0253 a53d
0.065074846 0.066208646 0.071065105 -0.04451584 -0.07811599 0.022032756 0.00620378 0.009451881
-0.023211902 -0.004230278 -0.009936082 -0.023147983 -0.040728882 0.062584475 -0.018865146 0.04358883
-0.06495892 0.046545736 0.09961349 0.094509296 0.052315302 0.006892749 -0.0026917343 -0.048728634
-0.06076032 -0.022042235 0.06439978 -0.08441187 0.06626319 0.06674783 0.013778577 -0.015398136
0.02192574 -0.008629355 0.10053247 -0.04185816 -0.06782764 0.05726839 0.105392754 -0.018420445
-0.016825967 -0.1106598 0.019843558 0.032804858 0.054823607 0.11958782 -0.076411836 -0.028885022
-0.08206379 0.089366846 -0.028696328 0.081245795 0.028203785 0.0623971 -0.013214302 0.039369475
0.080978066 0.02882715 0.048808947 -0.09697314 -0.103635885 0.064138554 0.08818163 -0.079020336
0.01912078 -0.0010739904 -0.00976299 -0.06998549 0.018099105 -0.044605453 -0.03714345 0.0021596344
0.0054579885 -0.002943734 0.06435029 0.020361297 -0.077382624 -0.041512534 -0.062025346 -0.06973031
0.0006947815 0.028598418 0.064798884 -0.09937859 0.07414641 -0.006647851 0.05405873 0.042795986
-0.05601209 0.053650886 0.01695669 0.020710556 0.048722457 0.049832143 -0.04957599 -0.10258535
0.03450999 -0.013160209 -0.06088629 0.06353981 -0.0064105424 0.09342166 -0.09389186 0.035334624
0.05885324 0.0025212038 0.015488674 0.08807028 0.078638844 -0.07692047 0.06004494 0.0396621
-0.010518248 0.011214989 0.06424305 -0.051027894 0.021696145 -0.024898922 -0.07549769 0.021873137
0.0076895817 0.052043628 0.059267677 -0.057846434 0.06960397 0.01021531 0.077403836 0.0032384605
-0.09392949 0.015281937 0.040028896 -0.057976115 -0.034385044 -0.0085381 -0.09240829 0.013203516
-0.060207166 -0.03484881 -0.018784646 0.0015631374 -0.03416257 0.04124003 -0.046973523 -0.0775008
0.09342899 -0.09047624 0.07762208 -0.06241852 -0.08513912 0.09509515 0.11022502 -0.056262095
0.07355423 -0.08948713 0.09394886 -0.004849024 0.046511605 -0.07069096 -0.0770669 -0.07111903
0.03406826 0.05050812 -0.017321361 -0.08357801 -0.08321988 0.018185329 -0.0010508281 0.06796988
0.045229983 -0.026270596 0.08174982 0.03498898 -0.012487485 -0.062417515 0.10149125 0.01615083
0.08240532 0.0660899 -0.026837677 0.01430761 -0.059136935 -0.10359933 -0.03505179 0.022680586
-0.06205779 0.035561625 0.020276194 -0.08449779 0.07425831 -0.03977962 0.054936033 -0.034439556
-0.056893148 -0.08652881 -0.025149921 -0.041959655 -0.094411686 -0.030193342 -0.07840536 0.07434533
0.005883062 -0.080292486 -0.104745544 -0.081892386 0.023800693 -0.014780621 0.058374833 0.09888752
0.030399129 -0.0545319 0.08927793 0.06730836 0.06694595 0.0009939922 -0.043503918 -0.06610241
-0.028086705 0.02225674 -0.058966655 -0.0712025 0.054980528 0.034375656 0.04697638 0.051929563
-0.050538678 -0.13139057 -0.10330879 -0.01502868 -0.06427615 0.0878323 -0.092410095 0.016993282
-0.047785345 0.10056434 0.07141337 -0.044665832 0.038492657 -0.06199516 0.08767573 0.055678785
0.072386205 -0.01640968 -0.027218444 -0.024326514 -0.11355175 0.021058278 -0.009212268 -0.050898045
-0.046659883 0.044640344 0.06290316 0.08941238 0.056787193 -0.023519048 0.072967745 0.08072473

bias_ih_l0 f4 [400]
00000000: 6411 033e 3540 fe3d 152d e73d c5bb 7e3d
00000010: f596 1abc 136c 7cbb 1845 cf3d e8b9 a6bd
00000020: 7ff0 6e3d b748 a2ba 853a 753a 5e09 8d3d
00000030: ce2b 8b3d 04a8 c1bd dc34 bb3d 07ec 383d
00000040: b439 193d baa1 093e b8bf e13d df84 e63d
00000050: 2474 ccbc 836d 863d a3f4 c23d a767 413c
00000060: bc7a 213d 37df 21bc 3b37 f43c 058e 9f3d
00000070: 9867 3b3d d4c9 0b3e afff 7b3d 5a44 503d
00000080: 6aed 40bd 3249 fb3d 432b acbc 3aa3 083c
00000090: 5a7c 7e3d dfb5 213e b83d 23bd 3339 03bd
000000a0: 0cb8 90bd e07d d63d 9021 143e b5bb d4bd
000000b0: 1a51 52bd 2c94 4abd 7719 ec3d 5639 48bd
000000c0: 0d34 0c3e 5ff8 473c 538f bf3c 3f23 e63c
000000d0: dd51 373d b353 89bd c034 adb9 cb1e 38bd
000000e0: 579c 8a3d 5a44 d93c 531c c73d 4ba3 52bc
000000f0: ed08 cbbc a0a6 fd3d d6d0 c23c 0c90 82bd
00000100: cd8e 6fbd 7ba0 ce3d 399f 303c 8f58 893d
00000110: 374f b73d 822b 71bd 929f c23d 7f49 043e
00000120: 95d4 293e 8ad1 dc3d 006e 6f3d 3b5a 8abd
00000130: 27c6 b0bd 25eb 60bd 5703 333c bd97 5cbb
00000140: f065 4e3c 0a92 953c 3e4c 8e3d f3d5 423c
00000150: b997 813c c74c cfbc d577 82bd 2fdf 703c
00000160: 40f6 be3c e2ba abbc e7fb 8d3b bbb1 7e3d
00000170: 97c9 a0bc 03b0 7e3d 3df3 763c 1d07 de3d
00000180: da87 21bd 68ca a23d 609e 733d fda1 be3b
00000190: a08b ee3d b789 713d 73b0 323d 7b25 813d
000001a0: d8a0 0f3d 550c e7bc f958 2d3d f9aa 2d3d
000001b0: b364 273d a501 6fbc a0ce 56bd 4d54 e33d
000001c0: cd33 be3d 1879 b7bd a6c4 42bd a767 db3d
000001d0: 4e3d 973d 5fad 333e b167 b03d 78ef f73d
000001e0: c22e 243e 8dd5 3bbc 1b96 18bd 7af9 6fbd
000001f0: 2dd1 0b3d f7b5 2bbd 1ffb 3f3d 9179 033e
00000200: 7acf df3c 339c c23d a7b7 c53d b566 c53d
00000210: 30e0 7f3d 8a17 5a3d 4b46 bb3d 826b a63c
00000220: 776a 36bd 4829 e93d 5037 123e ea6c 8cbd
00000230: eb2f bc3d 33f3 c8bc ac38 923d 2708 0c3e
00000240: 6ffb f93d 5c66 8e3c be61 c2bc 55db 723d
00000250: 8240 ec3d cf87 383d 1509 8f3a 58cc 61bd
00000260: 077e 72bd 673f 973d a75d 063e be52 b23d
00000270: da1c cd3d 5d22 65bd c34e 0b3d 2f0b 213c
00000280: 1b04 c53d 7e55 a63c fc9e 133e 4054 a63d
00000290: c193 223d 5a27 293e 62e3 ed3c eb9a a4bd
000002a0: e618 013e f5e4 fbbc 64e4 19bd 3845 fc3d
000002b0: a67c 90bc dfd8 293d da15 7f3d e3a1 5a3d
000002c0: 770b ea3c cbe6 333d e594 933d dba1 8abc
000002d0: d614 213d 3b8c 47bd d431 cabc ea84 bcbc
000002e0: 063e 0a3d 1016 fa3d e1e8 0d3e 9a0c 09bd
000002f0: a7b6 d33d 54cc 973d b06a e33d 608e ff3b
00000300: b062 243c a08a e63b cbaf 3dbd a55a e73a
00000310: f58b 9b3c 0109 ca3d c22c 6dbc cd1d dfbb
00000320: 1f0e 3bbe 3ddc 013d a7db 60be 44c1 c83d
00000330: 171c 91bc 237a 7d3a 3d9f 67be ce06 b23d
00000340: 0151 48be 7ee3 233e 6aa7 753d 70c9 393e
00000350: a84f bf3d 0efc 2b39 073d 103e 1c8b 91bd
00000360: 0306 4f3d babc 10be c76c de3d ba8d 023e
00000370: 8540 f0bd 40a2 ca3d a023 5bbe fde5 53be
00000380: 1295 8bbe 100a c8bd c3f3 313e 19fe 843e
00000390: 5d5d 273e 17f6 ff3d 8e6c 80bd f0a0 30bd
000003a0: 8b04 67bd 5fde ca3d 09ab cabd d590 e43c
000003b0: ed3f 573e 0aae 5bbe 002d 7d3d ebd1 bf3b
000003c0: 9c9d 42be 117a 03bd 27f6 02be ab88 023e
000003d0: 2645 06be faa4 133e ff51 5b3d 277c e6bd
000003e0: b463 09bd 1f3b cd3d 8ec8 2ebd 9f96 3f3e
000003f0: 58a1 cbbd 1ad9 7b3d 638d 033e 9328 a93c
0.12799603 0.1241459 0.112878956 0.06219079 -0.009435405 -0.0038516566 0.101206005 -0.081409276
0.058334824 -0.001238129 0.00093547284 0.06886552 0.067954645 -0.094558746 0.091409415 0.04514697
0.037408546 0.134406 0.110228956 0.11255812 -0.024957724 0.065638565 0.09519317 0.011804498
0.03942369 -0.009879879 0.029811492 0.0779076 0.04575309 0.1365121 0.061523136 0.050846435
-0.047101416 0.1226982 -0.021016723 0.0083396975 0.06213031 0.15792035 -0.03985378 -0.03203697
-0.07066354 0.104732275 0.14465928 -0.10387365 -0.051346876 -0.049457714 0.115282945 -0.048882805
0.13691731 0.012205212 0.023383772 0.028092979 0.044755805 -0.067054175 -0.00033036433 -0.04495124
0.06768101 0.02652185 0.09722199 -0.012856315 -0.02478453 0.12385297 0.023781221 -0.06375131
-0.058485795 0.10089203 0.010780149 0.06706344 0.08950656 -0.058879383 0.09503092 0.12918662
0.16585 0.10782154 0.058454514 -0.06755491 -0.086315446 -0.05491175 0.010926089 -0.003365978
0.012597546 0.018258113 0.06948136 0.01189183 0.015819417 -0.025305165 -0.063705124 0.014701649
0.02331078 -0.020963136 0.0043330076 0.062181216 -0.019627376 0.062179577 0.015072641 0.108412005
-0.0394362 0.07948762 0.05947721 0.0058176504 0.11647725 0.058969226 0.043625306 0.06305977
0.035065502 -0.028204123 0.04232118 0.04239938 0.04086752 -0.014587794 -0.052443147 0.111000635
0.09287224 -0.08958644 -0.04755082 0.107131295 0.0738474 0.17546605 0.086135276 0.12106222
0.16033462 -0.011464489 -0.037252527 -0.05858753 0.034135032 -0.041921582 0.046870347 0.12839343
0.027320612 0.09502449 0.096541695 0.096387304 0.06246966 0.053245105 0.09144267 0.020314936
-0.044535127 0.11384827 0.14278913 -0.06856711 0.09188827 -0.024530029 0.071397156 0.13674985
0.1220616 0.017382793 -0.023728248 0.059291203 0.115357414 0.045051392 0.0010912741 -0.055126518
-0.05920222 0.0738514 0.13121663 0.08707188 0.100152686 -0.055940975 0.03401066 0.0098293265
0.09619924 0.020304438 0.14416116 0.08121538 0.03969169 0.16518918 0.029039089 -0.08037361
0.12607154 -0.030748824 -0.037571326 0.1231789 -0.017637562 0.04146659 0.0622767 0.053377043
0.02856992 0.043921273 0.07206134 -0.016922882 0.03932651 -0.04871772 -0.024681963 -0.023012597
0.033750556 0.12211239 0.13858368 -0.033459283 0.103375725 0.07412019 0.111043334 0.007798955
0.010033295 0.0070355684 -0.046310227 0.0017650916 0.018987635 0.098649986 -0.014476003 -0.0068089725
-0.18267106 0.031704176 -0.2195879 0.098024875 -0.01771359 0.0009669384 -0.22619338 0.08692704
-0.1956215 0.1600475 0.05997411 0.18143249 0.09341365 0.00016401728 0.1408578 -0.07106611
0.050542843 -0.14134493 0.108605914 0.12749377 -0.11731056 0.09894228 -0.21400309 -0.20693202
-0.2726217 -0.09767544 0.17378144 0.2597511 0.16344209 0.1249811 -0.06270705 -0.043122232
-0.056400817 0.09905695 -0.098959036 0.027901093 0.2102048 -0.2145311 0.061810493 0.0058538816
-0.19005436 -0.032098833 -0.12789212 0.12747447 -0.13112316 0.14418402 0.053544994 -0.11254149
-0.03354235 0.10021042 -0.042671733 0.18709801 -0.09942883 0.06148634 0.12846904 0.02064923

bias_hh_l0 f4 [400]
00000000: 971b 1d3e 1da1 80bb 5867 913c f29b d33d
00000010: 6ae6 b13d c779 acbc 5563 6c3d 87b7 903c
00000020: d73d 4a3c 3a57 e83c 83f7 873c 3c05 0f3e
00000030: 872c 5c3c 32cd a3bd bd3f 8abc d77f 013d
00000040: ad5e af3d 30da 5f3d e7ec 113e 41aa 9e3c
00000050: b6f1 283d a341 8b3d b00c 4f3d 4787 913d
00000060: df2d 193e 731f f73d db8c c23b d28e dcbc
00000070: 7bcc b23c 84a3 02bd 8a62 843d 4bab c63c
00000080: 43b9 23bd 81a4 9e3b f4fa b13c a012 6b3d
00000090: bf31 e03d ef80 913d b8d0 68ba 8089 423d
000000a0: 7d4b 33bb 172c 2e3c 802f 213e c0a3 6ebb
000000b0: 63bf c63d 1210 893d 4545 39bd 2fea 15bd
000000c0: 47bb bbbc b88b 48bd 7408 a83d 60f3 f93d
000000d0: 5d03 153b c6c3 873d ae87 b63c d708 0e3e
000000e0: 9b77 9d3d a8de d3bc cff8 b5bd ea0f 16bd
000000f0: 8393 fa3c cf0a 3cbb 3791 f13d 4adb eb3d
00000100: 7b96 bbbb 7067 f83d 7e5c b03d 6265 f23d
00000110: 17e5 ae3d 9af7 aa3d c36e 4bbd a029 973d
00000120: 90f4 94bb 93a9 ecbc 15c5 883d ab1d 89bd
00000130: bb77 ce39 7bb5 083d 739e d13c 2d2c 813c
00000140: 744b bf3d bd5c 573d ed0a 20bd 8846 a6b9
00000150: fb3a 843c faf2 9f3c c6fb a8bc d23f 023e
00000160: a874 cd3c 13ee 8abd 3bff 7e3c 2f4f 613b
00000170: 2527 13bd 10fa d3b9 7d57 5a3d bba4 e6bc
00000180: cd4b c73b 0722 683d b86f 63bd 65ef df3d
00000190: f770 713d 0982 c53d fb0b edbb c374 a63d
000001a0: 12c8 733d 9dfd e53d e3e0 5a3c b3b6 45bd
000001b0: ef8c c23d 1d8c ce3d d10e 23bb 3d74 da3d
000001c0: cd33 cb3d 771b 873b 68de 733c fb55 b23d
000001d0: 988e 8a3d 4890 ca3d d706 7c3d 5883 fa3d
000001e0: b230 073e 6f33 1d3e d8cf 9f3d 224e 01bd
000001f0: 6b44 9c3d 367f c03d 7512 f73d d080 95bc
00000200: 3d98 d53d c332 ed3b e243 a13d f5af d33d
00000210: 903c 933d 5fe5 753c 080b a63c 0b0d e43d
00000220: f8ca f53d 8849 ef3d f504 bdbc 53f7 77bc
00000230: e0f3 15bc 2811 ddba d8cb ff3d c703 da3d
00000240: fbd6 2fbd 0aff b73a 7c3f 013e bb27 2bbd
00000250: ebc0 efbc 3dc6 50bd 9a70 dc3d 7892 f13d
00000260: b189 9ebc 4af0 64bd 4dd2 533d 5301 25ba
00000270: 0218 863c 5447 893b b5a0 3f3d 4954 b43d
00000280: e3aa f3bc 31f3 0f3e df28 cf3d e3ee b73d
00000290: 477e e9bc 1fd2 2c3d be4e 283d 38ac 11bd
000002a0: eb0b 213d 1005 793d d37d 3c3c 30ef 543d
000002b0: 6782 ce3d 059a 05bd 80ce d33d 78ee 7abd
000002c0: 2022 aa3d 93eb d53d efe3 1b3e f59b 2cbd
000002d0: b569 34bd 5d03 be3d 5096 58bd d26d 00bd
000002e0: 6fd7 18ba 721d 383d 47c1 b93d e7ba b5bc
000002f0: 5fbf 613c 9dce 80bd bf21 af3b 72b5 d13c
00000300: 6aec 023e cb88 e13d 7f73 9b3d 06d2 093d
00000310: 88df fb3c a8c5 683d 93c9 5fbd 5354 f53d
00000320: 1fe2 46be d8dd 053e e303 4bbe e888 183e
00000330: 9ff3 1ebe 3f53 08be 9a8a 81be 862b 123d
00000340: c421 8dbe 86aa 473e eb60 c2bc d4a5 083e
00000350: 6f6e 433e a723 94bb e384 ac3d 57eb d63d
00000360: cfa9 bebd 6a77 0cbe fd2f e83d ea4c 133e
00000370: 6fe2 f0bc ea8e 693e f252 22be a292 89bd
00000380: 2f5b 9fbe 185d 36be 9dde 593e cdaa 683e
00000390: 8c63 8e3d cb87 1f3e 2b83 57be cc50 3cbe
000003a0: a0eb 29bd 5ade 603e dad2 43be 30a5 2d3d
000003b0: f25f 9e3d 9a1d 4fbe fdf4 ca3d 3d58 553d
000003c0: 9842 afbd a302 0dbe 0036 e8bd c7ec d7bc
000003d0: 6af9 7bbd a7d5 b73d cd5b 103e 5b63 55bc
000003e0: 5c57 29be dc91 b93b fabe 96bc 5074 dd3d
000003f0: 3282 0ebe c011 7bbd 56e8 9b3d 6d18 8139
0.15342556 -0.003925456 0.017749473 0.103324786 0.08686526 -0.021054162 0.057711918 0.017665638
0.012343845 0.028361905 0.016597515 0.1396684 0.0134383505 -0.07998122 -0.016876096 0.03161606
0.0856298 0.05465144 0.14250527 0.019368293 0.04124614 0.067996286 0.05054921 0.0710588
0.14958905 0.12066545 0.0059372014 -0.02692357 0.02182602 -0.031894222 0.06464107 0.0242516
-0.0399716 0.0048413877 0.02172611 0.05739081 0.10946988 0.0710467 -0.0008881199 0.04749441
-0.0027358227 0.010630629 0.15740776 -0.003641352 0.09704473 0.06692518 -0.045232076 -0.036600288
-0.02291645 -0.04896137 0.08204737 0.12204623 0.00227376 0.06629138 0.022281494 0.1387056
0.076888286 -0.025863007 -0.08885347 -0.03663627 0.030587917 -0.0028692966 0.11795276 0.115164354
-0.005724726 0.12129104 0.086113915 0.118357435 0.08539789 0.083480075 -0.049666177 0.07380986
-0.0045457557 -0.028889453 0.066782154 -0.06695112 0.00039380588 0.0333762 0.02558825 0.015768135
0.093405634 0.052578676 -0.03907292 -0.00031714537 0.016141405 0.01952504 -0.020627867 0.12719658
0.02508004 -0.0678369 0.015563781 0.0034379472 -0.035926003 -0.00040431367 0.05330609 -0.028154721
0.006082034 0.056673076 -0.055526465 0.10934333 0.058945622 0.09643943 -0.007234094 0.08127739
0.059516974 0.112300135 0.013359281 -0.04826994 0.09499537 0.10085318 -0.0024880657 0.10666702
0.099219896 0.004123147 0.014884569 0.08707806 0.06765479 0.09890801 0.06152996 0.12232083
0.1320217 0.15351652 0.07803315 -0.031568654 0.07630237 0.093992636 0.12064067 -0.0182499
0.10429428 0.0072387173 0.07874276 0.103362955 0.07189286 0.0150083 0.020268932 0.111353
0.12001604 0.11683947 -0.023073653 -0.01513465 -0.009152383 -0.0016866075 0.12490052 0.10645252
-0.04292963 0.00140378 0.12621874 -0.041785937 -0.029266795 -0.050970305 0.107636645 0.11795515
-0.019352766 -0.05589322 0.05171423 -0.0006294448 0.01636887 0.004189411 0.04678412 0.088051386
-0.029744571 0.14057614 0.101152174 0.08981111 -0.028502597 0.042192575 0.04109072 -0.03556463
0.039318006 0.060795844 0.011504608 0.05198592 0.10083466 -0.032617588 0.10342121 -0.061262578
0.0830729 0.10445323 0.15223669 -0.04214092 -0.044046123 0.09277985 -0.052877724 -0.031354733
-0.0005830442 0.044949956 0.09070068 -0.022183849 0.013778537 -0.06289408 0.005344599 0.025599215
0.12785497 0.11012419 0.075903885 0.03364756 0.030746236 0.056829125 -0.054635596 0.11978974
-0.19422196 0.13072908 -0.19825701 0.14895976 -0.15522622 -0.13313006 -0.25301057 0.03568604
-0.27564824 0.19498643 -0.023727855 0.13344508 0.19085096 -0.0045208517 0.08423784 0.10494106
-0.09309732 -0.13717428 0.11337278 0.14384809 -0.029404847 0.22808424 -0.15851954 -0.06717421
-0.31124255 -0.1780895 0.21276326 0.22721405 0.06952581 0.15579145 -0.2104613 -0.18390197
-0.041484475 0.2195982 -0.19123402 0.042393863 0.07733144 -0.20226136 0.09910009 0.052086104
-0.085576236 -0.13770537 -0.11338425 -0.026358021 -0.061517157 0.08976298 0.14097519 -0.0130241765
-0.16537231 0.0056631397 -0.018401612 0.108132005 -0.13916853 -0.061296225 0.07612674 0.00024622996

weight f4 [100, 100]
00000000: 5245 f93d 73e5 cc3d b813 cd3c b751 14bd
00000010: f086 bdbc d69b 95bd 2bd6 91bd 2003 2c3b
00000020: ac62 0dbd f28c d03c 8d74 40bd 483a 5c3d
00000030: 027d d5bc a87e d0bd f556 6d3b 5b60 82bd
00000040: b015 043d 3b7c f0bc ed64 4ebb d417 1b3d
00000050: c72d 243c 3525 dbbd 15be 4d3d f36b 2c3d
00000060: 3a6b c7bc 104e da3d 4d29 53bb 6a05 47bc
00000070: 050b d6bd 4281 17bd 0204 bd3c ea2c ce3d
00000080: 63ef e63c abcc 6cbd 8296 42bd fe0c 8dbd
00000090: 9fa9 53bb db5b 90bd 92e8 0d3d 7cad bb3d
000000a0: 3bdf b73c 7b4e 313d 2980 9ebc 8bb6 123d
000000b0: 6356 f33c a337 c3bd e793 71bd 46f2 a9bd
000000c0: 264e c8bc 97cc 7b3d 54a0 803c e566 7a3d
000000d0: bf33 60bd b325 a33d 07ed d13d 2333 90bd
000000e0: ae74 1e3d 9083 1b3e 7045 febc 37e7 ca3d
000000f0: 5862 2cbd 004b 2abd f7df b1bd 5e3d 94bd
00000100: 40f6 b8bd df69 11bd a54c d1bd 90ec d1bd
00000110: 17d3 8c3d 5f52 d63d 0723 963d 525c 2c3d
00000120: c3af 5cbd 2358 363d 936a 173d 77b6 4e3d
00000130: f5b7 c53d f263 efbd 97b3 ef3d 95e2 003e
00000140: 4ffa 553d 332d e83d 5a1d d2bd 28a9 b7bc
00000150: e5a4 243d 4923 b33c 1c1b 953d e70f b6bc
00000160: b626 373c 434e de3d 3a67 b13c ca37 343c
00000170: 18c8 403d 4dc6 983d 6b3d e13b d2a3 093c
00000180: b2d7 943d 3f4a 3b3d 0875 03be f87f 8ebd
00000190: 1536 0f3d 53e5 863d 26dc 8a3c 3315 5cbd
000001a0: 87e1 26bd 8d3a 9ebd 2ac0 babd c7bc 90bc
000001b0: f8bb ba3c 4fb7 5f3d a851 43bd a83b a4bb
000001c0: cd9c c33c 4aae 003d 8b7a 5fbd 92d4 17bc
000001d0: 4103 bf3d dacb d2bc ed7e 893d 4b11 7c3d
000001e0: b701 09bd a37d 963d 43d3 973d 17ab dc3c
000001f0: f919 0abd 544f 973c 6d60 f1bc 18b5 ab3d
00000200: fda6 54bd 1d15 12bd bd3f 153d 8f60 793d
00000210: 33be b73b 70de 113d 3deb bdbd 63cf 80bd
00000220: 508c db3b 3ba3 28bc 42b0 863d 5ba3 8d3d
00000230: f79d a43a f6bc 9b3d 675d c2bc 6495 1cbc
00000240: 52fe b6bd dd18 6f3d fdad e73c 083b a23d
00000250: 757c 7fbd ae42 b23d 83dc 5e3d 75e1 b03d
00000260: 4677 1fbc 6911 b83d 7ff3 38bd 47f4 963d
00000270: 18f7 8cbd ef6e 95bd 7085 c1bd 93c0 2d3c
00000280: aa97 543d 3056 533d a7e6 8cbc 66a2 35bd
00000290: 2277 90bb 930f a6bd 8d1a bfbd dd4a 753d
000002a0: bb61 a13d c3ef 823c be73 c33c cff0 963c
000002b0: 0a39 c1bd ab6b 983d 3752 3b3c 6360 a43d
000002c0: f70f 70bd c352 5fbb 420d 7cbd b590 b23d
000002d0: 9028 7dbb 1156 943d 33f4 cc3c 3dfa 63bd
000002e0: 52c6 f3bc 8bae c43d 3717 86bd 9bb8 903c
000002f0: 16a5 0cbd 9d25 7fbc 97ad af3d 2f38 ab3d
00000300: 2377 c43d ed3f c8bd 507d cbbd b7e0 05bc
00000310: bba4 913d b8ae 0cbd d343 88bc b516 3a3d
00000320: f18c 0bbe 00c3 7ebd 1f53 48bd f719 b83d
00000330: 9f19 233d c3cf 7e3d 83d9 b0bd 9723 ec3d
00000340: 4905 bd3d fa88 c33d 5943 40bd ed0a 5e3d
00000350: 2fdc 84bd 0fe2 373e 3883 db3d 2c99 b83d
00000360: 08cc ff3b c7ca 91bd 77ef 9e3d a036 9f3c
00000370: b835 653d 4380 a83d 052a ebbd 3e76 b6bd
00000380: 8724 7c3d 25ff 0c3d e6ca 9b3d 6386 ccbd
00000390: 0570 983d 036d 0c3e c7ee 03bd cbd5 70bd
000003a0: 18cb a0bb 9713 97bb 3682 cbbd f1ac bd3d
000003b0: e546 8abd af38 993d 930c 463c 96ff 16bd
000003c0: c37b 8f3d 204f ffbc ca75 fdbc c284 02bd
000003d0: 1686 a83d f08c 523c 75b1 903d 38f0 243d
000003e0: 9fd4 18be 54df 813d 93e5 3bbc 93f9 b93c
000003f0: 9d2d 783c 6105 43bd cd75 dabd fd7c 69bd
0.12171425 0.100047015 0.025033817 -0.03621074 -0.023135632 -0.07305114 -0.071209274 0.002624698
-0.03451793 0.025457833 -0.04698615 0.05376652 -0.026060585 -0.10180408 0.003621516 -0.063660346
0.032247245 -0.029356113 -0.0031493262 0.03786452 0.01002068 -0.10700456 0.050230104 0.042095136
-0.024343122 0.106594205 -0.0032220662 -0.012147287 -0.104513206 -0.036988504 0.0230732 0.100671604
0.02819032 -0.057812374 -0.047506817 -0.06887244 -0.0032297147 -0.0704877 0.034645624 0.09163949
0.022445312 0.043287735 -0.01934822 0.035818618 0.029704278 -0.09532096 -0.05897894 -0.08298163
-0.024451327 0.06147441 0.01570145 0.061133284 -0.05473685 0.07966175 0.102502875 -0.070410036
0.038685493 0.15186906 -0.03103897 0.09907382 -0.042085975 -0.04157543 -0.08685296 -0.07238267
-0.090313435 -0.035501357 -0.10219697 -0.10250199 0.068762 0.1046493 0.073309 0.04208023
-0.053878557 0.044517647 0.03696687 0.05046698 0.09654228 -0.11688985 0.11704176 0.12586434
0.052240666 0.11336746 -0.102595046 -0.022419527 0.04019632 0.021867411 0.07280561 -0.02222438
0.011178663 0.10854771 0.021655668 0.010999629 0.047065824 0.07459698 0.0068737767 0.008400874
0.07267703 0.045725103 -0.12837613 -0.06958002 0.034963686 0.06586709 0.016950678 -0.053731155
-0.040742423 -0.077260114 -0.09118684 -0.017668141 0.022794709 0.054618176 -0.047685295 -0.0050119944
0.02387848 0.031416215 -0.054560225 -0.009266989 0.093267925 -0.02573197 0.06713662 0.06153993
-0.0334489 0.07348182 0.07413342 0.02693705 -0.033716176 0.018470444 -0.029464925 0.0838415
-0.051917065 -0.035664666 0.03643774 0.0608831 0.0056073903 0.035612524 -0.09273384 -0.06289556
0.006700076 -0.010292823 0.06576587 0.06915923 0.0012559284 0.07604401 -0.023726178 -0.009557102
-0.089352265 0.05837332 0.028281206 0.079214156 -0.06237455 0.087041244 0.054409515 0.086367525
-0.009733027 0.08987696 -0.04515409 0.07370811 -0.06883067 -0.072965495 -0.09449279 0.010604995
0.05190245 0.051595867 -0.017199827 -0.04434433 -0.004408733 -0.08108439 -0.09331236 0.05988585
0.07879969 0.015983468 0.023858901 0.018425373 -0.094347075 0.07442411 0.011433176 0.08026197
-0.058608975 -0.003407643 -0.06153608 0.08719007 -0.0038628913 0.07242978 0.025018787 -0.055658568
-0.029757652 0.09603604 -0.06547397 0.017666152 -0.034337126 -0.015572933 0.085780315 0.083603255
0.09593036 -0.09777818 -0.09936011 -0.008171252 0.07111498 -0.034346312 -0.016633904 0.04543181
-0.13627984 -0.062197685 -0.048907395 0.089893274 0.039819356 0.062209856 -0.08635237 0.11530226
0.09229524 0.095476106 -0.046939228 0.05420964 -0.06487309 0.17957328 0.10718387 0.0901359
0.007806305 -0.07118755 0.07760518 0.019435227 0.055959433 0.08227589 -0.11482624 -0.08909272
0.061558273 0.034423012 0.07607059 -0.0998657 0.07443241 0.1371346 -0.032210138 -0.05879764
-0.004907023 -0.0046104896 -0.09936945 0.092615016 -0.06751803 0.07481515 0.012087959 -0.03686484
0.070060275 -0.03116566 -0.030939955 -0.03186489 0.082287 0.012850985 0.07065097 0.040268153
-0.14924859 0.063414246 -0.011468309 0.022702014 0.015147594 -0.04761255 -0.10667 -0.057003964

bias f4 [100]
00000000: c76d 89bb bbc2 0d3d 88d7 5fbc 4aba 05bd
00000010: b1c4 94bd d345 0abb d2f7 97bd eee5 303d
00000020: 4550 68bd 33df 9dbd 275b cdbd df32 2c3d
00000030: a7e5 c9bd 2b70 b63d 2a1d 52bd baee 99bd
00000040: ad3e c93d 1011 e33c b2df 143d c89c 8fbd
00000050: 0485 c33b 6d28 5fbd 4803 fa3c 90ad eabc
00000060: 1be0 ad3d f4ac bcbc 3b58 85bd 436c 123c
00000070: 67e6 bfbc d9b0 b73d 2793 223d 8aab 60bd
00000080: 4715 943d a530 69bd 3dbb 3cbd a5a3 ecbc
00000090: d0a4 303c 1f7d b0bd 2d27 7c3d 4e5e 83bd
000000a0: f4d2 bcbd aeab 8d3d e5b2 763d 9a9a a43d
000000b0: b788 d63c 1de6 4fbd 2275 bebd 0d06 11bd
000000c0: 9b89 b439 1780 603c cfae 9abc 2b1a 5fbd
000000d0: c0a2 a6bb 358d cc3d e6c6 36bc 6b78 c5bd
000000e0: b530 3fbc e29e 6fbc 9dc5 32bd fbb9 cd3c
000000f0: da84 7b3d 3771 6b3d 23cd 9cbd 6f5b 7c3d
00000100: cfc4 653d 9cb8 9a3c 48b9 58bd fbe4 8a3d
00000110: 507d 6ebc ca7c 35bd 4658 343d 6361 b3bc
00000120: eddb e5bc 86e9 17bd bad1 a9bd b2b1 f83b
00000130: 48b8 40bd 0790 18bd a826 a1bd 2d21 f9bb
00000140: eb87 0a3c 577a f4bb fd21 933b 0925 a13d
00000150: a344 763c 67fd e33c fb09 b33b 1539 55bd
00000160: e9c1 ba3c 697f 903d aa35 e2bc df31 a53d
00000170: eb51 b53c fc6f 9a3d ab27 ff3c 872a abbd
00000180: 7a62 03bd 8ff1 f63c 908b 493d 3b86 9f3d
-0.0041939947 0.034609538 -0.0136622265 -0.032648362 -0.072640784 -0.0021098747 -0.07420315 0.043188028
-0.056717176 -0.077085875 -0.100271516 0.042040702 -0.09858256 0.08908113 -0.051297344 -0.075162366
0.098264076 0.027718097 0.036346145 -0.070123255 0.0059667844 -0.054481912 0.030519143 -0.028647214
0.0849001 -0.02303169 -0.06510969 0.008936944 -0.023425294 0.08969278 0.039691117 -0.054851092
0.07230621 -0.056931157 -0.046077 -0.028886626 0.010781482 -0.08617615 0.0615608 -0.064144716
-0.092199236 0.06917511 0.0602292 0.080373004 0.026188238 -0.050756563 -0.09299685 -0.03540616
0.000344348 0.013702414 -0.018882183 -0.054468315 -0.0050853193 0.099878706 -0.0111558195 -0.096421085
-0.0116693275 -0.014625283 -0.04364549 0.025113096 0.061405994 0.057481017 -0.07656314 0.061610635
0.056095894 0.018886857 -0.052911073 0.06781956 -0.014556244 -0.04430846 0.044029497 -0.021897024
-0.02805897 -0.03708794 -0.08291955 0.0075895423 -0.047050744 -0.03724673 -0.07868701 -0.007602832
0.008455257 -0.007460873 0.0044901357 0.07868392 0.015031013 0.027830793 0.0054638362 -0.05205639
0.022797542 0.070555516 -0.02761348 0.08066153 0.022133788 0.075408906 0.031146845 -0.08357721
-0.032076336 0.030144481 0.049205363 0.07789274

weight f4 [1, 100]
00000000: f2c9 9ebe 9d29 87bc 9a06 c53e f1f3 26be
00000010: 0723 f23d e2e9 4abe 3d54 f33d fe39 a63e
00000020: e016 eebd fdb7 083d 675e 233e 1a81 103e
00000030: 4f73 b33e af8b e33d 6d09 053e f66c ab3e
00000040: 898d 89be 67ea 3c3d 0207 5dbd 174d 7bbe
00000050: 3fd6 6abd 256e c1bd 0455 8cbe 0d87 a73e
00000060: efec ebbd e356 663e 4256 e5bd c249 c4bd
00000070: 17c8 ff3d 3df7 7e38 2d89 64be eccc adbe
00000080: baf1 633e 7378 a9be 4d40 94be 0318 fe3e
00000090: 503f 223e 572c d3bc 75c4 5abd 10f1 e13c
000000a0: f06a dcbc 517c 85bd 227c de3e 974f fd3c
000000b0: 77bd 843e 65a3 903d fd02 573d ddb8 4ebe
000000c0: d93d 27be 41c0 ab3e 437b 0bbb 01fb 163e
000000d0: 785d 7cbe 5baf cf3e bafa f43c 32e8 813e
000000e0: c882 4e3e a37b 9fbe dde2 5dbe 9f10 8f3e
000000f0: 4389 2d3e 089a f9be bdb8 b3be 7280 e5bc
00000100: 6d35 bbbe 032b 92be 2ff1 a83d 3232 0ebe
00000110: 60e9 f3be 0a52 9d3e 5e76 803e 4bd5 0cbe
00000120: 26dd 90be 83d0 273d e7bf bcbd 0eaa 9a3d
00000130: d21d db3c cd3e 00be fb4f bdbe 84a2 b8be
00000140: b6d1 37ba cfb3 143c 0b9a a23e 5b7b a73d
00000150: cd28 38be 38eb cdbe be65 babe 56bc 9d3e
00000160: b723 163d 6363 d5bc 27c0 f7bd 4537 5c3e
00000170: 974d 2dbe 052b 603e 9733 fcbe 5388 37bd
00000180: c305 b9bc fb7d 41be a156 81bc 5dfb cf3d
-0.31013447 -0.016499335 0.384816 -0.16303994 0.11823087 -0.19815782 0.118813016 0.3246612
-0.11625457 0.03337859 0.1595398 0.14111748 0.3504891 0.11110627 0.12991877 0.33481568
-0.26865795 0.04612198 -0.05396176 -0.24541126 -0.057333227 -0.094448365 -0.27408612 0.32720223
-0.11519801 0.22494082 -0.11198093 -0.09584381 0.12489336 6.0788578e-05 -0.22317953 -0.33945405
0.2226018 -0.33099708 -0.28955308 0.49627694 0.15844464 -0.025777979 -0.053410012 0.027580768
-0.02690646 -0.06517852 0.4345408 0.03092174 0.259258 0.07062415 0.052493084 -0.20187707
-0.16332187 0.33545116 -0.0021283187 0.14744188 -0.2464503 0.40563473 0.029904712 0.25372463
0.20167077 -0.31149015 -0.21668573 0.27942368 0.16946892 -0.4875033 -0.35101882 -0.028015349
-0.36564198 -0.2854844 0.08249127 -0.13886335 -0.47638988 0.30726653 0.25090307 -0.1375324
-0.28293723 0.040970337 -0.0921629 0.075519666 0.026747618 -0.12523957 -0.36975083 -0.3606149
-0.00070121454 0.009076073 0.3175815 0.08177825 -0.17984314 -0.4021852 -0.36405748 0.3080775
0.036655154 -0.026048368 -0.12097197 0.21505459 -0.1692413 0.2189141 -0.4925811 -0.044807743
-0.022585755 -0.18895714 -0.015788378 0.101553656

weight f4 [15, 100]
00000000: e3a7 cebe b7d7 f3bd b1e8 a03e 2abe 7dbe
00000010: 60c4 9f3c 4942 823e b413 8fbe b383 f63d
00000020: c8b1 883e 4a06 7cbd 9884 b4be 7816 5c3e
00000030: 5090 c63e 5dc5 c43e 5394 6b3d 5f4a c6be
00000040: ec70 813e ef5b 4a3e 1052 56be 4bd2 9c3e
00000050: ecde 443e 13c0 aa3e f097 d73e 7058 d53e
00000060: dd52 48be b56a 02bd 5460 38be 22e5 db3e
00000070: e6b4 c83d aba8 d23e 5df5 cb3e dbae 89bd
00000080: 6eac ae3e 6d3c 8cbb 2d96 8d3e 0dac 523e
00000090: e4f0 0b3e 5f8c 84be a4ac 36bb 5b1f b5be
000000a0: 2b6b 6a3e d3e4 efbc 24c9 103e 8cb6 9c3d
000000b0: 3214 4bbe d2cd dabe 0082 dcbd f36a fcbc
000000c0: edb8 8dbe 45ab 67be 86e8 373e 9790 d9bd
000000d0: 67d0 4dbe 9059 fdbe 77d7 983e 6f35 703e
000000e0: b341 56be 6561 58be 756d a13e b714 37be
000000f0: a2b1 b1be 4f8e 2b3e 3261 9e3e ffa3 f0bd
00000100: 6078 833e 7a95 41be 0cea 813e 4c91 a03e
00000110: d515 c23e 1b10 98be 00fe e83e 8351 eabe
00000120: 93ce 34be 867c 8dbd 5d50 71be 6725 9ebe
00000130: 5a5a 7bbe 2d21 853e 12e2 d1bd 934d b8be
00000140: 5deb 97be d859 9bbe e8db ac3e 1770 43bd
00000150: db29 42be db09 863e 998c 9e3e 3fcc 983e
00000160: e3ce 3e3e fb91 8ebd fa17 f8bd dbb9 033d
00000170: e9a6 823e 488c 253e 15f2 62be 0cdc 943e
00000180: 71c1 8ebe eeaf a8be 6170 aa3e aba7 43be
00000190: a54b 803e 6b66 94bd 1fa4 5cbe 5b6f eb3d
000001a0: ddf6 c7be ef31 5a3e e0d2 bf3e 4c30 c23e
000001b0: e1de 8d3e a366 9f3e 10db d43e bfec 733e
000001c0: 1309 8f3e 2b66 e8be d6a7 8e3e d740 b0be
000001d0: ef4f bc3e 8a34 e73e cf7d 95be f36d ca3e
000001e0: 5b1f 19be 97ec c83e f7a2 efbe 2e20 16bf
000001f0: 62b3 eabe acb2 8fbe 20c5 583e 8cb9 16bf
00000200: 45f8 b0be cba6 67be e9dc b3be 07ef a33d
00000210: 5270 90be 2f0a ca3e fb3f 043d 8852 9c3e
00000220: 2bad 003f 8281 d1bd 82ee a13e 1548 083f
00000230: d710 d33e 56e3 bcbe 232d af3e 75bc 493e
00000240: f87d ffbc c42f 033f 9b3f dd3d cb1f c83d
00000250: 47fe 57be ab29 af3e 6086 ecbe c8c7 b9be
00000260: f264 7bbd d7c8 b33e eda8 07be 1f9a 72be
00000270: b263 a83e 5c23 913d 83c9 293e 4526 70be
00000280: 4897 ecbe f544 eb3e fab8 3cbd 0d8f f1be
00000290: d5b8 033f e0a6 5abe 5f4e 32be 74d4 373e
000002a0: ac3d bb3e 185a d8be 374c ecbe 504d ddbd
000002b0: 5d6f c0be d32c 023f 5d76 c83e 321e 843c
000002c0: 9229 13be 8eeb 09be 1069 f6be 41e0 0fbf
000002d0: 093b 823e 3431 cbbe 33cb be3e 33d3 f1be
000002e0: 50bf ff3e 6256 cc3e af7f 063f e23d d23e
000002f0: 2ecb 0dbe ab5e bdbe d5f6 313c 75e2 123d
00000300: 3e8d 423e 506c 0c3e 881f d1bd 4fb8 22be
00000310: 2eed 99be 5dcb 17be 3f87 6a3e 9f93 60bd
00000320: 2a34 42be ab51 cf3e 61d7 a03e 2d25 e33e
00000330: 02d9 d0be 7047 c8be 8777 06bf e6ef a4be
00000340: b687 08bf f306 98be b561 60be 5240 ed3e
00000350: c330 743e bbdd 6e3e c786 d3be 1739 31be
00000360: 7f4f 9a3e 9582 863e 4fbc 8ebe 6629 4b3e
00000370: 8557 b63e f8f3 74bd 01e8 87bc 374f ad3e
00000380: eff8 41be deb7 163f 629f df3e 9162 2dbc
00000390: 530b 88bd 86b3 a03e b311 9a3e b3e9 2dbf
000003a0: a20c ae3e b8b9 a6be 3069 1bbf 0718 ffbe
000003b0: fb78 0fbf 95b4 ca3c f757 84bd 9100 1cbf
000003c0: 3b7d abbe 1ee1 ad3e 173e 833e cdf8 1dbc
000003d0: 0ba2 ff3d c021 6bbe ebfb efbd 43a4 83be
000003e0: 0b18 04bf 222c db3c bf62 ed3e 0ba0 b23e
000003f0: 9792 cfbe aebe 95bd af87 ed3e 71df b03e
-0.40362462 -0.11906379 0.3142753 -0.24779573 0.019502819 0.25441197 -0.2794472 0.120368384
0.26698136 -0.061529435 -0.3525741 0.21492946 0.38781977 0.38431826 0.0575145 -0.38728616
0.25281465 0.19761632 -0.20929742 0.3062919 0.19225663 0.33349666 0.42108107 0.41669035
-0.1956286 -0.031840045 -0.18005496 0.42948252 0.09800129 0.41144308 0.39835635 -0.06722804
0.34115928 -0.0042796643 0.27653638 0.20573445 0.13666111 -0.25888345 -0.0027873898 -0.35375485
0.22892444 -0.029283917 0.14139229 0.076520056 -0.19831923 -0.42735153 -0.10766983 -0.030812716
-0.2768015 -0.22623928 0.17959794 -0.106232814 -0.2009903 -0.49482393 0.29851887 0.23457883
-0.209235 -0.21130903 0.31528822 -0.17878996 -0.34705836 0.16753505 0.3093353 -0.1175003
0.25677776 -0.18904677 0.25373876 0.31360853 0.37907282 -0.29699787 0.45506287 -0.45765314
-0.17656927 -0.069085166 -0.23565812 -0.3088791 -0.24546185 0.26001874 -0.102481976 -0.35996684
-0.29671755 -0.30341983 0.33761525 -0.04771432 -0.18961279 0.26179394 0.30966642 0.29843327
0.18633609 -0.06961437 -0.12113948 0.032159667 0.25517967 0.16166794 -0.2216266 0.29074132
-0.2788196 -0.32946724 0.33288863 -0.19106929 0.25057712 -0.07246097 -0.21546982 0.11495849
-0.3905553 0.2130811 0.37465572 0.37927473 0.27709106 0.31132993 0.4157338 0.2382078
0.2793661 -0.45390448 0.27862424 -0.3442447 0.36779734 0.45157272 -0.29197547 0.3953701
-0.14953367 0.39243004 -0.4680402 -0.5864285 -0.45839983 -0.28066003 0.21168947 -0.5887687
-0.34564415 -0.2262222 -0.3512948 0.08004575 -0.28210694 0.39460894 0.03228758 0.30531716
0.50264233 -0.1022978 0.3162728 0.5323499 0.41223785 -0.36892194 0.34214124 0.19700797
-0.031187996 0.5124476 0.108031474 0.09771689 -0.21093093 0.34211478 -0.4619627 -0.36285233
-0.061375566 0.35114166 -0.13248034 -0.23691605 0.3288856 0.070868224 0.16580777 -0.23452099
-0.46209168 0.45951048 -0.046074845 -0.47179452 0.51453906 -0.2135272 -0.17412709 0.17952138
0.3657049 -0.42256236 -0.46151897 -0.10805762 -0.37584963 0.50849646 0.39152804 0.01612768
-0.14371327 -0.13468763 -0.4812703 -0.5620156 0.25435665 -0.39685977 0.37264404 -0.47231445
0.49950647 0.39909655 0.5253858 0.41062838 -0.13847038 -0.36986288 0.010862072 0.035860498
0.18999192 0.13713193 -0.10211092 -0.1589062 -0.30063766 -0.1482367 0.22903155 -0.054828282
-0.18965212 0.40491995 0.3141432 0.443643 -0.40790564 -0.39117002 -0.52526134 -0.32214278
-0.5333208 -0.29692802 -0.21912272 0.46338135 0.23846726 0.23326771 -0.41313764 -0.17306934
0.30138776 0.262715 -0.27878043 0.19840011 0.35613647 -0.05980298 -0.01659012 0.338495
-0.18942617 0.5887431 0.43676287 -0.010582582 -0.06642785 0.31386966 0.30091628 -0.6793472
0.33994013 -0.32563567 -0.6070738 -0.4982302 -0.56043977 0.024744311 -0.064620905 -0.60938364
-0.3349398 0.33960813 0.25633308 -0.009641838 0.12482079 -0.22962093 -0.117179714 -0.2571126
-0.51599187 0.026754443 0.463644 0.34887728 -0.40541527 -0.0731176 0.4639258 0.34545472

bias f4 [15]
00000000: 2dff de3e 3094 cd3e 1f63 413f 7854 853f
00000010: b86a 883f 7a43 703f 6bf4 2b3f 39ec 903f
00000020: ea71 d3bd 7f6f 64be 4310 83be ba9a 54be
00000030: b7e5 67be a37b cfbd 5fcd f2bd
0.4355406 0.4015212 0.7554187 1.0416403 1.0657568 0.9385296 0.6716983 1.132209
-0.10324462 -0.22308157 -0.25598344 -0.20762148 -0.22646223 -0.10131004 -0.11855578
