checkpoints/9feature_lstm_num_comm999_an15_D5_al0.5_E5_B10_lr0.05_num_clients100_cf0.1.pth (torch, 228375 bytes, 9 tensors)

weight_ih_l0 f4 [400, 9]
00000000: 2129 263e 3f7a 2cbb d9e3 193e 2ba6 42bd
00000010: f7ef 32bd 98db e0bd 9f58 6a3d d82f 8abd
00000020: 6648 0bbe 9d88 20be 5948 99bc 5728 c7bc
00000030: 7bc4 4b3d e78c 8bbd 3fe0 21bd a9a0 2cbd
00000040: 2bb4 cb3d 2d4c 99bd abf5 953e e7c2 cd3d
00000050: 87cd 043e cb7b f5bc 3d8b 953d eb3d 293d
00000060: 1f5d 33be 6f5d 5abd 505f efbd 4fd1 3abe
00000070: 42c1 0a3e cb31 903c 5ac9 86bd f38e 823d
00000080: d20f 033d 171d d93d bf3e b33d b8c7 923d
00000090: 163c 0ebd 528b db3e d8fd 86bc 9ae0 57bd
000000a0: 9bca 90bb fd83 d83d 87d6 773d 3820 503e
000000b0: b03e 09be 5ae2 cdbc c3ab f9bd 3a1c d6bd
000000c0: 2aa2 813d 9f55 2d3d ddd8 d73d 03c9 57bd
000000d0: 51c9 2ebd 4377 1dbd 50de 01bc d705 27be
000000e0: 37e0 c53d 1eb4 babc a2c7 4dbb c819 9fbc
000000f0: 1381 073d 187f e23c b79a 883d 0090 0e3d
00000100: cda8 a6bd c319 04bc 854c 84bc 5719 963d
00000110: c097 873d dd80 ac3d 1fd2 69bc 11c1 973d
00000120: 248f 3bbd 42c9 0fbe b785 9f3d d026 593c
00000130: 1381 a3bb 6073 a83b fa74 ca3d 37f4 d1bc
00000140: 45e8 76bd 1b9a 9d3b faf1 353d 6a49 76bd
00000150: f3fd 3dbc 2312 593d 2742 68bd 0b52 163d
00000160: ea30 333d 4bf8 bd3d 9195 92bd 2744 40be
00000170: f38c ad3e b8b9 ecbd 3a3a 8a3d cf74 603d
00000180: 6a10 ed3b 7f6a 503d 5b79 0dbe 178f 7dbd
00000190: 9ea8 2cbe bffe 283e af42 a53d c31d 0a3c
000001a0: 723b 52bd 7076 593d 6717 81bc c656 083d
000001b0: 0d53 81bc 5be7 6dbd 80d0 4c3e 5a67 923d
000001c0: d812 cabb 4d6a 00bd b3a3 81bc 7719 123d
000001d0: c023 a43c c270 c63e 7d6a 1abc 82ec f73d
000001e0: f5f0 9b3d f765 f43c 7632 42bd 2741 61bd
000001f0: 7579 f7bc a896 ac3c 8261 383d 655f 1dbe
00000200: 2363 3f3d 6384 093c a42c c7bd cd22 7abc
00000210: 849a 323e d7ce a53d 044e 00bc 4bba 993d
00000220: 879b 653d 9de6 773e f5df 60bc 1921 babd
00000230: 0079 70bd c584 043c f8af a9bc e20d e7bd
00000240: 5a3b ce3d 3329 0fbe 7631 1b3e 4758 0a3c
00000250: 0b53 a53d 977e 223d d3cb 2dba a7b0 c3bd
00000260: 4b6f 9fbd d09f c03d 3dbe 11be fce2 4a3e
00000270: ffa9 8cbd 0ffe b63c e06c 96bc 98e8 fd3a
00000280: 6c97 9cbb 7751 8a3d 6868 ac3d 23f6 fcbd
00000290: ae6f 11bd e364 903d 702c f1bc 5308 4b3d
000002a0: d0f3 a93c 40b1 52bb 305e fb3a b984 cb3d
000002b0: 3703 04be ba76 ed3c 8eea 8d3d 15cc 103d
000002c0: 03f1 823d ff1d 2abd b31c 8cbb b1e1 aebd
000002d0: e521 1ebe bf06 043e 2f8c f4bd c30d b73d
000002e0: 9999 4a3d d176 c1bd f36d 123d d0c4 8a3d
000002f0: 25c8 c63c 2cfd 13bd 288b 0ebe d2c4 f03c
00000300: 7317 833d e8ac eebb d7cf b7bd 767a 9bbd
00000310: fbc1 a7bd bd78 85bd a4da 3f3e 764a 0aba
00000320: 1dc1 d2bd 10df 54bd d9d3 b03d 17c1 7ebd
00000330: 0d3f f73c 5b3e e2bd 3f48 49bd 88c1 003e
00000340: a703 cd3a 0fd4 5ebd 2ef9 be3d b09e c43d
00000350: ff3e 093d 4fd2 70bc f782 1fbd 75bf 69bd
00000360: 1a58 803d b5d0 a4bd 8b98 86bb 8bf6 433d
00000370: 020d 40bd d341 903d c32f bbbc d350 d13d
00000380: 753d d5bc c29a a43d f550 60bc 6ada d4bc
00000390: 7362 353c 4263 a33c a38d 8b3c 3b0b fd3d
000003a0: 1d99 583d fb09 073d 5342 6b3e 3c46 c0bd
000003b0: 45fd 77bd 9c07 043d 258b b33d 5f10 aa3d
000003c0: 7231 783d 383e 673d cf82 6bbd a1b0 b73d
000003d0: 5bdd 3bbe 353d babb f5cc e5bc 9977 a2bd
000003e0: 1704 bebd f718 01be 97af 6c3d abc3 27bb
000003f0: 1f43 833d e55a aebc 61c4 be3c 807a e9bd
0.16226627 -0.0026317982 0.15028323 -0.04752175 -0.04368588 -0.10979384 0.057213422 -0.06747407
-0.13601837 -0.15677114 -0.018711256 -0.024311228 0.049747925 -0.06813984 -0.0395205 -0.042145405
0.09946474 -0.074852325 0.29288992 0.1004694 0.12969027 -0.029966256 0.07301948 0.041318815
-0.17515992 -0.05331176 -0.11688101 -0.18243907 0.13550285 0.017601868 -0.065813735 0.06374922
0.03199751 0.106012516 0.08752202 0.071669996 -0.03472527 0.4287973 -0.016478464 -0.05270443
-0.0044186837 0.1057205 0.060507324 0.2032479 -0.1340282 -0.025132347 -0.12190964 -0.104546025
0.063297585 0.042317983 0.1053941 -0.052681934 -0.04267246 -0.038443815 -0.007926539 -0.16310821
0.09661906 -0.022790965 -0.0031399508 -0.019421473 0.03308208 0.027648494 0.066701345 0.034805298
-0.08137665 -0.008062783 -0.016149769 0.07329052 0.06620741 0.08423016 -0.014271288 0.07409871
-0.045790806 -0.14041618 0.07789176 0.0132538825 -0.004989752 0.005140707 0.09885593 -0.025629146
-0.060280103 0.0048096306 0.04442022 -0.060128607 -0.011596191 0.052995812 -0.056703713 0.036699336
0.04374782 0.09275874 -0.07157434 -0.18775998 0.33896598 -0.115588605 0.06749387 0.054798897
0.0072346227 0.050882813 -0.13815825 -0.06190404 -0.16861197 0.16503428 0.080693595 0.008429947
-0.051326223 0.053091466 -0.01575823 0.03328588 -0.015786672 -0.058081966 0.20001411 0.07148619
-0.006166797 -0.031351376 -0.015825128 0.035668816 0.020036578 0.38757902 -0.009424803 0.12105657
0.07614318 0.029833777 -0.047411405 -0.054993775 -0.030209282 0.021067932 0.045014866 -0.15368421
0.046725404 0.00839338 -0.097253114 -0.015267086 0.17441756 0.08096092 -0.0078311 0.07506236
0.056056526 0.24209066 -0.0137252705 -0.09088344 -0.058709145 0.008088295 -0.020713791 -0.11281945
0.10069914 -0.1398056 0.15155587 0.0084438985 0.0807248 0.039671507 -0.00066297984 -0.09555178
-0.07784899 0.09405482 -0.14232726 0.1981315 -0.06868362 0.022337941 -0.018362463 0.0019371687
-0.004778793 0.067538194 0.084183514 -0.12351634 -0.035506897 0.070504926 -0.029440135 0.049568485
0.020746142 -0.0032149106 0.001917785 0.09937424 -0.12891851 0.028987277 0.069295034 0.035350878
0.063936256 -0.041532513 -0.004275882 -0.08539141 -0.15442617 0.12893198 -0.119408004 0.08938172
0.04946289 -0.094464906 0.035749387 0.0677582 0.024265358 -0.036130115 -0.13920271 0.029390726
0.06400957 -0.0072837956 -0.08975189 -0.07591717 -0.08191296 -0.065171696 0.18735749 -0.0005275378
-0.1029074 -0.05197054 0.08634157 -0.062195864 0.030181432 -0.110470496 -0.049141165 0.12573826
0.0015641347 -0.054401454 0.09324871 0.0960058 0.033507343 -0.014698579 -0.038943257 -0.057067353
0.06266804 -0.0804762 -0.00410754 0.047842544 -0.046887405 0.07043805 -0.022849923 0.10220494
-0.026030282 0.0803733 -0.013691177 -0.025983054 0.011070835 0.01994479 0.017035311 0.12355658
0.052880395 0.032968502 0.2297452 -0.09388396 -0.06054427 0.03223382 0.08766774 0.08303904
0.06059403 0.05645582 -0.057497796 0.08969236 -0.18346159 -0.005683566 -0.028051833 -0.07932968
-0.09278124 -0.1260718 0.057784643 -0.0025598805 0.06409287 -0.021283576 0.023287 -0.11400318

weight_hh_l0 f4 [400, 100]
00000000: 4bdd 7c3d eeab 8c3d fbb7 923d a748 24bd
00000010: 1abc 9ebd 97ba a23c 05c5 893b 2d27 ff3b
00000020: a516 cebc cd4a f3bb 25ca 4ebc 8575 b1bc
00000030: e3f3 2abd ca65 843d 075b b2bc 70af 423d
00000040: 9c3b 86bd 0253 4a3d 4a31 ce3d 9653 c13d
00000050: 485b 6b3d db82 9a3b 90fd a338 9f81 3bbd
00000060: 3854 6fbd 1190 99bc f823 833d 73f7 a8bd
00000070: ca21 8d3d 363f 943d a2a4 733c 436a 9abc
00000080: 4eee c03c bb15 debb 47ef c13d aa29 31bd
00000090: cb51 91bd 272f 7e3d e0cb d63d 2362 b0bc
000000a0: 2a9e 74bc 7529 dcbd ff52 9d3c 3f56 fe3c
000000b0: 275b 753d fb64 ef3d 8721 97bd ef39 00bd
000000c0: 2a58 a3bd 0f9b b23d c263 febc 5cd4 aa3d
000000d0: 1de2 dd3c ca85 693d ac71 83bc 2e81 263d
000000e0: b249 aa3d dd13 f43c 548b 3e3d 3243 c7bd
000000f0: 15cb d8bd 30e8 783d eb51 bb3d 94b9 99bd
00000100: 7337 b83c 2d28 4d3b 73e2 cebb e6e8 8dbd
00000110: cfd4 a43c bfb1 28bd 33a6 0abd 8b91 373c
00000120: 2f55 243c ef5d aabb b257 7b3d 05b9 933c
00000130: 3229 a6bd 4e1e 14bd 123e 73bd d4c3 8ebd
00000140: 57b6 cc3a a5da e73c 6834 8d3d bb89 c5bd
00000150: ed67 933d 8819 b0bb 53bf 5f3d 07b5 203d
00000160: 2a5e 65bd 685c 633d 9715 8e3c f7e0 a73c
00000170: 0f18 373d f601 4a3d 7278 3ebd eb5f d1bd
00000180: 76e9 033d 477f 83bc 5da0 68bd c9b5 8c3d
00000190: 1ef5 c5bb 7ef0 be3d d236 c1bd 0f7c 0f3d
000001a0: e3be 753d c096 e63a 8c17 853c 94f4 b13d
000001b0: 550c a13d 53b9 9dbd a5df 753d 489a 1e3d
000001c0: af08 2bbc e5db 163c 3d2b 833d 5dd0 4ebd
000001d0: 0b5f 9f3c 8320 d5bc 5a97 98bd c729 a63c
000001e0: c7cf fb3b bae3 503d a07e 773d ed70 69bd
000001f0: c76d 913d 0346 2b3c 130f a03d 0d5b 963b
00000200: ec14 bfbd 9f22 703c 3387 253d edb7 6abd
00000210: 91db 0abd e3f7 e4bb e1b2 bcbd 9b10 523c
00000220: 78d3 78bd aa3e 0fbd 3f09 90bc 7ab3 7a3b
00000230: 8c1b 0fbd dfec 2a3d 1f16 47bd 9759 9dbd
00000240: de99 be3d c768 babd 3c0a a03d ae55 80bd
00000250: 051f abbd e3cb c03d 28a5 e13d 9d63 64bd
00000260: b745 983d 4bcc b5bd 1e6b be3d 4f3d d0bb
00000270: 7724 3c3d 1a3e 8cbd f58a a0bd 481d 8ebd
00000280: ef8e 0e3d bbd6 4e3d eb10 99bc 0784 a9bd
00000290: 2ee3 a9bd 0b40 933c f48c 8eba 3136 8a3d
000002a0: b4b6 343d b711 d2bc 02f9 a73d a164 133d
000002b0: 37d9 50bc 7b2a 81bd 870d d03d dd2b 883c
000002c0: bf8c aa3d d3b8 833d 102d d4bc 6b39 853c
000002d0: 6304 6fbd 2776 d0bd d4a4 17bd 755f c13c
000002e0: ca92 78bd 479d 0b3d 6790 a23c 5dd5 adbd
000002f0: ab20 953d 6b16 1bbd 1203 5f3d 7943 0ebd
00000300: f80d 6abd 45f6 b3bd 5425 c9bc e513 2bbd
00000310: 5f95 c0bd 57f6 f6bc d5a7 a4bd a201 983d
00000320: c3fb da3b 2279 a3bd bb51 d6bd e046 a5bd
00000330: bb03 c33c 53be 59bc 1f4e 793d 8c21 c73d
00000340: a3a4 013d 82af 5abd f5fc b83d 5b5a 863d
00000350: d367 843d da68 bc39 170f 3abd d7fd 85bd
00000360: 6239 f5bc bf33 ad3c 8790 75bd 9c50 94bd
00000370: 4b6a 493d d3d0 0b3d a2c6 423d b5b6 543d
00000380: baca 49bd 2529 03be 65c7 cebd 9d13 85bc
00000390: 6a4b 88bd c3e0 b03d ff39 bcbd 0ff1 823c
000003a0: d82e 4cbd 0bba d23d 9d66 8f3d 066a 41bd
000003b0: 1a1b 1a3d 0c75 81bd 87ad b73d bbc8 6f3d
000003c0: 9db4 9a3d f262 78bc 4eea cabc 7654 b3bc
000003d0: 1009 e2bd ef25 b03c ab21 f3bb 074b 46bd
000003e0: 6b62 3abd 85e7 423d 62c3 7b3d a7ec b23d
000003f0: 20ee 723d 0b10 b2bc f3d7 923d e228 9f3d
0.06173448 0.068687305 0.07163998 -0.04010835 -0.07750721 0.019864364 0.0042043948 0.0077866525
-0.025157282 -0.0074246884 -0.012621437 -0.021662483 -0.041736495 0.06464727 -0.02177192 0.04753059
-0.06554338 0.04939557 0.10067995 0.09439771 0.0574601 0.004715306 7.8196754e-05 -0.045777913
-0.058429927 -0.018745454 0.06403345 -0.08250322 0.068912104 0.07238619 0.0148707945 -0.018849498
0.023551133 -0.006777493 0.09469467 -0.043252625 -0.07095679 0.062056687 0.10488105 -0.02153117
-0.014930287 -0.10750095 0.019204615 0.031046985 0.059901383 0.11689182 -0.07379442 -0.03130525
-0.079758 0.08720981 -0.031053428 0.083412856 0.027085358 0.057012357 -0.016045414 0.04065054
0.083148375 0.029794628 0.046519592 -0.09729613 -0.1058561 0.060768306 0.09146484 -0.07506099
0.022487378 0.0031304464 -0.006313616 -0.069291875 0.020121006 -0.041185137 -0.033849906 0.011204134
0.010030075 -0.005199186 0.06136293 0.01803256 -0.08113326 -0.036161713 -0.059385367 -0.06970945
0.0015618306 0.0283025 0.06894761 -0.096454106 0.07197557 -0.0053741373 0.05462582 0.03923514
-0.055998005 0.055508047 0.01734428 0.020493014 0.04470068 0.049318276 -0.046501584 -0.10223373
0.032205068 -0.016051902 -0.05679356 0.0687061 -0.006041183 0.09323214 -0.09434284 0.03503042
0.059996497 0.0017592534 0.01624658 0.08689228 0.0786368 -0.077013634 0.060027737 0.038721353
-0.010439082 0.0092077 0.064047314 -0.05049168 0.0194545 -0.02601648 -0.07450743 0.020283593
0.007684681 0.050998427 0.060423493 -0.05699246 0.071010165 0.010453704 0.07815375 0.004588491
-0.093301624 0.014656692 0.04041214 -0.05730431 -0.0339008 -0.006987558 -0.09213806 0.012821342
-0.060748547 -0.03497187 -0.017582534 0.003825395 -0.03493838 0.041729804 -0.04860508 -0.076831035
0.093066916 -0.09102016 0.07814452 -0.06266342 -0.08355526 0.09413888 0.11017829 -0.05575906
0.07435172 -0.088768564 0.09297775 -0.006354965 0.045933213 -0.068477824 -0.07839004 -0.06939179
0.03480428 0.05049775 -0.018684825 -0.08277135 -0.08295284 0.017974874 -0.0010875748 0.067486174
0.04411955 -0.025643213 0.08201791 0.03598464 -0.012747101 -0.06306931 0.1015883 0.016622478
0.083276264 0.06431737 -0.025900394 0.01626273 -0.058353793 -0.10178786 -0.037022427 0.023605088
-0.060686864 0.03408554 0.019844247 -0.084879614 0.072816215 -0.037863176 0.054446287 -0.034732316
-0.057142228 -0.087872066 -0.024553932 -0.04176702 -0.0940349 -0.03014676 -0.08039824 0.074221864
0.0066828444 -0.079820886 -0.104648076 -0.08070159 0.02380549 -0.013290006 0.060865518 0.097231954
0.03165115 -0.053390034 0.09032623 0.06560203 0.064651154 0.00035936275 -0.045424547 -0.06542557
-0.029934589 0.021142839 -0.059952285 -0.072419375 0.049173634 0.034134697 0.047552712 0.051932056
-0.0492656 -0.12808664 -0.10096625 -0.016244704 -0.06655009 0.0863662 -0.091907494 0.015984086
-0.04984936 0.10289391 0.07001994 -0.047220252 0.037623502 -0.06321153 0.089686446 0.05854104
0.075539805 -0.015160309 -0.024769928 -0.02189086 -0.11036885 0.021502463 -0.007419785 -0.048411395
-0.045504015 0.047584075 0.06146563 0.08736544 0.059309125 -0.021736166 0.07170095 0.0777147

bias_ih_l0 f4 [400]
00000000: 3fd5 013e cabb f83d c2ba de3d 6828 6d3d
00000010: 8001 74bb 13d7 d1bb 03be c93d 5382 a6bd
00000020: 859f 4f3d f7b9 00bb 575b 873c 434d 863d
00000030: 8f63 8d3d f775 b9bd f711 bf3d 901f ef3c
00000040: f71e 233d b8aa 023e 253d db3d aa72 e53d
00000050: efe1 e1bc 3e59 863d d31c c53d 8b80 563c
00000060: 9007 203d 60fd f8bb 771d bf3c a861 923d
00000070: d75e 253d 5c61 093e ba1a 783d 4e7d 483d
00000080: 2f9e 18bd 4fa7 f43d 6b0e c2bc c778 fe3b
00000090: 0a2f 873d 435b 1b3e bbcf 30bd 3dc3 f0bc
000000a0: 939b 8abd 2566 d73d 0bf8 0e3e 83c1 d3bd
000000b0: 6fef 50bd 2cf4 3bbd 4225 e93d af55 4dbd
000000c0: b336 0d3e 6547 453c bf24 1c3d 72ec dd3c
000000d0: f349 333d 0f15 80bd 95d9 4abc 8d65 28bd
000000e0: b29e 893d c20c ad3c 1a52 c93d 0fa1 3bbc
000000f0: b54f afbc abf6 fb3d 950c ae3c 4cdc 88bd
00000100: 4dcb 63bd 7bfa c53d 0f97 593c f2c2 853d
00000110: 4b60 b93d 7fe5 62bd aaac c63d 5285 013e
00000120: c962 253e 632e cc3d 0b48 733d 3977 89bd
00000130: 2327 b2bd 23f7 5dbd 7781 503c 07fa 90ba
00000140: dda3 9d3c 1595 af3c 0a8e 783d 7728 313c
00000150: 8b9a a23c 7d0c acbc d7ae 80bd 942c a83c
00000160: 8ac6 993c 432e 71bc f027 853b 13ae 7a3d
00000170: 2d46 ecbc 02ca 703d 084a 893c 4a52 db3d
00000180: 09c5 31bd bcc8 a33d 685b 643d 94e3 ab3b
00000190: 230b fe3d 685a 6b3d f8bc 343d 3ba1 5e3d
000001a0: 0d8e 0e3d 0ddb e3bc 9518 2f3d 2be6 1b3d
000001b0: e7b3 0d3d 6fb5 74bc 6b37 4ebd da93 dc3d
000001c0: c798 b23d 93f4 b1bd 4ba9 3cbd fbc6 ca3d
000001d0: cff8 923d 476a 2d3e adc8 b33d 7510 fd3d
000001e0: d71e 1f3e ddd9 84bc 0102 12bd 83e3 67bd
000001f0: f2f2 043d e99d 2cbd dd7d 2e3d 2026 003e
00000200: 9fdc d93c ebf0 d23d c3fe c83d f0bc c13d
00000210: a049 9a3d 55fe 6b3d 7a51 b13d c862 b63c
00000220: b0e7 37bd 1a44 d73d e42a 103e 43ae 7bbd
00000230: 8fde c63d bfa9 c0bc dc65 833d b8ea 043e
00000240: 874b f83d 1366 b63c 89eb a8bc f723 793d
00000250: 9a5b ea3d 3a65 3e3d 6780 c63b 2397 62bd
00000260: 9fb2 7bbd 31bb 923d 378c fb3d ab58 b13d
00000270: d090 ce3d e34f 67bd 810e 0f3d b32c 073c
00000280: 1f92 c63d b4eb 8d3c e361 143e 2b36 963d
00000290: 5de8 193d 0950 273e d0cf ec3c ff5d adbd
000002a0: fffe 003e 6b9c ddbc e78e 16bd ed49 fc3d
000002b0: 9d67 a9bc 5128 3e3d 3798 853d c02d 563d
000002c0: 9307 fa3c 0f0e 3e3d a201 823d 9f51 83bc
000002d0: 203a 2f3d 5015 64bd 4f8d 0dbd c53c d2bc
000002e0: ab53 273d d84e fc3d 7a12 083e bdfe dfbc
000002f0: 355c d13d 01a1 a03d d859 df3d 9302 b73b
00000300: b86d 1437 353f 913b 820e 3cbd 6b05 873b
00000310: b339 ad3c 7531 c93d a5a2 a9bc 7a03 29bc
00000320: 736f 2ebe 0b35 f63c d5a4 61be d192 c03d
00000330: 1d36 4fbc 4702 4b3c 42d2 61be 90ed b43d
00000340: 1284 3abe 307c 213e 3bc2 7e3d be22 3a3e
00000350: 0539 a83d 6b07 333b edee 173e 56ef 94bd
00000360: 480f 673d 9f80 0dbe 8f2a d83d e81a 043e
00000370: f2ef dcbd bea5 c73d 4bfa 5dbe 78e4 54be
00000380: 2e26 89be b805 d0bd b5a0 273e 5f7b 723e
00000390: db38 193e 5338 f03d f2a3 77bd 6d78 27bd
000003a0: 12dd 5cbd 4311 aa3d 19d2 c2bd bbd5 063d
000003b0: ef24 573e 1830 5dbe 508c 793d 0766 7a3c
000003c0: 1614 33be aacb 06bd d212 ebbd 7f37 063e
000003d0: 80dd 0dbe 2c62 113e cc04 1a3d f523 d2bd
000003e0: 9a13 8fbc ae0e a03d 3ff2 43bd 3666 3b3e
000003f0: 30b1 d0bd 986e 663d 6bb3 003e d6b7 4c3c
0.12679003 0.12145193 0.10875465 0.057899863 -0.003723234 -0.0064038127 0.09850695 -0.08130326
0.05068924 -0.0019642094 0.016523046 0.06557705 0.06903755 -0.09055703 0.093295984 0.029189855
0.039824452 0.12760437 0.10705022 0.11203511 -0.027573554 0.0655999 0.096246384 0.0130921705
0.039069712 -0.007598564 0.02332948 0.07147533 0.04037365 0.13416046 0.060572363 0.048947625
-0.03726023 0.11945974 -0.023688516 0.0077658626 0.06600769 0.15171532 -0.043166857 -0.029389972
-0.06767955 0.105175294 0.13961808 -0.10339644 -0.05100959 -0.045887157 0.113840595 -0.050130542
0.13790397 0.012040948 0.03812098 0.027090285 0.043771695 -0.062540166 -0.012380977 -0.04111247
0.06719722 0.021124247 0.09830113 -0.011451974 -0.021400312 0.123029076 0.021246234 -0.06682643
-0.055613805 0.09666916 0.013280644 0.065313235 0.090515696 -0.055394646 0.09700902 0.12648514
0.16150965 0.09969785 0.059394877 -0.06712193 -0.08698871 -0.054190766 0.012726179 -0.0011060842
0.019243175 0.021433393 0.060682334 0.01081287 0.019849082 -0.021002049 -0.06283348 0.020529069
0.018771429 -0.014720502 0.004063599 0.061201166 -0.028842056 0.0587864 0.016758934 0.10709055
-0.043400798 0.079972714 0.055751234 0.0052456353 0.12404468 0.057459265 0.044125527 0.05435298
0.03480344 -0.027814412 0.042748053 0.038061302 0.034595396 -0.014935835 -0.05034582 0.10770388
0.08720546 -0.08689227 -0.046059888 0.09901234 0.07176363 0.16935073 0.0877851 0.123566546
0.15539108 -0.016217167 -0.035646442 -0.056613456 0.032458253 -0.042142782 0.0426005 0.12514544
0.026594458 0.10299858 0.09814217 0.09459865 0.07533574 0.057615597 0.086581185 0.0222639
-0.04489869 0.10511036 0.14078861 -0.061445486 0.097104184 -0.023518441 0.064159125 0.12980163
0.12123781 0.02226547 -0.020620124 0.060825314 0.11443253 0.046483256 0.006057787 -0.055319916
-0.061449643 0.0716461 0.12282603 0.0865949 0.100862145 -0.05647267 0.03492594 0.008250403
0.09695839 0.017324306 0.14490466 0.073345505 0.037575115 0.16339125 0.028907686 -0.08465194
0.12597273 -0.027052125 -0.036757376 0.12318788 -0.02067929 0.046425167 0.06523173 0.052289724
0.03052119 0.046400126 0.06347968 -0.01603013 0.04278004 -0.055684388 -0.03455859 -0.025663743
0.040851276 0.12319726 0.13288298 -0.027343148 0.10222665 0.07843209 0.10905808 0.0055850237
8.847033e-06 0.0044325837 -0.045912273 0.004120519 0.021145677 0.09823886 -0.020707438 -0.01031577
-0.17034702 0.03005459 -0.22035535 0.09403003 -0.012647179 0.01239068 -0.22052863 0.08834374
-0.18214443 0.1577003 0.06219695 0.18177316 0.082140006 0.0027317654 0.14837237 -0.07272212
0.056411058 -0.13818596 0.105549924 0.12900889 -0.107879534 0.0974841 -0.2167751 -0.20790279
-0.2678694 -0.10157341 0.16369899 0.23679875 0.14963095 0.11729493 -0.060459085 -0.04088633
-0.053921767 0.08304074 -0.09512729 0.032918673 0.21010183 -0.21600378 0.060924828 0.015283114
-0.17488131 -0.032909073 -0.11478199 0.13107108 -0.13854027 0.14197606 0.03760223 -0.102607645
-0.017465401 0.078153 -0.047838446 0.18300709 -0.10190046 0.056257814 0.12568443 0.012495002

bias_hh_l0 f4 [400]
00000000: 87df 1b3e 2be0 d8bb 5039 5f3c 73d2 ca3d
00000010: ee99 bd3d a361 c1bc c755 613d 0792 913c
00000020: 89f8 993b f863 e23c b2d4 033d 9ea8 0b3e
00000030: 7df4 6d3c 2e9b 9bbd c390 75bc cb47 803c
00000040: 7550 b43d 49fc 433d 21ab 0e3e 1b63 9a3c
00000050: 3e3a 1e3d 5e2d 8b3d f75d 533d fb29 943d
00000060: 3acf 183e a7ca fb3d 9ac5 0eba 359e 08bd
00000070: bdbb 863c bc35 0cbd 9d6f 823d 861c b73c
00000080: 83d4 f6bc bb49 d23a 9316 9c3c 80b8 683d
00000090: 7f22 e83d 47cc 843d 23b7 89bb cf5f 4d3d
000000a0: f59c 8139 5b78 353c fb05 1c3e c89d 4fbb
000000b0: b66e c73d d95e 903d 3a2c 3fbd 7f06 1bbd
000000c0: 56a7 b3bc 1c37 49bd 9e36 c63d 72e5 f73d
000000d0: 721b a93a 2801 913d af9e 273c 0df3 113e
000000e0: 017a 9c3d 8d0a 00bd ffc1 b3bd fc4e 10bd
000000f0: 8325 0b3d 9bff 71bb c35f ec3d d78d e53d
00000100: e4ff 3abb 3dc1 ef3d ac7b b53d c0cf ee3d
00000110: 2bf6 b03d ff19 b23d 3f53 43bd 72a1 913d
00000120: 0188 11bc 2099 17bd f6b1 8a3d a93a 88bd
00000130: decf 92b9 2fa8 0b3d 1d5d e03c e3ae 933c
00000140: 40e7 cc3d c05d 643d bf13 44bd 49f9 b6ba
00000150: db3d a53c 0432 c33c 24d9 a1bc 9c33 083e
00000160: d244 a83c 3049 7cbd bf94 7a3c 231b 213b
00000170: 39e5 38bd 78d5 78bb 7f3f 613d b375 f1bc
00000180: a6b8 0a3b 0f20 6a3d 7bb1 72bd d8c2 de3d
00000190: 0f38 883d df6a c23d 70a2 dcbb 40a0 943d
000001a0: 63b5 723d 4ac9 e63d 83e0 613c 4a7a 57bd
000001b0: 16b4 b53d c3d4 cd3d fb52 ceb9 cab3 d33d
000001c0: c798 bf3d 0558 df3b 7425 863c 3bb5 a13d
000001d0: 2f4a 863d a705 be3d b964 813d 52a4 ff3d
000001e0: a620 023e 4b53 183e 9517 a33d 8570 f2bc
000001f0: 0fd3 983d 080a c03d 9d54 ee3d c71d b0bc
00000200: e51a d43d aa66 793c 048b a43d 4d06 d03d
00000210: 0896 ad3d 1bc1 9e3c bb66 7c3c 230b e83d
00000220: 000b f53d 5a64 dd3d 7b66 cdbc 9a4c 03bc
00000230: 8fde 80bb 1303 31ba 17f9 f03d cdca cb3d
00000240: 0e34 33bd 4000 ce3b fa6d 043e 0bde 24bd
00000250: b34f f7bc 8fe7 4abd 579c e63d ca2c f13d
00000260: cff0 b0bc b2fa 6dbd dc6f 313d 12c3 90ba
00000270: f4ec 8b3c 6fa7 6f3b 6e60 433d fb18 b13d
00000280: 2f71 edbc 20e6 0c3e a2ab d03d bbd0 a73d
00000290: 9dd3 fabc 3277 253d 4dc5 273d 5a36 23bd
000002a0: 3ea9 203d bd13 843d 25ce 493c 4bf9 543d
000002b0: 3047 c83d e592 e2bc 02dc d93d 3a61 7fbd
000002c0: 3e1d ae3d a0fc da3d 1f1a 133e a5f3 28bd
000002d0: 1d43 26bd 42bf af3d 2e85 80bd 6049 0bbd
000002e0: 4397 d53b bd8e 3c3d d314 ae3d bd9e 83bc
000002f0: 15f0 4e3c 1ff2 6fbd 1d53 5c3b b193 bf3c
00000300: 7050 f13d 6d33 dc3d 8943 9c3d 5977 133d
00000310: c8c6 063d 9518 673d 3f53 79bd cd1c ee3d
00000320: 7343 3abe bf2a 043e 1fcd 4bbe bb72 143e
00000330: 72c3 19be 353f f9bd c247 7dbe 5ef9 173d
00000340: e93a 86be 3a43 453e eb28 b0bc 15ff 083e
00000350: 3ce1 373e 82fa ffba 0ced bb3d d285 d33d
00000360: 17a4 b2bd 533b 09be d7ed e13d 18da 143e
00000370: e8a2 a3bc a20e 683e 7629 25be f890 8bbd
00000380: 88ec 9cbe 825a 3abe a08b 4f3e 1d2b 513e
00000390: 5d37 643d 6aa8 173e 6536 55be 8b06 3abe
000003a0: e7c3 1fbd 7f76 503e 9fe6 3fbe 5d34 423d
000003b0: a629 9e3d a89f 50be 1b25 c93d 25f7 7b3d
000003c0: d02f 90bd b0d4 0dbe a25c cdbd 3272 babc
000003d0: a828 8dbd 015b b33d e307 003e 2999 4abb
000003e0: b6df 18be 404a 86bc 9312 c1bc eb13 d53d
000003f0: cf09 11be 6d3d 88bd d234 963d ab8f 01bc
0.15221988 -0.00661852 0.013624504 0.09903421 0.092578754 -0.023606127 0.055013444 0.017769827
0.004698817 0.02763556 0.032185264 0.13638541 0.014523623 -0.075979576 -0.014988127 0.015659234
0.088044085 0.04784802 0.13932468 0.018846085 0.038629763 0.067957625 0.051603284 0.0723457
0.149228 0.12294512 -0.0005446315 -0.033354003 0.016446942 -0.034230933 0.06368945 0.022352468
-0.03013063 0.0016043702 0.019053733 0.056816578 0.113347046 0.06484275 -0.00420274 0.0501402
0.0002472174 0.011076058 0.15236656 -0.0031679738 0.09737913 0.07049341 -0.046673037 -0.037847992
-0.021930378 -0.049124822 0.09678386 0.1210431 0.0012901856 0.07080299 0.010230704 0.14252873
0.07640458 -0.031260062 -0.08777236 -0.035231575 0.03397132 -0.0036926034 0.115417026 0.112086944
-0.002853387 0.11706779 0.08861479 0.11660719 0.08640703 0.086963646 -0.04768681 0.071108714
-0.0088825235 -0.037011266 0.067722246 -0.066518135 -0.00028002163 0.03409594 0.02738815 0.018027728
0.10005045 0.05575347 -0.047870394 -0.0013959791 0.020171097 0.02382756 -0.019756861 0.13300937
0.020540629 -0.061593235 0.015294253 0.0024582825 -0.04514048 -0.0037969034 0.054992195 -0.029475069
0.0021167188 0.05715948 -0.05925129 0.10877007 0.06651317 0.0949304 -0.0067332312 0.07257128
0.059255015 0.112688616 0.013786438 -0.05260686 0.08872239 0.10050347 -0.00039353207 0.103370264
0.09355312 0.0068159127 0.01637528 0.07895895 0.06557118 0.09278422 0.063180394 0.124825135
0.12707767 0.14875524 0.07963482 -0.02959467 0.07462131 0.09376913 0.116372325 -0.021498574
0.10356692 0.015222231 0.080343276 0.10157452 0.08475882 0.01937919 0.015405352 0.11330249
0.11964989 0.10810156 -0.02507328 -0.008013869 -0.003932781 -0.0006752472 0.1176626 0.099507906
-0.043750815 0.006286651 0.12932578 -0.04025082 -0.03018937 -0.049537238 0.11260288 0.11776121
-0.021599201 -0.05810041 0.043319568 -0.0011044464 0.017080761 0.0036568304 0.047699384 0.08647343
-0.028984634 0.1375966 0.10188986 0.08194109 -0.030618483 0.040396877 0.040959645 -0.039846756
0.039223902 0.06449077 0.012317215 0.051995557 0.09779203 -0.027657935 0.10637666 -0.06234858
0.08501671 0.10692716 0.14365433 -0.041247983 -0.040591348 0.085814014 -0.06275402 -0.034005523
0.006518276 0.046034563 0.08500066 -0.016066903 0.012630482 -0.058580514 0.0033618875 0.023385854
0.1178292 0.10751996 0.07630069 0.03600249 0.032904416 0.056419928 -0.060870405 0.11626587
-0.18189792 0.12906931 -0.19902466 0.14496891 -0.15015963 -0.12170259 -0.24734405 0.03710305
-0.2621682 0.19263926 -0.021503886 0.13378556 0.17957014 -0.0019529613 0.091760725 0.103282586
-0.08722704 -0.13401537 0.110316925 0.14536321 -0.01997514 0.22661832 -0.16129097 -0.0681476
-0.3064921 -0.18198588 0.20268106 0.20426603 0.05571686 0.14810339 -0.20821531 -0.18166558
-0.039005186 0.20357703 -0.18740319 0.04741322 0.077227876 -0.20373404 0.098215304 0.061514992
-0.070403695 -0.13850665 -0.10027434 -0.02275953 -0.0689252 0.08757592 0.12503009 -0.0030914044
-0.14929089 -0.016392827 -0.023568427 0.1040419 -0.14163898 -0.06652341 0.073342934 -0.007907788

weight f4 [100, 100]
00000000: 7b37 f13d 5bc0 cb3d 48a7 d13c 9088 12bd
00000010: dfec d4bc 9fa2 88bd fdec 95bd 3bf1 203c
00000020: c074 e2bc 235c 013d eca9 2dbd d598 673d
00000030: f238 d4bc e8c4 90bd 6856 013c c279 5ebd
00000040: 8fbe e63c 42a2 b1bc a750 ebbb f80e 2f3d
00000050: 66ce 253c a1ea c9bd e33d 313d 1127 0c3d
00000060: 0213 04bd baf6 cf3d 78fd 5b3a eb36 97bc
00000070: 0005 ddbd 5bec 0bbd 1acc 9b3c 6107 c93d
00000080: 4f21 bf3c ab4f 86bd f295 43bd 04ae 83bd
00000090: 9a83 283b 5447 9abd 237c 0c3d cf2e b93d
000000a0: 2d14 c03c 33ee 183d dbe6 45bc 8bb1 2b3d
000000b0: 5506 023d d2f9 b5bd fb70 84bd 38c5 a5bd
000000c0: 5004 fcbc 2601 8c3d 4f18 753c 08b2 7e3d
000000d0: 68d6 65bd d75d aa3d 2533 c73d 538f a2bd
000000e0: 5b9f 3c3d 9bca 0b3e b18d 16bd 1ddb ba3d
000000f0: 952a 34bd 6fe6 15bd 5baa a9bd 1a33 a0bd
00000100: 6b93 b7bd 7ba6 dbbc 6ad4 c3bd 433c cebd
00000110: 9fd5 8c3d 2a35 c93d 3bf2 883d c7f0 233d
00000120: 9763 74bd 2a77 1e3d 0a19 313d f8f8 4e3d
00000130: 1b7c c73d 7fa1 f0bd 4291 d43d 932e f23d
00000140: f610 4a3d ad34 da3d ea30 c2bd 8b5f eebc
00000150: f34e 283d 9bd4 d93c 4226 953d 6089 89bc
00000160: c33a 4d3c b87a cf3d 9acb d63c 07f0 3d3c
00000170: 2ab7 473d ad44 9b3d 959f bc3b bbc0 3a3c
00000180: a75f 8f3d 2dbc 3c3d 3de3 f8bd 00e5 8fbd
00000190: 8849 113d 63a7 863d 0fc7 893c 03f7 5bbd
000001a0: 3f0c 27bd f30d 9ebd 284a bbbd 3fa8 8ebc
000001b0: 83d3 bc3c d252 613d 9129 42bd 6889 a8bb
000001c0: 529a c23c c8de 053d f31d 5fbd 63ad 0abc
000001d0: 8bbd bd3d 0039 d1bc d0cb 893d 80e3 7c3d
000001e0: f304 09bd 1afe 963d 3038 973d 8304 da3c
000001f0: 9743 0bbd cd18 963c a3c9 efbc 4ec3 aa3d
00000200: fa99 55bd 1b9f 13bd 8019 143d 25cb 783d
00000210: cb8c ae3b 3f40 103d b3ef bdbd b062 80bd
00000220: 274b e13b cc09 2dbc f7dc 863d 8ff4 8d3d
00000230: ebab 923a 0a58 9b3d 4f5c c2bc 87b6 16bc
00000240: aacd b6bd b731 703d 0f50 e63c 1002 a23d
00000250: c17e 80bd 55cd b23d e232 5f3d 4c1e b13d
00000260: 7755 1fbc 7723 b93d 5780 3abd 54f5 943d
00000270: d90a 8bbd 8b01 97bd 498f c2bd 4f45 293c
00000280: 5af5 533d 47fa 533d ff78 8ebc a280 36bd
00000290: 8fd3 88bb 3fe3 a4bd 10e4 bebd b5a8 733d
000002a0: 47ff a03d bb2e 813c 1360 c13c 9d24 973c
000002b0: dd72 c1bd 19c7 963d d290 463c df6c a43d
000002c0: 3d3e 70bd 692b 83bb aab4 7ebd 891b b23d
000002d0: d834 77bb a434 943d 458b cf3c 1d0e 64bd
000002e0: db9d f2bc 06b3 c43d 0db3 85bd 97e4 913c
000002f0: ba91 0dbd 3bd8 81bc d5a8 b03d 632e ab3d
00000300: 7597 c43d 9c10 c8bd 0b5f cbbd 970f 04bc
00000310: e6de 903d 3d82 0cbd 3b90 88bc 62ec 393d
00000320: d9e9 07be 101e 79bd c3c6 4ebd 3d0d b83d
00000330: 013e 133d 2adb 703d 4afd afbd 8a54 e93d
00000340: 17e9 b33d d558 bc3d d3ad 43bd 805d 633d
00000350: 0b97 7abd 9f57 153e a078 dc3d ceeb 9d3d
00000360: e316 7f3c f3b9 97bd 4125 a83d 7d34 a33c
00000370: c8d2 653d f739 a23d bbb0 e5bd 871e afbd
00000380: 3bed 833d 4177 0b3d 1850 953d b640 c8bd
00000390: b374 a63d 072b 0c3e c0c3 f6bc fd01 65bd
000003a0: 090b 21bb 9fd7 a33a 5813 ccbd ea11 b83d
000003b0: 839f 8dbd 3ff6 a63d f5f2 713c 7577 04bd
000003c0: 376a 953d 8b5f f5bc da98 01bd b7e9 12bd
000003d0: cfd9 a53d 2ba8 2d3c 8b78 963d b982 313d
000003e0: e8ad 17be 4d1f 7f3d 6f71 31bc 3c6b 9b3c
000003f0: 2d92 703c fa23 55bd c5ac c9bd 7e50 2ebd
0.1177816 0.09948798 0.025592461 -0.035774767 -0.025991855 -0.066716425 -0.073205926 0.009823139
-0.027643561 0.03158201 -0.04239838 0.056542236 -0.02590606 -0.07068807 0.007894136 -0.054315336
0.028167037 -0.021683816 -0.0071812454 0.042738885 0.01012001 -0.09859205 0.04327191 0.034216944
-0.03224469 0.10154481 0.0008391957 -0.018458804 -0.10791969 -0.034160953 0.019018222 0.098158605
0.023331312 -0.06558164 -0.04775042 -0.06429675 0.0025713206 -0.07533136 0.034298074 0.09042131
0.02344712 0.03733654 -0.012078966 0.041917365 0.03174432 -0.0888554 -0.06466862 -0.08094257
-0.030763775 0.068361565 0.014959409 0.062181503 -0.056112677 0.0831868 0.09726552 -0.07937493
0.04605041 0.13651507 -0.03675622 0.09123824 -0.043985922 -0.03659671 -0.08284446 -0.07822247
-0.089636646 -0.026812783 -0.09561999 -0.10070088 0.068766825 0.09824593 0.06686827 0.040024545
-0.05966529 0.038687862 0.04323677 0.050530404 0.09740468 -0.11749553 0.10379268 0.118252896
0.04933258 0.10654578 -0.09481986 -0.029098293 0.041090917 0.026590636 0.07282688 -0.016789138
0.012526217 0.101308286 0.026220132 0.0115928715 0.048758663 0.07581458 0.0057563283 0.01139849
0.07000666 0.046077896 -0.12152717 -0.070261 0.035470515 0.06574895 0.016818551 -0.053702366
-0.040783163 -0.07717504 -0.091450036 -0.01741421 0.023050075 0.055010624 -0.047402922 -0.005143333
0.023755226 0.032683164 -0.05447192 -0.00846419 0.09264668 -0.025539875 0.06728327 0.0617404
-0.033451986 0.07372685 0.07383764 0.02661348 -0.034000006 0.018322373 -0.029270953 0.08338033
-0.052148797 -0.036040407 0.03615713 0.06074061 0.0053268424 0.03521752 -0.092742346 -0.06268823
0.006875414 -0.010561418 0.065851144 0.069314115 0.0011190152 0.075851515 -0.023725657 -0.009198791
-0.08925946 0.05864116 0.028114347 0.0791055 -0.062741764 0.0873057 0.054491885 0.08648357
-0.009724966 0.090399675 -0.04553255 0.07273355 -0.067891784 -0.07373341 -0.09499986 0.010331466
0.051747657 0.051752355 -0.01739168 -0.044556268 -0.0041756104 -0.08051156 -0.09320843 0.059487063
0.0786119 0.015769353 0.023605382 0.018450076 -0.094457366 0.073621936 0.012119489 0.08028578
-0.058653105 -0.0040029776 -0.062184013 0.08696658 -0.0037720706 0.07236603 0.025334964 -0.055677522
-0.029616287 0.096044585 -0.06528292 0.017809195 -0.034562804 -0.015850177 0.08625952 0.08358457
0.09599201 -0.09768793 -0.099302374 -0.0080603575 0.070737645 -0.034303892 -0.016670337 0.045391448
-0.132728 -0.060819685 -0.050482523 0.089869 0.035947803 0.05880276 -0.08593233 0.11393078
0.08784693 0.09196631 -0.047773194 0.05550909 -0.061179202 0.14584206 0.10765195 0.07710992
0.015569421 -0.07408514 0.082102306 0.01992249 0.05610922 0.07921212 -0.11215349 -0.085507445
0.064417325 0.034049276 0.07290667 -0.09777968 0.08127727 0.13688289 -0.030122638 -0.0559101
-0.0024573228 0.0012500173 -0.09964627 0.08987792 -0.0691519 0.081524365 0.014767398 -0.032340486
0.072956495 -0.029952785 -0.03163991 -0.03586742 0.08098184 0.010599176 0.073472105 0.043337557
-0.14812434 0.06228571 -0.010830267 0.018972032 0.0146832885 -0.052036263 -0.09847406 -0.042557232

bias f4 [100]
00000000: b34a c2ba fbcb 0d3d 0387 2bbc 73db 06bd
00000010: e13f 91bd 9b4a 2fbb b7ac 98bd 2fac 443d
00000020: 8d8f 6bbd 66f1 9dbd fdde cabd d371 2d3d
00000030: c816 c7bd bbca ba3d 6b74 4abd e6d4 90bd
00000040: a37a bf3d 3b8e e53c 3373 143d e392 93bd
00000050: ad7e c83b d7c7 5ebd f8d3 bd3c 53c8 d0bc
00000060: 812a ad3d 1e59 c4bc 06c1 89bd ebf9 f53b
00000070: 16dd b7bc abc5 b73d a3fb 293d cfbf 6cbd
00000080: d837 953d f720 73bd b398 3cbd e356 fdbc
00000090: b3a5 2a3c b732 b0bd 2752 7b3d e39a 83bd
000000a0: e300 bdbd 1f66 8d3d 4fa6 7c3d 39d9 a43d
000000b0: 70b9 d73c 7f37 4fbd 2b86 bebd a030 1cbd
000000c0: b06b 3dba cffe 9b3c 036e 9cbc 8af6 5bbd
000000d0: 3bb0 2ebc 7d68 cd3d 4f42 38bc d671 c3bd
000000e0: b4c7 2abc 4f03 76bc abb6 3bbd 82f0 de3c
000000f0: 6f8d 813d 4dc5 6e3d f88e a4bd 5214 7c3d
00000100: cb07 3c3d c9cd 833c 6576 58bd aa2b 873d
00000110: 67b8 53bc 9350 1dbd 6ee0 393d fdb7 b2bc
00000120: 926c ddbc 518a 18bd 243d abbd eda8 0c3c
00000130: 3ce7 40bd bb0d 19bd ab26 a9bd 4732 f4bb
00000140: 1d84 0a3c a78f f4bb 91af 853b 7720 a23d
00000150: b719 7e3c 48c6 bf3c bfb9 cd3a 7555 45bd
00000160: f3c9 bc3c 6df6 8e3d 8731 ddbc a002 a93d
00000170: 573c 9f3c e8e4 9a3d d4ab be3c 066b abbd
00000180: 8c18 03bd db58 ea3c f9a1 493d e1de a23d
-0.0014823287 0.03461836 -0.010469201 -0.032924127 -0.07092262 -0.002674735 -0.07454818 0.04801577
-0.057509948 -0.07712059 -0.09905813 0.04234488 -0.09721142 0.09120699 -0.04942743 -0.07071857
0.09349563 0.028021922 0.036242675 -0.07205751 0.0061186166 -0.0543898 0.023172364 -0.025486147
0.084553726 -0.023968276 -0.067262694 0.007506599 -0.02244429 0.08973249 0.041499745 -0.05780011
0.07286042 -0.05935761 -0.046044063 -0.03092522 0.010415482 -0.08603423 0.061357643 -0.06426027
-0.09228685 0.06904244 0.06168204 0.080492444 0.02633354 -0.050590035 -0.09302934 -0.03813231
-0.00072258245 0.0190424 -0.019095426 -0.053701915 -0.010662134 0.10029695 -0.011246278 -0.09543197
-0.0104235895 -0.015015437 -0.045828503 0.027214292 0.063258044 0.05829363 -0.080350816 0.061542816
0.04590587 0.016089337 -0.052847285 0.06600125 -0.012922383 -0.03840692 0.04538005 -0.021816248
-0.02702931 -0.037241284 -0.08361271 0.008585197 -0.047095522 -0.03736661 -0.082593285 -0.0074522826
0.00845435 -0.0074634138 0.004079767 0.079163484 0.015509061 0.023409978 0.0015695615 -0.0481772
0.023045516 0.06980596 -0.027001156 0.08252454 0.019437952 0.07563192 0.023275293 -0.083700225
-0.03200583 0.028606823 0.049226735 0.07952667

weight f4 [1, 100]
00000000: 58d6 8bbe ccd1 0cbc 6a1c b03e f2d8 21be
00000010: d33b c03d c32f 2ebe c7d8 e43d 4d57 9a3e
00000020: e891 e7bd 77e9 a13c 1486 0c3e 9b5f 083e
00000030: 71ff a03e 57dd ac3d af86 ea3d 033e 9c3e
00000040: ad6c 7bbe b5ba 2c3d 6b8e 23bd f784 59be
00000050: aba0 03bd e0ec 91bd 8fd6 66be e2f3 993e
00000060: 0238 a6bd 9345 593e 29c1 bfbd 5dfc b3bd
00000070: 6dd4 d73d 70ad 263b 48f7 5bbe a381 9dbe
00000080: 8267 513e ced0 99be 9e61 8abe 6f84 e63e
00000090: 7fc8 243e 9a25 94bc 3051 57bd e5cf cf3c
000000a0: 1f4d bcbc 107e 46bd b822 c73e df68 203d
000000b0: 8297 793e 1755 8e3d 0b75 4b3d 6797 44be
000000c0: ceb1 10be af2a 9d3e 7fc6 c3bc d0eb ee3d
000000d0: 5554 56be 976a ba3e 9d8c 343d 9525 603e
000000e0: f314 443e 99e6 93be f59d 54be 5869 7a3e
000000f0: 7810 233e 22f6 e2be 923d a5be bda9 dfbc
00000100: 3eca aabe 7f41 88be e736 953d 29eb cabd
00000110: 4570 ecbe f9b1 8a3e b2a4 653e 9f05 fdbd
00000120: a4af 86be 6e06 293d c801 b2bd 4201 5c3d
00000130: ea79 653c 1235 f8bd 3771 b4be fefb afbe
00000140: af12 823b ff45 3c3b 615c 973e 4fb2 a83d
00000150: 0670 2bbe c060 babe c7ff abbe dcf4 923e
00000160: 8f2f a13c b3bd 70bd f3d3 febd f75b 473e
00000170: ac5d 11be 5da4 5a3e 03da eabe 277e 39bd
00000180: 47e1 3abc 4b26 27be dd17 753a 83d8 ae3d
-0.2731197 -0.008594941 0.34396678 -0.15805414 0.093864106 -0.17010407 0.111741595 0.3014473
-0.11307126 0.019764645 0.13723022 0.1331772 0.31444886 0.08440655 0.1145147 0.3051606
-0.24553175 0.042170245 -0.039930742 -0.21242128 -0.032135647 -0.071252584 -0.22542785 0.3006888
-0.081161514 0.21217947 -0.09363014 -0.08788369 0.10538564 0.0025432967 -0.21481049 -0.30762967
0.20449641 -0.30042118 -0.270276 0.45022914 0.16092108 -0.018084336 -0.05256766 0.025367687
-0.022985993 -0.048460066 0.38893676 0.039162513 0.24374202 0.06949823 0.049672168 -0.1919838
-0.14130327 0.30696627 -0.023898361 0.116660714 -0.20930608 0.36409447 0.04407941 0.21889336
0.19148616 -0.2888687 -0.20763381 0.24454248 0.15924251 -0.4432841 -0.32273537 -0.027302617
-0.33357424 -0.2661247 0.072858624 -0.099081345 -0.46179405 0.27088907 0.22426108 -0.12354588
-0.26305878 0.041265897 -0.08691746 0.053712137 0.014006117 -0.12119497 -0.35242626 -0.34371942
0.0039695124 0.0028728244 0.29562667 0.08237135 -0.16741952 -0.3640194 -0.3359358 0.28702438
0.019675998 -0.05877466 -0.1244277 0.19468676 -0.14195889 0.21351762 -0.45869455 -0.045286324
-0.011406249 -0.16323201 0.0009349564 0.0853739

weight f4 [15, 100]
00000000: 8fee c2be 2876 f4bd baf5 963e c8d7 55be
00000010: d04d 7e3c 959f 723e 8b64 87be 7828 e83d
00000020: d616 853e 7db0 7dbd b3dd b1be 0785 4b3e
00000030: 833d b73e 9b2f bf3e 1f3d 503d bdcc b7be
00000040: 2de0 763e b5a0 3c3e 6532 51be e52d 993e
00000050: 9597 223e 25d4 a53e 824e ce3e 4fa1 cb3e
00000060: 31f5 43be 0714 bbbc ed5a 26be 3d07 d43e
00000070: 4f8f bd3d a000 c43e 55bd c13e fe81 c1bd
00000080: d361 a13e 9801 71bb cbcf 703e ea64 393e
00000090: 923c fd3d 3dff 74be f7fe 563c da45 adbe
000000a0: e2bb 693e b038 bebc b7e9 123e 6073 953d
000000b0: 237a 1ebe ef6d d1be b744 d9bd 499a 0fbd
000000c0: e020 8abe 0d88 53be 0e8c 303e 0a54 cdbd
000000d0: 2683 2abe f2b8 eebe 5c21 8e3e 6033 553e
000000e0: 8029 4fbe 853e 51be d073 973e 177b 31be
000000f0: d3a7 aebe 4f52 2b3e fe46 8e3e e84c d9bd
00000100: 9879 7b3e 1048 3cbe e52b 6d3e cfbc 953e
00000110: db1b b53e d4f6 91be 8a50 d83e cd73 dabe
00000120: ae31 34be 17c2 99bd 4232 6bbe 5e51 90be
00000130: e8f5 68be 2f38 823e f639 bfbd 453c b2be
00000140: 8b47 86be bc81 91be 012b a73e 9b03 42bd
00000150: 0d74 3abe 90e7 763e bcfb 913e 3a4e 8e3e
00000160: e571 393e 2bf3 7fbd 8daa ecbd 4067 983b
00000170: 7acd 6c3e 7737 243e 1a95 53be 30ca 923e
00000180: 7a29 87be 8d23 99be af15 9c3e d8a5 2fbe
00000190: 77ad 783e 8c55 8ebd ea4a 4bbe a047 e93d
000001a0: 3b08 afbe 17d7 403e b53b ae3e 6a81 a93e
000001b0: 03be 773e bd43 8a3e f807 c83e f819 5e3e
000001c0: 9346 7a3e dafa e1be 7000 6e3e 40a1 91be
000001d0: 490b aa3e 8f23 cd3e 3ad0 89be 9223 b73e
000001e0: 45e1 19be ab69 af3e 93b2 d2be 3571 07bf
000001f0: e206 d1be 65a5 69be 984b 353e 129e 06bf
00000200: 73d1 9dbe a246 5dbe 889f a1be cd15 a33d
00000210: 96f8 8ebe 8006 d63e ff96 063d 78af 8f3e
00000220: a0fd e73e 78b5 d6bd a5bb 963e 8b7e f93e
00000230: 2346 c63e 8ba6 a1be 33fb 983e 7a6d 353e
00000240: b8dc 0abd 4d72 e93e 0753 ef3d 3f5d 6a3d
00000250: 17c5 3dbe 9bae 933e 70c9 ecbe 3688 a4be
00000260: 1602 43bd 03af a73e 161c 45be 40ec 79be
00000270: 5f3b 923e e2c3 7c3d b419 013e e3ec 43be
00000280: 5dc3 d9be 7d44 d13e e5c6 5abd 30c5 d2be
00000290: 707f 063f 5148 3dbe 9411 0cbe fc33 223e
000002a0: 48c1 a93e fb28 bdbe 6b40 d9be 91a5 b9bd
000002b0: 4c3d a3be fa6a f23e 60e9 ab3e 2f98 4f3c
000002c0: 5644 1abe 0f27 07be 9831 dabe 4004 03bf
000002d0: 9aed 6f3e 621f b4be 11ab b53e 7acd d3be
000002e0: af80 e13e b1c8 b93e a503 f13e ce50 b73e
000002f0: dc19 04be 6d26 a7be ed1e 02ba b770 173d
00000300: 4ff5 313e 5a7c 033e 7653 b0bd 4b94 0ebe
00000310: 3b1a 9ebe 8b6c 18be 5ad2 573e a851 65bd
00000320: af3f 35be 5b43 c63e 0709 993e e8cc da3e
00000330: 15c1 c9be a789 cabe c2cc 03bf 6f64 a1be
00000340: d34a 00bf 422b 9abe 5abc 50be 8841 e43e
00000350: 571e 693e 1ae8 623e 9981 c9be 66d0 12be
00000360: 2b36 943e f859 813e 6a2a 81be ad66 4c3e
00000370: 54c6 b23e b8df 82bd dfac 9cbc 1c0e a83e
00000380: c30d 3bbe e0e6 0f3f 70ba ce3e cd7c a6bc
00000390: 79ad 25bd 6714 9b3e fcf2 943e a7a4 26bf
000003a0: f767 a73e c3bb a3be 1be1 14bf 1286 f5be
000003b0: 1873 0abf 3b00 5d3d 27f2 7abd b757 19bf
000003c0: 4363 a8be e82a a63e ca97 5e3e c664 32bb
000003d0: 02fb dc3d d3cf 62be 9369 fabd ad5e 7abe
000003e0: 07b7 01bf 3d89 4a3b 2d06 e73e c2a2 ad3e
000003f0: da2d cbbe 6ff3 82bd cb48 e03e 6e45 ab3e
-0.3807263 -0.11936599 0.2948435 -0.20883095 0.015521482 0.23693688 -0.26443896 0.11335844
0.25993985 -0.06193589 -0.34739456 0.19874965 0.35789117 0.37341008 0.05083954 -0.3589839
0.24108954 0.1842068 -0.2042938 0.29917827 0.15878136 0.32388416 0.40294272 0.39771506
-0.19136502 -0.022836698 -0.16245623 0.41411772 0.092558496 0.38281727 0.3783976 -0.09448622
0.31519946 -0.0036774632 0.23516767 0.18104902 0.123650685 -0.2392549 0.013122312 -0.33842355
0.22825578 -0.02322039 0.14346968 0.07297397 -0.15476279 -0.40904185 -0.106088094 -0.035059247
-0.26978207 -0.20657368 0.17240927 -0.10025795 -0.16651592 -0.46625477 0.27759826 0.2082038
-0.20230675 -0.20434006 0.29580545 -0.17332111 -0.34112415 0.16730617 0.27788538 -0.10610372
0.24558103 -0.18386865 0.23161276 0.29245612 0.35372815 -0.28508627 0.42248946 -0.42666474
-0.17597076 -0.07507723 -0.2296839 -0.28187078 -0.22750056 0.2543349 -0.09337227 -0.34811607
-0.26226458 -0.28419292 0.32649997 -0.04736672 -0.18208332 0.24111772 0.2851237 0.27794057
0.18109854 -0.062487762 -0.115559675 0.0046509802 0.23125258 0.16036783 -0.20662346 0.28669882
-0.26398832 -0.29909936 0.30485293 -0.17153108 0.24284922 -0.069499105 -0.19852796 0.113906145
-0.34185967 0.1883205 0.34029928 0.33106548 0.24193577 0.27004805 0.3906858 0.21689594
0.24440984 -0.44136697 0.23242354 -0.28443336 0.33211735 0.40066192 -0.26916677 0.35769325
-0.1502734 0.34260306 -0.41151866 -0.52907115 -0.40825564 -0.22817 0.17704618 -0.52584946
-0.3082386 -0.21608976 -0.31567025 0.079631425 -0.2792403 0.41801834 0.032858845 0.2806356
0.45310688 -0.10483831 0.29440036 0.48729357 0.38725385 -0.31572375 0.2987915 0.17717543
-0.0339019 0.45595017 0.11685758 0.057217833 -0.18532215 0.2884415 -0.46247435 -0.3213517
-0.04760941 0.3275071 -0.19248995 -0.24406528 0.28560922 0.061710246 0.12607461 -0.19133334
-0.42531863 0.40872565 -0.053412337 -0.41166067 0.52538204 -0.18484618 -0.1367858 0.15840143
0.33155274 -0.36945328 -0.4243196 -0.090647824 -0.31882703 0.47347242 0.33576488 0.012670561
-0.1506513 -0.13198493 -0.42615962 -0.5117836 0.23430482 -0.35180193 0.35482076 -0.41367704
0.4404349 0.36285928 0.47073093 0.35803837 -0.1290049 -0.32646504 -0.0004963715 0.036972728
0.17378734 0.12840405 -0.08609669 -0.13923757 -0.30879387 -0.14885156 0.21076337 -0.055986077
-0.17700075 0.38723263 0.298897 0.42734456 -0.39405122 -0.39558145 -0.5148431 -0.31521937
-0.5011417 -0.30111128 -0.2038435 0.44581246 0.2276548 0.22158852 -0.39356688 -0.1433731
0.28947577 0.25263953 -0.25227672 0.19961043 0.34916937 -0.06390327 -0.0191254 0.32823265
-0.18266968 0.5621166 0.40376616 -0.020323182 -0.04044864 0.30289003 0.29091632 -0.6509499
0.32696506 -0.31979188 -0.58155984 -0.4795385 -0.5408187 0.053955298 -0.06126609 -0.5989947
-0.3288823 0.3245461 0.2173759 -0.002722071 0.107900634 -0.22149591 -0.12227168 -0.24450178
-0.506699 0.0030904554 0.451219 0.33913237 -0.3968342 -0.063940875 0.43805537 0.33451408

bias f4 [15]
00000000: 2a58 cd3e 736d b53e 9628 3d3f 06c2 813f
00000010: 9556 783f 4a5c 623f fb7e 0a3f 4836 8a3f
00000020: bad5 cdbd fa18 62be f7de 81be 62f4 51be
00000030: 9358 65be ec3f cabd eb51 edbd
0.40106326 0.35435066 0.73890054 1.0137336 0.97007114 0.8842207 0.54100007 1.0797815
-0.10050531 -0.2207984 -0.2536542 -0.20503381 -0.2239707 -0.098754734 -0.1158789
