checkpoints/9feature_lstm_num_comm1799_an15_sn_D3_al5_E0.5_B5_lr10_num_clients0.05_cf100.pth (torch, 228375 bytes, 9 tensors)

weight_ih_l0 f4 [400, 9]
00000000: 2ae7 2f3e dab1 4abe 32e6 9fbe a381 d73e
00000010: 02ce d6bc bd91 c7bc 5d56 103d b41b 863d
00000020: 2b4a f3bd 7203 283d afd0 273e df70 3b3d
00000030: fffc 8c3d 6555 3a3d a3cc 253e 604a 7a3d
00000040: f5f7 543d c099 943d 3221 e1bd b7fe fcbd
00000050: 0f7f 60bd 1a0d 543d 6311 9ebd c557 213d
00000060: 226b ce3b 9f9a b63d cde7 bbbd 4d45 ce3e
00000070: 2c81 203e 83ed fd3c 46bb a03d 98dc 913d
00000080: 164d 09bd 28f4 f53c f02f 29bc 9f34 fbbd
00000090: 8a41 62be a08b 46bf 1e18 a03e ef2b f6bb
000000a0: 7573 1f3e 67ba 8e3e cba3 10bf 651b 053e
000000b0: 9426 b6bc d761 913e 6fe1 34be 93d6 583d
000000c0: ce83 9ebd 68ee f63d 3704 e93d 482f 00be
000000d0: 0603 88bd af8f c6bd cec8 203e a72c 92be
000000e0: e5fa 793e e5f4 51be 37bc 9b3b 6d1d 1fbb
000000f0: da1c ddbc 0dab 263d 97be c2bd 739b 123e
00000100: 36b1 96be 436d 023e cfa1 1b3d 1fda a33d
00000110: 4334 c2bd 8fcc 05bd fdfd aa3c 4f72 02be
00000120: 355a 5dbf bd39 a9be 20ef f3bd 9571 063e
00000130: 7776 a53d 8aff 55bd 2e79 0abd 23df 08be
00000140: eb69 c93e 8acf e1bd 99d3 093d 2ae3 da3c
00000150: b89e 233d 53c2 ae3d efa6 c9bc b4b6 833d
00000160: ffdb 143d 1ffe f3bd f484 01bd 6f67 063d
00000170: e0f0 3c3e 883b 153d eecf 9c3d efea 013c
00000180: f03a a0bd f980 363e 740f c9bd 282b bb3d
00000190: 608d 513e 507f 84bc 97ef ad3d ef8b c2bb
000001a0: d3cb a03e 337d a73d 0770 993d ab5f 423d
000001b0: 3be5 1cbe eaf6 75bd 3d6b db3e 881e c1bc
000001c0: 0f6f 9abd 5882 5f3e 60da 263e 84bf 12bd
000001d0: 13aa 453e 391a 2c3d 44e0 1e3b 154a 533c
000001e0: 731c adbd 1288 ee3b abad bc3d e74e 00bd
000001f0: 8fae 09bd bcec c13d d872 e53e b075 9dbe
00000200: 076e 3dbf 5713 c53d 35e7 7cbd 229e f8bd
00000210: b1c9 b83e 8d57 23be b7c1 37be 2cfb 8fbe
00000220: 885f 543d 7c3c 0c3d 5ad2 6e3e 7359 ac3d
00000230: c3f6 ab3d 63b8 1dbe 5a56 b8bd 4f3f 34bc
00000240: bb24 bb3e 1d00 1ebe a3b6 4ebe c4c7 98bd
00000250: 8f14 163d 381b b3bc 1b19 dbba 59d3 993d
00000260: fcc1 88bd 95cf dd3e d07e 1f3e bf75 47be
00000270: 7b68 ecbd 5751 3f3d e144 a33d 0e6b 34bc
00000280: 2d48 4cbd 7d0e 33be b884 d13e 62e2 0d3e
00000290: 0de7 9e3d 0793 8bbd cd39 91bd 278c 9ebd
000002a0: b3a9 cc3d 2006 f0bd 6eb3 35be 10c9 973e
000002b0: 1c31 1f3d ec91 893e dbc5 08bc 1594 14bd
000002c0: 0080 55bd ac8c 9fbd 5048 423d a290 7a3c
000002d0: ca03 95be 0ab0 7dbf 8f7f 83bf 311f 1f3d
000002e0: 5501 e7bd e55c a9bd d09d 64bf 7dc5 473e
000002f0: 8b45 feb8 3716 3b3d 1c11 80be 3dc0 7e3e
00000300: 5376 5d3d 9288 da3b 3d0d 6bba 0251 193d
00000310: 20d5 123d 55db 85bd 458d 5fbe 8d7e f83d
00000320: bde4 943c c218 ef3e ca2f 883e 3dbb 173f
00000330: f219 333d bdbb 8fbd bb01 fb3e ab61 733e
00000340: b32f 1abd 481c ed3d e630 c83d 520e dbbd
00000350: 1fdd 0e3d ec53 a23b 12fa 303d 04ce c23d
00000360: db62 bfbe 0e88 073d 0bc5 b53e 1bb1 29bd
00000370: a76d 3d3e 53f3 36bc 5b91 073e f3b1 0bbe
00000380: da47 d43e 6241 3dbd a0a8 efbd 10fc c13d
00000390: ed8b c43b 1af2 c3bc 2faa 0e3b 5cc8 983d
000003a0: c295 a7bb 9775 d43d 7754 bdbe 5cf3 c2be
000003b0: fd24 0dbe ffdc 7dbb 673e a4bd 0820 a33d
000003c0: 2b3c eabd fd92 003e 688b 3d3e 6dd5 f13e
000003d0: 5161 81be cb16 fbbc 348f 333e c583 683d
000003e0: fbad ffbd f308 26bd 9a2c c2bc c882 21bd
000003f0: 8d46 163f 2632 433e b511 943d 8faa 113d
0.17178026 -0.19794407 -0.31230313 0.42091092 -0.026221279 -0.024361486 0.035238612 0.06548253
-0.11879381 0.04101891 0.163882 0.04576194 0.06884193 0.045491595 0.16191344 0.061106086
0.051994283 0.07255888 -0.1099266 -0.123532705 -0.054808673 0.051770307 -0.0771816 0.039390344
0.0062993923 0.089162104 -0.09175072 0.40287247 0.15674275 0.030997043 0.078482196 0.07122153
-0.03352078 0.03002365 -0.010326371 -0.12265896 -0.22095314 -0.775568 0.312684 -0.0075125615
0.15571387 0.2787659 -0.5649993 0.12998731 -0.022235192 0.28394958 -0.17664121 0.05293901
-0.077399835 0.12057191 0.11377757 -0.12518036 -0.06641202 -0.09695374 0.15701601 -0.28549692
0.24412115 -0.20503576 0.0047526616 -0.0024279014 -0.026991297 0.04069047 -0.095090084 0.14317112
-0.29432076 0.12736993 0.03799611 0.08000588 -0.094826244 -0.032665785 0.020873064 -0.12738918
-0.8646577 -0.33051863 -0.11910844 0.13129266 0.08079236 -0.052245654 -0.033806972 -0.1336637
0.39338621 -0.11025913 0.03364906 0.026719648 0.039946288 0.08533158 -0.024615733 0.06431332
0.036342617 -0.11913704 -0.031620935 0.032813486 0.18451262 0.036433727 0.07656847 0.007929548
-0.078237414 0.17822637 -0.098174006 0.09139091 0.20464087 -0.016173989 0.08492964 -0.0059370915
0.31405506 0.08178177 0.07492071 0.047454517 -0.1532182 -0.06004993 0.42855254 -0.023574129
-0.07540714 0.21827066 0.16294241 -0.035827175 0.1930316 0.042017195 0.002424256 0.0128960805
-0.08452692 0.0072794044 0.09212812 -0.031325247 -0.033613738 0.094689816 0.4481418 -0.3075385
-0.73996013 0.096228294 -0.061743934 -0.121395364 0.36091378 -0.15951367 -0.1794499 -0.28121316
0.05184892 0.03423737 0.2332243 0.084154986 0.083966754 -0.15402369 -0.09000845 -0.011001422
0.3655146 -0.1542973 -0.20186858 -0.07459977 0.0366407 -0.021863565 -0.0016715856 0.075110145
-0.066776246 0.43322435 0.15575719 -0.1947851 -0.115433656 0.04670843 0.07972122 -0.011011852
-0.04987352 -0.17485996 0.4092157 0.1385589 0.07758913 -0.068151526 -0.07091103 -0.07741576
0.09993305 -0.11719918 -0.17744228 0.29645586 0.038865194 0.26869142 -0.008347954 -0.036274035
-0.052124023 -0.07790503 0.047432244 0.015293272 -0.29104453 -0.9909674 -1.0273303 0.038848106
-0.11279551 -0.08269671 -0.893033 0.1950893 -0.00012124617 0.045675483 -0.25013053 0.2487802
0.05406792 0.0066691125 -0.0008966511 0.03743077 0.035847783 -0.06535975 -0.21831234 0.12133513
0.018175477 0.46698576 0.2659896 0.5927008 0.043725915 -0.0701823 0.49024758 0.23767726
-0.037643146 0.1157766 0.09774952 -0.10696091 0.034878846 0.004953852 0.043207236 0.095119506
-0.37380108 0.033088736 0.35501894 -0.041428667 0.1849886 -0.011166411 0.13239042 -0.13642101
0.41461068 -0.046204932 -0.117020845 0.09471905 0.0059981258 -0.023919154 0.0021768918 0.074600905
-0.005114288 0.10373991 -0.36978504 -0.38076293 -0.13783641 -0.003873646 -0.08019715 0.07965094
-0.114372574 0.12556072 0.1851021 0.47233143 -0.2526956 -0.030650517 0.17535096 0.05676629
-0.12484356 -0.04053588 -0.023702908 -0.039431363 0.587014 0.19062099 0.0722994 0.035563048

weight_hh_l0 f4 [400, 100]
00000000: caf6 3e3d 3b10 b0bd 9a3b e3bd 7bad 00bd
00000010: f2df b63d 7185 05be a075 49be e83a ce3d
00000020: b888 6dbd 2aca 68bd 334d b23d 53fe 33be
00000030: 5826 5fbd 3d4f 33bc 47d1 993d df2a bfbd
00000040: 64bb 3b3e 5242 c33c e2fb 8bbc d7a2 bebd
00000050: d2da 46bd aa2f 06be 5658 9e3d 5e7f 1fbe
00000060: 2332 cbbd 9d98 ec3d 7b2c 8f3d 8757 3ebd
00000070: 03b3 fa3d 280c cabc 57bc 843c 430b d53d
00000080: 5cdf 45bc a920 243e da06 f5bd 73ae cfbd
00000090: 1204 03bd ee52 a7bd 233a e4bc e695 143e
000000a0: c0f5 fb3c 704a 1c3d cfb5 113d ff2c a63d
000000b0: ba4e f03c 47c6 16bd 3d9f ae3d 9b99 77bc
000000c0: 12cd f2bc 3233 4dbc 0732 52bc dcdd 06be
000000d0: d015 183c 3881 5abe a7af 22bd 1f27 fe3c
000000e0: 19c5 8a3b 50ce d4bd d341 c3bd 606a d33d
000000f0: a42a 8e3c 6b97 d83d db62 f5bd d2e1 b53d
00000100: 9807 d43b f492 32bd 4fd0 0fbc 7063 d03d
00000110: 14a1 3a3d 43fa 96bd 8146 80bd 38f0 9bbb
00000120: ab5d 65bc 4d90 19bd 430b 6b3c eada 6a3d
00000130: 4783 20bd 024d 923d 0781 923d 8fc0 863b
00000140: 6384 a13d 5e66 0337 23b0 44bd 1a72 493d
00000150: 2bc1 c3bd bdc8 483e abc1 d1bd 2ac5 db3c
00000160: ab42 4dbe 6fbc abbd ffd8 eb3d 562d 443d
00000170: b2df bd3b a769 8b3d 885d fcbb 74cc 2e3d
00000180: 83f6 83bb d0bf a13d 0bbf a3bd 0452 963c
00000190: a7fd c5bd 0ded 64bd d39a 863d cf63 0e3d
000001a0: 39fa a43d c2cc be3d e55b 0bbd a7ec 83bd
000001b0: f7b5 c3bb 5b0e 5fbd af1d d43c b00d 543d
000001c0: fde4 0f3d b0b9 82bc fa6d dcbd 0206 b33a
000001d0: 6aa1 563d 1a29 b03d 838a 97bd 6d16 053d
000001e0: 67c6 02bd 29eb b1bb 0b1a 053d fde0 e3bb
000001f0: 444a 903d 6a95 8c3c 08df d8bc 682e c03c
00000200: e1b8 a63d fbc1 813c 9f9d 4fbd 4abd 903d
00000210: ce0e 123c 0cd0 b5bd c7af 0c3d b8c0 493d
00000220: e7a1 6b3c 91aa 8abd 5d01 e83d 1b65 2e3d
00000230: c336 dd3c 1b3c 8abc 3c16 2b3d 5764 06bd
00000240: 436d 613d a76f 83bd 38b5 993d 7781 6ebd
00000250: 2d73 fdbc cb2f 31bc 4794 5d3d 5302 6b3d
00000260: d6e1 883d 1d73 ac3d 536b db3b 08fc 86bd
00000270: 3b5d e8bb 07b0 803d 0314 ac3c 3a26 933d
00000280: 20d2 74bd 27a9 c83c 9b73 6a3d 5787 493d
00000290: d864 edbc eff6 5e3b a9ad 0fbd 58ed a9bc
000002a0: 90a7 143d 4a65 d2bd 7c70 063e 3296 a2bd
000002b0: aa81 0fbd 4043 f8bc 9750 a1bd 9b22 debd
000002c0: e2a9 6bbd 2842 9c3d 436e a23d 7d09 a9bd
000002d0: 0d45 67bd fbe9 f9ba 7f8a 85bd e0af c6bd
000002e0: e770 a43c 83ed a3bd 5727 8ebd 63bb c73d
000002f0: f03c d8bd 3b18 943c 9af8 c8bd f0db cbbc
00000300: d7f8 173d c01f 623d 1827 a23c 3418 053e
00000310: 88e6 753d f4d5 89bc 90d3 03bd d6c5 bfbc
00000320: a623 16bd 9d82 5bbc 078a 0e3c a465 12bd
00000330: d9bd c03c 85aa 6dbd 70b8 743c cbdc bebd
00000340: 80dd b53d 7f98 35bd ed2f 143d 8042 643d
00000350: 7b89 993d ad8c 1c3d 7643 393c 971a fe3b
00000360: cda2 ec3c ed07 5dbd 7866 aa3d b4e6 a8bc
00000370: a7b7 473d 5877 573d 2cad 453d 8b8f 1abd
00000380: 7e72 8f3a c2f5 d2bd 0564 503d 7f00 7a3d
00000390: 3f91 bebc 78fa 61bd 4fd7 6abd 7a90 74bd
000003a0: 5e7d 21bc af8f 43bc b21a 76bd e0f6 7c3d
000003b0: a338 4fbd 0d98 39bc 5a4c 83bd 0aee 1b3d
000003c0: 9b08 8fbc b38a f2bc 4eb6 a53d 23da 95bd
000003d0: 6af4 9f3a a859 42bb d7e0 14bd ba24 d73d
000003e0: 8350 7f3d 584e 393d 05da e6bb bce0 a23d
000003f0: d1d4 953d 37bc 7c3d 0d9d 973c bbea 7b3d
0.046622075 -0.08596846 -0.110953525 -0.031415444 0.08929433 -0.13039185 -0.19673777 0.10069829
-0.057991713 -0.056833424 0.08706131 -0.17577486 -0.054479927 -0.010944185 0.075106196 -0.09334349
0.18333203 0.023835335 -0.01708788 -0.09308403 -0.048548527 -0.1310412 0.077316925 -0.1557593
-0.09921672 0.11552546 0.06990906 -0.04647019 0.12241175 -0.024664 0.016203089 0.104025386
-0.012077179 0.16028084 -0.119641975 -0.101406954 -0.031986304 -0.081701145 -0.027859753 0.14510307
0.030756831 0.038156927 0.035573777 0.08114051 0.029334415 -0.036810186 0.08526466 -0.015112306
-0.0296388 -0.012524413 -0.01282931 -0.1317057 0.009282544 -0.21338356 -0.039718296 0.031024514
0.0042349217 -0.103909135 -0.09534039 0.10323024 0.017354317 0.10575756 -0.11981746 0.088809624
0.006470632 -0.043597177 -0.008777692 0.10175216 0.045563772 -0.073719524 -0.062634476 -0.004758861
-0.013999383 -0.03749113 0.014345947 0.05733768 -0.039187696 0.07143594 0.07153516 0.0041123102
0.07886579 7.832043e-06 -0.04801954 0.04918108 -0.09558328 0.19607826 -0.10242017 0.026827414
-0.20044963 -0.0838555 0.11515998 0.0478948 0.005794489 0.06807261 -0.0077015795 0.04267545
-0.004027189 0.078979135 -0.07995423 0.018349655 -0.09667521 -0.05589013 0.06572499 0.034763154
0.08055539 0.09316398 -0.034023184 -0.06441622 -0.0059726196 -0.05445705 0.02589306 0.051770866
0.03513049 -0.015957683 -0.10763164 0.0013658407 0.05240003 0.086015895 -0.07399466 0.03249209
-0.031927492 -0.0054296446 0.03249554 -0.006954311 0.07045415 0.01716109 -0.026473537 0.023459628
0.081407316 0.015839567 -0.05068743 0.07067354 0.0089146625 -0.088775724 0.03434732 0.049256057
0.014381862 -0.06770814 0.11328385 0.04257689 0.027003651 -0.016874364 0.04176925 -0.032810535
0.05503584 -0.0641778 0.07505268 -0.058228936 -0.03093871 -0.010814617 0.054096486 0.057375263
0.066837 0.084203936 0.0066961437 -0.0659104 -0.007091192 0.062835746 0.021005636 0.071850255
-0.059770703 0.02449472 0.057239156 0.049201336 -0.02897875 0.0034021696 -0.035077725 -0.020743057
0.036292613 -0.102732256 0.13128847 -0.07938804 -0.035035767 -0.030305505 -0.078766994 -0.10846444
-0.05753506 0.07629806 0.07931187 -0.08253763 -0.056462336 -0.0019066924 -0.06520557 -0.09701514
0.020073367 -0.08004286 -0.06941097 0.09752538 -0.10558498 0.01807796 -0.09813042 -0.024885148
0.037102547 0.05520606 0.019794032 0.12997514 0.060034305 -0.016825654 -0.032184184 -0.023409765
-0.03665509 -0.01339784 0.0086999005 -0.035741463 0.023528026 -0.05802395 0.014936551 -0.09319457
0.088801384 -0.044334885 0.036178518 0.05572748 0.074969254 0.038220096 0.011307588 0.0077546346
0.028886223 -0.053962637 0.083203256 -0.02061782 0.04875913 0.05260405 0.048260853 -0.03773455
0.0010944156 -0.10300781 0.050876636 0.06103563 -0.023262618 -0.055170506 -0.05733424 -0.059708096
-0.00985655 -0.011936112 -0.060084052 0.061758876 -0.050591122 -0.011327756 -0.06411047 0.03806881
-0.017460158 -0.029607153 0.080914125 -0.07316997 0.0012203578 -0.002965549 -0.036347236 0.10505052
0.06233264 0.04524073 -0.007045033 0.07953021 0.07315982 0.061702933 0.018507505 0.061503153

bias_ih_l0 f4 [400]
00000000: 23ca ea3d d5d8 d4bb dfb2 083e 358a 0f3d
00000010: 0ff1 ab3d b58f 5c3d 024e 883d e6fd 04bb
00000020: 5702 1e3d f26c aabc db57 6a3d 7521 d2bc
00000030: 0bcd 73bd b73e b93c 784b 38be 1bcc 94bc
00000040: a2d9 7d3d 890c 213e 74b6 95bc 2592 ee3d
00000050: ca01 513e f554 0f3e f8d4 233e 1300 063d
00000060: 6864 ec3d 451d 213e 1ca4 8b3d 07c7 0cbd
00000070: eb62 5abc 37c9 5c3e 6b41 c03d 93ac 1d3e
00000080: 5fe9 203e 7ea1 b9bc 1d28 c73d 5b46 073e
00000090: 4711 323e 5e16 213d 6366 fd3d 1f3a f63d
000000a0: 1028 7c3d 0274 e83d b133 a53d ccb0 a8bd
000000b0: 8692 0c3d a9cb 223e ba9d 8f3d 56e0 aa3d
000000c0: ba59 853d c7d4 12bd 2051 233d a2b0 ac3d
000000d0: a3ad 6b3d 1ff7 43bd 8513 73bd 14df 163d
000000e0: bd95 f93d 3908 093e 7549 0f3d 5234 c13c
000000f0: ebef 3d3d d9b1 463d 058c a2bb e850 c13d
00000100: 67fc 32bd cba6 193e efc6 403d 49c9 073d
00000110: 0730 29bd da27 233d 5f5e 393d b3ce 15bd
00000120: 6abc 823d 59b4 0b3e 2d3e 5c3d 4a8b 013e
00000130: 579d 1d3e 9cfd 413b 3a90 273d f4be c23d
00000140: ba09 713d 8e0e 4b3d df19 103d fd67 f73d
00000150: 7703 b13d cd54 6b3d 7462 c63c 82af 433d
00000160: 00af 6fbc 6596 0b3e bb4e 0b3e c756 c8bc
00000170: 3f75 1f3d 020f 473c 04d5 0e3d e7a4 973d
00000180: 20ff 623d 8523 f53d c925 a33d 1b2d 043e
00000190: a596 bd3d 1dae cb3d 23aa 493d 6d27 bc3d
000001a0: bad9 d33c 8062 773d a29b a13b e5f7 ee3c
000001b0: 03c6 1dbc 4067 1e3e 56cb 023e ddb0 713d
000001c0: d305 c43d 2ffb 6bbc f370 6b3d 94d2 c23d
000001d0: 8d1d 1c3e 450f f13d f5cf de3c c094 723c
000001e0: d89f ea3b cb82 f63d ee8b 1e3e c24b ebba
000001f0: 9dcb 0d3e 9870 47bc 23af 0d3e 9247 c9bc
00000200: e25d 943d 788f e33d 9b53 c7bd 40bd 6d3e
00000210: c703 db3d 12b4 94bd 1715 c83c 24ea 9b3d
00000220: 2a7c f83d b8ed e93d 98b2 083e db19 2e3e
00000230: 13b1 843d 9818 b4bc b4ba 993d 8b57 7cbd
00000240: e563 193e 2a28 b2bd e223 8dbc 10d6 48bc
00000250: e7e0 1b3d 6764 3bbd 70af 183e bc37 913d
00000260: 15ed c13d 5854 e03d 72f1 043e 218c 8a3c
00000270: 878b 91bc decb 3f3e 85f2 bbbd d472 113e
00000280: eec5 bd3c 3b09 d13d 2b63 a93d 0413 90bc
00000290: 114e 01bd 4eb4 c83d 41b9 c83d 3088 4f3d
000002a0: 2d29 693d 5c9d 1abd a0ed 4e3d 590c 4abd
000002b0: 92fc 30bd e08f 783d 44c5 1bbb b5bf bcbc
000002c0: f2c8 da3b 6b18 d3bc 511f 423e 3f2d f13b
000002d0: 8610 8ebd 5f47 013e 414f 2b3e 7bb8 3b3e
000002e0: 9fdd 9bbd 7f4f 2a3e dfd9 59bd ed22 e23b
000002f0: 8178 973d 768e 01bd baf1 abbd c0a9 033e
00000300: eebd c73d 756c 1abd b5fe f83d 6585 013e
00000310: 38ba 503c 2bb3 9bbd d51b 323e 0312 ffbc
00000320: 25a8 69bc f3ae a1bd 9f9d c5bd ac5b 863d
00000330: 6f4b 9e3d 30ad 6d3e 6b84 60be a37f 5fbd
00000340: 43d7 42bd 0bb2 c1bd 980d 7cbe ed23 833d
00000350: 6d8b 31be fec3 88be 340a 2f3d 565c 22bd
00000360: 8d25 1b3e b6f0 803e a7be 3ebe 8a0e eabd
00000370: 15f2 c1bc d2ad 943e 1a14 c63d e792 343e
00000380: 084a 43bd 8830 203e d33b 64bd 3bda cd3d
00000390: 5031 e73a ebbc 993d db4a 54be c0b5 70be
000003a0: 592a b4be d585 dcbd 4568 39be 1f2e 5cbd
000003b0: b09d 5fbe 771b 1b3e c04d dc3c fd10 1dbe
000003c0: ea6b 6bbe 50c6 273b ed19 1c3d f916 a83e
000003d0: fa2b 68be eae8 6f3e af10 7d3d c3b0 db3c
000003e0: 01c0 babc c9c7 883d c343 8dbe 0f3a 563e
000003f0: f50a dfbd 7be5 82bd 2121 0cbd fb91 28be
0.11464336 -0.006495575 0.13349484 0.035043914 0.08395588 0.053847987 0.06655504 -0.0020292937
0.03857645 -0.020803902 0.05721269 -0.02565072 -0.059521716 0.022612913 -0.17997539 -0.018163731
0.06197513 0.15727438 -0.018275477 0.116489686 0.20410839 0.13997252 0.1599921 0.032714915
0.115425885 0.15733822 0.06818411 -0.034369495 -0.013329248 0.21561132 0.093874775 0.15397863
0.15714024 -0.022660013 0.09724448 0.13210432 0.17389403 0.03932797 0.12373044 0.120228045
0.061561644 0.11350252 0.080665 -0.08236846 0.034319423 0.15898003 0.07012506 0.0834357
0.065112546 -0.03584745 0.03987229 0.084321275 0.05753864 -0.047843095 -0.059344787 0.036833838
0.121867634 0.13382043 0.034982163 0.023584519 0.04637138 0.048509452 -0.0049605393 0.0943926
-0.04369774 0.15005033 0.047064718 0.033150945 -0.041305568 0.039832927 0.045256015 -0.036574077
0.063835934 0.13643016 0.053770233 0.12650791 0.15392052 0.0029600626 0.04090903 0.09509078
0.058847167 0.049574427 0.035180923 0.12080381 0.08643239 0.05745392 0.024216868 0.0477748
-0.014629126 0.1363159 0.13604252 -0.024455441 0.038930174 0.012149574 0.034871116 0.074044995
0.055419087 0.119696654 0.07966191 0.12907831 0.09257249 0.09945319 0.04923452 0.09187207
0.025860656 0.06039667 0.004931883 0.02917094 -0.009629729 0.15469074 0.12772879 0.05900656
0.095714234 -0.014403149 0.057480764 0.09512821 0.15245648 0.117704906 0.027198771 0.014805973
0.007160168 0.120366655 0.15483066 -0.0017951655 0.13847204 -0.012172841 0.1383634 -0.02457026
0.07244469 0.11111349 -0.09732743 0.23216724 0.1069408 -0.07260908 0.024424119 0.07613018
0.121330574 0.114222944 0.13349378 0.1700205 0.06479087 -0.021984383 0.07506314 -0.061606925
0.14979513 -0.08699067 -0.017229024 -0.012258068 0.03805628 -0.045750048 0.14910674 0.070907086
0.09469048 0.10953587 0.12982729 0.016912522 -0.017766727 0.18730113 -0.09177116 0.1420396
0.02316567 0.10206839 0.08270868 -0.017587192 -0.03156859 0.098000154 0.098009594 0.050666988
0.056924034 -0.037747726 0.050519586 -0.049328182 -0.04320962 0.060684085 -0.0023768703 -0.023040632
0.0066767866 -0.02576848 0.18957259 0.00736013 -0.06936745 0.12624882 0.16729452 0.18332092
-0.0761063 0.16631888 -0.053186294 0.006901136 0.07396031 -0.031630002 -0.08395715 0.12857723
0.09753023 -0.03770109 0.121579565 0.12648542 0.0127397105 -0.07602533 0.1739343 -0.031136518
-0.01426128 -0.07894697 -0.096492045 0.06560454 0.077292316 0.23210597 -0.21925513 -0.054565083
-0.04756857 -0.09457787 -0.2461456 0.06403337 -0.17338343 -0.2671203 0.04273434 -0.03963884
0.15151043 0.25183648 -0.18627416 -0.11428554 -0.023675004 0.29038864 0.09671803 0.17634164
-0.047678024 0.15643513 -0.055721115 0.1005139 0.0017638598 0.07506736 -0.2073168 -0.23506832
-0.3518856 -0.10767714 -0.18106182 -0.053754922 -0.21837497 0.15147196 0.026892543 -0.15338512
-0.22990385 0.0025600381 0.038110662 0.32830027 -0.22673026 0.23428693 0.06178349 0.026817685
-0.022796633 0.06678731 -0.2759076 0.20920585 -0.10890762 -0.06391426 -0.03421128 -0.16461937

bias_hh_l0 f4 [400]
00000000: 60c7 773d fdd8 e73d a082 843d 50fd d83c
00000010: 1b18 bdbc 3f15 9e3d cbd1 1f3d 1356 f43d
00000020: 0fe5 dd3d d700 b33c 9be7 ac3d 4dac af3d
00000030: e65c 973c 7692 a93d e4ac 4cbe a64e 433c
00000040: 4bb3 853c 13a8 bb3d ef5f 4c3d 995f 803d
00000050: ab24 1f3e af81 343d 7225 b83d d3a6 0dbd
00000060: e2a7 523e cdf4 e93d 53f5 cb3d 3dc7 863c
00000070: d462 a2bc 10bb e83d c3ed 893d fd8e cf3d
00000080: fd73 ea3d adbc 293e 0287 e03d db89 223e
00000090: 9288 0f3e 94fc 8d3d 8f8e 3c3c c36c 0a3d
000000a0: 67a1 053c e203 c93d a351 e33d 4b0f 3f3d
000000b0: d2f9 233e cfcb 893d 99b5 b5bc 1f87 ac3c
000000c0: 175b e93d 2d58 5ebd 4994 333b 9ab6 593d
000000d0: 8e80 ba3d 48e9 c43c 80db 78bd d4bc 143d
000000e0: 91aa 9c3d 0f6d e83d 4b3d edbc c75f 1a3e
000000f0: 724f 0a3e bcdc 38bd 907d bf3d 5731 f33a
00000100: af0f f43d 1ff8 013e 7bc6 0d3e 2366 093e
00000110: 5505 773d 30b1 8d3d 390e 8fbb caf3 ddbc
00000120: 717f 0fbd b98a 043e 1d3c 06bc cef6 99bb
00000130: 2d38 a33d 1d35 b53d abc5 4a3e 5489 ba3d
00000140: fd96 1bbc 3ac4 c83d db45 ab3d 3844 d63d
00000150: b0fa 943d c04d b73d 1fa8 d03c 83af 423c
00000160: 47f2 1f3e 2531 0a3e 0e51 1a3c 33a1 8a3d
00000170: 5537 0f3e cb7c fd3b fd45 a8bd 5d03 cf3d
00000180: 3722 95bc 5ba4 a33d a432 2f3d 9d4b 0bbd
00000190: 7fa4 6cbd 31e7 013e ef02 113d 8b2d 863d
000001a0: 1ed6 c0bc 85ae c13d 8293 1c3c 27fb aabc
000001b0: 56de a7bc 29c8 123e 5246 ab3d eb02 ec3d
000001c0: 7768 78bb ff5f 0fbd 0c24 b2bd acb0 3ebd
000001d0: a289 913d 6bc5 d03d ddf9 0d3e 1e30 353e
000001e0: 1d9b 793d cda9 71ba 7dee ee3d 533a b0bd
000001f0: 1284 623e 7f13 ba3d ed86 693e 20bf f2bd
00000200: b3be e03c 4897 b53d 836c 993d 4023 6b3e
00000210: bd38 5c3d 03b3 c4bc 80a3 a4bd 8082 f63d
00000220: e0b6 273e 6d7c 713d 7fb8 413e 3a27 d13b
00000230: 6a7d fa3d 751e f7bb 0547 f9ba 4fe4 d53c
00000240: e743 e93c 8018 153b c0d2 88bd 83e3 1b3e
00000250: 2ee5 8abd 7d98 e3bc 908d 1f3e da1d d33b
00000260: e55b ae3d c326 893d f95b 823c 950b f8bb
00000270: e2f6 6f3d 955c 203e e468 8fbd 43bf 183e
00000280: d36a 9abc d35a 943d 876b f83d e70d d53c
00000290: 13c2 9dbd 95a7 acbd 17e2 773d 7207 823d
000002a0: b874 993d e2e0 e1bc c729 5fbd 6b70 703d
000002b0: fd66 a03d f5f6 fc3d bb6a 963d 430d 0b3e
000002c0: 5ad4 5a3d 985c 093e 6358 953d ad4b 233d
000002d0: 90bd 8a3b bd52 163e 6aa5 d33c 461d c33d
000002e0: 70b0 e83a fb0a d73d b924 9e3d 4fe8 f1bb
000002f0: 5500 f03d 11bf 953c 7e8b 87bd 34c3 1e3e
00000300: 1ed0 be3d 634d b8bd a02c 6b3c ef8f e03d
00000310: 4b6b 883c bb70 e63d 4588 393e e775 dabb
00000320: 7445 4cbe 3daa f8bd 430f 12bd 9959 873c
00000330: b7f9 003d 30ee 6d3e ffa8 37be 0633 9f3c
00000340: c754 773c 2b42 58be d08c 4dbe 67c5 6fbd
00000350: cdfd 46be 4262 62be f78d f23d a55c fe3c
00000360: 75b9 403e b1e1 a83d 2fbe 1dbe ff96 59be
00000370: 7574 e1bd f294 9c3e 4208 d33d 79d3 c13d
00000380: 18f4 e1bc d260 e23d 9fa8 0fbe 9ba6 443e
00000390: 3869 f73c afe6 643e 5bef 60be 5b87 98be
000003a0: f9d5 b3be b34a 82be 0d53 31be 0b59 32be
000003b0: e8c5 d6bd 304b ea3d 7027 f43d 23d4 c5bd
000003c0: ca96 72be f700 b939 1fbb b33d 5e5a 483e
000003d0: 2a3d 60be b4a6 053e 4d8d 68bc 3cc2 933d
000003e0: cc92 a8bd c514 5b3e 333c 86be 52fc 123e
000003f0: a14f a9bd f54c 96bd cc35 acba 5b32 12be
0.060492873 0.11320684 0.06470227 0.026487976 -0.023082783 0.07718896 0.039018434 0.1193048
0.10834705 0.021850986 0.08442613 0.08577786 0.018476915 0.08279888 -0.19987828 0.011920607
0.016320845 0.09162917 0.049896177 0.06268234 0.15541331 0.04406899 0.08991517 -0.034582924
0.20571855 0.11423645 0.09958901 0.016452426 -0.019822516 0.11363804 0.067348026 0.10134695
0.11447904 0.1657588 0.10963251 0.158729 0.14016941 0.06932941 0.011508598 0.03379513
0.008156157 0.09815194 0.11099555 0.046645444 0.16013268 0.067283265 -0.02218132 0.021060525
0.11394327 -0.05428331 0.0027401617 0.053152658 0.09106551 0.024037018 -0.060756207 0.036312893
0.076497205 0.11348926 -0.02895989 0.15075599 0.13506868 -0.045132384 0.09350121 0.0018554133
0.11917054 0.12692307 0.13845246 0.13417868 0.06030782 0.069185615 -0.004365709 -0.027093787
-0.035033647 0.12943543 -0.008193043 -0.004698611 0.07969699 0.08848021 0.19801967 0.091082245
-0.009496448 0.09803052 0.08362933 0.104622304 0.07274377 0.089503765 0.025470791 0.011882666
0.15619765 0.1349531 0.009418739 0.067690276 0.13985951 0.0077358237 -0.08216474 0.10108063
-0.018204791 0.07990333 0.042772904 -0.034007657 -0.057774063 0.12685849 0.03540319 0.065516554
-0.023539599 0.09457115 0.009556653 -0.020871712 -0.02049176 0.14334168 0.08363022 0.11523994
-0.0037904063 -0.03500366 -0.08698282 -0.046555206 0.071063295 0.101939045 0.13864847 0.17694137
0.060938943 -0.00092187227 0.11666582 -0.086048745 0.22120693 0.0908575 0.22805376 -0.118528605
0.027434682 0.08866745 0.074914 0.22962666 0.053765047 -0.02401114 -0.08038998 0.1203661
0.16378355 0.058956552 0.18918036 0.00638285 0.12230952 -0.0075414726 -0.0019018358 0.026109843
0.028474761 0.00227502 -0.06680822 0.15223508 -0.06781994 -0.027782673 0.15581346 0.0064427676
0.08513621 0.06696846 0.015912997 -0.00756974 0.058585055 0.15660317 -0.07002428 0.1491671
-0.018849766 0.07243886 0.12129884 0.026007606 -0.07703032 -0.08430401 0.06051835 0.06349076
0.074929655 -0.027573053 -0.0544832 0.05870096 0.078321435 0.12351791 0.07344576 0.13579278
0.05342517 0.13414228 0.07292249 0.039867092 0.0042340234 0.1468 0.025835712 0.09527068
0.0017752778 0.10500141 0.07721848 -0.0073824297 0.11718813 0.018279584 -0.06618403 0.15504152
0.09317039 -0.08999135 0.014353901 0.10964953 0.016652724 0.112519704 0.18118389 -0.006666887
-0.1994837 -0.121418454 -0.035659086 0.016522216 0.031488147 0.23235393 -0.1793556 0.01943351
0.015095896 -0.21118991 -0.20073247 -0.058537867 -0.19432755 -0.22107795 0.11843484 0.031050036
0.18820746 0.08246172 -0.1540458 -0.21249007 -0.110085405 0.30582386 0.103043094 0.09464163
-0.027582213 0.11053623 -0.14029168 0.1920418 0.03020154 0.22353624 -0.21966307 -0.29790768
-0.35124186 -0.25447616 -0.17316838 -0.1741678 -0.10486966 0.11440122 0.119215846 -0.096596025
-0.23690334 0.0003528667 0.08775925 0.19565722 -0.21898332 0.13051873 -0.014193845 0.07214782
-0.08231124 0.21394642 -0.26217803 0.14354065 -0.08267141 -0.07338897 -0.0013138591 -0.14277022

weight f4 [100, 100]
00000000: da20 d8bd 7454 8bbc a52c a3bd dba1 d9bc
00000010: 2664 883d 241a 27bd f5fa dabc 2f55 743d
00000020: e7f9 20be de4b a13d 30c7 81bd 159d f9bc
00000030: d5d6 eabd 47a1 5a3d c599 333d 1a39 d0bc
00000040: 6d0c 1a3d 42d5 c1ba bbbc 87bd 217f 0fbd
00000050: 4de0 b93b 9370 8cbd bb0a a7bc c3fe cfbd
00000060: 2800 f23d 8cd4 4bbd 62e3 86bd aa69 943d
00000070: 8f7e 943d b06a 573d 46f2 0dbd 5aad e93c
00000080: 7e47 90bc ec10 b13d 1dc2 f33c e34e 5b3b
00000090: 1ba3 2b3d 983a a33d 009d 19bd 8dad 51bd
000000a0: 67f2 d63d cb35 1bbe c79e a4bc 5be7 cc3d
000000b0: 64c7 85bc 7b4b 483d e8d3 5abc 402a d53d
000000c0: 7dc7 99bd 7c5e 143d 4818 88bd bb58 f03c
000000d0: b29d 2e3d e0ac ca3d 4abd c6ba afe1 e23d
000000e0: 6c52 463c 9132 ad3d 13c3 0fbd 0bcd 133c
000000f0: c06b 78bd 4ddb 403e eb09 a03d 3373 413c
00000100: 33c3 0dbd 60a7 803d bf3d a3bd 32c4 cdbb
00000110: 4294 1f3d 9536 813c e3a3 07bd f23a 16bd
00000120: 89c8 133e 1404 97bd 4f2f ae3c e7b4 613c
00000130: 0724 4b3c 612d 9f3b 2d3c cd3d d5d4 dabc
00000140: d506 e63d c323 6ebd 3ed7 a93d 9ba9 353d
00000150: 55b3 eabc 4360 f63d 5ae1 60bc eb44 1cbe
00000160: bdcf 19bc 1e3a c4bc 3426 223d c043 d2bd
00000170: b3b6 123d 3fd8 803d e0e8 df3c 9445 9d3d
00000180: 675e 0abd 314e ab3d 7bef 433d 957d babd
00000190: 608f 353e d799 33bd e16d a7bd d139 08bd
000001a0: 4efd 813c 03c7 db3d fdbe f2bd af17 9ebd
000001b0: 5bbe 353d e27e 80bc 3113 92bd c2fe 9fbd
000001c0: 8b53 e53c 6b6b 853c ecf6 0e3d 372b d83d
000001d0: ae91 0e3d 678b ce3d 6bbd 8ebc cf3b 373d
000001e0: 9e24 143d 57ba 4a3d 2fe1 49bd 1084 d83d
000001f0: 1b2a d0bd 15dc ba3c 34cb 843d eb83 a03d
00000200: 734e 893d 50bf 5c3d 9fca 41bd 3865 1abc
00000210: 036d b2bd 9134 c13c b8a9 04be d060 d93d
00000220: 051e 5ebd 7851 b6bb 1994 92bc b79a b3bd
00000230: d718 d2bd 9feb 333d 971d 43bd 1fbd 8b3c
00000240: f35a 17bd b0d2 c7bd d700 19be 1228 a13d
00000250: 4510 a9bb 5dd0 9fbc 8821 74bd abd5 dd3c
00000260: 3a0c 223d b813 053d 23e4 143d b575 0abc
00000270: eb6a a43d 90f5 533c e3d7 f93c eb2b 4d3d
00000280: 0f59 1f3d 7deb 83bd d342 01bb ebf0 abbc
00000290: 256e db3d 3a0c dbbd c0f5 59bd de3e 9dbb
000002a0: e2a8 303d cac7 823d 305c e73d 37e7 f1bc
000002b0: c451 07be 13c8 8b3d 5f34 4cbe 27b8 b1bd
000002c0: a3ac 783d 1460 2d3d 739e b13c 7241 cb3d
000002d0: 87f1 0fbe 8330 4bbc 3aa1 7e3d 7f3c 1e3d
000002e0: c1ea 45bb 6b31 e2bd 39ce 28bd 90aa cd3c
000002f0: cbe7 a1bb 33a1 8e3a 3de6 a43d 039a 5f3d
00000300: 039f d0bc 9569 39be e061 0dbe 9abb babd
00000310: adee cb3d db28 a1bd 492e 023e f080 e03c
00000320: 2a29 b43c f782 043d 529d 14bb bd1e 193d
00000330: 34d2 9dbd 2f7e 04be b71d ff3c b0b2 fdbb
00000340: 3fe4 25be 7f17 b53d 1f10 1b3b 0959 c93a
00000350: ed7e 193c 1bb0 05bd 5f57 b13d 83c0 99bc
00000360: 791e b5bd 1def 05bd 5ba3 3dbb 4b99 8abc
00000370: f545 253e ea6b ecbc 4bcb 6bbd 9b85 50bd
00000380: 055f 1e3d ba69 1abd b057 a23d 7d40 913c
00000390: 0953 a9bd 6a06 f3bb 7b7c 1e3d cd25 29bd
000003a0: ff32 403d 527c 53b9 57a1 3b3c 8a8f e3bd
000003b0: 0ff7 c83c f049 983c b014 e43b 8a59 f1bc
000003c0: 886e dfbd 3f85 c13b 9a52 f63c 840c 983d
000003d0: 8b7a 75bd 2fb9 743c 6422 3a3e 3327 033e
000003e0: 34f0 bfbd 62e5 5d3c 20b6 3abd d2f7 34bd
000003f0: 854c 09bd 2f90 133e 68e4 95bd d531 833d
-0.10553141 -0.017008044 -0.079675 -0.026566437 0.06659727 -0.040796414 -0.026730994 0.05965155
-0.1572033 0.07875799 -0.0633682 -0.03047041 -0.11466757 0.053376462 0.043847818 -0.025417853
0.037609506 -0.0014788287 -0.06627794 -0.03503335 0.0056724907 -0.06857409 -0.020390859 -0.10156014
0.11816436 -0.049763247 -0.065863386 0.07246716 0.07250702 0.05259198 -0.034654878 0.028525043
-0.017612215 0.08645806 0.029755646 0.0033463768 0.041903596 0.0797016 -0.037503242 -0.0511909
0.10495453 -0.15157239 -0.020095242 0.10005065 -0.016330428 0.04890011 -0.013356186 0.10408449
-0.075087525 0.03622292 -0.06645256 0.029339185 0.04263086 0.098962545 -0.0015162614 0.11078202
0.012104612 0.084569104 -0.035098147 0.009021054 -0.060649633 0.18833657 0.07814392 0.011807251
-0.034609985 0.06281924 -0.079707615 -0.006279492 0.03895975 0.015773097 -0.03311528 -0.03667731
0.14431967 -0.07373825 0.021262793 0.013776041 0.012398726 0.0048577045 0.10021243 -0.026712814
0.11231772 -0.058139574 0.08293007 0.0443512 -0.028649965 0.12030079 -0.013725603 -0.15260665
-0.009387908 -0.023953494 0.039587215 -0.102668285 0.035818767 0.06291246 0.027332723 0.076792866
-0.033781435 0.08364523 0.04783581 -0.09105984 0.17730474 -0.043847885 -0.081752546 -0.033258263
0.015867855 0.10731318 -0.118528344 -0.07719361 0.04437099 -0.015685502 -0.07132567 -0.07812263
0.027993938 0.016286572 0.03490345 0.105551176 0.0348069 0.10085183 -0.017424306 0.044734772
0.036167733 0.049494114 -0.049287017 0.10572064 -0.10164281 0.022810021 0.064840704 0.07837661
0.06704416 0.053893387 -0.047312375 -0.0094235465 -0.087121986 0.023584636 -0.12955368 0.10614169
-0.054227848 -0.005563911 -0.017892884 -0.08769744 -0.10258644 0.043925878 -0.04763564 0.017057953
-0.03695197 -0.09756982 -0.14941727 0.07868971 -0.00515941 -0.019508535 -0.05960229 0.027079424
0.03956244 0.03248951 0.03635038 -0.008450915 0.080282055 0.012936965 0.03049845 0.05009071
0.038903292 -0.064414 -0.0019723668 -0.020988902 0.10714368 -0.106956914 -0.05321288 -0.004798754
0.04312981 0.06385763 0.1129688 -0.029529197 -0.13214785 0.068252705 -0.19941853 -0.086777024
0.060711514 0.042327955 0.021682 0.09924592 -0.14056979 -0.012401703 0.062165476 0.038631912
-0.0030199739 -0.11044582 -0.041212294 0.025105745 -0.004940962 0.0010881781 0.08051727 0.054590236
-0.025466448 -0.18106683 -0.13806868 -0.091178134 0.09957633 -0.07869121 0.12712969 0.027405232
0.021992285 0.03235146 -0.0022676778 0.03738283 -0.07706109 -0.1293876 0.031142099 -0.0077422485
-0.1620035 0.08842372 0.0023660732 0.0015361618 0.00936864 -0.03263865 0.08659243 -0.018768555
-0.08843703 -0.03269874 -0.0028936479 -0.016918799 0.16139968 -0.028860051 -0.057566922 -0.050908666
0.038664836 -0.037698485 0.07926881 0.017730946 -0.08267791 -0.007416536 0.038692933 -0.041295815
0.046923634 -0.00020168841 0.011452041 -0.11111362 0.02453187 0.018589944 0.006960474 -0.02946164
-0.10909754 0.0059057768 0.030068684 0.07424262 -0.05993132 0.014936729 0.18177181 0.12807922
-0.09371987 0.013543459 -0.045583844 -0.044181652 -0.03352024 0.1441047 -0.07318956 0.06405989

bias f4 [100]
00000000: a296 de3d 888a c43c 53d5 a63d 4ba3 b7bb
00000010: 5f13 203d bb5b a8bd cfa0 c3bc ccc4 24bd
00000020: e9a4 43bb 7e41 923d 24a9 aabd bad7 bcbc
00000030: e3aa 983c 28d8 0abe 78b0 a7bd 6d5f d6bd
00000040: cb14 2d3d 9bb2 7ebd faae 7abd 9034 1dbd
00000050: dab3 c63d 3b19 0cbd d391 a03d 1be2 cb3d
00000060: 9a9d 4d3c 134a 37bd 1b80 2abd 6f27 2fbd
00000070: 459a 5c3d 3b77 94bd 187d f4bc 632e 27bc
00000080: 9f2a c7bc 741e c5bd d7f9 993d e5da ab3d
00000090: e8c1 253d 31d8 03be 0c9d 8abd 4ba8 86bd
000000a0: 08c0 b2bd c0bf 89bd c036 0abd 4950 9fbd
000000b0: c748 4f3c 5b76 d73c 24f2 343d 7ceb 953d
000000c0: 6347 893d 4762 0a3d 6fe5 79bc 3dba d3bc
000000d0: 2347 3dbc 558d b93d 79d3 2dbd 17fd 813d
000000e0: 4963 1bbd f570 c23c 2be4 973d 2708 fc3d
000000f0: e0d7 f13b c429 8d3d 8987 8c3d 4f03 ff3d
00000100: 709e 823d 4a4c fdbc 3f9c ad3d c1c1 c9bb
00000110: 539d 0abd c361 623d f392 fa3c 4889 2bbe
00000120: 659a 6cbd 38c2 513d ff12 38bd 8bd4 edba
00000130: 4c8f b03d a8ef c8bc 2ba1 0bbe 0328 153d
00000140: 0b9c 81bc 783d 9fbd d40a b6bd 7f9c 873d
00000150: fb35 473d bf0c 573c a324 693b 10d5 b43d
00000160: d4b2 883d 0583 7e3d a794 abbd 3713 cebb
00000170: 2ac3 b7bd a7e5 3ebd 17a0 cc3d 7756 293d
00000180: 99d1 17bd 2f6a a03d e03d 093d e30d 7c3c
0.10868575 0.023991838 0.08146157 -0.005604183 0.039080974 -0.08220621 -0.02388039 -0.040226743
-0.0029852933 0.07141398 -0.08333042 -0.023052085 0.018636173 -0.1355902 -0.081879556 -0.1046742
0.042256158 -0.06218205 -0.061202027 -0.038380206 0.09702273 -0.03420375 0.07840314 0.099552356
0.012549782 -0.044748377 -0.041626077 -0.042762216 0.05385806 -0.07249304 -0.029844806 -0.010203931
-0.024312316 -0.09624949 0.07518356 0.0839136 0.040468127 -0.12875439 -0.067682356 -0.06575068
-0.08728033 -0.067260265 -0.03374362 -0.07778985 0.012651629 0.026301553 0.044176236 0.07320306
0.06703069 0.03378513 -0.015252455 -0.025845641 -0.011552605 0.0906016 -0.042438004 0.06347101
-0.037936483 0.023735503 0.074165665 0.123062424 0.0073804706 0.06892732 0.06861789 0.12451803
0.06377876 -0.030920167 0.08477067 -0.0061571305 -0.033841442 0.055269014 0.030587649 -0.16751587
-0.05776443 0.051210612 -0.04493999 -0.0018145008 0.08621082 -0.02452834 -0.136357 0.03641511
-0.015821477 -0.07775396 -0.08888784 0.06621646 0.048635464 0.0131255975 0.0035574816 0.08829701
0.06674734 0.06213667 -0.083779626 -0.0062889117 -0.089727715 -0.046605732 0.09991472 0.041342225
-0.037065122 0.07832753 0.033506274 0.01538417

weight f4 [1, 100]
00000000: d999 babe 7a08 d43e 1776 e8be bda0 c23e
00000010: 7a30 ef3e 6241 403f 376d 483e f8e7 e3bd
00000020: f065 6c3e 9999 c9be 04e3 1f3f 99c6 223f
00000030: df8d bb3d 06a4 bc3e 33a6 60be 1349 0b3e
00000040: 8704 033e 0d02 e1be 7dcd 333f 115f 33be
00000050: 837e a33c dff9 033f 2328 533d 9b7b 0fbf
00000060: 9a2f 5b3e 016f c83e ef6d b9be 2de2 5abe
00000070: 1ba9 7f3e fbec cc3e 7585 c23e d20e e03d
00000080: 49a0 2ebe b988 383e b875 633e 1f92 babe
00000090: 1e8d a0bd b5a0 df3e 6f44 1abf 79b1 993e
000000a0: ca60 d33e aa38 3b3f 487f ca3e 06e8 943d
000000b0: 3089 d43e cb49 13bf 5131 8bbd 10be adbe
000000c0: bf23 313e cfd8 07bf 25ca adbe 7f86 34be
000000d0: a242 c73e 4a98 abbe 4fe0 883e 18fd 953e
000000e0: 1008 8fbe 769b 9c3e bf06 18bd a3a4 40bf
000000f0: 41a7 21bf d76e 0cbf 8b5b f0be b937 3abf
00000100: 2f85 2c3e a429 b73c 06c0 97be 1d3b a6be
00000110: 30a4 d03e a3de c1be d216 a73e 6f3e 243f
00000120: 42bf 463c 59c7 03be f6e6 323e df2e 033f
00000130: 4bb7 e9be 7da6 1dbd 97df ed3e 46ad 98bd
00000140: 2a5e ffbe d3ad c5bb b513 9d3e b815 7e3d
00000150: 86fd 8c3e 4592 e6bb 97ec debd a8c1 8f3e
00000160: 0bdb 8bbd 13b9 babe 233e d93c 5f78 e6be
00000170: 4b98 8d3e dc27 a13e afc9 93be 4826 ccbe
00000180: c79a 8f3e 0806 6cbe 5074 cf3e e3d3 f1be
-0.364455 0.41412717 -0.45402595 0.3801326 0.46716672 0.75099766 0.19572912 -0.11128229
0.23085761 -0.39374998 0.62455773 0.63584286 0.09157919 0.3684389 -0.219384 0.13602094
0.12794696 -0.43946877 0.70235425 -0.17516734 0.019957786 0.5155315 0.05155195 -0.5604798
0.21404877 0.3914719 -0.36216685 -0.21375342 0.24966852 0.40024552 0.37992445 0.10940327
-0.17053331 0.18020906 0.22212875 -0.36439607 -0.07839416 0.43677297 -0.6026067 0.30018213
0.41284782 0.7313334 0.39550233 0.072708175 0.41510916 -0.57534474 -0.06796516 -0.3393407
0.17298792 -0.530652 -0.33943287 -0.17629431 0.38918024 -0.33514625 0.26733634 0.29294658
-0.2793584 0.30587357 -0.03711581 -0.75251216 -0.63145834 -0.5485663 -0.46944842 -0.72741276
0.1684768 0.022358723 -0.2963869 -0.32466975 0.40750265 -0.3786517 0.32634598 0.64157766
0.01213056 -0.12869014 0.17470917 0.51243395 -0.45647654 -0.038488854 0.46459648 -0.07454924
-0.4987653 -0.0060326844 0.30679098 0.06203243 0.27537173 -0.0070364797 -0.1088497 0.28077435
-0.068288885 -0.36469325 0.026518887 -0.4501371 0.27655253 0.31475723 -0.2886481 -0.39872956
0.28047773 -0.23049176 0.40518427 -0.4723197

weight f4 [15, 100]
00000000: d8af f83e 6374 97be 320e 933d 39a2 bebe
00000010: ba30 fc3d 697b c23d ca12 f0bd 76d0 9c3e
00000020: cb3a 3e3e a853 05bf 86d9 17bf a3d0 ce3d
00000030: bf40 223f dff3 9d3d 109c f83c b052 8f3e
00000040: 7a98 80be 0c15 b4be a3c3 753e 68db 4c3f
00000050: a284 e53d b3cd e73e c03f af3e 0203 ee3e
00000060: 03a4 01bf ed2d 6b3e e360 503e 1faf cb3e
00000070: 6ff6 11bf c439 9abe d9e0 babe 85d8 143f
00000080: 66d7 31be a6cb 23bf d3ca 3b3e 63dc eb3e
00000090: 1777 2abf 6396 a33e 97bc 193f b981 1fbf
000000a0: 301d 37bd 1349 81bd 40b4 e2be cc99 1dbf
000000b0: 9bcf db3e 1fe8 fc3e bb02 9dbe a9e3 13be
000000c0: 4b89 65be 4fab 8b3e 6d61 b9be 628b 923e
000000d0: c4bd 0e3e 258f cd3e 9fac fdbe abd0 713e
000000e0: 84c7 233f f6a2 a13e bffc 9e3e cb59 243e
000000f0: 73f9 3abe 9292 f3be 3e99 213f 7f70 a1be
00000100: 816a 123f 8dcf c23d f5f7 043e c5fc 4c3e
00000110: a03e 283f cd7c 4e3e 2f1b 12bf 6be6 0d3e
00000120: 9838 66be 5a06 55be c0f4 d8be c3a4 91be
00000130: bd02 fbbe b5b6 95be 93c3 ca3e cb56 e83e
00000140: d79d b83e 4bd7 b73e d9e8 b3be 111b 82be
00000150: a04e 7e3e 2af1 d3be bf64 debd cda0 25be
00000160: 5353 763e d75a 503e 0331 46be 4b73 84bd
00000170: 5dde dabc 6c54 c5be 7fc3 e8be 9f41 0abe
00000180: 00a4 7e3e 88ec 12be 0f38 d63e 6ea7 a23c
00000190: d890 fabe 6651 2cbf 53ce e83d ffdb f43e
000001a0: 354f f43e d7db ac3e 6f61 13bf dc64 313e
000001b0: cb5e d83d c505 91be 7a24 523e d6dc c73e
000001c0: 7514 ffbe 9e3d 4abe 54c8 1bbf b39e ff3e
000001d0: ff57 0e3f 0e20 253e 47fe 39be 0d69 b1be
000001e0: 8a23 fbbe 8d5d 223f 678c d73e 3212 4fbe
000001f0: 25b0 5cbd c264 863e a36d bb3d 1db4 dabe
00000200: 421f 513e 321e 6bbe 196c 14bf 05f7 063e
00000210: b3e2 ab3e c9c9 1f3f 7167 9a3e c287 813e
00000220: 803e 4ebe 0d9d 29bf 5e37 913e 5a44 813e
00000230: 20d4 bb3e 9fc9 0abf 0c4a a53e b630 9d3e
00000240: d327 f4be 3bbe efbe eacd 84be df6e 943d
00000250: 0f2d 2fbe 7063 36bd 089a e6be 131b bdbe
00000260: f35f 2e3f cb02 b7bd 52b3 04bf 68a2 01bf
00000270: 8008 a7be 0fb8 dc3d bab1 b2be c790 9cbd
00000280: a720 433d 0b82 d3be 0169 9f3e b7d0 923e
00000290: c3bf 063f cff9 df3e c512 5abe 527d eb3e
000002a0: ddd3 ca3e cf58 afbd 1d37 0e3f fb6b b03e
000002b0: 7f5c 3c3f e37c a63e af16 9f3e 239d 18bf
000002c0: e33e ecbe f7d0 ad3e 6fd6 d33d 6ae3 e83d
000002d0: 0261 6dbe 7f6c 83bc beee 1cbd 246a b0be
000002e0: 0030 4dbe a717 7fbe 2576 b2be b47d 27be
000002f0: ae81 0ebf bd83 bdbd 3afa 113f 78c4 e6bd
00000300: b134 083e f7c9 5e3e b1c2 17bf db6a 273f
00000310: 62a9 b03e 2a39 5dbd 80ea 043f 6f12 953e
00000320: 3ff2 643e 6d7f 6dbe 8209 09bf 45d8 d5be
00000330: 944a b83e 1727 0fbf 3746 8a3e 7016 f1be
00000340: c34d debd bce4 c0be e7bc e4be 6f2b 17bf
00000350: 7af1 f33e ebcd 42bf 2a36 293f 2c47 18be
00000360: 6b10 ba3c c31f 993e 073b b03e 44bd c93e
00000370: a2d8 1c3f 8d43 e4bd 47e8 873e 63b3 f13e
00000380: 7dcd 10bf c7cc c9be 8f07 2abf 474c 023f
00000390: 6700 e53d 42b3 e23e b048 4f3f e25e 76be
000003a0: a82e d93e 80fb fbbe c437 c0be 7d83 8e3e
000003b0: 8853 253e 251c af3d b4d8 003e 93fe 1fbe
000003c0: e387 d1be 6815 d13e 4376 23be 270c 24bf
000003d0: b178 133d 8384 283f 0f32 1bbf 0de7 323f
000003e0: 4b59 b0be e85f 533e c6c0 1e3f 47b8 20bf
000003f0: 9f30 88be 080a 9cbe 3fc6 5d3e fb9e 6b3e
0.48571658 -0.29580984 0.07180442 -0.3723314 0.12313981 0.09496195 -0.11722334 0.30627793
0.18577115 -0.52080774 -0.5931629 0.10098388 0.63380045 0.0771253 0.030347854 0.27992773
-0.2511633 -0.35172307 0.2400041 0.8002229 0.11206938 0.45274124 0.34228325 0.4648667
-0.5064089 0.22966738 0.2034946 0.39782044 -0.5701665 -0.30122197 -0.3649967 0.5814288
-0.17367324 -0.6398262 0.1833909 0.4606658 -0.66587967 0.31950673 0.6005339 -0.62307316
-0.04470557 -0.06312766 -0.44278145 -0.615628 0.42931828 0.49395844 -0.30666146 -0.14442314
-0.22415654 0.27279136 -0.36207142 0.28621966 0.13939577 0.40148273 -0.49545762 0.23614757
0.6397631 0.31569642 0.31052205 0.16049878 -0.1825922 -0.47572762 0.63124454 -0.3153114
0.5719376 0.095122434 0.12985213 0.20018299 0.6572056 0.20164795 -0.5707273 0.13857429
-0.22482526 -0.20803204 -0.4237423 -0.28446016 -0.49025527 -0.29240957 0.39602336 0.45378718
0.36057922 0.35906443 -0.35138586 -0.25411275 0.2483468 -0.4139493 -0.108590595 -0.16174622
0.24055223 0.20347153 -0.19354634 -0.06467303 -0.02671736 -0.3854097 -0.45461652 -0.13501595
0.24867249 -0.14348042 0.41839644 0.019855227 -0.48938632 -0.67311704 0.11367478 0.47824094
0.4771668 0.33761474 -0.57570547 0.17323631 0.10564955 -0.28324714 0.20521727 0.39035672
-0.49820295 -0.19750068 -0.6085255 0.49925765 0.5560302 0.16125509 -0.18163405 -0.3465046
-0.49050552 0.63424 0.42099306 -0.20221785 -0.053878922 0.26248747 0.09151771 -0.4271554
0.2042208 -0.22960737 -0.57977444 0.13180168 0.33571395 0.62417275 0.30157045 0.25298887
-0.2014103 -0.66255265 0.28362554 0.2524746 0.36685276 -0.542139 0.32283056 0.30701226
-0.47686633 -0.46824822 -0.2593835 0.072477095 -0.17107032 -0.044528425 -0.45039392 -0.36934718
0.68115157 -0.089360796 -0.5183612 -0.5063844 -0.32623672 0.10777294 -0.3490122 -0.076448016
0.04763856 -0.41310152 0.311348 0.28674862 0.52636355 0.43745276 -0.21296223 0.4599405
0.39614764 -0.08561861 0.55552846 0.34457383 0.7357864 0.32517156 0.31071994 -0.5961477
-0.4614173 0.3394849 0.10343634 0.11371501 -0.23181537 -0.016042946 -0.03831362 -0.3445598
-0.20037842 -0.24911366 -0.34855762 -0.16356546 -0.55666625 -0.09253643 0.5702244 -0.11267942
0.1330135 0.21756731 -0.5928145 0.65397424 0.3450423 -0.054009594 0.5192032 0.29115626
0.22358035 -0.2319314 -0.5353013 -0.41766563 0.359944 -0.5591902 0.27006695 -0.4708743
-0.108546756 -0.3767451 -0.4467537 -0.5905065 0.4764517 -0.76095456 0.6609827 -0.148709
0.022712907 0.29907045 0.34420034 0.3940221 0.61268055 -0.11145697 0.265444 0.47207174
-0.5656355 -0.39414045 -0.66417783 0.5089764 0.11181717 0.44277388 0.8097029 -0.24059632
0.42418408 -0.49215317 -0.37542546 0.27834693 0.16145146 0.0855029 0.12582666 -0.15624456
-0.40923986 0.40836644 -0.15963082 -0.64081043 0.036003772 0.65827197 -0.6062326 0.69883806
-0.34443125 0.20642054 0.620129 -0.62781185 -0.26599595 -0.30476403 0.21657656 0.23009865

bias f4 [15]
00000000: 80db 003f 9ab4 963e 1a02 513f 64e4 803f
00000010: fd5f 843f e9ab 8c3f a66e 803f 6ac9 d43f
00000020: 939c d53e ad88 e23e d729 103f 9f47 b03e
00000030: f3e0 173f f93f 883e 1bff 093f
0.5033493 0.29434663 0.8164383 1.0069699 1.0341793 1.0989963 1.0033767 1.6623967
0.4172102 0.442449 0.5631384 0.34429643 0.5932762 0.26611307 0.53904885
