checkpoints/9feature_lstm_num_comm1599_an15_sn_D3_al5_E0.5_B5_lr10_num_clients0.05_cf100.pth (torch, 228375 bytes, 9 tensors)

weight_ih_l0 f4 [400, 9]
0.16128118 -0.19322741 -0.29441157 0.40613565 -0.03555246 -0.033757336 0.031885073 0.061111104
-0.118673325 0.060991794 0.1583509 0.06085182 0.063161835 0.04461943 0.15016572 0.06145947
0.048495058 0.0698198 -0.100022696 -0.11861408 -0.053429365 0.051868867 -0.07640367 0.03778344
0.009352556 0.0860088 -0.08943228 0.40187702 0.16194187 0.0388413 0.0767709 0.074234396
-0.029141966 0.030511102 -0.010284815 -0.12114819 -0.2522201 -0.7474045 0.3108722 0.009639404
0.14928839 0.27763936 -0.53637356 0.1166259 -0.023227312 0.2767664 -0.17114185 0.050481338
-0.07479661 0.11887423 0.10828053 -0.12583055 -0.06649988 -0.09431201 0.15786034 -0.27640042
0.24092627 -0.20106561 0.0045591984 -0.0034710343 -0.02876844 0.04121387 -0.095047854 0.13699292
-0.29161832 0.12447959 0.037822362 0.08071666 -0.09350481 -0.03126133 0.019359851 -0.12634091
-0.8383097 -0.30387604 -0.11631018 0.13001555 0.07746182 -0.047177497 -0.023913035 -0.14406778
0.37917027 -0.10752847 0.013093215 0.009526548 0.017397683 0.08653255 -0.023540584 0.06335024
0.038927656 -0.11344414 -0.015575823 0.029666895 0.18902342 0.03411747 0.07749464 0.014536199
-0.07707592 0.17287166 -0.09660385 0.09247607 0.21599105 -0.026045939 0.07413802 -0.01105574
0.3027266 0.08589619 0.072953045 0.04083243 -0.17840624 -0.065472916 0.4071265 -0.023464203
-0.074429944 0.20387506 0.1620886 -0.039901655 0.1851605 0.064963505 -0.007816703 0.023890678
-0.08573869 0.001708772 0.08943908 -0.029623648 -0.03691213 0.09730149 0.43469977 -0.30399385
-0.71130127 0.08709058 -0.05927817 -0.12575653 0.34550563 -0.14464971 -0.17804717 -0.3011008
0.052082956 0.027616223 0.22445898 0.08140173 0.073556684 -0.13324268 -0.09735836 -0.012568155
0.36391267 -0.1467865 -0.20567535 -0.07274976 0.0312644 -0.02832537 -0.0040881867 0.07268008
-0.06251969 0.4239721 0.14475279 -0.1869574 -0.11231861 0.046294224 0.08046965 -0.01120357
-0.050155688 -0.16768298 0.40059456 0.1391248 0.067544155 -0.063602366 -0.07010911 -0.07311523
0.09572021 -0.11440986 -0.17106666 0.2830525 0.0306333 0.27102095 -0.009670222 -0.037421573
-0.050872594 -0.0770359 0.04897101 0.01697503 -0.27160895 -0.9393717 -0.9914814 0.027878487
-0.1097636 -0.081093185 -0.86222965 0.1841252 0.005431095 0.042982303 -0.24542525 0.24195753
0.055314388 0.005935794 -0.002085354 0.03604417 0.036264863 -0.064464055 -0.17670321 0.11224444
0.013883662 0.4353757 0.2506449 0.551142 0.05855573 -0.08093832 0.4699053 0.23897877
-0.039813597 0.119894825 0.092873335 -0.102097265 0.03782574 0.007887776 0.044107568 0.09448861
-0.374204 0.04072452 0.3491469 -0.04303326 0.18196365 -0.012208211 0.13123484 -0.13304491
0.40083703 -0.052096155 -0.11013227 0.08333545 0.005613745 -0.023176162 0.0024511733 0.07568198
-0.0054958942 0.10368421 -0.36376548 -0.36328667 -0.13629396 -0.007224919 -0.07529927 0.0792871
-0.10863216 0.12114113 0.18137164 0.46016893 -0.24911724 -0.03800977 0.17588791 0.056703772
-0.13275658 -0.04294784 -0.021478359 -0.033951037 0.57407045 0.1859266 0.07400502 0.03901865
00000000: e526 253e 68dd 45be 1dbd 96be 03f1 cf3e
00000010: 759f 11bd 2245 0abd ec99 023d a34f 7a3d
00000020: 000b f3bd 88d2 793d bd26 223e c23f 793d
00000030: fe5a 813d ddc2 363d 0bc5 193e edbc 7b3d
00000040: c1a2 463d affd 8e3d b3d8 ccbd f0eb f2bd
00000050: c0d8 5abd 7374 543d 8779 9cbd cfc2 1a3d
00000060: 773b 193c 6225 b03d 4528 b7bd d3c2 cd3e
00000070: 17d4 253e 0e18 1f3d 103a 9d3d 3408 983d
00000080: 22bb eebc 6bf2 f93c a481 28bc 8b1c f8bd
00000090: fe22 81be e755 3fbf a42a 9f3e 97ee 1d3c
000000a0: 0edf 183e bf26 8e3e c74f 09bf 8fd9 ee3d
000000b0: 3447 bebc 53b4 8d3e cf3f 2fbe 85c5 4e3d
000000c0: f72e 99bd 5574 f33d 2fc2 dd3d b9d9 00be
000000d0: 1731 88bd a826 c1bd 24a6 213e 5b84 8dbe
000000e0: 60b5 763e 25e4 4dbe 5465 953b 4b7a 63bb
000000f0: cbab ebbc e0cf 283d 73a8 c2bd df47 0c3e
00000100: ff4e 95be 28ef fe3d 9feb 1a3d c74e a53d
00000110: 737f bfbd e10b 00bd 8d98 9e3c 835f 01be
00000120: 779b 56bf a495 9bbe 0834 eebd cc22 053e
00000130: 4da4 9e3d 313d 41bd 45e5 c3bc 8186 13be
00000140: 9b22 c23e e337 dcbd ed84 563c 3d15 1c3c
00000150: 9685 8e3c fa37 b13d 2fd8 c0bc c5bd 813d
00000160: 9b72 1f3d 6755 e8bd bd31 7fbc fd07 f33c
00000170: 5b8f 413e c3be 0b3d 83b5 9e3d 3d29 6e3c
00000180: fbd9 9dbd 4505 313e 3dd8 c5bd 1864 bd3d
00000190: c22c 5d3e 4b5e d5bc add5 973d 2223 35bc
000001a0: fbfe 9a3e 57ea af3d 6868 953d e83f 273d
000001b0: 20b0 36be aa16 86bd e272 d03e 0038 c0bc
000001c0: ba6e 98bd a0c4 503e 8efa 253e eb6f 23bd
000001d0: b79a 3d3e 960b 853d a111 00bc 62b6 c33c
000001e0: c497 afbd e0f8 df3a d62b b73d 4bad f2bc
000001f0: 2c31 17bd 0146 c73d f890 de3e 15a5 9bbe
00000200: d717 36bf 8c5c b23d abcd 72bd 52c6 00be
00000210: 1de6 b03e 0e1f 14be ff51 36be e229 9abe
00000220: f054 553d 6b3b e23c 93d8 653e f3b5 a63d
00000230: e3a4 963d c570 08be d263 c7bd aaea 4dbc
00000240: c352 ba3e 334f 16be 8f9c 52be d3fd 94bd
00000250: 190f 003d 9b0a e8bc 32f6 85bb 4bd9 943d
00000260: 530a 80bd df12 d93e 133a 143e c371 3fbe
00000270: 4d07 e6bd 039f 3d3d 46cd a43d 2e8f 37bc
00000280: 0d70 4dbd 16b5 2bbe bb1a cd3e bb76 0e3e
00000290: 9754 8a3d f541 82bd 5d95 8fbd 70bd 95bd
000002a0: f508 c43d b74f eabd 192c 2fbe 42ec 903e
000002b0: b0f2 fa3c 42c3 8a3e da6f 1ebc 5d47 19bd
000002c0: c85f 50bd ffc4 9dbd d395 483d 380f 8b3c
000002d0: 5410 8bbe aa7a 70bf bad1 7dbf 6d61 e43c
000002e0: bdcb e0bd 2f14 a6bd 15bb 5cbf 518b 3c3e
000002f0: 54f7 b13b 360e 303d c250 7bbe b7c3 773e
00000300: 5791 623d 0d81 c23b 6faa 08bb 0da3 133d
00000310: 778a 143d bb05 84bd b0f1 34be 6ae0 e53d
00000320: 4d78 633c 90e9 de3e 8754 803e a417 0d3f
00000330: 22d8 6f3d fdc2 a5bd 6d97 f03e dab6 743e
00000340: 9513 23bd 6b8b f53d 6034 be3d 5f18 d1bd
00000350: 2aef 1a3d bb3b 013c 23aa 343d 3f83 c13d
00000360: ab97 bfbe c1ce 263d 62c3 b23e a543 30bd
00000370: ae54 3a3e f304 48bc 6d62 063e ed3c 08be
00000380: 833a cd3e c762 55bd 078d e1bd c7ab aa3d
00000390: 82f3 b73b efdb bdbc dda3 203b 27ff 9a3d
000003a0: e716 b4bb 6358 d43d 783f babe b600 babe
000003b0: a590 0bbe 03bf ecbb 8136 9abd 4661 a23d
000003c0: 8a7a debd d718 f83d 7db9 393e 439b eb3e
000003d0: 9718 7fbe 22b0 1bbd f61b 343e 3742 683d
000003e0: 57f1 07be 13ea 2fbd 62f3 afbc 3e10 0bbd
000003f0: 48f6 123f 8b63 3e3e f28f 973d 05d2 1f3d

weight_hh_l0 f4 [400, 100]
0.044979114 -0.09174432 -0.1026003 -0.033514515 0.09718143 -0.12235153 -0.1868395 0.10041504
-0.05486085 -0.059906807 0.081017286 -0.17130731 -0.05645547 -0.0034509003 0.07021036 -0.083801925
0.17860825 0.018744038 -0.017466854 -0.08762822 -0.04431231 -0.11725608 0.081349395 -0.1472521
-0.10669371 0.11580223 0.0670173 -0.041987244 0.11871047 -0.030904127 0.00893351 0.095661126
-0.011232886 0.14918144 -0.11524993 -0.092720084 -0.037894398 -0.08389055 -0.024514701 0.14426696
0.032011677 0.04161706 0.039702263 0.07546081 0.02344605 -0.035579007 0.07623821 -0.013936179
-0.026021931 -0.014447858 -0.01792285 -0.11969005 0.00527088 -0.21393101 -0.046044145 0.029276222
0.016199768 -0.100111604 -0.09414037 0.103243746 0.018963648 0.10086206 -0.11199748 0.07803724
0.01185581 -0.037667133 -0.01038178 0.10911604 0.050532706 -0.071708165 -0.053383477 0.0018084402
0.00023484393 -0.039624747 0.011369094 0.049382146 -0.038562868 0.07696109 0.074174084 0.0051065735
0.07334794 -0.00058740895 -0.047598578 0.04387033 -0.08713444 0.18427591 -0.10102039 0.031571247
-0.19546594 -0.08062719 0.113853455 0.038344488 0.0014265111 0.06645547 -0.011364655 0.04171415
-0.0022884544 0.079500556 -0.07327151 0.020275049 -0.095301844 -0.054957237 0.06603948 0.0355296
0.07996935 0.09242159 -0.0341298 -0.063851796 -0.007489229 -0.05249366 0.02809544 0.053534444
0.040633556 -0.014167606 -0.10501162 -0.0021262155 0.051178306 0.085652635 -0.07500946 0.034396537
-0.033403154 -0.0060223364 0.03339234 -0.004497913 0.06988648 0.01504753 -0.027806295 0.019190317
0.07667648 0.014510341 -0.048684657 0.07165923 0.0111976955 -0.09096761 0.033239394 0.05145153
0.018738883 -0.067644455 0.11170548 0.043507095 0.027569145 -0.018054042 0.040202986 -0.03210179
0.05409065 -0.06621345 0.07688471 -0.058041472 -0.033061042 -0.011511399 0.05433735 0.0613404
0.063197784 0.08291105 0.009629039 -0.06438544 -0.0035768766 0.06221659 0.02029876 0.07115507
-0.061395086 0.025225017 0.05350579 0.04920296 -0.02706256 0.0013114137 -0.033502445 -0.01307188
0.03558231 -0.10143063 0.12946117 -0.07674406 -0.037566297 -0.035095327 -0.0780877 -0.1051867
-0.056318935 0.0772474 0.07934657 -0.07832549 -0.057507813 -0.0020885535 -0.063999675 -0.09516012
0.022228027 -0.07787918 -0.06729191 0.098361365 -0.1021985 0.0217886 -0.09576802 -0.025823144
0.040233564 0.056587067 0.025362471 0.12353531 0.06039412 -0.022960601 -0.03733528 -0.023165517
-0.037721217 -0.010449454 0.007871578 -0.032274038 0.020368148 -0.060655892 0.011667101 -0.09127505
0.08631532 -0.043912053 0.038673468 0.056827128 0.07282483 0.040113434 0.013685942 0.007222347
0.028730754 -0.0529582 0.0808042 -0.023061296 0.050057855 0.05334097 0.046126503 -0.04041623
0.005181291 -0.101617634 0.04887973 0.062065583 -0.02089381 -0.05589054 -0.055828996 -0.05939531
-0.011426549 -0.009648228 -0.061861772 0.058406632 -0.04639409 -0.013660385 -0.0653034 0.035938926
-0.016517665 -0.03251144 0.08257543 -0.07166385 5.211129e-05 -0.0052988413 -0.03339017 0.10112025
0.06336127 0.045090657 -0.0057077864 0.07943822 0.072404996 0.058781154 0.022052323 0.060386617
00000000: 053c 383d 72e4 bbbd 1b20 d2bd 8446 09bd
00000010: 0f07 c73d 7093 fabd db52 3fbe 67a6 cd3d
00000020: c5b5 60bd d760 75bd 64ec a53d 2f6b 2fbe
00000030: da3d 67bd 8028 62bb 73ca 8f3d 58a0 abbd
00000040: 15e5 363e 198d 993c a616 8fbc 6d76 b3bd
00000050: d380 35bd f523 f0bd 839a a63d 41c9 16be
00000060: 3b82 dabd b829 ed3d 5e40 893d d1fa 2bbd
00000070: 7a1e f33d a72a fdbc db5d 123c fbe9 c33d
00000080: 240a 38bc 05c3 183e 2808 ecbd 07e4 bdbd
00000090: 2837 1bbd cfce abbd 0ed3 c8bc b8ba 133e
000000a0: ad1e 033d a676 2a3d d79e 223d 328b 9a3d
000000b0: ee11 c03c 4bbb 11bd c722 9c3d 9254 64bc
000000c0: f22b d5bc b5b6 6cbc f1d2 92bc 0f20 f5bd
000000d0: 59b7 ac3b bb10 5bbe c998 3cbd b0d4 ef3c
000000e0: 60b5 843c 5007 cdbd abcc c0bd 7571 d33d
000000f0: a759 9b3c c590 ce3d ef5e e5bd fdd1 9f3d
00000100: df3e 423c da48 1abd 5718 2abc 3b78 df3d
00000110: 62fb 4e3d bbdb 92bd a2a8 5abd 2f09 ed3a
00000120: 7040 7639 8f4d 22bd 7045 3a3c ef44 4a3d
00000130: 19f4 1dbd c79d 9d3d 95e8 973d 0b55 a73b
00000140: 7237 963d 59fc 19ba baf6 42bd 60b1 333d
00000150: 8b73 b2bd d3b2 3c3e c7e3 cebd da50 013d
00000160: 3928 48be de1f a5bd 002c e93d 1c0f 1d3d
00000170: c5f9 ba3a ce19 883d d132 3abc 75dc 2a3d
00000180: e5f9 15bb 30d1 a23d 600f 96bd dc17 a63c
00000190: 9d2d c3bd d71a 61bd b53f 873d 7c87 113d
000001a0: f8c6 a33d 8847 bd3d b0cb 0bbd bbc4 82bd
000001b0: 3568 f5bb 9803 57bd 6828 e63c ef46 5b3d
000001c0: 5f6f 263d 3f1f 68bc 5510 d7bd fa57 0bbb
000001d0: 58a0 513d a66a af3d 8f9e 99bd 62e3 0c3d
000001e0: bfd1 08bd 0557 c5bb 68c6 083d 3b63 93bb
000001f0: a520 8f3d ea89 763c 07ca e3bc 0335 9d3c
00000200: 8f08 9d3d c8bc 6d3c 9069 47bd 13c2 923d
00000210: 8a76 373c 3a4d babd 0826 083d d7be 523d
00000220: 4982 993c 2d89 8abd d8c5 e43d 7f34 323d
00000230: b0d8 e13c 12e6 93bc e3ab 243d 2b7d 03bd
00000240: 288e 5d3d eb9a 87bd bb75 9d3d e5bc 6dbd
00000250: 046b 07bd 4f9a 3cbc d790 5e3d 1240 7b3d
00000260: d76d 813d 45cd a93d 1ec3 1d3c 83dc 83bd
00000270: 086a 6abb d3d6 7e3d 9649 a63c c0b9 913d
00000280: 6a79 7bbd b2a4 ce3c e328 5b3d 0b89 493d
00000290: 4db2 ddbc bee3 ab3a dc39 09bd 702b 56bc
000002a0: c2be 113d ddba cfbd 7891 043e fd2b 9dbd
000002b0: 1edf 19bd 1ec0 0fbd 72ec 9fbd 206c d7bd
000002c0: afae 66bd e333 9e3d 7480 a23d 1d69 a0bd
000002d0: 508d 6bbd 1de0 08bb 4312 83bd 4fe3 c2bd
000002e0: 8d17 b63c 1f7f 9fbd 57d0 89bd af71 c93d
000002f0: 724d d1bd 027e b23c 0622 c4bd 0f8b d3bc
00000300: f3cb 243d d7c7 673d f5c4 cf3c 1500 fd3d
00000310: d35f 773d df17 bcbc e1ec 18bd 9cc5 bdbc
00000320: 9081 1abd 3034 2bbc cbf7 003c c831 04bd
00000330: 1adb a63c 5072 78bd 5e27 3f3c 6aee babd
00000340: 16c6 b03d 20dd 33bd 1268 1e3d 90c3 683d
00000350: 2f25 953d fc4d 243d 003b 603c 70a9 ec3b
00000360: c25c eb3c b3ea 58bd ac7c a53d 0beb bcbc
00000370: 7709 4d3d 107c 5a3d 25ef 3c3d 7d8b 25bd
00000380: d2c7 a93b e81c d0bd 1d36 483d 7b38 7e3d
00000390: 7f29 abbc 7bed 64bd f2ac 64bd 7f48 73bd
000003a0: 6c36 3bbc 9a13 1ebc c562 7dbd cb3b 6f3d
000003b0: bb07 3ebd cfcf 5fbc cabd 85bd b234 133d
000003c0: 0e50 87bc b72a 05bd 4f1d a93d 7fc4 92bd
000003d0: 1292 5a38 e7a1 adbb 22c4 08bd 2218 cf3d
000003e0: 8ec3 813d fbb0 383d 6208 bbbb 81b0 a23d
000003f0: 1249 943d 82c4 703d 13a7 b43c f557 773d

bias_ih_l0 f4 [400]
0.11415469 -0.006733694 0.13073786 0.03305326 0.08107821 0.052260775 0.064934455 -0.002348367
0.033530258 -0.021214815 0.05761652 -0.029613128 -0.062074244 0.024638394 -0.17441744 -0.022206448
0.060280215 0.15633832 -0.019754013 0.117357865 0.20472006 0.13674535 0.15748584 0.033923656
0.11124517 0.1537856 0.06515861 -0.035792314 -0.012030288 0.21282187 0.09374211 0.15140437
0.15720615 -0.02414797 0.099026024 0.13253476 0.17388351 0.03761467 0.12203868 0.11743676
0.06269704 0.11238843 0.080152325 -0.080806546 0.028513758 0.15493883 0.0711757 0.08169427
0.065159455 -0.0372919 0.040031154 0.08654717 0.0598437 -0.047938224 -0.05910927 0.039684273
0.12304746 0.13290206 0.035348617 0.022896407 0.0441528 0.04947113 -0.0031687298 0.09194088
-0.042557593 0.14751898 0.04536432 0.033964567 -0.03712744 0.03883582 0.04619683 -0.03542922
0.06805479 0.13522545 0.051698204 0.12522323 0.1482833 0.0018312492 0.03991711 0.09915318
0.057486344 0.04674882 0.033998504 0.11729127 0.08369051 0.052172925 0.028166665 0.046483118
-0.01573288 0.13415393 0.13536201 -0.02647124 0.036961135 0.013689774 0.03845961 0.072647385
0.054826498 0.123278335 0.07948063 0.1291553 0.09507634 0.09823355 0.04555668 0.08943085
0.025501182 0.061561834 0.00057366467 0.027016193 -0.011018167 0.15254627 0.13142015 0.057385165
0.09290871 -0.013779392 0.059202243 0.093282394 0.15037636 0.11464112 0.025589326 0.011941513
0.0108987065 0.12122222 0.15190522 -0.003920372 0.13637072 -0.015896672 0.13731976 -0.023225611
0.07304462 0.11138584 -0.094565086 0.22739689 0.10774739 -0.06905194 0.025100145 0.07556732
0.119358175 0.1142266 0.13058643 0.16755836 0.06950202 -0.023579756 0.078535095 -0.059458263
0.1451313 -0.084316574 -0.016496224 -0.018113395 0.040617723 -0.046928298 0.14745063 0.069929235
0.093945496 0.10733222 0.12661591 0.015753048 -0.018675925 0.18644425 -0.09130466 0.14134751
0.021472208 0.102098785 0.08346243 -0.019528758 -0.03022915 0.09933552 0.096421674 0.053292062
0.056297254 -0.041219946 0.047880847 -0.04596808 -0.041972727 0.059010584 -0.0075657987 -0.024201699
0.002004099 -0.027085116 0.18809922 0.007965899 -0.070597515 0.123807035 0.16581562 0.18150215
-0.069679424 0.15912794 -0.050762136 0.009472717 0.07482301 -0.031254187 -0.08339088 0.12698151
0.099600315 -0.033758935 0.119799934 0.12763035 0.014557158 -0.07488173 0.17024486 -0.030147621
-0.01144802 -0.08075189 -0.09517302 0.07366573 0.07870936 0.22954006 -0.21609497 -0.05139741
-0.04601575 -0.08665367 -0.2399884 0.06839546 -0.17621033 -0.26678312 0.04176502 -0.034179397
0.15454663 0.2481137 -0.18582009 -0.10761171 -0.025219578 0.28589183 0.10810403 0.17519853
-0.046804693 0.15206824 -0.047480077 0.088028856 0.0025929413 0.07240241 -0.20497535 -0.22112413
-0.3519204 -0.09875014 -0.17050676 -0.038659107 -0.21976328 0.14844118 0.023163544 -0.15439507
-0.22336654 -0.0053445715 0.04692067 0.32147068 -0.21605162 0.23680459 0.062668234 0.02859746
-0.019969951 0.06493039 -0.27161166 0.1889938 -0.10403907 -0.057874896 -0.037288483 -0.16651714
00000000: efc9 e93d 52a6 dcbb 25e0 053e db62 073d
00000010: 550c a63d 650f 563d 5bfc 843d 0fe7 19bb
00000020: 0657 093d b1ca adbc 4dff 6b3d 3b97 f2bc
00000030: 9041 7ebd 75d6 c93c 7c9a 32be 4cea b5bc
00000040: 63e8 763d 2717 203e 2bd3 a1bc 5259 f03d
00000050: 23a2 513e f906 0c3e f843 213e 88f3 0a3d
00000060: 82d4 e33d f979 1d3e e171 853d f69a 12bd
00000070: af1a 45bc faed 593e ddfb bf3d bf09 1b3e
00000080: a6fa 203e f7d1 c5bc 28ce ca3d 31b7 073e
00000090: 850e 323e d711 1a3d 6aef f93d af82 f03d
000000a0: 4e67 803d e82b e63d e726 a43d e77d a5bd
000000b0: af95 e93c 49a8 1e3e 91c4 913d 534f a73d
000000c0: 5272 853d 64bf 18bd b5f7 233d a53f b13d
000000d0: ab1e 753d df5a 44bd 901c 72bd fa8b 223d
000000e0: 4f00 fc3d 7a17 083e b6c9 103d 3f91 bb3c
000000f0: 91d9 343d 3da2 4a3d 77aa 4fbb 804b bc3d
00000100: df50 2ebd 370f 173e f0cf 393d 6e1e 0b3d
00000110: f112 18bd 4f12 1f3d e338 3d3d 3b1e 11bd
00000120: 4f60 8b3d 8a78 0a3e 7fc1 533d 853a 003e
00000130: 94d7 173e 8706 f03a 2080 233d d310 cb3d
00000140: cd76 6b3d b17b 3f3d 0442 0b3d 6836 f03d
00000150: ee65 ab3d 47b3 553d c7bd e63c 1565 3e3d
00000160: 3ee2 80bc a65f 093e 579c 0a3e 37da d8bc
00000170: 8f64 173d 134b 603c d387 1d3d 27c8 943d
00000180: c091 603d 5a79 fc3d bec6 a23d 4941 043e
00000190: 62b7 c23d ac2e c93d a499 3a3d 8627 b73d
000001a0: dbe7 d03c 4328 7c3d fc61 163a 1051 dd3c
000001b0: 8b85 34bc 1735 1c3e 0193 063e b50c 6b3d
000001c0: ec46 be3d f5c2 61bc 0d7e 723d d70a bf3d
000001d0: 43fc 193e f7c8 ea3d b5a0 d13c 56a6 433c
000001e0: 7d90 323c 5b43 f83d 0b8d 1b3e 7776 80bb
000001f0: c4a4 0b3e bd39 82bc 8d9d 0c3e a343 bebc
00000200: 6b98 953d 421e e43d 57ab c1bd bbda 683e
00000210: aaaa dc3d 1b6b 8dbd d29e cd3c 0ac3 9a3d
00000220: 0f72 f43d a3ef e93d 73b8 053e 6b94 2b3e
00000230: 1357 8e3d 552a c1bc 02d7 a03d 828a 73bd
00000240: 4d9d 143e 2bae acbd 1723 87bc 8b62 94bc
00000250: c55e 263d e337 40bd 4cfd 163e 0f37 8f3d
00000260: 7f66 c03d ffd0 db3d 9aa7 013e 890c 813c
00000270: 41fe 98bc 3eeb 3e3e f0fd babd 67bd 103e
00000280: 7ce6 af3c 2b19 d13d 5aee aa3d c6fa 9fbc
00000290: 1fa3 f7bc 6c70 cb3d ba78 c53d c748 5a3d
000002a0: f397 663d 3fd6 28bd b51e 443d 0749 3cbd
000002b0: 98eb 2bbd 15b5 713d 85ea f7bb a442 c6bc
000002c0: 3457 033b 9be1 ddbc 159d 403e 6783 023c
000002d0: 6e95 90bd 8b8e fd3d 92cb 293e b3db 393e
000002e0: 16b4 8ebd 6ff2 223e f5eb 4fbd 7433 1b3c
000002f0: ce3c 993d 6404 00bd d6c8 aabd 7107 023e
00000300: 40fb cb3d cf46 0abd ab59 f53d 88b1 023e
00000310: 2581 6e3c 985b 99bd ab54 2e3e 25f8 f6bc
00000320: 7a90 3bbc 3f61 a5bd 13ea c2bd 0fde 963d
00000330: 5f32 a13d 8d0c 6b3e 0048 5dbe 1786 52bd
00000340: 037b 3cbd 7b77 b1bd 85bf 75be eb12 8c3d
00000350: 7b70 34be cc97 88be cc11 2b3d b2ff 0bbd
00000360: 7941 1e3e 8511 7e3e 9f47 3ebe 8763 dcbd
00000370: 4a99 cebc 6a60 923e a565 dd3d 3e67 333e
00000380: 47b6 3fbd c7b7 1b3e 787a 42bd 7948 b43d
00000390: 56ee 293b b747 943d 0fe5 51be 5d6e 62be
000003a0: e92e b4be 833d cabd 5399 2ebe 0359 1ebd
000003b0: a009 61be f700 183e 79c1 bd3c be19 1ebe
000003c0: 33ba 64be 8421 afbb e32f 403d ce97 a43e
000003d0: a33c 5dbe e77c 723e 3458 803d 3845 ea3c
000003e0: 0698 a3bc 39fa 843d af10 8bbe 9787 413e
000003f0: 7012 d5bd 3a0e 6dbd cfbb 18bd 7883 2abe

bias_hh_l0 f4 [400]
0.06000424 0.11296853 0.061946195 0.024497503 -0.025960952 0.07560177 0.0373981 0.118985906
0.10330101 0.0214399 0.08483001 0.08181482 0.015924305 0.08482421 -0.19432038 0.0078777475
0.01462626 0.090695105 0.04841734 0.063550405 0.15602495 0.04084322 0.0874091 -0.033373803
0.20153742 0.11068419 0.096563555 0.0150293335 -0.01852352 0.110849224 0.067215376 0.098772615
0.11454361 0.16427302 0.11141415 0.15915935 0.14015897 0.06761609 0.009817455 0.031003982
0.009291633 0.097037956 0.110482834 0.048206653 0.15432657 0.06324231 -0.021129774 0.019319635
0.113990165 -0.055727787 0.002899169 0.05537836 0.09337078 0.02394147 -0.060520735 0.03916333
0.077677146 0.11257055 -0.028593158 0.15006743 0.13284786 -0.044170503 0.09529241 -0.00059642567
0.120310605 0.124391675 0.1367517 0.13499533 0.06448563 0.06818867 -0.0034249655 -0.025949076
-0.030814413 0.12823072 -0.0102644935 -0.0059785605 0.07405949 0.08735117 0.19702707 0.09514473
-0.010856919 0.09520479 0.08244666 0.10110962 0.07000192 0.084223025 0.02942063 0.010591117
0.15509377 0.13279113 0.008735491 0.06567409 0.13788943 0.009276043 -0.07857605 0.0996831
-0.018797228 0.083484985 0.042592004 -0.033932608 -0.05526969 0.12563859 0.031725388 0.06307541
-0.023898907 0.095736496 0.0051984284 -0.023026362 -0.021880148 0.14119735 0.0873211 0.11361849
-0.0065957615 -0.03437978 -0.08526028 -0.048400853 0.06898328 0.09887533 0.13703942 0.17407708
0.06467723 -6.595802e-05 0.11374134 -0.08817376 0.21910559 0.087133355 0.22700994 -0.11718389
0.02803486 0.08893972 0.077675804 0.2248563 0.054571014 -0.020454371 -0.07971371 0.11980318
0.16181038 0.058960434 0.18627289 0.0039214543 0.12702052 -0.00913686 0.0015709175 0.028258327
0.023810899 0.004948869 -0.0660755 0.14637925 -0.0652581 -0.028960744 0.15415734 0.0054644793
0.0843912 0.064764746 0.01269894 -0.008729134 0.057675637 0.15574653 -0.069557846 0.14847504
-0.020543082 0.07246914 0.12205263 0.024065947 -0.075691015 -0.082968146 0.05893063 0.06611638
0.07430266 -0.031045219 -0.05712173 0.062060844 0.07955817 0.12184443 0.06825636 0.13462637
0.048752367 0.1328243 0.07144799 0.04047275 0.0030044043 0.14435653 0.024356497 0.093452685
0.008201626 0.097810656 0.079642355 -0.004810774 0.118050836 0.018655179 -0.065617934 0.15344596
0.095240474 -0.08604922 0.012574893 0.11079415 0.01847018 0.113662615 0.17749445 -0.005678169
-0.19667192 -0.123223506 -0.034339324 0.024583021 0.032906048 0.22978802 -0.17619513 0.022600627
0.016648311 -0.20326619 -0.1945756 -0.054175407 -0.19715445 -0.22074008 0.11746501 0.036509227
0.19124354 0.07874055 -0.15359198 -0.20581472 -0.111630574 0.30132708 0.114429116 0.09349752
-0.026708556 0.10616938 -0.13205054 0.17955713 0.03103047 0.22087102 -0.21732162 -0.28396332
-0.35127667 -0.2455486 -0.16261318 -0.15907128 -0.10625873 0.11136945 0.1154865 -0.09760673
-0.23036604 -0.007551735 0.09656967 0.18882759 -0.20830503 0.13303645 -0.013308987 0.073927216
-0.07948422 0.21209207 -0.2578821 0.123328686 -0.07780304 -0.06734956 -0.0043906136 -0.14466786
00000000: 02c7 753d 0b5c e73d 4bbb 7d3d fdae c83c
00000010: 10ac d4bc 1ad5 9a3d c02e 193d e2ae f33d
00000020: 7b8f d33d bba2 af3c 5bbb ad3d 878e a73d
00000030: b073 823c 51b8 ad3d ecfb 46be ab11 013c
00000040: fba2 6f3c 5bbe b93d 4351 463d b726 823d
00000050: 01c5 1f3e 384b 273d 8b03 b33d f8b2 08bd
00000060: d35f 4e3e 65ae e23d 1dc3 c53d 983d 763c
00000070: a3be 97bc eb04 e33d 37a8 893d 4c49 ca3d
00000080: d795 ea3d 3037 283e 1a2d e43d abfa 223e
00000090: d585 0f3e 4e7a 8a3d 64d9 203c 10fc fd3c
000000a0: ef3b 183c d6bb c63d d344 e23d 5774 453d
000000b0: c907 1e3e 2f85 813d 5918 adbc 3644 9e3c
000000c0: ad73 e93d d242 64bd fcff 3d3b 6bd4 623d
000000d0: 2e39 bf3d e720 c43c 97e4 77bd ba69 203d
000000e0: 3215 9f3d 638b e63d 333c eabc 47ab 193e
000000f0: 4509 083e 21ec 34bd ab28 c33d 7359 1cba
00000100: 6865 f63d 10c1 fe3d a308 0c3e 373c 0a3e
00000110: 0b11 843d 80a6 8b3d 6375 60bb 2893 d4bc
00000120: 826e fcbc ea4e 033e 682c 28bc cde7 c3bb
00000130: 80ac 973d 2ce5 b23d 77c1 493e 3ddb c23d
00000140: 38e1 31bc bbfa c23d cbd9 a83d 8f12 cf3d
00000150: 2b5d 8f3d 1f7d ac3d 8803 f13c 5d86 2d3c
00000160: e7d0 1e3e 66fa 073e 4e1f 0f3c 2380 863d
00000170: e332 0d3e 8bfa 173c 7bec a0bd a726 cc3d
00000180: a5fc 99bc 2dfa aa3d f474 2e3d ebfc 0abd
00000190: 7862 62bd 67a7 003e 7bf2 013d ae2d 813d
000001a0: a4c7 c3bc 7f11 c43d 9457 aa3b c8a1 bcbc
000001b0: ff3d b3bc 0a96 103e 68d5 b23d d0b0 e83d
000001c0: 4221 d8bb d0d1 0cbd f19c aebd f93f 46bd
000001d0: 1b47 8d3d 267f ca3d 1054 0c3e 4341 323e
000001e0: 7f75 843d f152 8ab8 38f1 e83d 7294 b4bd
000001f0: 375d 603e f972 b23d 4b75 683e 1bfe efbd
00000200: 5da9 e53c 0726 b63d 7e14 9f3d bb40 663e
00000210: db85 5f3d ed8f a7bc f140 a3bd 5f5b f53d
00000220: 9fb1 253e 7f80 713d 52be 3e3e 8b7f 803b
00000230: ab11 023e c5b2 15bc 3fe7 cd3a 027e e73c
00000240: 130f c33c 1f2a a23b 9752 87bd 71e4 153e
00000250: 0aa6 85bd 153f edbc 6cdb 1d3e 600f b33b
00000260: 4bd5 ac3d 61a3 843d 370f 503c a404 0fbc
00000270: 4a3d 6c3d 057c 1f3e 5874 8ebd d709 183e
00000280: f749 a8bc b36a 943d bbf6 f93d f325 c53c
00000290: e403 9bbd 34eb a9bd 3f61 713d 0668 873d
000002a0: fe2b 983d 8b52 febc 7af8 69bd 8333 7e3d
000002b0: 65ef a23d 9389 f93d fec9 8b3d 7fdb 093e
000002c0: 90b0 473d 1803 083e 5353 923d c1c6 253d
000002d0: 8ae5 443b 33d2 133e 4787 c73c 1f64 bf3d
000002e0: 1d60 063c f450 c83d 881b a33d b2a3 9dbb
000002f0: a3c4 f13d bfd2 983c b262 86bd f020 1d3e
00000300: 700d c33d 933a b0bd ed06 4e3c 0be8 e23d
00000310: c64e 973c f2c7 e83d 1bc1 353e ef0f babb
00000320: 5d64 49be 9b5c fcbd 64a7 0cbd 5562 c93c
00000330: 7ec8 063d 8d4d 6b3e 7f6c 34be f324 b93c
00000340: 0a62 883c 0325 50be d33e 47be 08e7 5dbd
00000350: dbe2 49be b009 62be 7f91 f03d b38a 153d
00000360: 59d5 433e ba42 a13d 3747 1dbe 18c1 52be
00000370: 929e e4bd 8b47 9a3e d059 ea3d a17b bf3d
00000380: e7cb dabc 556f d93d 4238 07be d3dd 373e
00000390: 9d33 fe3c 032c 623e 8f89 5ebe a463 91be
000003a0: 89da b3be 1871 7bbe 1284 26be 95e3 22be
000003b0: 2d9e d9bd ab15 e43d 3084 ec3d 0ae6 c7bd
000003c0: 13e5 6bbe 8b74 f7bb 52c6 c53d 055c 413e
000003d0: ea4d 55be b53a 083e f00d 5abc 2767 973d
000003e0: 9fc8 a2bd aa2e 593e 1f09 84be c093 fc3d
000003f0: 3357 9fbd 91ee 89bd 23df 8fbb d023 14be

weight f4 [100, 100]
-0.10633625 -0.014875852 -0.078559816 -0.021590162 0.06432931 -0.040585462 -0.028169638 0.05870377
-0.15201716 0.07527358 -0.057035208 -0.032946642 -0.11211467 0.04981339 0.044716127 -0.028398661
0.036135256 -0.00089964404 -0.06664845 -0.0366425 0.0031829681 -0.06964292 -0.018380811 -0.10136528
0.11836183 -0.04630443 -0.06509101 0.06866001 0.06912437 0.050881054 -0.031657085 0.028824378
-0.018974861 0.08667081 0.021859523 0.004691698 0.0455837 0.08323588 -0.037632648 -0.050364852
0.09936821 -0.14855415 -0.021335525 0.103934586 -0.009673136 0.051451754 -0.009357343 0.10019789
-0.0803328 0.03594444 -0.06415273 0.031361077 0.033621904 0.09206331 0.0029075711 0.10669082
0.017193442 0.083775304 -0.03151224 0.007805033 -0.06118356 0.18519738 0.076602116 0.010907233
-0.030384634 0.058449067 -0.07819827 -0.006748131 0.03739148 0.014886054 -0.035860837 -0.04075807
0.13988076 -0.06760588 0.023689397 0.014967841 0.017881714 0.003256258 0.0993028 -0.02878106
0.11589654 -0.0602108 0.08167147 0.043933384 -0.01926311 0.11820298 -0.009094632 -0.15246952
-0.008859749 -0.026348561 0.03391723 -0.10184949 0.040190946 0.066232115 0.029754192 0.07341228
-0.033267315 0.084119245 0.046119448 -0.09035995 0.16870038 -0.04298689 -0.08400377 -0.02901507
0.011805131 0.10332926 -0.11476689 -0.07789804 0.04101889 -0.014559952 -0.07169886 -0.07910578
0.030584479 0.014260796 0.038713712 0.10352545 0.032921504 0.09910237 -0.014378035 0.045747276
0.035423003 0.04596314 -0.049704865 0.106388085 -0.09980798 0.020775039 0.060192127 0.080475144
0.0680834 0.058160406 -0.039791044 -0.008395839 -0.08710483 0.031082401 -0.12745373 0.100035824
-0.05385337 -0.009616598 -0.019547157 -0.08157175 -0.101575196 0.042073466 -0.047250193 0.016928827
-0.040467154 -0.097744666 -0.145609 0.07373908 -0.0035050034 -0.019779852 -0.05408115 0.027025232
0.04280817 0.033772554 0.0407593 -0.0142657105 0.07457824 0.0131355645 0.030490775 0.050367057
0.03800791 -0.067715846 -0.0054244716 -0.019954858 0.10027238 -0.10703217 -0.05324023 -0.008585988
0.03796229 0.06344047 0.1090876 -0.026145896 -0.1343805 0.067053035 -0.19594342 -0.08265134
0.06619553 0.03917333 0.0200974 0.09606862 -0.14050254 -0.011021556 0.06291118 0.039839428
-0.0056061298 -0.10950752 -0.040159892 0.025098119 -0.0015770681 -0.0012646859 0.078673296 0.058094244
-0.021990849 -0.1737418 -0.13514529 -0.093456484 0.097683154 -0.07898226 0.12381115 0.026544154
0.017814936 0.030854583 0.004262465 0.03861321 -0.07546144 -0.12639236 0.029570315 -0.008145771
-0.15611826 0.082969315 0.0043583647 -0.0002745874 0.007477672 -0.034761798 0.083818145 -0.011319026
-0.08520291 -0.031773143 -0.0040076277 -0.014531813 0.15260802 -0.02499339 -0.05467179 -0.058683485
0.03936304 -0.0372981 0.081752114 0.012935385 -0.0779914 -0.0024702107 0.041226506 -0.038734708
0.045265805 0.0032938204 0.009325028 -0.10838717 0.02568285 0.018144578 0.0073171803 -0.023234837
-0.10980292 0.008774234 0.03162777 0.073242895 -0.05807338 0.017299563 0.18115172 0.12668763
-0.092419915 0.013079451 -0.047289833 -0.049253292 -0.035706397 0.14394169 -0.074747525 0.06289047
00000000: d2c6 d9bd d8b9 73bc f8e3 a0bd dadd b0bc
00000010: 16bf 833d f13c 26bd 03c4 e6bc 5d73 703d
00000020: 63aa 1bbe 0929 9a3d c09d 69bd 0ff3 06bd
00000030: 609c e5bd 2009 4c3d 4228 373d 4fa4 e8bc
00000040: 9002 143d 17d6 6bba fc7e 88bd 7216 16bd
00000050: 5899 503b f2a0 8ebd 5b93 96bc 9a98 cfbd
00000060: b067 f23d b7a9 3dbd 6f4e 85bd 9f9d 8c3d
00000070: 1491 8d3d a768 503d dcaa 01bd 1a21 ec3c
00000080: 2b71 9bbc 7780 b13d be12 b33c d1bc 993b
00000090: f9b5 3a3d 9377 aa3d b124 1abd 604b 4ebd
000000a0: 8f81 cb3d 941e 18be d7c7 aebc a8db d43d
000000b0: 137c 1ebc 13bf 523d 8b4f 19bc 8d34 cd3d
000000c0: 8685 a4bd 7a3a 133d 8262 83bd 7974 003d
000000d0: 1fb7 093d b08b bc3d f38c 3e3b b780 da3d
000000e0: 43d9 8c3c 6392 ab3d fb12 01bd 5dc1 ff3b
000000f0: 9d9b 7abd 62a4 3d3e 92e1 9c3d 40b4 323c
00000100: 32e9 f8bc 4a68 6f3d 6a26 a0bd 6d1f ddbb
00000110: cf27 193d a3e4 733c d0e2 12bd eff1 26bd
00000120: e73c 0f3e f474 8abd 4410 c23c ad3b 753c
00000130: ac7c 923c f266 553b 445f cb3d 42c6 ebbc
00000140: 2a5b ed3d 9a9f 76bd 5f43 a73d 7ef3 333d
00000150: abcd 9dbc 6714 f23d a701 15bc f820 1cbe
00000160: 7b28 11bc f0d8 d7bc cbec 0a3d 7796 d0bd
00000170: 439f 243d b4a4 873d 10bf f33c 2d59 963d
00000180: 4f43 08bd b646 ac3d bfe7 3c3d a30e b9bd
00000190: cbbf 2c3e 0513 30bd 2b0a acbd 03b1 edbc
000001a0: 4f6a 413c 4b9e d33d e70a ebbd 0289 9fbd
000001b0: 6c03 283d dd8c 6ebc dad6 92bd 3602 a2bd
000001c0: 4d8c fa3c 1da6 693c 4592 1e3d 2705 d43d
000001d0: b3d8 063d 2ff6 ca3d da91 6bbc 7f61 3b3d
000001e0: b617 113d d843 3c3d 5497 4bbd ffe1 d93d
000001f0: 2068 ccbd 6a30 aa3c 058c 763d 27d0 a43d
00000200: 4f6f 8b3d 9b39 6e3d effb 22bd b38e 09bc
00000210: 0464 b2bd 85a0 fe3c 3b83 02be 95df cc3d
00000220: 5a95 5cbd ef8e 1dbc 5c21 a0bc 170f a7bd
00000230: a806 d0bd 3a55 2c3d 6b89 41bd 53ae 8a3c
00000240: e3c0 25bd 5b2e c8bd 871a 15be 8404 973d
00000250: 33b4 65bb 5b09 a2bc 3284 5dbd 0564 dd3c
00000260: 9f57 2f3d 1755 0a3d 39f3 263d baba 69bc
00000270: 7abc 983d 8d36 573c cac7 f93c b04d 4e3d
00000280: 2fae 1b3d 9bae 8abd c4bf b1bb 5f78 a3bc
00000290: 9b5b cd3d af33 dbbd 6d12 5abd 3eac 0cbc
000002a0: 597e 1b3d 14ed 813d 5269 df3d eb2f d6bc
000002b0: 0b9b 09be 1a53 893d 64a5 48be 1b45 a9bd
000002c0: 8691 873d 3774 203d 4da3 a43c a0bf c43d
000002d0: e6df 0fbe c293 34bc 94d7 803d ab2e 233d
000002e0: a0b3 b7bb 7b45 e0bd b37e 24bd 929a cd3c
000002f0: a0b5 ceba d1c3 a5ba 771f a13d 3bf4 6d3d
00000300: 2726 b4bc 5fe9 31be 8763 0abe 1d66 bfbd
00000310: 1b0e c83d 73c1 a1bd b390 fd3d 2073 d93c
00000320: a1f0 913c c0c2 fc3c 26ac 8b3b e328 1e3d
00000330: 878b 9abd 006d 01be 723d f23c d775 05bc
00000340: 77dd 1fbe d1eb a93d 9dd0 8e3b 7ff6 8fb9
00000350: 4207 f53b 6362 0ebd d9a8 ab3d 7073 39bc
00000360: dd7e aebd 8e24 02bd 6b52 83bb d716 6ebc
00000370: 4745 1c3e f0be ccbc 87ef 5fbd 185e 70bd
00000380: 243b 213d e4c5 18bd a76d a73d f0ee 533c
00000390: f5b9 9fbd 42e3 21bb 20dd 283d 49a8 1ebd
000003a0: a368 393d 23dd 573b 01c8 183c 18fa ddbd
000003b0: d764 d23c f0a3 943c f5c4 ef3b fc56 bebc
000003c0: 5ae0 e0bd cec1 0f3c 1f8c 013d 5f00 963d
000003d0: 5ade 6dbd d0b7 8d3c d67f 393e 67ba 013e
000003e0: a746 bdbd 324b 563c fcb2 41bd d2bd 49bd
000003f0: df40 12bd 7365 133e 3b15 99bd b8cc 803d

bias f4 [100]
0.10649586 0.021036563 0.08425256 -0.0075507234 0.036070574 -0.08241911 -0.025079144 -0.040244162
-0.004674159 0.0747691 -0.08562752 -0.023271983 0.018721836 -0.13441186 -0.08133993 -0.1044447
0.043137934 -0.058522522 -0.056713697 -0.03889264 0.09708939 -0.035126954 0.078087434 0.09899093
0.011594871 -0.047350492 -0.04103902 -0.039384894 0.055242 -0.074131966 -0.033956226 -0.01021977
-0.024794465 -0.09646553 0.07334031 0.08002418 0.040080033 -0.13061053 -0.065579556 -0.06394871
-0.08989244 -0.06354462 -0.036826156 -0.0774345 0.011029239 0.025198633 0.04402708 0.075129405
0.0668589 0.03432099 -0.012576706 -0.024554526 -0.014524941 0.08827598 -0.044632923 0.06175176
-0.037177708 0.023821676 0.07417156 0.118896484 0.008763574 0.0683934 0.06976975 0.11905175
0.06312553 -0.030821467 0.08329381 -0.006059692 -0.033664793 0.055607934 0.030194847 -0.16429386
-0.0577235 0.051855464 -0.04504646 0.0012808648 0.08779395 -0.024305454 -0.13459417 0.03648632
-0.017247096 -0.077688344 -0.08943243 0.06615623 0.050129425 0.013163325 0.0042530866 0.08702055
0.067152955 0.0639831 -0.08386361 -0.003977045 -0.088529505 -0.047082637 0.10078657 0.043347668
-0.039753746 0.07746023 0.031831816 0.016069325
00000000: 801a da3d df54 ac3c 9b8c ac3d 0f6c f7bb
00000010: bdbe 133d 5acb a8bd c772 cdbc 10d7 24bd
00000020: b029 99bb 8b20 993d 7b5d afbd e3a4 bebc
00000030: 895e 993c 43a3 09be 8d95 a6bd 1ae7 d5bd
00000040: 67b1 303d 50b5 6fbd 9f4c 68bd e44d 1fbd
00000050: cdd6 c63d 48e1 0fbd 4eec 9f3d c2bb ca3d
00000060: 6af8 3d3c 97f2 41bd 8818 28bd 0e52 21bd
00000070: 6f45 623d 80d2 97bd af15 0bbd d270 27bc
00000080: c31d cbbc b88f c5bd 7233 963d b8e3 a33d
00000090: f62a 243d c4be 05be 934e 86bd 8bf7 82bd
000000a0: 8719 b8bd af23 82bd 06d7 16bd fb95 9ebd
000000b0: fbb3 343c 5d6d ce3c bd55 343d 72dd 993d
000000c0: 52ed 883d 2b94 0c3d 870e 4ebc 9326 c9bc
000000d0: 05fa 6dbc 09ca b43d 03d1 36bd 6aef 7c3d
000000e0: a747 18bd ad25 c33c 42e7 973d 0080 f33d
000000f0: 1895 0f3c d711 8c3d 71e3 8e3d 67d1 f33d
00000100: f547 813d 4d7d fcbc f295 aa3d 6190 c6bb
00000110: 18e4 09bd 25c5 633d 2f5b f73c a63c 28be
00000120: 7a6f 6cbd 6566 543d a382 38bd b1e2 a73a
00000130: 51cd b33d 3b1c c7bc 0ed3 09be ae72 153d
00000140: c849 8dbc 111b 9fbd 5a28 b7bd eb7c 873d
00000150: 8354 4d3d fdaa 573c 7a5d 8b3b d537 b23d
00000160: 7d87 893d 9209 833d afc0 abbd df51 82bb
00000170: f54e b5bd b9d9 40bd 3069 ce3d 538d 313d
00000180: d3d4 22bd 78a3 9e3d 1462 023d d1a3 833c

weight f4 [1, 100]
-0.36340603 0.40950486 -0.45386463 0.38451478 0.46148548 0.7393262 0.19804518 -0.11529197
0.23595674 -0.39594457 0.6233465 0.6234183 0.0926266 0.36660624 -0.22355862 0.13690966
0.13081323 -0.4380242 0.6903376 -0.17882536 0.014156277 0.5213785 0.04813674 -0.5608332
0.22055745 0.39843035 -0.36504102 -0.21548007 0.25676462 0.4033486 0.38246056 0.11409833
-0.17071407 0.18061328 0.22631004 -0.3630455 -0.07870543 0.4422097 -0.60275793 0.3014254
0.41085765 0.7328728 0.40218645 0.0713391 0.4152577 -0.56663 -0.07057773 -0.33992836
0.17383611 -0.5289349 -0.34462878 -0.17811781 0.39773178 -0.33685982 0.26888004 0.29550537
-0.27736852 0.30507296 -0.034493588 -0.7537265 -0.634709 -0.54797095 -0.46631914 -0.73050016
0.17398922 0.019024638 -0.299599 -0.326843 0.41181985 -0.37645465 0.32868442 0.63327605
0.011232435 -0.12590082 0.17483746 0.5232443 -0.457712 -0.03787176 0.4647797 -0.07303897
-0.50026023 -0.007563447 0.30614397 0.05890953 0.27443114 -0.011948959 -0.11244768 0.27797392
-0.07093226 -0.3667942 0.027923211 -0.45211202 0.2773575 0.32063425 -0.29654932 -0.40464258
0.28611872 -0.2312516 0.4044385 -0.47358942
00000000: 5b10 babe 9faa d13e f260 e8be 1fdf c43e
00000010: d347 ec3e 7b44 3d3f 5bcc 4a3e 321e ecbd
00000020: a59e 713e 3fb9 cabe a393 1f3f 5798 1f3f
00000030: 04b3 bd3d d0b3 bb3e 8dec 64be 0c32 0c3e
00000040: e7f3 053e b544 e0be f7b9 303f ff1d 37be
00000050: bbef 673c 1079 053f 082b 453d c492 0fbf
00000060: d0d9 613e 10ff cb3e a8e6 babe cfa6 5cbe
00000070: a776 833e b583 ce3e dfd1 c33e 63ac e93d
00000080: abcf 2ebe b0f2 383e d2bd 673e 1ae1 b9be
00000090: 5030 a1bd 4f69 e23e 584e 1abf 6e54 9a3e
000000a0: ef5b d23e 8d9d 3b3f 62eb cd3e 3c1a 923d
000000b0: a89c d43e aa0e 11bf 0f8b 90bd 170b aebe
000000c0: 1802 323e 4768 07bf 2f73 b0be 8464 36be
000000d0: 80a3 cb3e e478 acbe a5aa 893e 7b4c 973e
000000e0: 3f03 8ebe 8632 9c3e 2649 0dbd 38f4 40bf
000000f0: 4a7c 22bf d347 0cbf 62c1 eebe 0f02 3bbf
00000100: 3b2a 323e 8fd9 9b3c 0a65 99be f757 a7be
00000110: 0dda d23e aabe c0be 5349 a83e 611e 223f
00000120: 3f08 383c 25ec 00be 9708 333e 57f3 053f
00000130: 3a59 eabe 6b1f 1bbd 9bf7 ed3e 7595 95bd
00000140: 0e11 00bf cbd6 f7bb e7be 9c3e 1f4b 713d
00000150: 3d82 8c3e 91c5 43bc f84a e6bd 9952 8e3e
00000160: ef44 91bd 73cc bbbe 38bf e43c 3a7b e7be
00000170: cd01 8e3e 2c2a a43e 50d5 97be 502d cfbe
00000180: 277e 923e 38cd 6cbe 9012 cf3e 507a f2be

weight f4 [15, 100]
0.4866434 -0.29705042 0.06479323 -0.3724812 0.12847511 0.07833295 -0.111949645 0.30022225
0.18761297 -0.5130613 -0.5890334 0.09648811 0.62729514 0.064958416 0.04044982 0.27580112
-0.24691887 -0.34486076 0.23817499 0.7907865 0.11021614 0.44964895 0.34605232 0.4622543
-0.49727938 0.22499375 0.19787285 0.41079655 -0.56605065 -0.29070434 -0.34566855 0.5633238
-0.19026348 -0.63683015 0.18061596 0.45494214 -0.65705156 0.32058316 0.5907474 -0.60306704
-0.05257047 -0.06348126 -0.440617 -0.61675733 0.42179915 0.49728847 -0.30817142 -0.14198731
-0.22156227 0.2653112 -0.34655288 0.28278303 0.14097434 0.39372903 -0.49618983 0.23952119
0.6322543 0.31596646 0.31323949 0.15879802 -0.17944883 -0.47631636 0.62523204 -0.31241885
0.5650812 0.092243515 0.12421673 0.190836 0.6588044 0.2025905 -0.5566661 0.13887948
-0.22006471 -0.20866525 -0.42523298 -0.28733972 -0.48628053 -0.2864984 0.3784797 0.4530549
0.344665 0.35163388 -0.34181595 -0.2528639 0.24324618 -0.40561363 -0.102662206 -0.14433245
0.2374899 0.19989915 -0.19322267 -0.065143645 -0.02377287 -0.38740087 -0.44130048 -0.14098172
0.23971927 -0.14223833 0.41997758 0.018732902 -0.48480192 -0.6509239 0.11012458 0.47911644
0.45980722 0.3292233 -0.5576541 0.1644662 0.1046772 -0.2743044 0.20773974 0.37955767
-0.47914502 -0.20208631 -0.59141463 0.48247886 0.53801805 0.15329795 -0.16163002 -0.3399933
-0.49578524 0.61214703 0.41645294 -0.18630815 -0.053139966 0.2569726 0.090481356 -0.42745718
0.20007269 -0.2207258 -0.5624763 0.13366117 0.3343817 0.62471926 0.29562482 0.25000134
-0.19469497 -0.6491186 0.2746532 0.24850748 0.35479695 -0.5335295 0.30848044 0.30297807
-0.47004682 -0.46372673 -0.24887179 0.06963916 -0.17438483 -0.04414621 -0.43723652 -0.3716257
0.66632307 -0.08939568 -0.50131714 -0.5022638 -0.3329564 0.10793894 -0.33672294 -0.07627594
0.043534674 -0.41369316 0.29929364 0.28374052 0.51280445 0.42519456 -0.20838718 0.4524107
0.3836961 -0.085717216 0.5444848 0.33476296 0.71461487 0.32942396 0.3063229 -0.57713664
-0.44885454 0.32125914 0.1035937 0.0992137 -0.22550161 -0.016414693 -0.036746625 -0.33870777
-0.20108774 -0.24605487 -0.33402994 -0.15902337 -0.5390584 -0.09924442 0.55206186 -0.113716595
0.14361994 0.21518612 -0.57211524 0.6348971 0.33372867 -0.050480884 0.5030358 0.28560278
0.21242945 -0.2122004 -0.51708347 -0.3987559 0.35998997 -0.5439444 0.255789 -0.4593524
-0.120291196 -0.3657133 -0.42618904 -0.5773907 0.46568307 -0.73964554 0.6487284 -0.13582897
0.0129686 0.29469404 0.3313534 0.38510677 0.59918016 -0.11287134 0.2417951 0.4538961
-0.5608129 -0.38042113 -0.6475722 0.48861971 0.10914799 0.42902255 0.7804518 -0.21957278
0.44000363 -0.47810194 -0.36575976 0.27255198 0.17435871 0.06926432 0.118684314 -0.16048062
-0.39125687 0.38971934 -0.15538125 -0.6177346 0.036903787 0.6350156 -0.5836156 0.6769401
-0.33812788 0.20680963 0.6005396 -0.6423225 -0.26897097 -0.31524816 0.24086523 0.22623889
00000000: 5329 f93e fe16 98be 50b2 843d dbb5 bebe
00000010: fb8e 033e 076d a03d db45 e5bd bbb6 993e
00000020: 9d1d 403e fc57 03bf e5ca 16bf 8f9b c53d
00000030: 6a96 203f eb08 853d b6ae 253d ce35 8d3e
00000040: 4dd8 7cbe 9791 b0be 25e4 733e fc70 4a3f
00000050: 00b9 e13d 6338 e63e c52d b13e 98ac ec3e
00000060: 679b febe c364 663e 2e9f 4a3e ed53 d23e
00000070: b2e8 10bf 33d7 94be 78fb b0be fd35 103f
00000080: 6ed4 42be 4d07 23bf 64f3 383e 2dee e83e
00000090: 8834 28bf 7a23 a43e 393b 173f 9a62 1abf
000000a0: 2254 57bd 7602 82bd 8d98 e1be cfe3 1dbf
000000b0: 0ff6 d73e 989c fe3e a5c8 9dbe 1f65 11be
000000c0: 38e1 62be dfd6 873e 616f b1be f0c8 903e
000000d0: 945b 103e da96 c93e 980c febe 0b45 753e
000000e0: 6bdb 213f 5bc6 a13e ed60 a03e f39b 223e
000000f0: 6fc1 37be bddf f3be 350f 203f 5df5 9fbe
00000100: 29a9 103f 2bea bc3d 5765 fe3d 836a 433e
00000110: 68a7 283f e273 4f3e ab81 0ebf 6c36 0e3e
00000120: a558 61be 58ac 55be 23b8 d9be 311e 93be
00000130: c3f9 f8be ebaf 92be 17c8 c13e d0f6 e73e
00000140: ee77 b03e 5b09 b43e 8002 afbe 6177 81be
00000150: 8715 793e 97ac cfbe 9040 d2bd e3cb 13be
00000160: 8d30 733e 5db2 4c3e 2adc 45be 086a 85bd
00000170: 52bf c2bc 6859 c6be 23f2 e1be 835d 10be
00000180: f878 753e eda6 11be 4d07 d73e be75 993c
00000190: f537 f8be f3a2 26bf ff88 e13d c04e f53e
000001a0: da6b eb3e f58f a83e 6bc2 0ebf d469 283e
000001b0: 0061 d63d a071 8cbe bab9 543e 6255 c23e
000001c0: 7f52 f5be b7ef 4ebe f366 17bf 7807 f73e
000001d0: 8dbb 093f 23fa 1c3e 5782 25be 9a13 aebe
000001e0: 90d7 fdbe abb5 1c3f 5239 d53e 90c7 3ebe
000001f0: 4ba9 59bd ea91 833e 4a4e b93d abdb dabe
00000200: dbdf 4c3e f205 62be 72fe 0fbf 79de 083e
00000210: 1434 ab3e 9aed 1f3f 235c 973e 2d00 803e
00000220: 1e5e 47be a32c 26bf 589f 8c3e bf78 7e3e
00000230: f2a7 b53e 6495 08bf 26f1 9d3e f11f 9b3e
00000240: faa9 f0be 976d edbe 3fd8 7ebe fa9e 8e3d
00000250: f091 32be a8d2 34bd 77dd dfbe b945 bebe
00000260: 2694 2a3f 1515 b7bd 5256 00bf 5c94 00bf
00000270: 4379 aabe 170f dd3d f366 acbe 8f36 9cbd
00000280: 6a51 323d 97cf d3be 043d 993e 7046 913e
00000290: 2747 033f 1ab3 d93e 7363 55be 60a2 e73e
000002a0: d173 c43e 828c afbd 5b63 0b3f 0d66 ab3e
000002b0: 00f1 363f 42aa a83e 5bd6 9c3e 3abf 13bf
000002c0: 43d0 e5be 147c a43e ef28 d43d 8d30 cb3d
000002d0: e5e9 66be 1b78 86bc a183 16bd 1b6b adbe
000002e0: f2e9 4dbe cff5 7bbe f905 abbe 06d7 22be
000002f0: bbff 09bf a940 cbbd ed53 0d3f 3fe4 e8bd
00000300: 1b11 133e c059 5c3e 2576 12bf 9e88 223f
00000310: 7cde aa3e 0bc5 4ebd f4c6 003f 873a 923e
00000320: 1b87 593e 104b 59be 955f 04bf bc29 ccbe
00000330: 9b50 b83e f13f 0bbf c7f6 823e 3d30 ebbe
00000340: 3b5b f6bd c63e bbbe 7335 dabe e0cf 13bf
00000350: 036e ee3e 6959 3dbf 1013 263f c016 0bbe
00000360: 407a 543c 23e2 963e 27a7 a93e b72c c53e
00000370: df63 193f 1729 e7bd 2299 773e 1265 e83e
00000380: 6f91 0fbf 8fc6 c2be 4bc7 25bf 5d2c fa3e
00000390: fb88 df3d d8a8 db3e b0cb 473f b0d7 60be
000003a0: 2848 e13e c7c9 f4be dd44 bbbe ef8b 8b3e
000003b0: 178b 323e 74da 8d3d c310 f33d 0855 24be
000003c0: d252 c8be 4b89 c73e 431c 1fbe db23 1ebf
000003d0: 6d28 173d 6290 223f d567 15bf f24b 2d3f
000003e0: 191f adbe e7c5 533e f7bc 193f 3f6f 24bf
000003f0: 90b6 89be 3568 a1be 60a5 763e 2bab 673e

bias f4 [15]
0.49906278 0.27798668 0.79280496 0.99939054 1.0132746 1.0751871 0.9796211 1.6404114
0.41341397 0.42603 0.547328 0.3379393 0.5787117 0.26636946 0.53369147
00000000: 2885 ff3e 4554 8e3e 44f5 4a3f 0fd8 7f3f
00000010: fbb2 813f bb9f 893f 73c8 7a3f 00f9 d13f
00000020: ffaa d33e 9b20 da3e b01d 0c3f 6106 ad3e
00000030: 7326 143f 9461 883e 01a0 083f
