checkpoints/9feature_mlp_num_comm1999_an15_sn3_D125_al0.9_E5_B250_lr0.05_num_clients100_cf0.1.pth (torch, 102175 bytes, 4 tensors)

weight f4 [1000, 9]
-0.08392147 0.73793405 0.43881032 -0.10076618 -0.37335685 -0.15970257 -0.023667859 0.24520636
-0.044205047 0.20271705 0.44314033 -0.5211446 0.6867437 0.33857632 0.5471117 -0.101630285
-0.08229814 0.23634134 0.0419619 -0.0883077 -0.022288581 -0.14996026 0.28825888 -0.04757041
-0.17861506 -0.48121396 -0.8331267 0.0069942265 -0.10693467 -0.30474362 0.15478082 -0.039053317
0.47844383 -0.3573867 0.06719375 -0.2398927 -0.018341806 0.020189261 -0.03161646 0.07272785
0.058001775 0.28167164 0.624571 0.34693423 -0.043767113 -0.15263167 -0.11119621 -0.029927125
0.2775552 0.31695572 -0.64146787 0.36235613 -0.24995084 0.3620747 0.106472924 0.20704393
-0.13431166 0.048669044 0.22945769 0.56580734 -0.020613872 0.33505988 -0.020350004 -0.07477599
0.27289566 0.3777163 0.18554382 0.12367596 -0.07666037 -0.2718944 -0.12037376 0.07198896
-0.069580816 -0.43084094 -0.5150717 -0.1767289 -0.066466294 -0.03288673 -0.40877935 -0.04036022
0.3571199 0.16975857 0.57474494 -0.4128244 0.64884615 -0.15064023 -0.27460402 -0.31195015
-0.07780145 -0.13350074 -0.32535645 -0.17467251 -0.025950162 -0.037075944 -0.00073775055 -0.28219688
0.096140094 -0.3457251 0.4822 0.052687652 0.50369024 0.38926685 -0.37762368 0.1627459
-0.24779813 0.0854987 -0.1403813 0.32125917 -0.016371943 -0.18569207 -0.10361584 0.33062083
0.16825019 -0.09643781 -0.45021877 -0.6246743 -0.28452 -0.3886735 0.3116975 -0.23997882
-0.16755162 -0.32866377 0.04250186 0.08259287 -0.020716673 -0.16510294 0.06780491 0.06055644
-0.06400629 0.22563021 -0.088992916 0.063546985 -0.8001923 0.36935124 0.3496196 0.091167
0.16762781 -0.1807039 0.316387 -0.09879839 0.02540719 0.6234098 0.047290247 -0.6663663
0.25010106 0.30004713 -0.24922709 -0.24266277 -0.11143898 -0.14460711 0.6353278 -0.17943485
0.32580844 -0.18021542 0.14772058 0.066084854 -0.105880715 0.06534898 0.052295446 0.4473374
-0.5274813 -0.2138797 0.034626253 0.0065985 -0.011527043 -0.0039151143 0.0019799208 0.015374924
-0.80193627 0.56440896 0.12737802 -0.01999755 0.17884834 0.24779122 -0.47426638 -0.7387236
-0.43492022 -0.16288088 -0.18048176 -0.93384784 0.06398564 -0.14401212 -0.02547512 -0.031070907
0.099108 -0.066289246 -1.2198018 0.45848584 -0.47986704 0.0073321997 0.12599333 0.053021234
0.31957015 -0.47463247 -0.5394576 0.33864403 -0.36327192 0.043001946 -0.06826816 0.3787775
0.35076246 -0.07334693 -0.033539593 -0.05975799 -0.17638241 -0.51974106 0.3932865 -0.38327643
-0.33915302 -0.32524756 -0.03681745 -0.026337145 0.20493405 0.13654399 -0.2067556 0.22286879
0.09580346 -0.0636255 -0.13284558 0.48129725 0.14210731 -0.099568 0.20489119 -0.30682454
-0.009402076 0.1396124 -0.07733785 -0.22718397 -0.11052457 -0.216951 -0.17748062 0.40519053
0.2511666 -0.46934652 0.06899773 0.11814102 -0.02213653 0.33717507 -0.3628455 -0.5033967
0.21367519 -0.31743917 -0.34798923 0.30582875 0.53784484 -0.42562485 -0.13494562 0.15175244
0.48638105 -0.36753315 -0.06877319 0.38951656 -0.03909861 -0.1262587 -0.15154807 -0.10686654
00000000: 05df abbd 3fe9 3c3f bfab e03e 805e cebd
00000010: a128 bfbe 1289 23be 19e3 c1bc 6017 7b3e
00000020: 5a10 35bd 0f95 4f3e 4ae3 e23e bc69 05bf
00000030: 6fce 2f3f e059 ad3e 830f 0c3f 8a23 d0bd
00000040: ed8b a8bd 7703 723e 3ee0 2b3d abda b4bd
00000050: 8b96 b6bc 2f8f 19be ab96 933e 31d9 42bd
00000060: dee6 36be ad61 f6be cb47 55bf d32f e53b
00000070: 9000 dbbd 5b07 9cbe dd7e 1e3e 5ff6 1fbd
00000080: 97f6 f43e 64fb b6be e09c 893d 6fa6 75be
00000090: 8e41 96bc f363 a53c 4380 01bd 57f2 943d
000000a0: 4593 6d3d 4437 903e e3e3 1f3f 5da1 b13e
000000b0: 2545 33bd 7a4b 1cbe d7ba e3bd bb29 f5bc
000000c0: b71b 8e3e 0548 a23e 3d37 24bf be86 b93e
000000d0: 1df3 7fbe db61 b93e 7a0e da3d 5303 543e
000000e0: ff88 09be 3159 473d f5f6 6a3e c0d8 103f
000000f0: 6cde a8bc f88c ab3e 0db5 a6bc 2724 99bd
00000100: fbb8 8b3e 0864 c13e 33ff 3d3e d249 fd3d
00000110: 1d00 9dbd be35 8bbe 8586 f6bd f36e 933d
00000120: 6380 8ebd 2f97 dcbe bddb 03bf 6cf8 34be
00000130: 7b1f 88bd 3cb4 06bd 874b d1be c250 25bd
00000140: 6bd8 b63e 31d5 2d3e 7c22 133f b85d d3be
00000150: c81a 263f 6f41 1abe e698 8cbe eeb7 9fbe
00000160: 5e56 9fbd 6bb4 08be 1f95 a6be 5add 32be
00000170: 6f95 d4bc f2dc 17bd 9a65 41ba 1c7c 90be
00000180: 19e5 c43d e102 b1be ebe2 f63e 02cf 573d
00000190: d8f1 003f fc4d c73e e457 c1be dca6 263e
000001a0: cbbe 7dbe f119 af3d 1ec0 0fbe 157c a43e
000001b0: 741e 86bc 1026 3ebe 8b34 d4bd 2247 a93e
000001c0: c749 2c3e 3081 c5bd 1383 e6be a8ea 1fbf
000001d0: 9bac 91be 3700 c7be d196 9f3e 02bd 75be
000001e0: a792 2bbe 9e46 a8be 6e16 2e3d 7326 a93d
000001f0: 03b6 a9bc bf10 29be 4ddd 8a3d 080a 783d
00000200: bb15 83bd 9b0b 673e eb41 b6bd ec24 823d
00000210: 67d9 4cbf 9b1b bd3e 5701 b33e c4b5 ba3d
00000220: a0a6 2b3e 710a 39be 7afd a13e cf56 cabd
00000230: bd22 d03c c997 1f3f 6bb3 413d fb96 2abf
00000240: 3f0d 803e c79f 993e 6335 7fbe 977c 78be
00000250: 1f3a e4bd e313 14be d8a4 223f c5bd 37be
00000260: 5dd0 a63e 648a 38be 1044 173e 7f57 873d
00000270: fdd7 d8bd b0d5 853d c033 563d 6809 e53e
00000280: 0409 07bf 4803 5bbe 42d4 0d3d 3b38 d83b
00000290: ecdb 3cbc 5c4a 80bb 8fc1 013b 1be7 7b3c
000002a0: b24b 4dbf 1b7d 103f 626f 023e e7d1 a3bc
000002b0: 0524 373e fbbc 7d3e 0bd3 f2be fd1c 3dbf
000002c0: ddad debe 3fca 26be 36d0 38be a710 6fbf
000002d0: e70a 833d ea77 13be 33b1 d0bc 6a88 febc
000002e0: 23f9 ca3d a8c2 87bd 7722 9cbf a8be ea3e
000002f0: 22b1 f5be f342 f03b 6504 013e cb2c 593d
00000300: b39e a33e 0703 f3be e519 0abf c062 ad3e
00000310: c7fe b9be cf22 303d 2dd0 8bbd 20ef c13e
00000320: 2397 b33e ea36 96bd d060 09bd cbc4 74bd
00000330: 979d 34be c00d 05bf d95c c93e cf3c c4be
00000340: 77a5 adbe d986 a6be e5cd 16bd ffc0 d7bc
00000350: 3bda 513e 30d2 0b3e bdb7 53be b737 643e
00000360: 9b34 c43d 164e 82bd ac08 08be 986c f63e
00000370: 9484 113e 4fea cbbd ffce 513e 1b18 9dbe
00000380: 2a0b 1abc 8ef6 0e3e 4f63 9ebd eaa2 68be
00000390: b55a e2bd 6728 5ebe 7bbd 35be 2275 cf3e
000003a0: e998 803e 304e f0be af4e 8d3d ebf3 f13d
000003b0: ab57 b5bc 36a2 ac3e e3c6 b9be 9bde 00bf
000003c0: abcd 5a3e 6387 a2be a52b b2be 9695 9c3e
000003d0: 33b0 093f 80eb d9be 2f2f 0abe fe64 1b3e
000003e0: f006 f93e 4e2d bcbe f5d8 8cbd b76e c73e
000003f0: dd25 20bd f649 01be 6b2f 1bbe d8dc dabd

bias f4 [1000]
0.4027411 0.04811796 -0.18920514 0.29973453 0.32985327 -0.039116964 -0.19138853 0.060336363
0.58752775 -0.32088813 -0.14919494 -0.33631727 0.33637363 0.22098742 -0.06810123 0.8653885
-0.014641109 0.36487228 -0.29042003 -0.5601037 -1.1662675 -0.2854072 0.25096393 0.44894442
0.59502393 -0.2751108 0.32108507 -0.29112512 1.2727878 -0.065506555 -0.4872046 0.000445484
0.28431338 -0.077952765 0.25883347 -0.098630995 -0.24676025 0.23783289 0.32596368 -0.15067457
-0.99322575 0.14859067 -0.16018994 -0.118530415 0.9504367 0.17943339 -0.05931581 0.4788963
-0.23909067 0.043536916 0.36646214 0.04890207 0.29091635 0.33907208 0.010480426 -0.024400894
0.20830798 0.2671089 -0.28670254 0.47856256 0.24345885 -0.35738578 0.3356224 0.09757098
-0.2261473 0.2452554 0.010613571 0.077181704 0.4171055 -0.05993849 0.42860585 -0.18484001
-0.24358916 0.78723985 -0.1323797 -0.13407576 -0.27432558 -0.15701264 0.51159424 -0.56612986
0.019045798 0.40582618 0.02948454 -0.32398877 0.23480645 0.09288271 -0.5139386 0.29955202
0.14451933 -0.0015140104 -0.02668331 0.340261 -0.015169391 -0.030635929 0.33603272 -0.514231
-0.49223858 0.10409967 -0.47557998 0.33485898 0.08959083 0.06840796 0.09453573 -0.2513735
0.32522798 -0.027038598 0.1540972 0.18554555 -0.13830252 0.3657671 0.20962463 -0.25139222
0.08157889 0.50660366 0.051413458 0.43194786 0.12619615 -0.10930245 0.047624405 -0.0663413
-0.41996557 0.34478667 -0.07800082 -0.0623766 0.48153734 -0.18088005 -0.62880117 0.3167102
-0.0011949914 -0.33190152 -0.079688326 0.15676029 0.45472962 0.16097288 -0.22612207 0.042443912
0.08140745 0.086442456 0.03475679 0.5065958 0.50317997 -0.279136 0.026789278 0.11326932
0.0007054479 0.4231598 0.39294612 -0.03746443 -0.38272643 -0.3132785 0.10068544 1.1301787
0.087532416 -0.7649124 -0.031006694 0.1173776 -0.30589437 0.11380734 0.15124862 0.6647963
-0.2298485 0.21355318 -1.120732 -0.21497 0.35776776 0.07513445 0.37056646 0.1377663
0.34223068 0.6966142 0.23199688 0.20923305 0.482275 0.65802544 -0.20774876 -0.2088971
0.39465058 0.42621604 0.2606223 -0.20899718 0.45405722 -0.09157824 -0.15888347 -0.06974106
-0.06582843 -0.24845362 0.25848433 0.040554255 0.26146898 0.20526086 -0.06688988 -0.33242303
-0.13168941 0.0419286 -0.9327907 0.3248406 0.010531337 -0.5291642 -0.6132616 -0.16200304
-0.25086614 -0.32001707 0.16803546 -0.1498256 0.1457315 -0.60071164 0.2056155 -0.18327096
0.25421947 0.23715918 0.2809908 -0.40033317 -0.28113052 0.09786388 0.37378818 0.16345114
-0.19222794 -0.30381528 -0.63093615 0.101579346 -0.2785361 -0.20954402 0.14962809 0.090999804
0.09973884 -0.3977561 -0.44648248 -0.65914327 -0.24767068 0.45580655 0.39733562 -0.007207639
0.15524092 0.14732175 -0.18758978 0.04619218 -0.19975725 -0.2022368 0.3565196 -0.40732384
0.27928153 -0.6870972 0.45802853 -0.12270266 0.025041312 0.12143967 0.7099454 -0.2862362
0.29370013 -0.13867375 0.11126683 0.21346878 1.158852 0.5243127 0.30902123 -0.021860106
00000000: 1534 ce3e 5717 453d febe 41be ce76 993e
00000010: 87e2 a83e 1c39 20bd 5bfb 43be 4323 773d
00000020: 3868 163f 734b a4be 8fc6 18be c731 acbe
00000030: 2a39 ac3e 874a 623e a878 8bbd 1a8a 5d3f
00000040: 43e1 6fbc 8ad0 ba3e efb1 94be f562 0fbf
00000050: 4148 95bf e420 92be 587e 803e 0bdc e53e
00000060: 7d53 183f 53db 8cbe 4365 a43e 5a0e 95be
00000070: b6ea a23f 4d28 86bd e272 f9be da8f e939
00000080: 8691 913e b3a5 9fbd d285 843e 0cff c9bd
00000090: b8ae 7cbe 778a 733e b6e4 a63e 6f4a 1abe
000000a0: 0b44 7ebf 2728 183e d508 24be 13c0 f2bd
000000b0: d24f 733f 63bd 373e 23f5 72bd e531 f53e
000000c0: 2fd4 74be c453 323d eda0 bb3e 894d 483d
000000d0: fdf2 943e db9a ad3e 18b6 2b3c 62e4 c7bc
000000e0: b04e 553e 7fc2 883e adca 92be 2706 f53e
000000f0: 474d 793e 45fb b6be b3d6 ab3e 4bd3 c73d
00000100: 2893 67be 3b24 7b3e 8be4 2d3c 7111 9e3d
00000110: da8e d53e 1082 75bd 3a72 db3e b346 3dbe
00000120: 706f 79be 8d88 493f 8b8e 07be 284b 09be
00000130: 6774 8cbe ecc7 20be d7f7 023f e3ed 10bf
00000140: ef05 9c3c 73c8 cf3e 9089 f13c dbe1 a5be
00000150: 1a71 703e 4a39 be3d 7b91 03bf e25e 993e
00000160: e0fc 133e c271 c6ba f596 dabc b136 ae3e
00000170: 0a89 78bc 33f8 fabc 7b0c ac3e a5a4 03bf
00000180: b206 fcbe 3532 d53d 387f f3be a372 ab3e
00000190: 667b b73d 7919 8c3d f39b c13d 07b4 80be
000001a0: 4884 a63e 0d80 ddbc a8cb 1d3e a7ff 3d3e
000001b0: 2d9f 0dbe d345 bb3e d7a7 563e 7bb6 80be
000001c0: d512 a73d c7b0 013f eb96 523d 4528 dd3e
000001d0: 9039 013e f7d9 dfbd cf11 433d f3dd 87bd
000001e0: ba05 d7be e187 b03e e5be 9fbd 9b7e 7fbd
000001f0: 108c f63e 9f38 39be 1df9 20bf d727 a23e
00000200: 42a1 9cba ffee a9be a233 a3bd c585 203e
00000210: 52d2 e83e 13d6 243e 8b8c 67be abd9 2d3d
00000220: f3b8 a63d be08 b13d 235d 0e3d 43b0 013f
00000230: 67d0 003f eaea 8ebe 3075 db3c bff9 e73d
00000240: cfed 383a 67a8 d83e 3c30 c93e 4d74 19bd
00000250: b8f4 c3be 0a66 a0be 2b34 ce3d b2a9 903f
00000260: 3244 b33d 4dd1 43bf c001 febc ab63 f03d
00000270: 309e 9cbe d313 e93d ebe0 1a3e 1730 2a3f
00000280: 685d 6bbe afad 5a3e 2574 8fbf 1821 5cbe
00000290: 562d b73e 17e0 993d e3ba bd3e 9c12 0d3e
000002a0: dc38 af3e 4f55 323f 9790 6d3e 3041 563e
000002b0: c0ec f63e 5b74 283f 17bc 54be 1fe9 55be
000002c0: a40f ca3e fd38 da3e 4970 853e 5b03 56be
000002d0: 307a e83e 5f8d bbbd 59b2 22be 67d4 8ebd
000002e0: 0ed1 86bd a06a 7ebe 0f58 843e 381c 263d
000002f0: 43df 853e e72f 523e 90fd 88bd 5a33 aabe
00000300: 97d9 06be 53bd 2b3d 5fcb 6ebf 8251 a63e
00000310: a18b 2c3c 4e77 07bf b6fe 1cbf 20e4 25be
00000320: 8771 80be 47d9 a3be 7d11 2c3e e26b 19be
00000330: a33a 153e 3dc8 19bf df8c 523e 62ab 3bbe
00000340: 0e29 823e dbd9 723e 07de 8f3e 78f8 ccbe
00000350: 57f0 8fbe dc6c c83d 2a61 bf3e bc5f 273e
00000360: 67d7 44be ad8d 9bbe 0885 21bf d508 d03d
00000370: 499c 8ebe b592 56be 1b38 193e 1b5e ba3d
00000380: e043 cc3d b0a6 cbbe 5a99 e4be 9dbd 28bf
00000390: 629d 7dbe 7a5f e93e 936f cb3e 0f2e ecbb
000003a0: 7af7 1e3e 83db 163e 8917 40be 0334 3d3d
000003b0: 2a8d 4cbe 2a17 4fbe bd89 b63e c08c d0be
000003c0: fdfd 8e3e 9ae5 2fbf b782 ea3e 884b fbbd
000003d0: 7023 cd3c 5db5 f83d fbbe 353f 8d8d 92be
000003e0: dd5f 963e 7e00 0ebe dddf e33d 8f97 5a3e
000003f0: 4355 943f 5b39 063f 0838 9e3e f713 b3bc

weight f4 [15, 1000]
-0.21957238 0.019016132 0.22070436 -0.03378661 0.10527074 0.017951248 0.013244814 0.26722547
0.12462964 0.010385088 -0.122670345 -0.1271333 0.17320643 0.16496171 -0.055687826 0.04347073
-0.029491624 0.18829826 0.19315211 0.27121976 0.34305915 0.06508829 0.13782385 -0.036815047
0.04143816 -0.06389003 0.092723384 -0.0050193868 0.0078244805 0.054267194 0.059945285 0.14508937
-0.07839384 -0.11921393 -0.019002572 0.16734754 0.024317423 -0.03040283 -0.044419706 -0.16750704
0.081778996 -0.028345121 0.06695478 -0.09950233 0.0008776433 0.10646325 0.07471183 -0.11116487
-0.0078017944 0.105726 0.28548768 -0.07048545 0.104491316 0.26137075 0.06474114 0.27296945
-0.027358536 0.07877878 0.16103314 -0.040889908 0.027279556 0.08142748 0.10189066 -0.06668698
0.05535248 -0.14104016 0.017622199 -0.10883532 0.010811645 -0.05120175 0.027187524 -0.20972207
0.038904645 -0.060307324 -0.07998216 -0.009620274 -0.10996087 -0.09296156 0.2196598 -0.056433577
-0.007290374 0.09212642 0.20842819 0.17445694 -0.01890794 -0.01070323 -0.0082105575 -0.10186996
-0.11208711 0.0006173801 0.06163236 -0.106727414 -0.10579536 0.103990726 -0.06532468 0.36401728
0.049301237 0.008370668 0.045431484 -0.14850517 -0.046005186 -0.023191346 -0.0050979997 0.2618114
0.009667904 -0.02427534 0.068260245 0.11913593 -0.2065804 -0.11691209 0.004315185 0.1912148
-0.1279182 -0.058672357 0.090830304 0.159103 0.18533528 -0.013557009 -0.07969483 -0.2257864
0.024792988 -0.027171671 0.19954741 -0.0040284432 0.0041684425 0.3159612 0.047368336 0.1175823
-0.010292548 0.13536727 0.3600932 0.018132973 0.25936785 -0.043944135 0.25497696 -0.08359872
0.15790173 0.037551343 0.04964506 0.12796518 0.03222118 0.029177148 0.024454188 0.051925745
-0.12592982 0.14678775 0.08905977 0.17610216 0.28007683 -0.0013359722 -0.068469 0.09512764
-0.03719799 0.32796144 0.056156743 0.12326372 0.23301807 0.07950579 0.079001375 -0.015631383
0.06052323 0.09021817 0.032067228 0.019951144 0.11460675 -0.20444529 0.37019026 0.049788777
0.02341089 0.012015307 0.056270298 0.20317642 0.030957986 0.06294425 -0.25849614 -0.03032358
0.12952988 0.0705373 0.03437462 -0.016538054 -0.02335534 0.08143764 0.020624144 0.05987918
0.30873942 0.030534232 0.12227525 0.0038740993 -0.108396105 0.055250473 0.22368193 0.15044707
0.07557604 0.09251994 0.26983038 0.1368865 0.029214844 -0.021050302 0.15753573 0.0023727354
0.07945559 -0.050694328 -0.038850408 0.20432921 -0.11294564 -0.033399995 -0.047497 -0.0027131054
0.077669404 -0.045238897 0.06440349 -0.09955328 -0.107429884 0.0050729737 0.083811365 0.12675598
0.16137408 0.041007396 -0.01956254 0.09992472 -0.05693961 0.36819303 0.20613408 -0.040388267
-0.0087446645 -0.15097891 0.0805058 0.028224993 0.07761836 -0.10442205 0.10886139 0.0071508936
-0.24086562 0.21605666 0.0055938615 0.032303967 0.18477412 0.34682983 -0.12295002 -0.114919
0.119799696 0.31673187 0.02702173 0.00050601776 0.053883433 -0.16528648 0.07801514 0.067494705
0.13807733 0.17614864 0.25145668 -0.012316127 0.04765182 0.09898405 0.47946644 0.051348355
00000000: 95d7 60be b8c7 9b3c 5300 623e d463 0abd
00000010: 3098 d73d 7f0e 933c c700 593c c7d1 883e
00000020: d33d ff3d 3726 2a3c 973a fbbd 3b2f 02be
00000030: 075d 313e b9eb 283e eb18 64bd 5d0e 323d
00000040: 6b98 f1bc 42d1 403e abc9 453e 51dd 8a3e
00000050: 73a5 af3e 024d 853d b221 0d3e 60cb 16bd
00000060: 0fbb 293d c7d8 82bd c2e5 bd3d ab79 a4bb
00000070: 4032 003c 4747 5e3d 3089 753d 4f92 143e
00000080: f38c a0bd 6f26 f4bd 48ab 9bbc 275d 2b3e
00000090: 5535 c73c 5b0f f9bc 70f1 35bd f786 2bbe
000000a0: bf7b a73d 0734 e8bc 961f 893d e1c7 cbbd
000000b0: a511 663a 6809 da3d 8402 993d 68aa e3bd
000000c0: 32a6 ffbb e086 d83d 712b 923e ad5a 90bd
000000d0: 8bff d53d 63d2 853e 0197 843d a7c2 8b3e
000000e0: 021f e0bc c556 a13d dfe5 243e 2d7c 27bd
000000f0: 6079 df3c 73c3 a63d 0dac d03d 2f93 88bd
00000100: 48b9 623d d56c 10be 6e5c 903c 0de5 debd
00000110: 5323 313c edb8 51bd 5fb8 de3c 62c1 56be
00000120: 7a5a 1f3d d004 77bd b0cd a3bd 5b9e 1dbc
00000130: 2a33 e1bd a162 bebd 80ee 603e e526 67bd
00000140: 17e4 eebb c7ac bc3d 336e 553e d7a4 323e
00000150: d3e4 9abc 9a5c 2fbc 9385 06bc 33a1 d0bd
00000160: ed8d e5bd add7 213a 3772 7c3d e793 dabd
00000170: 3dab d8bd 17f9 d43d f2c8 85bd 7960 ba3e
00000180: 18f0 493d 2025 093c 5d16 3a3d bd11 18be
00000190: ef6f 3cbd c7fb bdbc 1f0d a7bb 250c 863e
000001a0: 2166 1e3c 14dd c6bc 07cc 8b3d 8afd f33d
000001b0: d089 53be 9b6f efbd 6566 8d3b d0cd 433e
000001c0: fdfc 02be 6d52 70bd 3d05 ba3d e6eb 223e
000001d0: 88c8 3d3e 381e 5ebc 0b37 a3bd 8d34 67be
000001e0: aa1a cb3c 2097 debc 2856 4c3e 0801 84bb
000001f0: 6e97 883b abc5 a13e 4d05 423d fdce f03d
00000200: 13a2 28bc b89d 0a3e 235e b83e 9a8b 943c
00000210: ddcb 843e c4fe 33bd 578c 823e ce35 abbd
00000220: feb0 213e 70cf 193d 9e58 4b3d 4e09 033e
00000230: 5bfa 033d ea04 ef3c 2654 c83c 17b0 543d
00000240: bff3 00be 874f 163e f864 b63d 2054 343e
00000250: 3b66 8f3e ca1b afba 7a39 8cbd 48d2 c23d
00000260: eb5c 18bd 90ea a73e 9d04 663d b071 fc3d
00000270: 4a9c 6e3e eed3 a23d 79cb a13d 630d 80bc
00000280: 35e7 773d 4ec4 b83d ed58 033d 9570 a33c
00000290: f2b6 ea3d 1b5a 51be 9489 bd3e 51ef 4b3d
000002a0: 32c8 bf3c dadb 443c af7b 663d 7b0d 503e
000002b0: 9a9b fd3c eae8 803d 9b59 84be 2869 f8bc
000002c0: 7ba3 043e dc75 903d 67cc 0c3d d07a 87bc
000002d0: b353 bfbc c7c8 a63d f7f3 a83c df43 753d
000002e0: 1813 9e3e ed22 fa3c 726b fa3d 9ae4 7d3b
000002f0: c7fe ddbd 524e 623d e00c 653e cc0e 1a3e
00000300: 9cc7 9a3d 187b bd3d 3527 8a3e fa2b 0c3e
00000310: f853 ef3c af71 acbc 0c51 213e e57f 1b3b
00000320: 9db9 a23d dba4 4fbd 9b21 1fbd ad3b 513e
00000330: 0b50 e7bd 6fce 08bd 378c 42bd 5bce 31bb
00000340: 2311 9f3d 6c4c 39bd fae5 833d 97e2 cbbd
00000350: 3304 dcbd 303b a63b 4ba5 ab3d 52cc 013e
00000360: 3f3f 253e 5ff7 273d 9f41 a0bc 55a5 cc3d
00000370: 8239 69bd cc83 bc3e d014 533e 2b6e 25bd
00000380: c845 0fbc 379a 1abe 3ae0 a43d 1a38 e73c
00000390: 60f6 9e3d 3adb d5bd b8f2 de3d 0b52 ea3b
000003a0: 7aa5 76be f53d 5d3e b64c b73b 2a51 043d
000003b0: 6d35 3d3e ae93 b13e 38cd fbbd a75a ebbd
000003c0: 8b59 f53d ae2a a23e ad5c dd3c 47a6 043a
000003d0: e0b4 5c3d dc40 29be 67c6 9f3d aa3a 8a3d
000003e0: 2564 0d3e 4f60 343e eebe 803e 95c9 49bc
000003f0: 8e2e 433d 26b8 ca3d a07c f53e a752 523d

bias f4 [15]
0.16825616 0.2960051 0.10033699 0.030014668 0.41125342 0.4675377 0.24570215 1.2137026
-0.17076968 -0.33057904 0.8818261 -0.19305968 1.0924859 -0.8848734 0.20435594
00000000: 584b 2c3e fb8d 973e 7b7d cd3d 52e1 f53c
00000010: cf8f d23e 1a61 ef3e 5899 7b3e 9b5a 9b3f
00000020: 3fde 2ebe a841 a9be 5bbf 613f 70b1 45be
00000030: 94d6 8b3f 1087 62bf af42 513e
