checkpoints/9feature_lstm_num_comm399_an15_sn_D3_al5_E0.5_B5_lr10_num_clients0.05_cf100.pth (torch, 228375 bytes, 9 tensors)

weight_ih_l0 f4 [400, 9]
0	0x3dc79502	0.09745218
1	0xbd8fd7ad	-0.07023559
2	0xbe3a52ba	-0.1819562
3	0x3e6f4095	0.2336448
4	0xbb845cb3	-0.004039371
5	0xbcd6e7c8	-0.026233569
6	0xbcd39ed8	-0.025832579
7	0x3d83ecc4	0.06441644
8	0xbdb8a995	-0.0901672
9	0x3db33ad5	0.08751456
10	0x3d5d169d	0.053976644
11	0x3d9464b3	0.07245769
12	0x3cf54428	0.029939726
13	0x3d5912c2	0.052996404
14	0x3dd37c2b	0.103264175
15	0x3d4941a2	0.049134858
16	0x3d5ef0e8	0.054428965
17	0x3d5d97a3	0.05409969
18	0xbd89b5f3	-0.06724157
19	0xbe0380ff	-0.12842177
20	0x3c6b82df	0.014374464
21	0x3d7b00d5	0.06128009
22	0xbda74855	-0.08168093
23	0x3c25e09b	0.010124351
24	0x3cdcf8ed	0.026974166
25	0x3d881e23	0.06646373
26	0xbd94b749	-0.07261521
27	0x3e947c71	0.2900119
28	0x3da5d35b	0.080969535
29	0x3db51d6c	0.088435024
30	0x3d8aeef3	0.06783857
31	0x3db33af7	0.08751481
32	0x3afe04cd	0.0019380093
33	0x3d0a118b	0.033708137
34	0xbc97cd17	-0.018530412
35	0xbde06afa	-0.10957904
36	0xbe69fd3d	-0.22850509
37	0xbeed48d0	-0.46344614
38	0x3e44d25b	0.19220869
39	0x3dcba4a0	0.09943509
40	0x3dc10c7e	0.09426211
41	0x3e639653	0.22225313
42	0xbe73d8ad	-0.23813124
43	0x3d65cbd0	0.056102574
44	0xbc9c39b3	-0.019070482
45	0x3e8d6013	0.2761236
46	0xbe079680	-0.13241005
47	0xbca1a148	-0.019730225
48	0xbd604c0b	-0.05476002
49	0x3db8e8bd	0.09028766
50	0x3d3546d7	0.04425701
51	0xbe0115db	-0.12605993
52	0xbd8b6fc0	-0.06808424
53	0xbd4aaecb	-0.0494831
54	0x3e53ff20	0.20702791
55	0xbe321dc2	-0.17394164
56	0x3e1f5438	0.1555947
57	0xbe12b63a	-0.14327326
58	0xb8010436	-3.075992e-05
59	0xbcc0770b	-0.023494264
60	0xbd392de7	-0.04520979
61	0x3d0cf59f	0.03441393
62	0xbdb3d98a	-0.08781727
63	0x3c662533	0.014046955
64	0xbe6f479f	-0.23367165
65	0x3de65420	0.11246514
66	0x3d45829f	0.048220273
67	0x3dafcf45	0.085844554
68	0xbdba657f	-0.0910139
69	0xbb7a7325	-0.0038215604
70	0x3b26593f	0.0025382785
71	0xbdfefd17	-0.12450617
72	0xbf110b78	-0.56658125
73	0xbe638558	-0.22218835
74	0xbd39e2f8	-0.04538247
75	0x3e042b52	0.1290715
76	0x3cee6962	0.029102985
77	0x3d901921	0.07036043
78	0x3cf74280	0.030183077
79	0xbe428242	-0.18995002
80	0x3e6ef97b	0.23337357
81	0xbda1d382	-0.0790167
82	0xbda5abcb	-0.080894075
83	0x3d37b3c5	0.044849176
84	0xbd971bf0	-0.073783755
85	0x3d7c17ca	0.061546125
86	0xbd3221de	-0.04348933
87	0x3cff3af3	0.031156039
88	0x3d89f50a	0.067361906
89	0xbdbeb751	-0.093123086
90	0x3d933b9f	0.07189106
91	0xbd988197	-0.07446592
92	0x3e585cff	0.21129225
93	0x3d4dc63f	0.05023789
94	0x3d8f745b	0.07004615
95	0x3ce79ee5	0.028274009
96	0xbd8069d2	-0.062701836
97	0x3e134038	0.14379966
98	0xbdbb15c0	-0.09135008
99	0x3e1e1a8a	0.15439811
100	0x3dd32a52	0.10310806
101	0xbd9b863b	-0.07593962
102	0x3af64848	0.0018789852
103	0xbd5a284b	-0.053261083
104	0x3e4e0bb2	0.20121649
105	0x3db59f1b	0.088682376
106	0x3da8ab33	0.08235779
107	0xbb7b8d20	-0.0038383678
108	0xbdfa5278	-0.12222761
109	0xbdb439a3	-0.08800056
110	0x3e8cc0bd	0.27490798
111	0xbd3608db	-0.04444204
112	0xbdc2b453	-0.0950705
113	0x3d8548bf	0.06508016
114	0x3df78c23	0.12087276
115	0xbd9b98e7	-0.07597523
116	0x3db7ad1c	0.08968565
117	0x3dbb965b	0.091595374
118	0xbc93f0e3	-0.0180592
119	0x3cd60913	0.026127374
120	0xbda35733	-0.07975616
121	0xbd70f1e2	-0.058824427
122	0x3d92f11f	0.071748964
123	0xbc4b6f2b	-0.012416641
124	0xbd3f16af	-0.046652492
125	0x3de3760a	0.111064985
126	0x3ec32e62	0.38121325
127	0xbde605f5	-0.11231605
128	0xbedd7d08	-0.43259454
129	0x3d24e4d9	0.04025731
130	0xbd34bedb	-0.044127326
131	0xbe2d1423	-0.16902213
132	0x3e53fcb2	0.20701864
133	0xbda6f503	-0.08152201
134	0xbe10e56f	-0.14150022
135	0xbe975610	-0.29557848
136	0xbd8ad3f3	-0.06778707
137	0x3d80fbc0	0.062980175
138	0x3e0f8267	0.14014588
139	0x3d7be173	0.061494302
140	0x3d0b53ff	0.03401565
141	0xbbbf355f	-0.0058352198
142	0xbdf7728d	-0.12082396
143	0xbd0ef24b	-0.034899037
144	0x3eb093a1	0.34487632
145	0xbe04e9b3	-0.12979774
146	0xbdc75bab	-0.09734281
147	0xbd898bdd	-0.0671613
148	0x3c886a4c	0.016652249
149	0xbd8b7e7f	-0.068112366
150	0xbc9852a4	-0.018594094
151	0x3d763988	0.06011346
152	0xbd600d28	-0.054700047
153	0x3ea2a566	0.31766814
154	0x3d70aa53	0.058756184
155	0xbe296e70	-0.16546035
156	0xbdc26083	-0.094910644
157	0x3d39181f	0.04518902
158	0x3d2866a2	0.041113503
159	0xbc15ed07	-0.00915075
160	0xbd7e9120	-0.06215012
161	0xbdd64908	-0.10463148
162	0x3eb2945f	0.34878823
163	0x3c636fb0	0.013881609
164	0x3d50cf1f	0.050978776
165	0xbcbf989d	-0.023388201
166	0xbd74fa2f	-0.059808906
167	0xbd19f77d	-0.03758954
168	0x3d6ce9e0	0.057840228
169	0xbda877cc	-0.082259744
170	0xbde86fb7	-0.11349433
171	0x3e5a6647	0.21328078
172	0xbc9c07c4	-0.019046672
173	0x3e6741fd	0.22583766
174	0xbcdcdb1f	-0.026959954
175	0xbd335631	-0.04378337
176	0xbd5f98af	-0.05458897
177	0xbd87a405	-0.06623081
178	0x3d670aff	0.05640697
179	0x3d0ac4f7	0.033879247
180	0xbec038b1	-0.37543252
181	0xbee0febd	-0.4394435
182	0xbf1a6eae	-0.60325134
183	0xbcd31c25	-0.025770256
184	0xbd321727	-0.04347911
185	0xbd2b4426	-0.04181304
186	0xbee1776b	-0.4403642
187	0x3de8c2f3	0.113653086
188	0xbe07c248	-0.13257706
189	0x3d84a6e6	0.06477146
190	0xbe1df754	-0.1542638
191	0x3e19a51f	0.15004395
192	0x3d57c34a	0.052676477
193	0x3bf2145d	0.0073876814
194	0xbbaed583	-0.005335511
195	0x3b73e22a	0.0037213662
196	0x3d43fc04	0.047847763
197	0xbd32da3b	-0.043665152
198	0xbe0182cd	-0.12647553
199	0xbe046a06	-0.1293107
200	0xbc66d505	-0.014088874
201	0x3e0de2db	0.1385607
202	0x3df83055	0.121185936
203	0x3e3476c3	0.17623429
204	0x3e1d3aff	0.15354536
205	0xbd6d51b3	-0.057939243
206	0x3e9ae8f6	0.3025586
207	0x3e4984fb	0.19679634
208	0xbdaa6e4b	-0.08321818
209	0x3e062cc7	0.13103019
210	0x3da46059	0.08026189
211	0xbd976f02	-0.0739422
212	0x3d38d6ed	0.045126844
213	0x3cf3ebca	0.029775519
214	0x3d16d00f	0.036819514
215	0x3dbb833f	0.091558926
216	0xbe6f7e20	-0.23387957
217	0x3ce9a0c7	0.028519047
218	0x3e624de3	0.22100024
219	0xbba2c4e1	-0.0049673175
220	0x3df5f813	0.12010207
221	0x3c57f5aa	0.0131811295
222	0x3d92bcca	0.07164915
223	0xbdc7703f	-0.09738206
224	0x3e9264a3	0.28592405
225	0xbd8a1799	-0.06742782
226	0xbdd8878d	-0.10572729
227	0x3d5b62d2	0.05356104
228	0x3bdb6883	0.0066958084
229	0xbc8dff61	-0.017333688
230	0x3c2abc0b	0.0104208095
231	0x3da84783	0.08216765
232	0xbc01bdb1	-0.007918761
233	0x3dc78a68	0.09743196
234	0xbe8952e8	-0.26821065
235	0xbe86b09a	-0.2630661
236	0xbdb51a99	-0.08842964
237	0xbd13aeff	-0.03605556
238	0xbd8f0551	-0.06983436
239	0x3d4c8c1a	0.0499383
240	0xbcfcb853	-0.030849611
241	0x3dc060f9	0.09393496
242	0x3e071f4b	0.13195531
243	0x3ea2d7cd	0.31805268
244	0xbe7a90e3	-0.24469332
245	0x3ca0f06d	0.019645894
246	0x3e19f1db	0.15033667
247	0x3d427c50	0.047481835
248	0xbe1131f5	-0.14179213
249	0xbd2933cf	-0.041309174
250	0xbc1b7e6a	-0.009490589
251	0xbcb4f39e	-0.022088822
252	0x3effb777	0.4994466
253	0x3dbe005f	0.092774145
254	0x3db4672d	0.08808742
255	0x3d826a3a	0.06367917

weight_hh_l0 f4 [400, 100]
0	0x3d7b9385	0.061419982
1	0xbddebec8	-0.108762324
2	0xbd1f35f7	-0.038869824
3	0xbd212c57	-0.039348926
4	0x3deec227	0.11658125
5	0xbd10e337	-0.03537294
6	0xbdb5a857	-0.08869999
7	0x3d9ce48b	0.076607786
8	0xbd6551f7	-0.05598637
9	0xbdb0e91b	-0.08638211
10	0x3caee76d	0.021350587
11	0xbdc02a10	-0.09383023
12	0xbd1307f0	-0.03589624
13	0x3d210267	0.03930893
14	0x3d124632	0.035711475
15	0xbd2037bd	-0.039115656
16	0x3e05a383	0.13050656
17	0xbcaf0867	-0.021366311
18	0xbc3614f7	-0.011113397
19	0xbd6ac940	-0.057320833
20	0xbd2387d4	-0.039924458
21	0xbcc05673	-0.023478722
22	0x3dc4e623	0.096142076
23	0xbdc0a448	-0.09406334
24	0xbe020e93	-0.12700872
25	0x3dfb2daf	0.12264573
26	0x3d073be3	0.033016097
27	0xbcdd1915	-0.0269895
28	0x3d9983da	0.07495852
29	0xbda67fcf	-0.08129846
30	0xbd78b09d	-0.060715307
31	0x3c796812	0.015222566
32	0x3c84923b	0.01618301
33	0x3d94bcef	0.07262599
34	0xbdba429b	-0.09094735
35	0xbd6fe95a	-0.05857215
36	0xbdabbe7c	-0.083859414
37	0xbd932e1a	-0.071865276
38	0xbb04d856	-0.0020270548
39	0x3dc9fe92	0.098630086
40	0x3daac7dd	0.08338902
41	0x3be2bdbb	0.0069195903
42	0x3d551acb	0.052027505
43	0x3c5c2960	0.013437599
44	0xbd050a71	-0.03248066
45	0xbcdf62e2	-0.02726883
46	0x3d471b7b	0.04861019
47	0xbd121779	-0.035666917
48	0xbb74b8e7	-0.0037341656
49	0xbc917c1d	-0.017759377
50	0xbd99cd8a	-0.075099066
51	0xbcf4c667	-0.029879762
52	0xbd86e754	-0.06587091
53	0xbe353007	-0.17694102
54	0xbdde2ca3	-0.108483575
55	0x3cb31661	0.021861257
56	0x3d7bd150	0.061478913
57	0xbdc1e8d7	-0.09468239
58	0xbdcc24c1	-0.09967948
59	0x3db3315e	0.087496504
60	0x3cee536b	0.029092511
61	0x3d8081fb	0.06274792
62	0xbda32235	-0.07965509
63	0xbc5a439d	-0.013321784
64	0x3d20ca40	0.03925538
65	0x3bec8975	0.0072185346
66	0xbca52767	-0.02016039
67	0x3d8c79e0	0.06859183
68	0x3d754602	0.059881218
69	0xbd41ae1f	-0.047285195
70	0xbd1c2162	-0.038117774
71	0x3d36618b	0.044526618
72	0x3d85c255	0.065312065
73	0xbd2f7fa5	-0.04284634
74	0xbc055b95	-0.008139511
75	0x3b9470d5	0.004530052
76	0xbcddd5b0	-0.027079433
77	0x3de728e3	0.112870954
78	0x3d94b941	0.07261897
79	0x3d172d4f	0.036908444
80	0x3d925ecb	0.071469866
81	0xbc5e749b	-0.013577606
82	0xbd0ee45a	-0.03488574
83	0xbb42617f	-0.0029660163
84	0xbca92d8f	-0.020651607
85	0x3dca839f	0.09888386
86	0xbde49380	-0.11160946
87	0x3dd0dda5	0.10198525
88	0xbdff67c0	-0.124709606
89	0xbd7c03c3	-0.061527025
90	0x3db375ed	0.08762727
91	0xbcb1b173	-0.02169106
92	0x3d2dbaa0	0.042414308
93	0x3d6a1bef	0.057155546
94	0xbd5840fb	-0.052796345
95	0x3c93ec84	0.018057115
96	0x3c778823	0.015108141
97	0x3d8f245f	0.06989359
98	0xbd0e68c3	-0.034767877
99	0x3d8a3562	0.06748463
100	0xbdb60b7a	-0.08888908
101	0xbd613620	-0.05498326
102	0x3d96319c	0.07333681
103	0x3cb30eb3	0.021857595
104	0x3da7a6dd	0.081861235
105	0x3dc63c73	0.096794985
106	0xbd123d4c	-0.03570299
107	0xbd64784f	-0.055778798
108	0xbc35006b	-0.011047463
109	0xbcc4699f	-0.023976145
110	0x3d0720ad	0.032990146
111	0x3d37f8f3	0.04491515
112	0x3d5ed6db	0.05440412
113	0xbc78b057	-0.015178761
114	0xbdc91903	-0.09819224
115	0xbc688580	-0.014191985
116	0x3d2e429c	0.042543992
117	0x3da15550	0.078776
118	0xbd940719	-0.07227916
119	0x3d163c69	0.036678705
120	0xbc8c309f	-0.017113028
121	0xbc2aeca5	-0.010432397
122	0x3cdba398	0.026811406
123	0x3c6f29f5	0.014597406
124	0x3d8be0eb	0.06830009
125	0x3bce7fbd	0.0063018487
126	0xbcc6056a	-0.024172504
127	0x3cf00fed	0.029304469
128	0x3d714aad	0.058909107
129	0x3c0ab8cf	0.008466913
130	0xbd2006c4	-0.039068952
131	0x3da7e155	0.081972755
132	0x3b500697	0.003174221
133	0xbdae2c89	-0.08504588
134	0x3d786385	0.060641784
135	0x3d407f7a	0.04699657
136	0x3d23c734	0.039984897
137	0xbd7b26f2	-0.061316438
138	0x3dbeed88	0.09322649
139	0x3d77555d	0.060384143
140	0x3d232dcb	0.039838593
141	0xbcddd22b	-0.027077755
142	0x3ce05d1f	0.027388154
143	0xbcbbe2e3	-0.022935336
144	0x3d3f98f7	0.046776738
145	0xbd920387	-0.07129579
146	0x3da2ae13	0.07943358
147	0xbd11b367	-0.035571482
148	0xbd27c2b7	-0.04095718
149	0xbca2bc9f	-0.019865332
150	0x3d76785f	0.06017339
151	0x3d91b153	0.071139
152	0x3da711c7	0.08157688
153	0x3db66501	0.08905984
154	0x3cb382b0	0.021912903
155	0xbd3f61d4	-0.046724156
156	0xbc1217bb	-0.008916791
157	0x3d7d25d5	0.061803658
158	0x3c2aae97	0.010417602
159	0x3d8246f7	0.06361192
160	0xbd8d7585	-0.06907181
161	0x3c6a40fd	0.014297721
162	0x3d30472b	0.04303662
163	0x3d709f95	0.05874594
164	0xbc5f9923	-0.0136473505
165	0x3bd36c5d	0.006452127
166	0xbcbd9e90	-0.023146898
167	0xb95df145	-0.00021166082
168	0x3d439a3e	0.04775452
169	0xbdb61e13	-0.08892455
170	0x3df2af38	0.118498266
171	0xbd3ba051	-0.045807187
172	0xbd560a53	-0.05225594
173	0xbdb56317	-0.088567905
174	0xbda736f5	-0.08164779
175	0xbdb95af0	-0.09050548
176	0xbd9e17bb	-0.0771937
177	0x3d8adb07	0.067800574
178	0x3dac3bc3	0.08409836
179	0xbdb220de	-0.08697675
180	0xbd9669db	-0.07344409
181	0xbb74d5d8	-0.0037358906
182	0xbd6b38c7	-0.057427194
183	0xbdba33d9	-0.090919204
184	0x3ca00182	0.019531969
185	0xbd8c48aa	-0.06849797
186	0xbd742f0d	-0.059615184
187	0x3da452d3	0.0802361
188	0xbdb4c225	-0.08826093
189	0x3cc44d31	0.023962589
190	0xbdb5dcdb	-0.088800155
191	0xbd180fc3	-0.037124407
192	0x3c101673	0.008794415
193	0x3d52218a	0.051301517
194	0x3d2aa85a	0.04166446
195	0x3dd4d09f	0.10391354
196	0x3d8b0d65	0.06789664
197	0xbd1ffceb	-0.03905956
198	0xbd6aaa70	-0.057291448
199	0xbc6e9988	-0.014562972
200	0xbd54366a	-0.051809706
201	0x3b742775	0.0037254964
202	0x3c38537d	0.011250374
203	0xbce15fdb	-0.027511528
204	0xbac6799a	-0.0015142441
205	0xbd87c2f3	-0.066289805
206	0x3bbb146a	0.0057092207
207	0xbdaa2900	-0.083086014
208	0x3d9a2d11	0.07528127
209	0xbd270c43	-0.040783178
210	0x3d47ad98	0.048749536
211	0x3d6dcf90	0.058059275
212	0x3d7e0350	0.062014878
213	0x3d39aaf7	0.04532906
214	0x3cd44f2b	0.025916656
215	0x3b037ebf	0.002006456
216	0x3c3c9c1c	0.011511829
217	0xbd5c1638	-0.053732127
218	0x3d9e2e9b	0.07723733
219	0xbcd64e67	-0.026160432
220	0x3d4b39dd	0.04961573
221	0x3d759375	0.05995508
222	0x3d0bd8d5	0.034142334
223	0xbd607d32	-0.054806896
224	0x3cd0238b	0.025407573
225	0xbdc9fc4d	-0.09862576
226	0x3d3f3bdc	0.046687946
227	0x3d8c33ea	0.06845839
228	0xbc87cc4b	-0.016576907
229	0xbd61a0f3	-0.055085134
230	0xbd56a010	-0.05239874
231	0xbd7c180a	-0.061546363
232	0xbc8fda10	-0.017560035
233	0x3b90dd92	0.0044209445
234	0xbd821e64	-0.06353453
235	0x3d2d62ff	0.04233074
236	0xbcdab6fa	-0.026698578
237	0xbc44ed25	-0.01201943
238	0xbd8f0063	-0.06982496
239	0x3d3803cf	0.044925507
240	0xbc74392f	-0.014906212
241	0xbd17f67e	-0.037100308
242	0x3d958e27	0.07302504
243	0xbd883dfa	-0.06652446
244	0xbc451866	-0.012029743
245	0xbbb12240	-0.0054056942
246	0xbc52725f	-0.012844651
247	0x3d9c3fa9	0.0762933
248	0x3d90e845	0.07075552
249	0x3d2f53bb	0.04280446
250	0xbaf9cc33	-0.0019058048
251	0x3da72a8a	0.081624106
252	0x3d90a293	0.070622586
253	0x3d571370	0.05250877
254	0x3d100b91	0.03516728
255	0x3d72ce55	0.059278805

bias_ih_l0 f4 [400]
0	0x3df3b108	0.118990004
1	0xbc9278b0	-0.017879814
2	0x3de92288	0.113835394
3	0x3cb2baf9	0.021817671
4	0x3db30217	0.08740633
5	0x3d02258d	0.031774092
6	0x3d393dda	0.045225002
7	0xba789b25	-0.00094835676
8	0xbbbbb78f	-0.005728669
9	0xbcae40ab	-0.02127107
10	0x3d865b2c	0.065603584
11	0xbce99d65	-0.028517434
12	0xbd7cbd15	-0.06170376
13	0x3c7bd51a	0.015370632
14	0xbdf91bea	-0.12163527
15	0xbcd94c75	-0.026525715
16	0x3d8070e3	0.062715314
17	0x3e06ee14	0.13176757
18	0xbc48d3f7	-0.012257568
19	0x3dd7dc17	0.10540026
20	0x3e0ef83c	0.13961881
21	0x3dd87ee5	0.10571078
22	0x3dbdb7bc	0.0926356
23	0x3cfa0da3	0.03052408
24	0x3d8ed230	0.06973684
25	0x3e0126b2	0.12612417
26	0x3cf23710	0.029567271
27	0xbd057c50	-0.032589257
28	0xbb93b502	-0.004507662
29	0x3e330776	0.17483315
30	0x3dd9bcbb	0.106317006
31	0x3e00f806	0.12594613
32	0x3e1e9f2b	0.15490405
33	0xbd312d2d	-0.043255974
34	0x3ddda482	0.10822393
35	0x3de51c9a	0.11187096
36	0x3e20768f	0.15670227
37	0x3cb1b765	0.021693895
38	0x3ddde58a	0.10834797
39	0x3ddb8f27	0.107206635
40	0x3d802724	0.062574655
41	0x3db0e1f1	0.08636845
42	0x3d99a97b	0.07503029
43	0xbd978283	-0.0739794
44	0x3c4b1db3	0.012397218
45	0x3e05b179	0.13055982
46	0x3dd0419a	0.101687625
47	0x3d9fda93	0.078053616
48	0x3d85c427	0.06531554
49	0xbd36f9a9	-0.04467169
50	0x3d289460	0.041157126
51	0x3dd5f03b	0.10446211
52	0x3d8331c9	0.0640598
53	0xbd509da5	-0.05093159
54	0xbd82719f	-0.06369328
55	0x3d8304d4	0.06397405
56	0x3deb3de0	0.11486411
57	0x3ded42e7	0.11585026
58	0x3d31dbbb	0.043422442
59	0x3c640fb3	0.013919759
60	0x3ce6f263	0.02819175
61	0x3d99de68	0.07513124
62	0xbb769c37	-0.0037629732
63	0x3d98b9fc	0.07457349
64	0xbd3ea07f	-0.04653978
65	0x3de72ce7	0.11287861
66	0x3ce8e68d	0.028430248
67	0x3d1a5257	0.03767618
68	0xbc2e4daf	-0.010638638
69	0x3d0d949a	0.034565546
70	0x3cfaecfb	0.03063058
71	0xbce8dd77	-0.028425915
72	0x3d9aec40	0.07564592
73	0x3e00c458	0.12574899
74	0x3d64c69f	0.055853482
75	0x3def15f0	0.11674106
76	0x3e036d38	0.12834632
77	0xbc5da1ef	-0.0135273775
78	0x3c8262bf	0.015916226
79	0x3da7aaf5	0.08186904
80	0x3d41884f	0.047249135
81	0x3cdce7ef	0.026966063
82	0x3c9332c2	0.01796854
83	0x3da33ce4	0.07970598
84	0x3d4b370a	0.049613036
85	0x3d3b3413	0.04570396
86	0x3d3e9082	0.046524532
87	0x3ba84afb	0.0051358915
88	0xbccc4d83	-0.024939304
89	0x3dd32b0f	0.10310947
90	0x3de94b2f	0.11391293
91	0xbd0387bc	-0.03211187
92	0x3cc52157	0.02406375
93	0x3d1e4d52	0.038647957
94	0x3d515958	0.051110595
95	0x3d5062fd	0.050875653
96	0x3d31dd1a	0.04342375
97	0x3dfb690a	0.12275894
98	0x3daacd51	0.08339942
99	0x3e05277f	0.13003348
100	0x3dc9d7e4	0.09855631
101	0x3dadaaef	0.084798686
102	0x3cbb21ef	0.02284333
103	0x3d96438f	0.073371045
104	0x3d917425	0.07102231
105	0x3d6f6aa3	0.058451306
106	0xbbce9b25	-0.0063051158
107	0x3c8b672d	0.017016971
108	0xbcec6988	-0.028858915
109	0x3e06c35f	0.13160466
110	0x3df37c8a	0.11888988
111	0x3d73e078	0.059540242
112	0x3d9b92fd	0.07596395
113	0xbbb88032	-0.0056305164
114	0x3d824f60	0.06362796
115	0x3ddae1ed	0.10687623
116	0x3e1423bb	0.14466755
117	0x3dee29df	0.1162908
118	0x3d00ffd6	0.031493984
119	0xbc6559b3	-0.013998437
120	0x3c2868a3	0.010278854
121	0x3dd6bb92	0.10484995
122	0x3e062c12	0.13102749
123	0xbb9cc609	-0.00478435
124	0x3de10e70	0.10989082
125	0xbceb5c05	-0.028730402
126	0x3dcbc387	0.09949403
127	0xbae62823	-0.0017559569
128	0x3db01fff	0.08599853
129	0x3dc611d6	0.09671371
130	0xbd4cd935	-0.050011832
131	0x3e372e31	0.17888714
132	0x3dc62e8a	0.09676845
133	0xbcf176d3	-0.029475605
134	0x3cddfbff	0.0270977
135	0x3d822d58	0.06356305
136	0x3dd14e3a	0.10219999
137	0x3dae351c	0.085062236
138	0x3de006ed	0.10938821
139	0x3e0bac0f	0.13639854
140	0x3dc79840	0.09745836
141	0xbb81dfdf	-0.003963455
142	0x3d93ab45	0.072104014
143	0xbd429f1c	-0.04751502
144	0x3df30f65	0.11868171
145	0xbd9a7ecc	-0.07543716
146	0x3c0f4238	0.008743815
147	0xbcfd6d1a	-0.030935813
148	0x3d425e97	0.04745349
149	0xbd69e1ff	-0.057100292
150	0x3e081825	0.1329046
151	0x3d7dec10	0.061992705
152	0x3dd0ea83	0.102009796
153	0x3ddcd397	0.10782545
154	0x3df1dc37	0.11809581
155	0x3cacbee4	0.021087117
156	0xbcd9d61d	-0.026591355
157	0x3e26f250	0.16303372
158	0xbd738627	-0.05945411
159	0x3e05a17d	0.13049884
160	0x3bb0d95b	0.0053970045
161	0x3dd98553	0.10621133
162	0x3d97856a	0.073984936
163	0x3c1e44c4	0.00965995
164	0xbcc3f60b	-0.023921033
165	0x3dd1f4c7	0.10251766
166	0x3d98672f	0.07441556
167	0x3d85365c	0.06504509
168	0x3d6ddcaa	0.05807177
169	0xbd54ecd2	-0.051983662
170	0x3d3bf107	0.04588416
171	0xbcb501e4	-0.022095628
172	0xbd7233e5	-0.05913152
173	0x3d7de4b5	0.06198569
174	0xbd060e22	-0.03272832
175	0xbd01e721	-0.031714562
176	0xbc767db3	-0.0150446175
177	0xbd4cb08f	-0.049973067
178	0x3e3274e7	0.17427407
179	0xbc2bdb58	-0.010489307
180	0xbda56fc7	-0.080779605
181	0x3dd3ea22	0.10347392
182	0x3e17426a	0.14771429
183	0x3e1f9168	0.15582812
184	0xbd56c38a	-0.052432574
185	0x3e1b444f	0.15162776
186	0xbd20115e	-0.039079063
187	0x3969ff8d	0.00022315812
188	0x3d8455a7	0.064616494
189	0xbcf037cf	-0.029323487
190	0xbd88a072	-0.066712275
191	0x3dd448d3	0.103654526
192	0x3dc36aa2	0.09541823
193	0xbc71bce0	-0.014754504
194	0x3dd66157	0.10467785
195	0x3df25cf7	0.11834138
196	0x3c336f4a	0.010951826
197	0xbd82a15d	-0.06378434
198	0x3e179608	0.14803326
199	0xbce42873	-0.027851319
200	0xbb90d11b	-0.0044194586
201	0xbdf1b86d	-0.118027546
202	0xbdc82a5d	-0.09773705
203	0x3dc03b14	0.09386268
204	0x3d9cda41	0.07658816
205	0x3e485713	0.19564466
206	0xbe54ea45	-0.20792492
207	0xbd1d734f	-0.038440045
208	0xbca64054	-0.020294346
209	0xbdabecf3	-0.08394804
210	0xbe3afbe6	-0.18260154
211	0x3dfa03f8	0.12207788
212	0xbe3510ba	-0.17682162
213	0xbe5e285d	-0.21695085
214	0x3d0f55d8	0.034993976
215	0xbd0782c2	-0.033083685
216	0x3e36a64d	0.17836876
217	0x3e59e090	0.2127707
218	0xbe22fadb	-0.15916006
219	0xbd8dff3f	-0.0693345
220	0xbcd7d225	-0.026345322
221	0x3e74ce52	0.2390683
222	0x3e1aca0f	0.15116142
223	0x3e125df0	0.14293647
224	0xbd013cc2	-0.031552084
225	0x3e1a730f	0.15082954
226	0x3953d977	0.0002020354
227	0xbc3cad90	-0.01151599
228	0x3b92b25c	0.0044768285
229	0xbcb500ab	-0.022095045
230	0xbe2700d7	-0.16308914
231	0xbe3be239	-0.18348016
232	0xbe956657	-0.29179642
233	0xbd2eac2b	-0.04264466
234	0xbdb875c5	-0.09006838
235	0xbcffc3f0	-0.03122136
236	0xbe4616ea	-0.19344679
237	0x3e100709	0.14065184
238	0x3c7f61c7	0.015587277
239	0xbe1aa733	-0.15102844
240	0xbe09a904	-0.1344338
241	0xbd88ecdf	-0.066858046
242	0x3d80de84	0.062924415
243	0x3e816f8c	0.25280416
244	0xbe31d539	-0.17366494
245	0x3e3dee7c	0.18548006
246	0x3d656703	0.056006443
247	0x3cb9cd9b	0.022681048
248	0x3c9c4009	0.019073503
249	0x3d7073b8	0.058704108
250	0xbe7b2d83	-0.2452908
251	0x3ddc4b83	0.1075659
252	0xbd635e4a	-0.055509843
253	0xbd0694f0	-0.03285688
254	0xbd4ddd43	-0.05025984
255	0xbe1dd998	-0.15415037

bias_hh_l0 f4 [400]
0	0x3d84cb03	0.06484034
1	0x3dd0875b	0.10182067
2	0x3d3881c6	0.045045637
3	0x3c594915	0.013262053
4	0xbca0d96b	-0.019634923
5	0x3d61c20a	0.05511669
6	0x3c90e860	0.01768893
7	0x3df68c3f	0.120384686
8	0x3d8327b7	0.064040594
9	0x3caf2ae6	0.02138276
10	0x3dbe1714	0.092817456
11	0x3da9cbc4	0.08290818
12	0x3c8579be	0.016293403
13	0x3d9abc6b	0.07555469
14	0xbe10ef6f	-0.14153837
15	0x3b6929fd	0.0035578005
16	0x3c8bc707	0.017062677
17	0x3d87750f	0.06614124
18	0x3d65048d	0.055912543
19	0x3d5352f2	0.051592775
20	0x3dba3716	0.09092538
21	0x3c20c205	0.009811883
22	0x3cb8cf67	0.022559835
23	0xbd169e0f	-0.03677183
24	0x3e23ded7	0.16002975
25	0x3daa090d	0.083025075
26	0x3d79bd60	0.060971618
27	0x3c955955	0.018231073
28	0xbc343c1b	-0.011000658
29	0x3d953815	0.072860874
30	0x3da36933	0.079790495
31	0x3d962583	0.073313735
32	0x3de5dbba	0.1122355
33	0x3e14a69b	0.1451668
34	0x3df70370	0.120612025
35	0x3e0dd193	0.13849477
36	0x3dfbdba5	0.12297753
37	0x3d53bddd	0.05169474
38	0xbb7dc39a	-0.0038721324
39	0x3caa315a	0.020775486
40	0x3c163e9c	0.009170201
41	0x3d9171d7	0.07101791
42	0x3dd7c780	0.105360985
43	0x3d616793	0.055030417
44	0x3e0d867a	0.1382083
45	0x3d1f3133	0.03886528
46	0x3c19caca	0.009386728
47	0x3c8077e5	0.01568217
48	0x3de9c56d	0.11414609
49	0xbd813e5e	-0.06310724
50	0x3b83ef72	0.004026347
51	0x3d9619ff	0.07329177
52	0x3dc7db8f	0.09758674
53	0x3cab9760	0.020946205
54	0xbd855570	-0.065104365
55	0x3d81f3bc	0.06345317
56	0x3d8e52d3	0.06949391
57	0x3dc39fb7	0.095519476
58	0xbca81557	-0.020517988
59	0x3e107967	0.14108811
60	0x3def6007	0.11688238
61	0xbc979ef9	-0.018508421
62	0x3dc1ef48	0.094694674
63	0xbc932660	-0.017962635
64	0x3dee3bf2	0.116325274
65	0x3db7cc63	0.089745305
66	0x3df56093	0.11981311
67	0x3e0e0d28	0.13872206
68	0x3dba4f20	0.09097123
69	0x3d82e773	0.06391802
70	0xbc9b919a	-0.018990327
71	0xbc9b350b	-0.018946191
72	0xbcbe3953	-0.023220694
73	0x3df335e5	0.11875514
74	0xbbc82137	-0.006107475
75	0xbc6ccd6a	-0.014453271
76	0x3d5db093	0.054123472
77	0x3d936fef	0.07199084
78	0x3e312d27	0.1730238
79	0x3d9f7555	0.07786051
80	0xbcaccb27	-0.021092964
81	0x3d9a75f2	0.075420275
82	0x3d88049f	0.066415064
83	0x3d821903	0.06352427
84	0x3d13260b	0.035924952
85	0x3d9f3d07	0.07775312
86	0x3d43b352	0.047778435
87	0xbcfbf255	-0.030755201
88	0x3e1563f4	0.1458891
89	0x3dd0609f	0.10174679
90	0xbc506978	-0.012720458
91	0x3d75e2d7	0.060030784
92	0x3dfff9f3	0.12498846
93	0x3d0c3965	0.034234423
94	0xbd870253	-0.0659224
95	0x3d9f8fd9	0.07791109
96	0xbcf76323	-0.03019864
97	0x3da9e9df	0.082965605
98	0x3d3e82a3	0.046511304
99	0xbd07669a	-0.033056833
100	0xbd541e73	-0.05178685
101	0x3de5cb08	0.11220366
102	0x3c13a889	0.00901235
103	0x3d40951f	0.047017213
104	0x3cb12321	0.021623196
105	0x3dbdb37c	0.092627496
106	0xbadc4227	-0.0016804383
107	0xbd074482	-0.03302432
108	0xbd22b21b	-0.039720636
109	0x3df648b8	0.12025589
110	0x3d992abf	0.07478856
111	0x3ded1a05	0.115772285
112	0xbcc0d5f7	-0.023539526
113	0xbcd6e13d	-0.026230449
114	0xbda58a7b	-0.08083054
115	0xbd0e8fbb	-0.03480504
116	0x3d81934f	0.06326925
117	0x3dcde01f	0.10052513
118	0x3e125f91	0.14294268
119	0x3e17b0a7	0.14813481
120	0x3d832f67	0.06405526
121	0xbc86a503	-0.016436106
122	0x3dbe3062	0.09286572
123	0xbdb658ba	-0.08903642
124	0x3e453f9b	0.19262545
125	0x3d982938	0.07429737
126	0x3e41b940	0.18918324
127	0xbdc404fb	-0.095712624
128	0x3d27e4d3	0.04098971
129	0x3d981993	0.07426753
130	0x3dfa5170	0.12222564
131	0x3e349431	0.17634656
132	0x3d328c97	0.04359111
133	0x3c9ca3e7	0.019121123
134	0xbd9f2856	-0.07771365
135	0x3ddcc5a7	0.10779887
136	0x3e141e85	0.14464767
137	0x3cf4181a	0.029796649
138	0x3e29088a	0.16507164
139	0xbcdf1fc3	-0.027236825
140	0x3e1eb1f3	0.1549757
141	0x3c2bb082	0.010479094
142	0xbb9f30c7	-0.0048581096
143	0x3d24a88a	0.040199794
144	0xbb2cdeda	-0.0026377947
145	0x3c628982	0.01382673
146	0xbd274392	-0.040835924
147	0x3e08c21f	0.13355301
148	0xbd6f498a	-0.05841974
149	0xbd2048d5	-0.039131958
150	0x3e0ef647	0.13961135
151	0xbb223fc5	-0.0024757248
152	0x3dbd5937	0.09245532
153	0x3d85a60e	0.06525813
154	0x3b88e332	0.0041774744
155	0xbb5e7437	-0.003394378
156	0x3d4bd01d	0.04975902
157	0x3e078318	0.13233602
158	0xbd1a731e	-0.03770744
159	0x3e0ceded	0.13762636
160	0xbd15fc30	-0.036617458
161	0x3d9cd703	0.07658198
162	0x3de68db5	0.11257497
163	0x3d5a20db	0.05325399
164	0xbd8e1855	-0.06938235
165	0xbda36509	-0.07978255
166	0x3d173fae	0.036925964
167	0x3d9f7bff	0.07787322
168	0x3d9bcdfa	0.07607646
169	0xbd2b3fb8	-0.041808814
170	0xbd722432	-0.05911655
171	0x3daffcbc	0.08593127
172	0x3d7f9407	0.06239703
173	0x3dffa137	0.12481921
174	0x3d3081df	0.043092605
175	0x3e02248e	0.12709257
176	0x3d01dadf	0.031702872
177	0x3de122c8	0.10992962
178	0x3d6c0478	0.05762145
179	0x3cb45cc7	0.022016896
180	0xbbeb2de5	-0.007177102
181	0x3dfdfe0d	0.12401972
182	0x3bccff6b	0.006256034
183	0x3d8ad100	0.06778145
184	0x3cd0726f	0.025445191
185	0x3db8f5a0	0.09031224
186	0x3dbb0758	0.0913226
187	0xbc665c27	-0.014060057
188	0x3ddcdd62	0.10784413
189	0x3ca8a180	0.020584822
190	0xbd4874ed	-0.048939634
191	0x3e053d7b	0.13011734
192	0x3dba7cc2	0.09105827
193	0xbd894f04	-0.06704524
194	0xbb26b504	-0.0025437484
195	0x3dcfe143	0.10150387
196	0x3c738b17	0.014864705
197	0x3dff8045	0.12475637
198	0x3e1f0278	0.15528286
199	0xbb5daa42	-0.0033823405
200	0xbe42345a	-0.18965283
201	0xbe245a0b	-0.16049974
202	0xbd172874	-0.036903813
203	0x3d376a8e	0.044779353
204	0x3cfc321b	0.03078561
205	0x3e4897e3	0.1958919
206	0xbe2c0eb7	-0.16802488
207	0x3d11a299	0.035555456
208	0x3d2d89f4	0.04236789
209	0xbe4d5f58	-0.20055902
210	0xbe0c7b39	-0.1371888
211	0xba00bf42	-0.0004911312
212	0xbe4a830a	-0.1977655
213	0xbe2f024e	-0.17090723
214	0x3de2b00a	0.11068733
215	0x3d1a0437	0.037601676
216	0x3e5c3a4b	0.21506612
217	0x3d31c974	0.04340501
218	0xbe01fa99	-0.12693252
219	0xbe2b8d6d	-0.16753168
220	0xbde6edb7	-0.11275809
221	0x3e824e51	0.25450376
222	0x3e21442f	0.15748666
223	0x3d7ad31d	0.06123649
224	0xbc3bb188	-0.011455901
225	0x3dd6e732	0.10493316
226	0xbdaccb77	-0.08437245
227	0x3da3dc32	0.08000983
228	0x3d06d02f	0.032913383
229	0x3e0167d2	0.1263726
230	0xbe33a56f	-0.17543577
231	0xbe7c3aa3	-0.24631743
232	0xbe9511e7	-0.2911522
233	0xbe41fcaa	-0.1894404
234	0xbda84b35	-0.082174696
235	0xbe1b4512	-0.15163067
236	0xbda3bac1	-0.07994605
237	0x3dd42152	0.10357918
238	0x3ddcff0d	0.107908346
239	0xbdc103d5	-0.09424559
240	0xbe10d3e4	-0.1414333
241	0xbd8d7219	-0.06906528
242	0x3de68d88	0.11257464
243	0x3df61788	0.12016207
244	0xbe29e669	-0.16591801
245	0x3da75768	0.08170968
246	0xbca3994a	-0.019970555
247	0x3d8b49a3	0.068011545
248	0xbd25a42d	-0.040439773
249	0x3e52d1c3	0.2058783
250	0xbe6d1efa	-0.23156348
251	0x3d2ba1b0	0.041902244
252	0xbcefcf83	-0.029273754
253	0xbd2d63fb	-0.042331677
254	0xbc8e3133	-0.017357444
255	0xbe0779e3	-0.1323009

weight f4 [100, 100]
0	0xbded3cc3	-0.11583855
1	0xbc3c66d0	-0.011499122
2	0xbdc63ccb	-0.09679564
3	0xbbf2694d	-0.0073978067
4	0x3d5fecc0	0.05466914
5	0xbd31b50d	-0.043385554
6	0xbd212687	-0.039343383
7	0x3d5dbaa5	0.054133076
8	0xbdd512bf	-0.10403966
9	0x3d9edc41	0.07756854
10	0xbd1c22af	-0.038119014
11	0xbd5c71d0	-0.053819478
12	0xbdb8c9b9	-0.090228505
13	0x3d372a1f	0.044717904
14	0x3d67f303	0.05662824
15	0xbd3ea828	-0.046547085
16	0x3d179aab	0.037012737
17	0x3c2bef45	0.010494058
18	0xbd6c3662	-0.05766905
19	0xbd31ba45	-0.04339053
20	0xbcffc9a8	-0.031224087
21	0xbd9e9dbf	-0.077449314
22	0xbcac1a8a	-0.021008749
23	0xbda14298	-0.0787403
24	0x3dd5799a	0.10423584
25	0xbd45677d	-0.048194397
26	0xbd9122dd	-0.07086728
27	0x3d224622	0.039617665
28	0x3d3fb8eb	0.04680721
29	0x3d5dde9a	0.054167368
30	0xbc761b93	-0.015021223
31	0x3c8419bf	0.016125558
32	0xbc69a84d	-0.014261317
33	0x3db86a32	0.0900463
34	0x3aabf311	0.0013118704
35	0x3be9b1b0	0.0071317777
36	0x3d6a1b87	0.05715516
37	0x3d785ff8	0.060638398
38	0xbd37ca6f	-0.04487079
39	0xbd5bd3c5	-0.053668756
40	0x3db55aa7	0.08855181
41	0xbe01834b	-0.1264774
42	0xbccab13b	-0.024742713
43	0x3dce7d88	0.10082537
44	0x3936b8dc	0.00017425738
45	0x3d7bd085	0.061478157
46	0x3b3e1fe5	0.002901071
47	0x3d9f680a	0.07783516
48	0xbdb06a9d	-0.08614085
49	0x3d0f6c4f	0.0350154
50	0xbd5e8e1f	-0.054334756
51	0x3d3f04da	0.046635486
52	0x3c77719d	0.015102771
53	0x3d9ac2db	0.07556697
54	0x3d0f15ef	0.034933027
55	0x3dd273ea	0.10276015
56	0x3cbf880a	0.023380298
57	0x3d88548d	0.06656752
58	0xbca8a488	-0.020586267
59	0x3bc862c5	0.00611529
60	0xbd779682	-0.06044627
61	0x3e262211	0.16223933
62	0x3d63f4b2	0.05565328
63	0x3c7a720f	0.015285983
64	0xbc922ff6	-0.017845135
65	0x3cf1f942	0.0295378
66	0xbd949ebf	-0.07256841
67	0xba28112a	-0.0006411249
68	0x3c7a9dcd	0.015296412
69	0x3c52b2bd	0.012859997
70	0xbd5a31f5	-0.0532703
71	0xbd4d9f4b	-0.05020074
72	0x3dd99133	0.10623398
73	0xbd3744e1	-0.044743422
74	0x3d283d3c	0.041074023
75	0x3cd036dd	0.025416786
76	0x3d27ff6a	0.041015066
77	0x3bdeafd7	0.006795864
78	0x3dab177b	0.08354088
79	0xbd1049f3	-0.035226773
80	0x3ddbad65	0.10726432
81	0xbd915409	-0.070961066
82	0x3da1985f	0.078903906
83	0x3d2f63b5	0.042819697
84	0x3a9463b5	0.0011321219
85	0x3dd2a263	0.10284879
86	0x3b92f903	0.004485251
87	0xbe095fee	-0.134155
88	0xbca44cb2	-0.020056102
89	0xbd17d430	-0.037067592
90	0x3d1e3925	0.038628716
91	0xbdb6174e	-0.08891164
92	0x3d0a9102	0.033829696
93	0x3d9d5f6a	0.076842144
94	0x3d20f5a2	0.039296754
95	0x3d849d8e	0.06475364
96	0xbc899f33	-0.016799545
97	0x3d6e6edf	0.058211204
98	0x3cf68792	0.030093942
99	0xbdca80d1	-0.09887851
100	0x3df52e4d	0.11971722
101	0xbcef730f	-0.029229669
102	0xbd876342	-0.06610729
103	0xbc7d4d48	-0.01546032
104	0xbbb7dca4	-0.005611019
105	0x3db35194	0.08755794
106	0xbdb48417	-0.08814257
107	0xbdae3381	-0.08505917
108	0x3a131504	0.00056107366
109	0xbcce95d8	-0.025217935
110	0xbd71a9b7	-0.058999743
111	0xbd8a8f9b	-0.06765672
112	0x3d2a416f	0.04156631
113	0x3ba5ad85	0.0050560855
114	0x3d3913e7	0.045184996
115	0x3dd8e848	0.10591179
116	0x3ce5ab60	0.02803582
117	0x3da0b9ce	0.078479394
118	0xbc9df78d	-0.01928308
119	0x3d5dd563	0.05415858
120	0x3d494813	0.049141
121	0x3d15161d	0.036398042
122	0xbd2d944f	-0.042377766
123	0x3db772c9	0.089574404
124	0xbd9e3e2f	-0.07726704
125	0x3ca87942	0.020565633
126	0x3d22bfeb	0.03973381
127	0x3de0d1dd	0.10977528
128	0x3dc6a46e	0.09699331
129	0x3d952e3f	0.07284211
130	0xbb21633a	-0.0024625794
131	0x3c73c3b8	0.014878206
132	0xbdb58047	-0.088623576
133	0x3d804c4f	0.06264555
134	0xbdf8b3ba	-0.12143655
135	0x3d9e654a	0.07734163
136	0xbd22fd98	-0.039792627
137	0xbc15c547	-0.009141273
138	0xbc84e250	-0.016221195
139	0xbd65aa40	-0.056070566
140	0xbdc941ac	-0.09826979
141	0x3cba171b	0.022716096
142	0xbd4625b5	-0.048375804
143	0x3ce95bb3	0.028486108
144	0xbd0cfcf7	-0.034420934
145	0xbdd63797	-0.10459822
146	0xbdeaf038	-0.11471599
147	0x3d84548e	0.0646144
148	0xbae381fd	-0.0017357465
149	0xbcbb53dc	-0.022867136
150	0xbc5c47f7	-0.013444892
151	0x3b1516ed	0.002274926
152	0x3d68098a	0.056649722
153	0x3d1d3f5b	0.0383905
154	0x3d4a275f	0.049353953
155	0xbd258204	-0.040407196
156	0x3da61b9d	0.081107356
157	0x3cd36faf	0.02581009
158	0x3cef5db3	0.029219484
159	0x3d4bc000	0.049743652
160	0x3d0a481f	0.033760186
161	0xbd424775	-0.047431428
162	0xbc4bfec5	-0.0124508785
163	0xbc2c1b03	-0.010504487
164	0x3d749563	0.05971278
165	0xbddbe84d	-0.10737667
166	0xbd5dc80a	-0.05414585
167	0xbcc8c646	-0.024508607
168	0x3cab89b1	0.02093968
169	0x3d64579f	0.055747624
170	0x3dc9eb78	0.09859365
171	0xbce74ecb	-0.028235814
172	0xbdf1ec58	-0.11812657
173	0x3da6fe42	0.081539646
174	0xbe21f5ae	-0.15816376
175	0xbd835f5e	-0.06414674
176	0x3daf0ffb	0.0854797
177	0x3cc4218c	0.023941778
178	0x3cc076c3	0.02349413
179	0x3db99dad	0.090632774
180	0xbdef4e7d	-0.11684892
181	0xbb3e9c7d	-0.0029084974
182	0x3d8c2807	0.06843572
183	0x3d45decc	0.04830818
184	0x3ab85dad	0.0014066003
185	0xbdbcb823	-0.09214809
186	0xbca8c68b	-0.020602485
187	0x3c218b2d	0.009859842
188	0x3cbf59b7	0.023358209
189	0xbc75ab75	-0.014994492
190	0x3d45a83d	0.048256148
191	0x3d5b8b80	0.053599834
192	0x3be55b28	0.006999392
193	0xbe014a47	-0.12625991
194	0xbdeac07f	-0.11462497
195	0xbdba9c40	-0.091118336
196	0x3d9a056a	0.07520564
197	0xbd34b49f	-0.044117566
198	0x3de46c52	0.11153473
199	0x3d0ed861	0.034874324
200	0x3b5bb88b	0.0033526744
201	0x3c9fb106	0.019493591
202	0x3c06b4dd	0.008221832
203	0x3d4e9f0b	0.050444644
204	0xbd4e63d2	-0.050388165
205	0xbdc460ef	-0.09588801
206	0x3c48aa50	0.012247637
207	0xbc0235b5	-0.007947375
208	0xbdcc472f	-0.09974515
209	0x3d8b88cf	0.068132035
210	0x3c879c2d	0.016553963
211	0xbc738122	-0.014862331
212	0x3c2bd80a	0.010488519
213	0xbd384194	-0.044984415
214	0x3da2e671	0.079541095
215	0x3c524c6d	0.012835604
216	0xbd923bbb	-0.07140299
217	0xbbdafff0	-0.006683342
218	0x3a8ce483	0.0010749254
219	0xbbeaabca	-0.007161592
220	0x3d8c1bc0	0.068412304
221	0xbcb8a101	-0.02253771
222	0xbd3dd8ab	-0.04634921
223	0xbd99bb58	-0.07506436
224	0x3c9f3e43	0.019438868
225	0xbd5a6245	-0.053316373
226	0x3dbe846f	0.093026035
227	0xbcefb33b	-0.029260268
228	0xbd907a77	-0.07054608
229	0x3c92c69f	0.017916976
230	0x3d0e50f8	0.034745187
231	0xbd33e3f3	-0.04391856
232	0x3d849b0e	0.06474887
233	0x3d4b05cd	0.04956608
234	0x3c59a343	0.0132835535
235	0xbdbeae53	-0.093105935
236	0x3d01abfd	0.03165816
237	0xbc3cdf47	-0.011527843
238	0x3ba6d41a	0.0050912024
239	0x3c046069	0.008079627
240	0xbdbd71d4	-0.092502266
241	0x3d24b894	0.04021509
242	0x3d0668d7	0.032814827
243	0x3d9ff519	0.078104205
244	0xbd2b09f3	-0.041757535
245	0x3cb3fc74	0.021970965
246	0x3e149403	0.14509587
247	0x3e00c83c	0.12576383
248	0xbda97a0b	-0.08275231
249	0x3c1e97b8	0.009679727
250	0xbd9dd4af	-0.07706582
251	0xbd818ab4	-0.06325284
252	0xbc879e60	-0.016555011
253	0x3e01bcaf	0.12669633
254	0xbda0255a	-0.07819624
255	0x3d9a2ce3	0.07528093

bias f4 [100]
0	0x3db2dc3d	0.08733413
1	0x3c3e3ebf	0.0116116395
2	0x3dabc593	0.08387294
3	0xbba289c7	-0.004960272
4	0x3d012472	0.031528898
5	0xbd63763b	-0.055532675
6	0xbcddbfcb	-0.027068993
7	0xbd10d861	-0.035362605
8	0xbb814a47	-0.003945622
9	0x3db097ab	0.08622678
10	0xbda7e737	-0.081983976
11	0xbd0722fa	-0.03299234
12	0x3ca81ee1	0.020522537
13	0xbdeb2928	-0.11482459
14	0xbd9ef36f	-0.07761275
15	0xbdd325ea	-0.10309966
16	0x3d4a958f	0.049459036
17	0xbd20b95d	-0.039239276
18	0xbce5934b	-0.028024336
19	0xbd2a9047	-0.0416415
20	0x3dc77ee8	0.09741002
21	0xbc860a83	-0.016362434
22	0x3d9d9671	0.0769471
23	0x3dc25acc	0.094899744
24	0x3bb17659	0.0054157195
25	0xbd416eee	-0.04722493
26	0xbd316a0f	-0.043314036
27	0xbcbf935d	-0.023385698
28	0x3d8310c2	0.06399681
29	0xbd945ed8	-0.072446525
30	0xbd33949b	-0.043842893
31	0xbbe184ed	-0.006882301
32	0xbcf6c1a3	-0.03012163
33	0xbdcb0d7a	-0.0991468
34	0x3d851ea1	0.064999826
35	0x3d80932d	0.062780716
36	0x3d220ba8	0.039561898
37	0xbdfa8ac3	-0.12233498
38	0xbd7c85e2	-0.061651118
39	0xbd4cac60	-0.049969077
40	0xbdb7c9db	-0.08974048
41	0xbc98dc87	-0.018659843
42	0xbd432077	-0.047638383
43	0xbd9a7092	-0.07541002
44	0x3c07baeb	0.008284311
45	0xbb2c7ae0	-0.0026318356
46	0x3d372231	0.04471034
47	0x3da54817	0.08070391
48	0x3d89565a	0.067059234
49	0x3cff5fdf	0.031173645
50	0xbc12589e	-0.008932261
51	0xbc911c93	-0.01771382
52	0xbc435cd8	-0.011923991
53	0x3d9813ac	0.07425627
54	0xbd34f139	-0.04417536
55	0x3d77c2b2	0.06048841
56	0xbcfb18f2	-0.030651543
57	0x3cef3842	0.02920163
58	0x3d95c246	0.07312445
59	0x3dc4ef48	0.09615952
60	0x3b01a578	0.0019782465
61	0x3cc4bf3b	0.024016967
62	0x3d9dd4cb	0.07706603
63	0x3db8ecfa	0.09029575
64	0x3d824377	0.06360524
65	0xbcf7e938	-0.030262575
66	0x3d96dd84	0.073664695
67	0xbc0faa88	-0.008768685
68	0xbcae01df	-0.021241127
69	0x3d6ade85	0.057341117
70	0x3cf7fab0	0.030270904
71	0xbe08b518	-0.13350332
72	0xbd6afc22	-0.05736936
73	0x3d5e0d3f	0.05421185
74	0xbd352528	-0.044224888
75	0x3d0e3310	0.034716666
76	0x3dbabcc7	0.09118038
77	0xbcc19566	-0.023630809
78	0xbe029caa	-0.12755075
79	0x3d15d114	0.036576346
80	0xbcd3cd22	-0.02585465
81	0xbd9e477e	-0.0772848
82	0xbdb50fcf	-0.08840906
83	0x3d8821bb	0.066470586
84	0x3d79edfa	0.061017968
85	0x3c564b3a	0.013079459
86	0x3b5b74df	0.0033486409
87	0x3da6ad10	0.08138478
88	0x3d8a0e22	0.06740977
89	0x3d9216f6	0.07133286
90	0xbdad074c	-0.084486574
91	0x3be9be0a	0.00713325
92	0xbd9b2e08	-0.07577139
93	0xbd61e97a	-0.0551543
94	0x3dc6e51b	0.09711667
95	0x3d2e486b	0.042549532
96	0xbd3eec33	-0.046611976
97	0x3d9314d9	0.07181711
98	0x3cffe367	0.031236364
99	0x3c24b8f5	0.010053863

weight f4 [1, 100]
0	0xbea30177	-0.31837055
1	0x3eb58e23	0.35460004
2	0xbed7a195	-0.42115465
3	0x3eb107f9	0.34576395
4	0x3ed90587	0.4238703
5	0x3f27a412	0.65484726
6	0x3e4c6a45	0.19962414
7	0xbdf43fa2	-0.119261995
8	0x3e54c885	0.20779617
9	0xbebf50da	-0.37366372
10	0x3f0b8cb3	0.54511565
11	0x3f0bf76a	0.546744
12	0x3db21faa	0.08697446
13	0x3ebd6e82	0.36998373
14	0xbe69c117	-0.22827564
15	0x3e111c4c	0.1417095
16	0x3e07ae53	0.13250093
17	0xbecb0cf7	-0.3965833
18	0x3f219307	0.6311497
19	0xbe3d0401	-0.18458559
20	0x3cde708d	0.027153278
21	0x3f000fd1	0.50024134
22	0x3d509c55	0.05093034
23	0xbf03479f	-0.5128116
24	0x3e61ff85	0.22070129
25	0x3ebba598	0.36649776
26	0xbeaa76fd	-0.33293906
27	0xbe572823	-0.21011405
28	0x3e76c90d	0.24100132
29	0x3eb4ad6e	0.35288566
30	0x3ea419fb	0.32051072
31	0x3dba57f7	0.09098809
32	0xbe40933b	-0.18806164
33	0x3e20b5a4	0.1569429
34	0x3e606efb	0.21917336
35	0xbeab85ef	-0.3350062
36	0xbdc3acc0	-0.09554434
37	0x3ed91c13	0.4240423
38	0xbf0a2344	-0.5396006
39	0x3e8bfd9f	0.27341935
40	0x3eafafdf	0.34313866
41	0x3f39a6bb	0.72520036
42	0x3ec693bd	0.3878459
43	0x3d41cc42	0.047313936
44	0x3eb82670	0.35966825
45	0xbf023503	-0.5086214
46	0xbdc98321	-0.09839464
47	0xbe95ed89	-0.29282787
48	0x3e3f27f0	0.18667579
49	0xbef9b000	-0.4876709
50	0xbe9dca00	-0.30818176
51	0xbe36407a	-0.17798033
52	0x3ebbe708	0.366997
53	0xbebebf9a	-0.37255555
54	0x3e704e38	0.23467338
55	0x3e8c4aeb	0.27400908
56	0xbe69dc6f	-0.22837995
57	0x3e8fcef3	0.28087577
58	0xbd4bd43c	-0.04976295
59	0xbf31aca4	-0.69404054
60	0xbf13db52	-0.5775653
61	0xbf0b7a99	-0.54483944
62	0xbecd7c25	-0.40133777
63	0xbf2a437f	-0.6650924
64	0x3e3cc031	0.1843269
65	0x3b888899	0.0041666743
66	0xbe96f0c1	-0.29480556
67	0xbe9837fc	-0.29730213
68	0x3ec804e4	0.3906623
69	0xbeab27db	-0.33428845
70	0x3e893de9	0.26805046
71	0x3f154749	0.583119
72	0x3c071849	0.008245536
73	0xbdd33805	-0.10313419
74	0x3e386895	0.18008645
75	0x3f09a633	0.53769225
76	0xbed3633f	-0.41286656
77	0xbd00364b	-0.031301778
78	0x3ed86de5	0.42271343
79	0xbd7ffc80	-0.062496662
80	0xbefe78ab	-0.49701437
81	0x3bbd323f	0.005773812
82	0x3e914fa7	0.28381082
83	0x3d8c6489	0.06855113
84	0x3e7732fd	0.24140544
85	0xbcf4f230	-0.02990064
86	0xbdbe42bb	-0.092900716
87	0x3e82cfbf	0.25549123
88	0xbd68ec57	-0.056866016
89	0xbeaee69a	-0.3416031
90	0x3d11d653	0.035604786
91	0xbecbabe3	-0.39779577
92	0x3e92d2c5	0.2867643
93	0x3ea1ff66	0.31640166
94	0xbe9a23db	-0.3010548
95	0xbec70668	-0.38872075
96	0x3e8962d6	0.26833218
97	0xbe527dbf	-0.20555781
98	0x3ebe1de7	0.3713219
99	0xbee48c6b	-0.4463838

weight f4 [15, 100]
0	0x3edd21c0	0.43189812
1	0xbe868630	-0.26274252
2	0x3dfa328f	0.122166745
3	0xbeb22e5f	-0.34801003
4	0x3e273a36	0.163308
5	0x3d086a7a	0.03330467
6	0xbdfb3713	-0.12266364
7	0x3ea7354f	0.3265786
8	0x3e2538b5	0.16134913
9	0xbebadc45	-0.36496177
10	0xbedcc4b3	-0.4311882
11	0x3db3b45c	0.08774635
12	0x3f09d214	0.5383618
13	0x3ca7e210	0.020493537
14	0x3d644138	0.05572626
15	0x3e8faf87	0.28063604
16	0xbe756108	-0.23962796
17	0xbe946a94	-0.28987563
18	0x3e4ab39a	0.19795075
19	0x3f1b2679	0.6060558
20	0x3da7ea03	0.08198931
21	0x3eb3a1dd	0.3508443
22	0x3e9ce380	0.3064232
23	0x3ebbd0ef	0.3668284
24	0xbef08c10	-0.4698186
25	0x3de3b91d	0.11119292
26	0x3e2edad6	0.17075667
27	0x3ee06bb7	0.4383218
28	0xbefd300f	-0.49450728
29	0xbe55bd6a	-0.20873037
30	0xbe8fb29f	-0.28065965
31	0x3ed09af5	0.40743223
32	0xbe45ae8b	-0.19304864
33	0xbf080933	-0.53139037
34	0x3e529d25	0.20567758
35	0x3eac3acf	0.33638617
36	0xbeff9ed3	-0.4992586
37	0x3e879b4b	0.26485667
38	0x3ed60c4f	0.41806266
39	0xbebcb59e	-0.36857313
40	0xbd6ecd8a	-0.058301486
41	0xbdbcd8f1	-0.09221066
42	0xbeca9b3e	-0.39571565
43	0xbf0bc5cb	-0.54598683
44	0x3eae8a9f	0.34090135
45	0x3edef4c2	0.4354611
46	0xbe873827	-0.26410028
47	0xbe25a9c7	-0.16178046
48	0xbe48656a	-0.19569936
49	0x3e182c4a	0.14860645
50	0xbe710a35	-0.2353905
51	0x3dfaf635	0.122539915
52	0x3e181b14	0.1485408
53	0x3e9232ab	0.28554282
54	0xbed9203f	-0.42407414
55	0x3e84c74b	0.25933298
56	0x3f0885ca	0.53329146
57	0x3e32c8f6	0.17459473
58	0x3e9049e7	0.28181383
59	0x3cc17592	0.023615632
60	0xbe048bd8	-0.12943971
61	0xbeb8370b	-0.35979494
62	0x3edf53ef	0.43618724
63	0xbe9b38db	-0.30316815
64	0x3eefb9d2	0.46821457
65	0x3d97e3e3	0.07416513
66	0x3d2e0794	0.042487696
67	0x3e54fbbd	0.20799156
68	0x3f095f3f	0.5366096
69	0x3e8c099f	0.2735109
70	0xbef11442	-0.47085768
71	0x3e1213b4	0.14265329
72	0xbe4f67ef	-0.20254491
73	0xbe5c1283	-0.21491437
74	0xbebcc29e	-0.3686723
75	0xbe7b0795	-0.24514611
76	0xbec39bd3	-0.38204822
77	0xbe742600	-0.23842621
78	0x3e5da8e3	0.21646456
79	0x3e9e299c	0.3089112
80	0x3e814b1f	0.25252625
81	0x3e662510	0.22475076
82	0xbe2f9b1b	-0.17149012
83	0xbe80f9a9	-0.25190476
84	0x3de7a240	0.113102436
85	0xbe76f493	-0.24116735
86	0xbdcecfb5	-0.10098211
87	0xbe110c24	-0.14164788
88	0x3e43c7fc	0.19119257
89	0x3d4a3145	0.049363393
90	0xbe01d8b7	-0.12680326
91	0xbd536d98	-0.05161819
92	0xbcdefa48	-0.027218953
93	0xbeae116c	-0.33997667
94	0xbe889eaf	-0.26683566
95	0xbd224f54	-0.039626434
96	0x3e53f30d	0.20698185
97	0xbdd66c4d	-0.104698755
98	0x3eb484ce	0.35257572
99	0x3e0451c1	0.12921812
100	0xbedcf89f	-0.43158433
101	0xbee7644f	-0.45193717
102	0x3d88eedb	0.06686183
103	0x3ed65ae5	0.41866222
104	0x3e9bfbd7	0.30465576
105	0x3e730c30	0.23735118
106	0xbed32ecd	-0.41246644
107	0x3dbdd0ff	0.092683785
108	0x3dad255e	0.08454393
109	0xbe511dd0	-0.20421529
110	0x3e4cfb80	0.20017815
111	0x3e8d0825	0.27545276
112	0xbea091e3	-0.31361303
113	0xbe52f8eb	-0.20602767
114	0xbee72ca7	-0.45151255
115	0x3ea4a1e7	0.32154772
116	0x3ec4c71f	0.38433167
117	0x3db58c03	0.08864596
118	0x3c299943	0.010351482
119	0xbe8eaf2c	-0.2786802
120	0xbefeff92	-0.4980436
121	0x3ed32577	0.4123952
122	0x3ea9067f	0.3301277
123	0xbd5115b8	-0.051046103
124	0xbd465296	-0.048418604
125	0x3e39e113	0.18152265
126	0x3da00fbf	0.07815503
127	0xbed5d952	-0.41767365
128	0x3e1d57cd	0.15365525
129	0xbe056b4c	-0.13029212
130	0xbed1730a	-0.4090808
131	0x3e1c5373	0.15266208
132	0x3ea9d83b	0.33172783
133	0x3ef2d430	0.4742751
134	0x3e4dc14d	0.2009327
135	0x3e76bb53	0.24094896
136	0xbe18bb1a	-0.14915124
137	0xbf071675	-0.5276864
138	0x3e386334	0.18006593
139	0x3e3c1d6c	0.18370599
140	0x3e693065	0.22772367
141	0xbee26760	-0.44219494
142	0x3e597543	0.21236138
143	0x3e6bea02	0.23038486
144	0xbec6f9ce	-0.3886246
145	0xbed74140	-0.4204197
146	0xbe3f39b6	-0.18674359
147	0x3d91b222	0.07114054
148	0xbe6ad37a	-0.22932234
149	0xbd1a5f28	-0.037688404
150	0xbe9e0329	-0.30861786
151	0xbeb5930c	-0.3546375
152	0x3efa78dd	0.48920336
153	0xbdb673a8	-0.089087784
154	0xbead8d5a	-0.33896905
155	0xbee6913d	-0.45032683
156	0xbeb29e09	-0.34886196
157	0x3ddfd64d	0.109295465
158	0xbe685950	-0.2269032
159	0xbd984da8	-0.07436687
160	0xbb38f383	-0.0028221316
161	0xbebcdcf0	-0.36887312
162	0x3e35fc79	0.17772092
163	0x3e52e323	0.20594458
164	0x3ecffed0	0.40624094
165	0x3eb5a728	0.35479093
166	0xbe22f1aa	-0.159125
167	0x3ed785c0	0.4209423
168	0x3e889843	0.26678666
169	0xbdb6350c	-0.08896837
170	0x3ed947f3	0.42437705
171	0x3e97894f	0.29596946
172	0x3f057993	0.5213863
173	0x3ea65f18	0.32494426
174	0x3e8b28d8	0.271796
175	0xbed60d87	-0.41807196
176	0xbeb51537	-0.35367748
177	0x3e2e6f26	0.17034587
178	0x3dd347a3	0.10316398
179	0x3d70d7f0	0.058799684
180	0xbe1080e0	-0.14111662
181	0xbc86bd17	-0.016447587
182	0xbc97c0a1	-0.01852447
183	0xbe8b1a7a	-0.27168638
184	0xbe35eb8b	-0.17765634
185	0xbe8c4f93	-0.2740446
186	0xbe46aabb	-0.19401066
187	0xbdf9c7ab	-0.12196287
188	0xbec97bc0	-0.39352226
189	0xbdcdf8eb	-0.10057243
190	0x3eca70bf	0.39539143
191	0xbdd0b678	-0.10191053
192	0x3e83bbef	0.2572932
193	0x3e3fe0ba	0.1873807
194	0xbec3cd0b	-0.38242373
195	0x3ee513d2	0.44741684
196	0x3e4c358b	0.199423
197	0xbd5113db	-0.051044326
198	0x3eb4922c	0.3526777
199	0x3e6dac8f	0.23210357
200	0x3e545f6d	0.20739527
201	0xbe01ec12	-0.1268771
202	0xbee63682	-0.4496346
203	0xbe90a60d	-0.28251687
204	0x3e89b749	0.26897648
205	0xbf016c62	-0.50556004
206	0x3e1da8e0	0.15396452
207	0xbec1c773	-0.3784748
208	0xbdfabc1f	-0.122429125
209	0xbea2acbf	-0.3177242
210	0xbebae096	-0.3649947
211	0xbf01e14a	-0.5073439
212	0x3ed92deb	0.42417845
213	0xbf22a997	-0.63540024
214	0x3f10e4e9	0.5659929
215	0xbdca342d	-0.09873233
216	0x3c040d4b	0.00805981
217	0x3e818bbf	0.2530193
218	0x3e8873d7	0.2665088
219	0x3eb3780f	0.35052535
220	0x3f0f9b4b	0.56096333
221	0xbd48c1f5	-0.049013097
222	0x3e20bed3	0.15697794
223	0x3ec6c4e0	0.3882208
224	0xbeb5f962	-0.35541826
225	0xbe794473	-0.24342518
226	0xbf0b8dc3	-0.54513186
227	0x3ed416f2	0.41423756
228	0x3db51ce2	0.088433996
229	0x3ea1c4ea	0.31595546
230	0x3f2bc788	0.67101336
231	0xbd9d9b3e	-0.07695626
232	0x3eaf6ff9	0.34265116
233	0xbec400c2	-0.38281828
234	0xbe9d4dc8	-0.30723405
235	0x3e75393b	0.23947613
236	0x3e6bf06b	0.23040931
237	0x3d648bc0	0.05579734
238	0x3d9c1bb9	0.07622475
239	0xbe4fc1e7	-0.20288812
240	0xbea8c85a	-0.32965356
241	0x3e993dfd	0.29930106
242	0xbe0c8b58	-0.1372503
243	0xbf0403f5	-0.5156854
244	0x3cb22bf9	0.021749483
245	0x3f0df80b	0.5545661
246	0xbf005a20	-0.5013752
247	0x3f11660c	0.56796336
248	0xbeabc807	-0.33551046
249	0x3e47abcf	0.19499134
250	0x3f0226f7	0.50840706
251	0xbf0387b6	-0.51378953
252	0xbe858807	-0.26080343
253	0xbe87f172	-0.26551396
254	0x3ea3536d	0.31899586
255	0x3e4f33cb	0.20234601

bias f4 [15]
0	0x3ea3abcc	0.31967008
1	0x3e18b449	0.14912523
2	0x3f3814dd	0.71906835
3	0x3f5f60c3	0.8725702
4	0x3f51b26d	0.8191288
5	0x3f54a3b2	0.8306228
6	0x3f19b3c4	0.60039926
7	0x3fa4d3ba	1.2877114
8	0x3ec6f100	0.38855743
9	0x3e956c40	0.2918415
10	0x3ed3f8d3	0.41400775
11	0x3e836afd	0.25667563
12	0x3ecf4528	0.4048245
13	0x3e4dbcf3	0.2009161
14	0x3ee71b4d	0.45138016
