checkpoints/9feature_lstm_num_comm999_an15_sn_D3_al5_E0.5_B5_lr10_num_clients0.05_cf100.pth (torch, 228375 bytes, 9 tensors)

weight_ih_l0 f4 [400, 9]
0	0x3e12af97	0.14324795
1	0xbe03a6c2	-0.12856582
2	0xbe6c6570	-0.2308557
3	0x3eac619d	0.33668223
4	0xbd707c55	-0.058712322
5	0xbd3400e2	-0.043946154
6	0x3c76bd77	0.01505982
7	0x3d5f3f3a	0.054503657
8	0xbdf21627	-0.118206315
9	0x3d880bb3	0.066428564
10	0x3de72f45	0.11288313
11	0x3d923a8f	0.071400754
12	0x3d41c3c7	0.04730585
13	0x3d2c3793	0.042045187
14	0x3dfa60ab	0.12225469
15	0x3d872e28	0.066006005
16	0x3d407915	0.046990473
17	0x3d6d40c7	0.057923105
18	0xbda68271	-0.081303485
19	0xbdee9220	-0.11648965
20	0xbd04075b	-0.032233577
21	0x3d530d23	0.0515262
22	0xbd9a0812	-0.075210705
23	0x3d0051b8	0.031327933
24	0x3ca9771b	0.020686677
25	0x3d9ed3cb	0.0775524
26	0xbda81fa3	-0.08209159
27	0x3ec64743	0.38726243
28	0x3e2338ab	0.15939586
29	0x3d2cf75e	0.042228095
30	0x3d8e9117	0.069612674
31	0x3dab3724	0.083601266
32	0xbc5adada	-0.013357842
33	0x3cdcfc07	0.026975645
34	0xbc2cfd19	-0.01055839
35	0xbde86bbb	-0.11348673
36	0xbe64b863	-0.22335963
37	0xbf27ae22	-0.6550008
38	0x3e92776e	0.28606743
39	0x3d932277	0.07184308
40	0x3e000811	0.12503077
41	0x3e88ee0d	0.26744118
42	0xbee72673	-0.45146522
43	0x3db1cd15	0.086816944
44	0xbc94f0d3	-0.01818124
45	0x3e917540	0.28409767
46	0xbe27ca47	-0.16385756
47	0x3c71eca0	0.014765888
48	0xbd83a424	-0.06427792
49	0x3de3699d	0.111041285
50	0x3dba28a1	0.090897806
51	0xbe052b78	-0.13004863
52	0xbd84cece	-0.06484757
53	0xbda451b9	-0.080234
54	0x3e2624f7	0.16225038
55	0xbe728ce5	-0.2368656
56	0x3e63df98	0.22253263
57	0xbe3cc104	-0.18433005
58	0x3b242430	0.0025045983
59	0xbc0a12bb	-0.008427317
60	0xbd142414	-0.03616722
61	0x3d25176b	0.040305536
62	0xbdbe1e47	-0.09283119
63	0x3dbfa869	0.093582936
64	0xbe8bdeaf	-0.27318332
65	0x3debb235	0.115086
66	0x3d2998fc	0.041405663
67	0x3da6baaa	0.08141072
68	0xbdbc1989	-0.09184558
69	0xbcbc6fd8	-0.02300255
70	0x3c543e90	0.012954369
71	0xbdfcfd2b	-0.123529755
72	0xbf3ff209	-0.7497869
73	0xbe854800	-0.26031494
74	0xbd34184b	-0.04396848
75	0x3e09a7d1	0.13442923
76	0x3d80cea3	0.06289413
77	0xbcd69e3a	-0.026198495
78	0x3c5a921a	0.013340497
79	0xbe3443a2	-0.17603925
80	0x3ea71e57	0.32640335
81	0xbdb6e4dc	-0.0893037
82	0xbd841f89	-0.06451327
83	0x3d734a7d	0.05939721
84	0xbd245a26	-0.040125035
85	0x3d9ead2f	0.07747876
86	0xbceb168b	-0.028697273
87	0x3d6e16b2	0.058127113
88	0x3d4c538b	0.04988436
89	0xbddd3205	-0.10800556
90	0x3d3c798d	0.046014357
91	0xbc90b1f9	-0.017662989
92	0x3e57ec67	0.21086274
93	0x3d104d20	0.035229802
94	0x3d9b446c	0.0758141
95	0x3cce8350	0.025209099
96	0xbd96ce33	-0.07363548
97	0x3e2288df	0.15872525
98	0xbdc30de0	-0.09524131
99	0x3dc55b72	0.096365824
100	0x3e37736a	0.1791512
101	0xbd41de12	-0.047330923
102	0x3d0d9920	0.03456986
103	0xbcf2994f	-0.029614119
104	0x3e8430bf	0.2581844
105	0x3dc0a881	0.094071396
106	0x3d9e830f	0.07739841
107	0x3c94f25c	0.018181972
108	0xbe071f25	-0.13195474
109	0xbdbb8369	-0.09155924
110	0x3eb9c969	0.36286476
111	0xbd164e99	-0.03669605
112	0xbdb28b01	-0.08717919
113	0x3e23c611	0.15993525
114	0x3e170bd2	0.14750603
115	0xbd6d38f7	-0.057915654
116	0x3e1e3567	0.15450059
117	0x3dbae66e	0.09125982
118	0xbbc88f63	-0.0061206087
119	0x3ca931ad	0.02065357
120	0xbdac3d8f	-0.08410179
121	0xbcb29933	-0.021801567
122	0x3da6600e	0.0812379
123	0xbcb82376	-0.022477847
124	0xbd3acd1c	-0.045605764
125	0x3ddbb11d	0.10727141
126	0x3ed0d9fb	0.40791306
127	0xbe7089ff	-0.23490141
128	0xbf254ebf	-0.6457328
129	0x3d731e40	0.05935502
130	0xbd1ae0ba	-0.037811972
131	0xbe0aada7	-0.13542806
132	0x3e93f1c1	0.2889538
133	0xbde5c32b	-0.11218866
134	0xbe1f789f	-0.15573357
135	0xbe902247	-0.28151152
136	0x3c53f838	0.012937598
137	0x3d2f1ac5	0.04275014
138	0x3e45d677	0.19320093
139	0x3d9c60a1	0.07635618
140	0x3d68bf60	0.056823134
141	0xbd975f6c	-0.07391247
142	0xbdf6aafb	-0.12044331
143	0xbc83533f	-0.016030906
144	0x3eb1dd6f	0.34739253
145	0xbddeae05	-0.10873035
146	0xbe640348	-0.22266877
147	0xbd8e373b	-0.06944128
148	0x3c876577	0.016527874
149	0xbd3d20f5	-0.04617401
150	0xbc88dc43	-0.016706591
151	0x3d81ea34	0.06343499
152	0xbd3ba970	-0.045815885
153	0x3ec85113	0.39124355
154	0x3e05152e	0.1299636
155	0xbe490358	-0.19630182
156	0xbdcb50b7	-0.099275045
157	0x3d40f60c	0.04710965
158	0x3d98b617	0.07456606
159	0xbc85d5bf	-0.016337274
160	0xbd642683	-0.05570079
161	0xbe116b1e	-0.14201018
162	0x3ec58c16	0.3858344
163	0x3d70c663	0.058782946
164	0x3d43480f	0.047676142
165	0xbd4748a7	-0.04865327
166	0xbd995652	-0.074871674
167	0xbd91741b	-0.071022235
168	0x3d9a4424	0.07532528
169	0xbdd22302	-0.102605835
170	0xbe11f8e0	-0.14255095
171	0x3e7ef6a3	0.24898772
172	0x3c062f4b	0.008189986
173	0x3e892de6	0.2679283
174	0xbc8b7a53	-0.017026102
175	0xbd21a20a	-0.039461173
176	0xbd4f4347	-0.05060127
177	0xbd9689da	-0.07350512
178	0x3d5a61f7	0.053316083
179	0x3cbeba9f	0.023282347
180	0xbea6d927	-0.3258755
181	0xbf394603	-0.72372454
182	0xbf591237	-0.8479342
183	0xbc994069	-0.018707471
184	0xbdbabe33	-0.09118309
185	0xbdb061a5	-0.08612374
186	0xbf3a1fea	-0.72704947
187	0x3e2db314	0.16962844
188	0xbce6d49f	-0.028177558
189	0x3d29c49f	0.041447278
190	0xbe55fe5b	-0.2089781
191	0x3e56e75f	0.20986699
192	0x3d7bac88	0.061443835
193	0x3bed927b	0.007250128
194	0xba728710	-0.0009251693
195	0x3cdc7357	0.026910467
196	0x3d256676	0.040380917
197	0xbd6f1010	-0.058364928
198	0xbe6c40ea	-0.23071638
199	0x3d1fd1a0	0.039018273
200	0xbbd07a38	-0.006362226
201	0x3ea58657	0.32329056
202	0x3e3b5767	0.1829506
203	0x3ed0fb88	0.40816903
204	0x3df7b00b	0.120941244
205	0xbdbb5de8	-0.091487706
206	0x3ecd6a85	0.4012033
207	0x3e69c0c2	0.22827438
208	0xbd5718b8	-0.052513808
209	0x3e07181b	0.1319279
210	0x3db33c54	0.08751741
211	0xbdbdcdef	-0.09267794
212	0x3d27f9e2	0.04100979
213	0x3c73b688	0.014875062
214	0x3d2ff84b	0.0429614
215	0x3dbf8bef	0.09352862
216	0xbe9dae2c	-0.30796945
217	0x3d6a137a	0.05714748
218	0x3ea45f76	0.3210408
219	0xbd195da7	-0.03744283
220	0x3e28b0ba	0.16473666
221	0x39dfb952	0.0004267195
222	0x3ded7163	0.115938924
223	0xbe0034de	-0.12520167
224	0x3eb651f7	0.3560941
225	0xbd3c7462	-0.04600943
226	0xbdd5571d	-0.10417006
227	0x3d542ded	0.05180161
228	0x3bccca5b	0.0062497086
229	0xbca6e037	-0.020370586
230	0x3b170866	0.0023045777
231	0x3d9fb3ca	0.07797964
232	0xbbc9ce4b	-0.0061586252
233	0x3dd11660	0.10209346
234	0xbea8c7bd	-0.32964888
235	0xbea4c7d7	-0.32183716
236	0xbe078c3c	-0.13237089
237	0xbc58dff8	-0.013236992
238	0xbd827ad3	-0.06371083
239	0x3d8ef80b	0.06980904
240	0xbda41346	-0.080114886
241	0x3de1451f	0.10999512
242	0x3e230fbb	0.1592397
243	0x3ec664ef	0.3874888
244	0xbe74f915	-0.23923142
245	0xbd2acfec	-0.041702196
246	0x3e35d86e	0.17758343
247	0x3d3cb1bf	0.04606795
248	0xbe16e62e	-0.14736244
249	0xbd391b95	-0.04519232
250	0xbc8454f7	-0.016153796
251	0xbc98784e	-0.018612053
252	0x3f0c8655	0.54892474
253	0x3e17e22a	0.14832368
254	0x3dcc3ae7	0.09972172
255	0x3d4a9a4a	0.049463548

weight_hh_l0 f4 [400, 100]
0	0x3d37e6b0	0.044897735
1	0xbde431d7	-0.11142319
2	0xbd90197b	-0.0703611
3	0xbd0cbee7	-0.034361746
4	0x3de62cf7	0.11239045
5	0xbdc3f457	-0.095680885
6	0xbe25b6a4	-0.16182953
7	0x3db487ba	0.0881495
8	0xbd3dec6c	-0.046368048
9	0xbd9b470b	-0.0758191
10	0x3d54295d	0.05179726
11	0xbe12135b	-0.14265196
12	0xbd558a1b	-0.05213366
13	0x3cb88665	0.022525022
14	0x3d65fc1d	0.056148637
15	0xbd6c4322	-0.05768121
16	0x3e2e802d	0.17041083
17	0x3c2015c0	0.009770811
18	0xbcb1f28b	-0.021722099
19	0xbd96d1aa	-0.07364209
20	0xbd14d907	-0.036339786
21	0xbd95d8d5	-0.07316748
22	0x3dc45329	0.09586174
23	0xbded1480	-0.11576176
24	0xbe0112db	-0.12604849
25	0x3dffba33	0.124866866
26	0x3d5e275f	0.054236766
27	0xbd0a1afb	-0.033717137
28	0x3dd501c2	0.10400726
29	0xbd8eebdb	-0.069785796
30	0xbc9d92ae	-0.019234981
31	0x3d78dd58	0.060757965
32	0x3ad73a33	0.0016420543
33	0x3dde4f5a	0.10854979
34	0xbde0de6b	-0.10979923
35	0xbd922ded	-0.07137666
36	0xbd8a0b85	-0.067404784
37	0xbda6dabc	-0.08147189
38	0xbc10d5fd	-0.008840081
39	0x3dfbb722	0.12290789
40	0x3d2b02fa	0.041750886
41	0x3cb63968	0.02224417
42	0x3d511047	0.051040914
43	0x3d62e623	0.055395257
44	0xbc0171c1	-0.007900656
45	0xbd0523e7	-0.032504942
46	0x3d667c73	0.056271028
47	0xbcadd447	-0.021219386
48	0xbc96a3c5	-0.018388638
49	0xbc92c6c5	-0.017917046
50	0xbd1b795e	-0.03795754
51	0xbda46873	-0.080277346
52	0xbd28c0b7	-0.041199412
53	0xbe532202	-0.20618442
54	0xbd946ae5	-0.07246951
55	0x3cbaaafe	0.022786614
56	0x3d42144a	0.04738263
57	0xbdbc7247	-0.09201484
58	0xbdc8948f	-0.0979396
59	0x3dc73230	0.097263694
60	0x3cc6c13f	0.024262069
61	0x3d9e972d	0.07743678
62	0xbdba7703	-0.09104731
63	0x3d1027db	0.03519426
64	0x3d0e1212	0.034685202
65	0xbc9727a4	-0.01845152
66	0xbc88b33f	-0.016687034
67	0x3dd8241b	0.105537616
68	0x3d60736d	0.05479758
69	0xbd7e19b3	-0.062036227
70	0xbd28be37	-0.041197028
71	0x3ce3088a	0.027714033
72	0x3cf646eb	0.030063113
73	0xbd40478f	-0.046943244
74	0xb88b57e5	-6.644408e-05
75	0x3caf43e5	0.02139468
76	0xbd05b044	-0.032638803
77	0x3db75c45	0.08953146
78	0x3d938157	0.07202404
79	0x3cb0def0	0.02159068
80	0x3d8f187f	0.06987094
81	0xbb7ebbcd	-0.0038869262
82	0xbd2d63fe	-0.042331688
83	0x3ca2fa33	0.019894695
84	0xbd518538	-0.051152438
85	0x3e0c30f2	0.13690546
86	0xbdcd5edf	-0.10027861
87	0x3d67bec5	0.056578416
88	0xbe357195	-0.1771911
89	0xbd6f784b	-0.05846433
90	0x3dd8a677	0.10578626
91	0x3b942ae7	0.004521716
92	0x3c708a37	0.0146813905
93	0x3d6cf49d	0.05785047
94	0xbd10ddd5	-0.035367806
95	0x3d306858	0.04306826
96	0xba98ce78	-0.0011658212
97	0x3dadc770	0.08485305
98	0xbd494d8c	-0.04914622
99	0x3d06e64f	0.032934483
100	0xbdb865d7	-0.090037994
101	0xbd565f78	-0.05233714
102	0x3d8a77fb	0.06761166
103	0x3cf72f07	0.030173792
104	0x3d9ffcc7	0.07811885
105	0x3dc09b29	0.094045945
106	0xbd0226d4	-0.03177531
107	0xbd79575d	-0.06087433
108	0xbc309818	-0.0107784495
109	0xbd11147d	-0.03541993
110	0x3d0199cd	0.031640816
111	0x3d4e4e10	0.050367415
112	0x3d52b7e7	0.051444914
113	0xbc663b68	-0.0140522495
114	0xbdcb0b9b	-0.09914323
115	0xbc545b77	-0.01296126
116	0x3d3cd8b7	0.046105113
117	0x3da7b52b	0.08188852
118	0xbd92bbbd	-0.071647145
119	0x3d1e54e8	0.03865519
120	0xbcb9b757	-0.022670431
121	0xbc17af93	-0.009258169
122	0x3cea240d	0.028581643
123	0x3b485701	0.0030569436
124	0x3d92781f	0.071518175
125	0x3c358cdb	0.011080946
126	0xbce3561b	-0.02775102
127	0x3cc540f8	0.024078831
128	0x3d8bc6a6	0.068249986
129	0x3c1715a7	0.009221471
130	0xbd284503	-0.04108144
131	0x3d9d2432	0.07672919
132	0x3c2bf494	0.010495324
133	0xbdbe59b3	-0.092944525
134	0x3d440957	0.04786047
135	0x3d4efc2a	0.05053345
136	0x3d0f0bdb	0.034923416
137	0xbd8388ed	-0.06422601
138	0x3dcfb200	0.10141373
139	0x3d54ae1a	0.05192385
140	0x3d091203	0.033464443
141	0xbcbef55f	-0.023310361
142	0x3d0798d7	0.033104744
143	0xbcebbed7	-0.028777523
144	0x3d5ea570	0.054356992
145	0xbd8fd0ee	-0.07022272
146	0x3da3f9e5	0.08006648
147	0xbd3e65fa	-0.04648397
148	0xbd21e1e4	-0.039522067
149	0xbc7664d2	-0.015038686
150	0x3d75b2bd	0.05998491
151	0x3d8ba4f4	0.06818572
152	0x3da09a68	0.07841951
153	0x3db1af05	0.086759605
154	0x3cacbbfb	0.02108573
155	0xbd5b5aaf	-0.05355328
156	0xbc2ef8ca	-0.010679433
157	0x3d7f0433	0.062259864
158	0x3c73f9b8	0.014891081
159	0x3d89eb37	0.06734317
160	0xbd879e18	-0.06621951
161	0x3ca00707	0.0195346
162	0x3d400ae7	0.046885397
163	0x3d557502	0.05211354
164	0xbca3b63f	-0.019984363
165	0x3afebcd7	0.0019434941
166	0xbcd249da	-0.02566998
167	0xbc0514d3	-0.008122641
168	0x3d27ac15	0.040935595
169	0xbdc6bf77	-0.09704488
170	0x3dfe9f1b	0.12432691
171	0xbd7763ff	-0.060398098
172	0xbd40eb29	-0.047099266
173	0xbd806b85	-0.06270508
174	0xbd9e0c76	-0.077172205
175	0xbdc090f6	-0.09402649
176	0xbd85fd0f	-0.06542408
177	0x3d93cc97	0.07216757
178	0x3da65b75	0.08122913
179	0xbda83a97	-0.082143
180	0xbd84c4bf	-0.06482839
181	0xbb4fc525	-0.00317032
182	0xbd787665	-0.060659785
183	0xbdb927a1	-0.09040762
184	0x3c9a1c0e	0.018812206
185	0xbd8ce7ea	-0.068801716
186	0xbd7deb52	-0.061991997
187	0x3db1ad70	0.08675659
188	0xbdbcc293	-0.092167996
189	0x3cc3d727	0.023906304
190	0xbdbcef64	-0.09225348
191	0xbce6b01a	-0.028160144
192	0x3cbbc2bf	0.02292001
193	0x3d59b497	0.05315074
194	0x3d1ca3f8	0.03824231
195	0x3de994aa	0.114053085
196	0x3d860c25	0.06545285
197	0xbcfaed40	-0.030630708
198	0xbd4d543a	-0.050129153
199	0xbca331a9	-0.01992114
200	0xbd2e1c9f	-0.042507764
201	0xbb4cb3db	-0.0031235132
202	0x3c29e01a	0.010368371
203	0xbcd49e1b	-0.025954297
204	0x3c2325ea	0.00995777
205	0xbd81b987	-0.06334215
206	0x3ba557a7	0.0050458494
207	0xbdafedd3	-0.08590283
208	0x3da31414	0.07962814
209	0xbd24bb92	-0.040217943
210	0x3d3cf5e6	0.046132945
211	0x3d706190	0.058686793
212	0x3d885d72	0.06658448
213	0x3d3954cb	0.04524688
214	0x3c9c304f	0.019066004
215	0x3bd3d980	0.006465137
216	0x3ccc0918	0.02490668
217	0xbd512c1f	-0.051067468
218	0x3da0015f	0.078127615
219	0xbcded637	-0.027201755
220	0x3d51a278	0.051180333
221	0x3d6353c5	0.05549981
222	0x3d20daf9	0.03927133
223	0xbd4ac023	-0.049499642
224	0x3c83e00d	0.016098047
225	0xbdcdbc30	-0.100456595
226	0x3d3b0786	0.04566147
227	0x3d7f3053	0.062301945
228	0xbc730e2f	-0.014834925
229	0xbd64406d	-0.055725504
230	0xbd5a786d	-0.053337503
231	0xbd6d6f42	-0.05796743
232	0xbc8d65b2	-0.017260406
233	0x395bef2b	0.00020974565
234	0xbd8382ae	-0.064214095
235	0x3d4f0800	0.05054474
236	0xbd117b7e	-0.035518162
237	0xbc7a85e8	-0.015290715
238	0xbd8a0590	-0.06739342
239	0x3d1065c3	0.035253298
240	0xbc577513	-0.013150471
241	0xbd1fb806	-0.038993858
242	0x3da413d0	0.080115914
243	0xbd8bc98f	-0.068255536
244	0xbbd41705	-0.0064724707
245	0xbc0568c7	-0.008142657
246	0xbcc84941	-0.024448993
247	0x3dbcd1bf	0.092196934
248	0x3d8f0787	0.069838576
249	0x3d34fac4	0.04418446
250	0xbb1951f7	-0.0023394802
251	0x3d9edd12	0.077570096
252	0x3d913afe	0.0709133
253	0x3d54999d	0.05190431
254	0x3cf6b410	0.030115157
255	0x3d761a20	0.06008351

bias_ih_l0 f4 [400]
0	0x3de3f173	0.11130037
1	0xbc690ce5	-0.014224266
2	0x3df8fd13	0.12157645
3	0x3cd58c0d	0.026067758
4	0x3daf2e1b	0.08553716
5	0x3d2d2b6f	0.04227775
6	0x3d6e9f73	0.05825753
7	0xbb28463a	-0.0025676624
8	0x3c93a98f	0.018025188
9	0xbc79dd53	-0.015250522
10	0x3d84b9ca	0.06480749
11	0xbd07d49a	-0.033161737
12	0xbd69ab78	-0.05704829
13	0x3cc40cfc	0.023931973
14	0xbe1f864d	-0.15578575
15	0xbca4aa66	-0.020100784
16	0x3d631c3a	0.05544684
17	0x3e15a8df	0.146152
18	0xbc8132d4	-0.015771307
19	0x3dee84b5	0.116464056
20	0x3e3e9b2b	0.1861388
21	0x3dfe5332	0.12418212
22	0x3e02798d	0.1274168
23	0x3d069837	0.032860007
24	0x3dcc1668	0.09965211
25	0x3e106a33	0.14103012
26	0x3d611407	0.05495074
27	0xbd1de3cb	-0.03854732
28	0xbbc1cb21	-0.0059141074
29	0x3e4cb6b7	0.19991575
30	0x3dc23347	0.094824366
31	0x3e151f1a	0.14562646
32	0x3e1e314c	0.15448493
33	0xbd009d98	-0.031400293
34	0x3dd75ec7	0.10516124
35	0x3e060a14	0.13089782
36	0x3e331b83	0.17490964
37	0x3cf4b4fd	0.029871458
38	0x3df54502	0.11976053
39	0x3df314da	0.118692115
40	0x3d80f580	0.062968254
41	0x3dd255a2	0.102702394
42	0x3d9e7117	0.07736414
43	0xbda52875	-0.08064357
44	0x3cc281d7	0.023743553
45	0x3e128aa8	0.14310706
46	0x3da33b62	0.07970311
47	0x3da2f755	0.07957331
48	0x3d8b771e	0.06809829
49	0xbd2aae8b	-0.041670363
50	0x3d164120	0.0366832
51	0x3dc1e8b4	0.09468213
52	0x3d849d4b	0.06475314
53	0xbd5042d5	-0.050844986
54	0xbd87353b	-0.0660195
55	0x3d477372	0.04869408
56	0x3df87572	0.12131776
57	0x3e0144bd	0.12623878
58	0x3d0cdcd8	0.0343903
59	0x3c9a8b1a	0.018865157
60	0x3d1dbd2f	0.038510498
61	0x3d5e2bea	0.0542411
62	0xbb43831d	-0.0029832788
63	0x3dabf9c4	0.083972484
64	0xbd3007a8	-0.04297605
65	0x3e07d75f	0.13265751
66	0x3d263b2b	0.04058377
67	0x3d14da1f	0.03634083
68	0xbceb24f5	-0.028704146
69	0x3d28971b	0.04115973
70	0x3d3e7f58	0.046508163
71	0xbcfd3667	-0.03090973
72	0x3d8e801b	0.06958028
73	0x3e04d33d	0.12971206
74	0x3d464d75	0.048413713
75	0x3df9f4f8	0.12204927
76	0x3e0be2f0	0.13660789
77	0xbb4bd6d2	-0.0031103385
78	0x3d0826cb	0.03324012
79	0x3dc335cf	0.095317475
80	0x3d63d18a	0.055619754
81	0x3d1f5975	0.038903672
82	0x3ceeceb8	0.029151306
83	0x3dd51fd3	0.104064606
84	0x3d918c00	0.07106781
85	0x3d40cb9f	0.04706919
86	0x3d099287	0.033587005
87	0x3cff7085	0.031181583
88	0xbc9d47d6	-0.019199293
89	0x3df92a5f	0.12166285
90	0x3e0023ab	0.12513606
91	0xbcd0db57	-0.025495214
92	0x3d224a08	0.039621383
93	0x3c8f10b4	0.01746402
94	0x3d354957	0.044259395
95	0x3d87fd89	0.06640155
96	0x3d467ace	0.04845696
97	0x3e01a0ad	0.12658949
98	0x3d9fba87	0.07799249
99	0x3e03bde4	0.12865406
100	0x3dcf2d03	0.10116007
101	0x3db63762	0.08897282
102	0x3d202708	0.039099723
103	0x3da60198	0.08105773
104	0x3d1491a3	0.036271702
105	0x3d6f4a37	0.058420386
106	0x3b392d08	0.00282556
107	0x3c9866c0	0.018603683
108	0xbc7402ea	-0.014893273
109	0x3e125f40	0.14294147
110	0x3e03cd0e	0.12871191
111	0x3d729710	0.059226096
112	0x3da8f574	0.082499415
113	0xbc3761cd	-0.011192751
114	0x3d85900b	0.06521615
115	0x3dcb318c	0.0992156
116	0x3e1553c5	0.14582737
117	0x3deba4c0	0.11506033
118	0x3ce713c2	0.028207663
119	0x3bb5dd15	0.0055500367
120	0x3c4f7d6a	0.012664178
121	0x3df14bbf	0.117820255
122	0x3e149eb7	0.1451367
123	0xbb6ae332	-0.0035840985
124	0x3e036ce7	0.12834512
125	0xbccc7222	-0.024956767
126	0x3e05d9be	0.13071343
127	0xbc87aa32	-0.016560648
128	0x3d9cd041	0.07656909
129	0x3ddfc0c7	0.10925441
130	0xbda2aa3c	-0.07942626
131	0x3e5f8a2f	0.21830057
132	0x3dd33c3d	0.10314224
133	0xbd6e0ed8	-0.058119625
134	0x3d038cec	0.032116815
135	0x3d98c088	0.074585974
136	0x3ded3c77	0.115837984
137	0x3dd438f8	0.103624284
138	0x3df96a85	0.1217852
139	0x3e265275	0.16242392
140	0x3d9ee394	0.07758251
141	0xbc828280	-0.015931368
142	0x3da0bda4	0.07848671
143	0xbd5e1948	-0.05422333
144	0x3e0a3dc0	0.13500118
145	0xbdab6d97	-0.08370512
146	0xbc51fead	-0.012817067
147	0xbc9827d6	-0.018573683
148	0x3d398f2f	0.045302566
149	0xbd517e70	-0.05114597
150	0x3e0f8634	0.14016038
151	0x3d93327f	0.07187366
152	0x3dcb9805	0.09941105
153	0x3de6f593	0.11277308
154	0x3df917d5	0.12162749
155	0x3c9d620b	0.01921179
156	0xbcbaf209	-0.02282049
157	0x3e328f87	0.17437564
158	0xbdb62c15	-0.08895127
159	0x3e0c14dd	0.13679834
160	0x3c7f5eaf	0.015586539
161	0x3dcc8fb2	0.09988345
162	0x3dabba17	0.08385103
163	0xbc3b8b88	-0.011446841
164	0xbcf1fc62	-0.02953929
165	0x3dc30a78	0.09523481
166	0x3db8fefc	0.090330094
167	0x3d6640fd	0.05621432
168	0x3d5d14c5	0.053974885
169	0xbd3bcbd2	-0.045848675
170	0x3d4f0c0d	0.050548602
171	0xbd076ddf	-0.033063766
172	0xbd2cc96f	-0.04218429
173	0x3d7ca777	0.061683144
174	0xbc570793	-0.013124364
175	0xbcdf12ef	-0.027230708
176	0xbc125a78	-0.008932702
177	0xbd102145	-0.03518798
178	0x3e3daa9b	0.18522112
179	0x3b6c4260	0.0036050305
180	0xbd99c839	-0.075088926
181	0x3debccb5	0.11513654
182	0x3e24bb5d	0.16087098
183	0x3e2f01cf	0.17090534
184	0xbd812754	-0.06306329
185	0x3e1d0e0a	0.15337387
186	0xbd45ddaf	-0.048307117
187	0x3b7aeb07	0.003828706
188	0x3d951487	0.07279306
189	0xbd00b234	-0.031419948
190	0xbdaa9d9f	-0.08330845
191	0x3df603ab	0.12012418
192	0x3dc45dc7	0.09588199
193	0xbcc9eaaa	-0.02464803
194	0x3dec2983	0.11531355
195	0x3dfb1553	0.12259927
196	0x3c85192a	0.01624735
197	0xbd914089	-0.07092387
198	0x3e25fbf9	0.16209401
199	0xbcfa5e92	-0.030562673
200	0xba966273	-0.0011473432
201	0xbdbffde3	-0.09374597
202	0xbdcae1b5	-0.099063314
203	0x3dcfc647	0.1014524
204	0x3dac96a3	0.08427169
205	0x3e66fd7d	0.22557636
206	0xbe484496	-0.19557413
207	0xbd36102c	-0.044449016
208	0xbcfd29d8	-0.030903742
209	0xbdac657a	-0.084177926
210	0xbe64caba	-0.22342959
211	0x3dafff35	0.08593599
212	0xbe323ed1	-0.17406775
213	0xbe7e917f	-0.2486019
214	0x3d24ab54	0.040202454
215	0xbcca971b	-0.024730256
216	0x3e0eecbb	0.13957493
217	0x3e6ce3b3	0.23133735
218	0xbe316688	-0.17324269
219	0xbdac11b7	-0.08401816
220	0xbccfd678	-0.025370821
221	0x3e8bf3c3	0.27334413
222	0x3debaa20	0.11507058
223	0x3e1d0db3	0.15337257
224	0xbd459167	-0.04823437
225	0x3e1eac72	0.1549547
226	0xbcd620a7	-0.026138617
227	0x3d1dca0a	0.038522758
228	0x3c800b89	0.0156305
229	0x3d25ab78	0.04044673
230	0xbe3d5ae1	-0.18491699
231	0xbe5f3fe2	-0.21801713
232	0xbeaaa72f	-0.33330676
233	0xbda7e457	-0.08197849
234	0xbe18b2b3	-0.14911918
235	0xbd0c9fc9	-0.03433207
236	0xbe5642c8	-0.20923913
237	0x3e0b0b6b	0.13578574
238	0x3d154d4b	0.036450665
239	0xbe1d165c	-0.1534056
240	0xbe446345	-0.19178493
241	0xbcd77a62	-0.026303474
242	0x3d7ee3ed	0.062229086
243	0x3e92e5c1	0.28690913
244	0xbe3c082e	-0.18362495
245	0x3e641fa5	0.22277696
246	0x3d8035ba	0.062602475
247	0x3bd07a52	0.006362238
248	0x3c1213ca	0.008915851
249	0x3d808755	0.062758125
250	0xbe8a8f82	-0.27062613
251	0x3e164e4d	0.14678307
252	0xbdaedbde	-0.0853803
253	0xbd3f94cd	-0.046772767
254	0xbd2d6232	-0.042329974
255	0xbe2bda67	-0.16782533

bias_hh_l0 f4 [400]
0	0x3d6a16f8	0.05715081
1	0x3dd8046a	0.10547717
2	0x3d583677	0.052786317
3	0x3c8f7589	0.0175121
4	0xbcb02763	-0.021503156
5	0x3d8663cc	0.065620035
6	0x3cfbab98	0.03072147
7	0x3df33bbb	0.11876627
8	0x3db3cdf4	0.08779517
9	0x3ce07ddd	0.027403766
10	0x3dbc75b3	0.09202137
11	0x3da04955	0.07826487
12	0x3cab9e3d	0.020949477
13	0x3dac456f	0.08411681
14	0xbe33e7b5	-0.17568858
15	0x3c23902a	0.009983102
16	0x3c2075f3	0.009793746
17	0x3da4e684	0.0805178
18	0x3d56a0c5	0.052399416
19	0x3d80521f	0.06265663
20	0x3e0cbe02	0.13744357
21	0x3ce7b0bf	0.028282521
22	0x3d6ade0a	0.05734066
23	0xbd0d0d61	-0.034436587
24	0x3e4280ad	0.18994398
25	0x3dc88f65	0.09792975
26	0x3db0db30	0.08635557
27	0x3c4916b8	0.012273483
28	0xbc4b476d	-0.012407166
29	0x3dc89672	0.0979432
30	0x3d8bdfb5	0.06829778
31	0x3dbe7340	0.09299326
32	0x3de50160	0.11181903
33	0x3e20caef	0.15702413
34	0x3df0bdc3	0.11754944
35	0x3e214d83	0.15752225
36	0x3e1092d9	0.14118518
37	0x3d753d00	0.059872627
38	0x3bf710b8	0.007539835
39	0x3d042350	0.03226024
40	0x3c1caef3	0.0095631955
41	0x3db2e595	0.087351955
42	0x3ddc8f27	0.10769492
43	0x3d461dd7	0.0483683
44	0x3e192527	0.14955579
45	0x3d5294a5	0.05141129
46	0xbc4e6e08	-0.012599476
47	0x3c8ce7eb	0.01720043
48	0x3def7860	0.116928816
49	0xbd7631d8	-0.06010613
50	0xb9eae4aa	-0.00044802326
51	0x3d82126c	0.0635117
52	0x3dc94715	0.09828011
53	0x3cac4ea3	0.02103359
54	0xbd8a1913	-0.06743064
55	0x3d455132	0.048173137
56	0x3d9b8a57	0.075947456
57	0x3dd8e61f	0.10590767
58	0xbcf214ad	-0.029550875
59	0x3e158a3e	0.14603516
60	0x3e024121	0.12720157
61	0xbd216193	-0.039399695
62	0x3dc388cd	0.09547577
63	0xbc0c5299	-0.008564615
64	0x3df58918	0.11989039
65	0x3de04f10	0.1095258
66	0x3e072293	0.13196783
67	0x3e0cae0f	0.13738273
68	0x3d95506b	0.07290729
69	0x3d9068ed	0.07051263
70	0xbb4c0aa5	-0.0031134274
71	0xbcaf8dc8	-0.021429911
72	0xbcefecab	-0.029287657
73	0x3dfb52fa	0.12271686
74	0xbc5df75b	-0.013547744
75	0xbc15e068	-0.009147741
76	0x3d7f8767	0.06238499
77	0x3da8c5eb	0.08240875
78	0x3e42eacb	0.19034879
79	0x3dbb001f	0.091308825
80	0xbc507350	-0.012722805
81	0x3db2e8f7	0.08735841
82	0x3d9eec25	0.07759885
83	0x3db3fbf7	0.08788293
84	0x3d6b0665	0.057379145
85	0x3da2090c	0.07911882
86	0x3d0eb55f	0.034840938
87	0xbb9a55ef	-0.004709951
88	0x3e1b44af	0.1516292
89	0x3df65fef	0.12030017
90	0xbac42fd0	-0.0014967863
91	0x3d887f1a	0.06664868
92	0x3e0febcb	0.14054792
93	0x3c55d14f	0.013050391
94	0xbd950b1a	-0.07277508
95	0x3dbf5c0f	0.09343731
96	0xbcce28db	-0.025165966
97	0x3db1c255	0.08679644
98	0x3d285cb0	0.04110402
99	0xbd0d0df4	-0.034437135
100	0xbd4975b8	-0.04918453
101	0x3dee579a	0.116378024
102	0x3ccf002f	0.025268642
103	0x3d601060	0.054703116
104	0xbc571665	-0.013127898
105	0x3dbda305	0.09259609
106	0x3bf42187	0.007450286
107	0xbd00c568	-0.03143826
108	0xbcd2fc8f	-0.025755195
109	0x3e06c023	0.13159232
110	0x3dad487d	0.08461092
111	0x3dec7562	0.115458265
112	0xbc8b4dcf	-0.017004875
113	0xbd023945	-0.031792898
114	0xbda24ab8	-0.07924408
115	0xbd2df15b	-0.042466503
116	0x3d83f4f3	0.06443205
117	0x3dcb5b15	0.09929482
118	0x3e0f026c	0.13965768
119	0x3e2bb594	0.16768485
120	0x3d881257	0.06644123
121	0xbb63332d	-0.0034667954
122	0x3ddb1542	0.10697414
123	0xbdb3e3bf	-0.087836735
124	0x3e582550	0.21107984
125	0x3d9fe457	0.07807224
126	0x3e61b180	0.22040367
127	0xbde2576b	-0.1105183
128	0x3d0144d9	0.0315598
129	0x3db1c88f	0.08680832
130	0x3dbe14a2	0.09281279
131	0x3e5cf02f	0.21575998
132	0x3d4ca830	0.049965084
133	0xbc1c0460	-0.009522527
134	0xbd94e17e	-0.07269572
135	0x3df358e7	0.11882191
136	0x3e22163d	0.15828796
137	0x3d461350	0.04835826
138	0x3e35baf0	0.17747092
139	0xba9ed49f	-0.0012117809
140	0x3e0a57c8	0.13510048
141	0xbac31e6b	-0.0014886385
142	0x3ac7b6a3	0.0015236925
143	0x3d092f4e	0.03349238
144	0x3c6028a5	0.013681565
145	0x3bb6305d	0.0055599646
146	0xbd7f9410	-0.062397063
147	0x3e156b8b	0.14591806
148	0xbd7819d5	-0.06057151
149	0xbd07e53f	-0.03317761
150	0x3e16645f	0.14686726
151	0x3bf2b2b7	0.0074065584
152	0x3db806d9	0.08985681
153	0x3d8fc7ee	0.070205554
154	0x3bfc9682	0.0077083716
155	0xbbacb060	-0.005270049
156	0x3d5b42a7	0.05353036
157	0x3e132054	0.14367801
158	0xbd89a285	-0.06720451
159	0x3e13614d	0.14392586
160	0xbcd88037	-0.026428325
161	0x3d8fe148	0.07025391
162	0x3dfac270	0.12244117
163	0x3d03ad0b	0.03214745
164	0xbd999a2e	-0.075001106
165	0xbdb25031	-0.087067015
166	0x3d586ecd	0.052840043
167	0x3d8d6551	0.0690409
168	0x3d936a42	0.071980014
169	0xbd121ebb	-0.035673838
170	0xbd5f0a18	-0.054452986
171	0x3d9986e6	0.07496433
172	0x3da27fcf	0.07934534
173	0x3dff0255	0.12451617
174	0x3d80676f	0.062697284
175	0x3e06be4b	0.13158529
176	0x3d1ae420	0.037815213
177	0x3dff6b53	0.12471642
178	0x3d8c6cf3	0.06856718
179	0x3d13e9c2	0.0361116
180	0xbac2d4c2	-0.0014864432
181	0x3e0af049	0.13568224
182	0x3c9f0487	0.019411338
183	0x3da9b123	0.08285739
184	0x3c72bc3f	0.014815389
185	0x3dbc888a	0.0920573
186	0x3da821d8	0.0820958
187	0xbc2b49f6	-0.010454645
188	0x3ded9c43	0.1160207
189	0x3c977625	0.018488953
190	0xbd863777	-0.06553548
191	0x3e161b23	0.1465879
192	0x3dbb6fef	0.09152209
193	0xbd9d9204	-0.07693866
194	0x3c048efc	0.008090731
195	0x3dd899af	0.10576188
196	0x3ca52730	0.020160288
197	0x3df0e218	0.11761874
198	0x3e2d686a	0.16934362
199	0xbbc7abfc	-0.0060935
200	0xbe3ed920	-0.18637514
201	0xbe0b7ce8	-0.13621867
202	0xbd1c9651	-0.03822929
203	0x3d5680d2	0.052368946
204	0x3d1d9230	0.038469493
205	0x3e673e5d	0.22582383
206	0xbe1f68ff	-0.15567397
207	0x3cf20dd8	0.029547617
208	0x3d0215fe	0.031759255
209	0xbe4d9bdd	-0.20078988
210	0xbe364a04	-0.17801672
211	0xbd160d7f	-0.036633965
212	0xbe47b131	-0.19501187
213	0xbe4f6b7b	-0.20255844
214	0x3ded5d47	0.11590057
215	0x3d3c3d10	0.04595667
216	0x3e3480b1	0.17627217
217	0x3d7dd0ff	0.061966892
218	0xbe106645	-0.14101513
219	0xbe3a972a	-0.18221727
220	0xbde4eea2	-0.11178328
221	0x3e93db03	0.2887803
222	0x3df89e40	0.12139559
223	0x3d92c8b6	0.07167189
224	0xbce681aa	-0.028138
225	0x3ddf597d	0.109057404
226	0xbde2bc08	-0.1107102
227	0x3e052c0b	0.13005082
228	0x3d348018	0.044067472
229	0x3e4172fb	0.18891518
230	0xbe49ff61	-0.19726326
231	0xbe8fcc5a	-0.28085595
232	0xbeaa52bf	-0.33266255
233	0xbe6a4413	-0.22877531
234	0xbe109d53	-0.14122514
235	0xbe1e74c8	-0.15474236
236	0xbdc411ee	-0.09573732
237	0x3dca2a26	0.098713204
238	0x3e03dce7	0.12877236
239	0xbdc5e126	-0.09662084
240	0xbe4b8e35	-0.19878466
241	0xbce98f28	-0.028510645
242	0x3de5208b	0.11187848
243	0x3e1df82b	0.154267
244	0xbe34195e	-0.17587802
245	0x3df3ba7b	0.11900803
246	0xbc5b21c0	-0.013374746
247	0x3d53bb20	0.05169213
248	0xbd4f3fcf	-0.050597962
249	0x3e56f777	0.20992838
250	0xbe8387fa	-0.2568968
251	0x3da62151	0.08111823
252	0xbd72412d	-0.059144188
253	0xbd6663f7	-0.056247678
254	0xbc1a80fe	-0.009430168
255	0xbe157ac1	-0.14597608

weight f4 [100, 100]
0	0xbde085fb	-0.10963055
1	0xbc4247cd	-0.011857939
2	0xbda8bc03	-0.082389854
3	0xbca68f27	-0.020331932
4	0x3d757e17	0.0599347
5	0xbd2d9cb2	-0.042385764
6	0xbcd2cabd	-0.025731439
7	0x3d478507	0.04871085
8	0xbe0b09b6	-0.13577923
9	0x3d8d57e2	0.06901528
10	0xbd4631ab	-0.04838721
11	0xbd334d73	-0.043775033
12	0xbdc928ec	-0.09822258
13	0x3d3c2b68	0.045939833
14	0x3d523c3d	0.05132698
15	0xbd1caf13	-0.0382529
16	0x3d18ef1c	0.037337407
17	0xbb71c255	-0.0036889513
18	0xbd7f2c9f	-0.062298413
19	0xbd10d237	-0.035356726
20	0xbc719650	-0.01474531
21	0xbda4dbac	-0.080497116
22	0xbc204003	-0.009780887
23	0xbdc3bcb0	-0.09557474
24	0x3de005f5	0.10938636
25	0xbd3f90ab	-0.046768826
26	0xbd86e07a	-0.06585784
27	0x3d5befff	0.053695675
28	0x3d80736d	0.06272016
29	0x3d649b40	0.05581212
30	0xbc9d3f6d	-0.019195283
31	0x3cd4b1b3	0.02596364
32	0xbc88fd64	-0.016722389
33	0x3db9bcc5	0.09069208
34	0x3c5440b2	0.012954878
35	0x3a3e0eaf	0.0007250113
36	0x3d695f0f	0.05697542
37	0x3d9d9462	0.076943174
38	0xbd373a4d	-0.044733334
39	0xbd36b620	-0.04460728
40	0x3dc509e1	0.09621025
41	0xbe0c2eea	-0.13689771
42	0xbca10b88	-0.019658819
43	0x3dce681a	0.100784495
44	0xba44dfd7	-0.00075101614
45	0x3d63b62d	0.05559366
46	0xbad99d98	-0.0016602753
47	0x3dbe6ab9	0.092976995
48	0xbdb928bf	-0.09040975
49	0x3d0d8452	0.03455002
50	0xbd593943	-0.053033125
51	0x3d211570	0.039327085
52	0x3ce0a625	0.027422974
53	0x3db06297	0.086125545
54	0x3c93eae0	0.018056333
55	0x3dd0bfb0	0.101928115
56	0x3cc6ac46	0.024252068
57	0x3d99e37f	0.075140946
58	0xbd0275ac	-0.031850502
59	0x3c32608b	0.010887275
60	0xbd820087	-0.06347757
61	0x3e32a286	0.1744481
62	0x3d886ef9	0.06661791
63	0x3c2a5207	0.010395533
64	0xbd06eede	-0.032942645
65	0x3d3bf634	0.045889094
66	0xbd95af4a	-0.07308824
67	0xbbd58a62	-0.0065167407
68	0x3cd0e137	0.025498016
69	0x3c706d5d	0.014674512
70	0xbd25a7e8	-0.04044333
71	0xbd4c61f8	-0.049898118
72	0x3e00ef12	0.12591198
73	0xbd6ea0c7	-0.058258798
74	0x3d0b980c	0.03408055
75	0x3cc053d0	0.023477465
76	0x3cf21c38	0.029554471
77	0x3bf5ee65	0.0075052255
78	0x3dc26507	0.09491926
79	0xbd07d343	-0.03316046
80	0x3dea4318	0.11438578
81	0xbd8764eb	-0.066110454
82	0x3da1f641	0.07908297
83	0x3d20bdea	0.039243616
84	0xbc7aacb7	-0.0152999675
85	0x3ddf2127	0.10894995
86	0x39586ba3	0.00020639463
87	0xbe167af9	-0.14695348
88	0xbc32b12d	-0.0109065
89	0xbd2e092f	-0.042489227
90	0x3d032dae	0.032025985
91	0xbdda829a	-0.106694415
92	0x3d1aed0f	0.037823733
93	0x3d8a801f	0.067627184
94	0x3d2833a3	0.04106487
95	0x3d8b7d43	0.06811001
96	0xbcd051d3	-0.025429642
97	0x3d9824ec	0.07428917
98	0x3d1159aa	0.0354859
99	0xbdc514ef	-0.096231334
100	0x3e10e0a6	0.14148197
101	0xbd0817bb	-0.033225756
102	0xbd9efb35	-0.07762758
103	0xbc78db38	-0.015188985
104	0xbb16720f	-0.0022956168
105	0x3dc0c35b	0.09412261
106	0xbddaf880	-0.10691929
107	0xbd9cdb13	-0.076589726
108	0x3cd9be77	0.026580079
109	0xbc22cb94	-0.009936232
110	0xbd7bcc8a	-0.06147436
111	0xbd9bc36b	-0.076056324
112	0x3d093be0	0.033504367
113	0x3c0db5a3	0.008649263
114	0x3d3dbf9a	0.046325304
115	0x3dd4376a	0.10362132
116	0x3cc4c08f	0.0240176
117	0x3dc775f4	0.09739295
118	0xbc28f0c9	-0.010311314
119	0x3d2b9fc3	0.041900408
120	0x3d4e63cf	0.050388154
121	0x3d48da17	0.04903611
122	0xbd64aea8	-0.055830628
123	0x3dd948e2	0.106096044
124	0xbdb44fb9	-0.088042684
125	0x3c825581	0.015909912
126	0x3d459d93	0.048245978
127	0x3dcb0e9c	0.09914896
128	0x3d98bd65	0.07457999
129	0x3d876919	0.06611843
130	0xbcb51455	-0.022104422
131	0xbb679dc3	-0.0035341836
132	0xbdbb124b	-0.091343485
133	0x3d469a2b	0.04848687
134	0xbdf239f3	-0.11827459
135	0x3db8cf2b	0.09023889
136	0xbd535358	-0.051593155
137	0xbc2aec1c	-0.010432269
138	0xbc7f90cd	-0.015598488
139	0xbd976bfd	-0.07393644
140	0xbdd471cf	-0.1037327
141	0x3d11a2c5	0.03555562
142	0xbd509d53	-0.050931286
143	0x3cbcdb8b	0.023053905
144	0xbd39901d	-0.045303453
145	0xbdc89c4a	-0.09795435
146	0xbe055230	-0.13019633
147	0x3d8cbd2f	0.068720214
148	0x3ba604bc	0.0050664824
149	0xbca45dd1	-0.020064266
150	0xbd151e62	-0.03640593
151	0x3cb2a68f	0.021807937
152	0x3d3bf595	0.045888502
153	0x3d121a21	0.03566945
154	0x3d47117f	0.04860067
155	0xbce47a22	-0.027890269
156	0x3d963a97	0.07335394
157	0x3c98dc59	0.018659757
158	0x3d146f5a	0.036239006
159	0x3d428713	0.047492098
160	0x3d1989f8	0.037485093
161	0xbd7623a0	-0.06009257
162	0xbc4a08f2	-0.012331234
163	0xbc8dc533	-0.017305946
164	0x3db6f27b	0.08932968
165	0xbde19788	-0.110152304
166	0xbd5e281f	-0.05423748
167	0xbc5ac55a	-0.013352716
168	0x3cd9149b	0.026499083
169	0x3d78bea7	0.060728695
170	0x3dd29023	0.10281398
171	0xbcd36718	-0.025805995
172	0xbe01d1b3	-0.1267765
173	0x3da4182b	0.08012422
174	0xbe352d10	-0.17692971
175	0xbd917149	-0.071016856
176	0x3da25708	0.07926756
177	0x3cbb8100	0.02288866
178	0x3c97d658	0.018534824
179	0x3db7980b	0.08964547
180	0xbe0750ff	-0.13214491
181	0xbbf33193	-0.007421681
182	0x3d86ad2c	0.06575999
183	0x3d4358aa	0.04769198
184	0x3ba94f1f	0.0051669027
185	0xbdcff8cf	-0.10154878
186	0xbcfcb7ed	-0.030849421
187	0x3cdaaf05	0.026694784
188	0x3c3bdf43	0.011466804
189	0xbad9f25a	-0.0016628013
190	0x3d8bc39b	0.06824418
191	0x3d8c6379	0.068549104
192	0xbc47462f	-0.012162729
193	0xbe190611	-0.1494372
194	0xbe0448e7	-0.12918435
195	0xbdca3d49	-0.098749705
196	0x3db1ffea	0.0869139
197	0xbd8bdca3	-0.068291925
198	0x3ded73e3	0.11594369
199	0x3ceba5e8	0.028765634
200	0x3c53bb52	0.012923079
201	0x3cb488f0	0.022037953
202	0x3c564890	0.013078824
203	0x3d0ffd7a	0.035153843
204	0xbd878289	-0.066166945
205	0xbde65e43	-0.11248448
206	0x3cd9cafd	0.02658605
207	0xbc9653ea	-0.01835056
208	0xbe0a84a0	-0.13527155
209	0x3d9cb0a2	0.076508775
210	0x3c01643a	0.007897431
211	0xbbd31d1a	-0.006442678
212	0x3b93af54	0.0045069847
213	0xbcfe043b	-0.031007877
214	0x3d9d151a	0.076700404
215	0x3b94c64b	0.00454024
216	0xbd98eaf5	-0.074666895
217	0xbcd67a3f	-0.026181338
218	0xbc00c580	-0.007859588
219	0xbc05acd3	-0.00815888
220	0x3ddec4ea	0.10877402
221	0xbca1df8b	-0.019759914
222	0xbd3b576f	-0.04573768
223	0xbd8a419c	-0.06750795
224	0x3cf4e74d	0.029895449
225	0xbd31005d	-0.043213237
226	0x3daf1dc1	0.08550597
227	0xbc418695	-0.011811872
228	0xbd975d57	-0.0739085
229	0x3c51345b	0.01276883
230	0x3d26c73a	0.04071734
231	0xbd13d9bb	-0.036096316
232	0x3d4ce597	0.05002364
233	0x3cdab435	0.026697258
234	0x3c4fe020	0.012687713
235	0xbdc3bef3	-0.09557905
236	0x3d0a3053	0.03373749
237	0x3bde835a	0.0067905607
238	0x3b49bf37	0.003078414
239	0xbbed266f	-0.0072372477
240	0xbdc7f41b	-0.09763356
241	0x3cd8fe5f	0.026488481
242	0x3d2f0a2d	0.042734314
243	0x3d99e5a8	0.075145066
244	0xbd56db40	-0.052455187
245	0x3caa8fe8	0.020820573
246	0x3e2fad35	0.17155917
247	0x3e08d0b7	0.13360868
248	0xbdc3ab7b	-0.09554192
249	0x3c286d40	0.0102799535
250	0xbd5e41dd	-0.05426203
251	0xbd30ad87	-0.04313424
252	0xbcb22760	-0.021747291
253	0x3e12436e	0.14283535
254	0xbda5823d	-0.080814816
255	0x3d8f6658	0.070019424

bias f4 [100]
0	0x3dc22d15	0.09481255
1	0x3c5a24e7	0.013314462
2	0x3db64fae	0.089019164
3	0xbc185c09	-0.009299287
4	0x3ce7770d	0.02825501
5	0xbd9f713b	-0.07785269
6	0xbce54d8a	-0.027991075
7	0xbd20a2a9	-0.039217625
8	0xbb9a65bf	-0.004711836
9	0x3d9d9c44	0.07695821
10	0xbdbd02b0	-0.09229028
11	0xbcf61c5f	-0.030042825
12	0x3c9a67d8	0.018848345
13	0xbe029451	-0.1275189
14	0xbda33725	-0.07969502
15	0xbdd4eadb	-0.103963576
16	0x3d3a193d	0.045434225
17	0xbd4f355d	-0.050588
18	0xbd4c748a	-0.049915828
19	0xbd212bbf	-0.03934836
20	0x3dc72e62	0.09725644
21	0xbcd2d91a	-0.025738288
22	0x3d9e7883	0.077378295
23	0x3dd3bebd	0.10339115
24	0x3c02b80a	0.007978449
25	0xbd4b374d	-0.049613286
26	0xbd2bc81a	-0.04193888
27	0xbd047359	-0.032336567
28	0x3d71fd38	0.05907938
29	0xbd979bc6	-0.07402758
30	0xbd256fca	-0.040389813
31	0xbc1a14c8	-0.009404369
32	0xbcd97638	-0.026545629
33	0xbdc77c16	-0.097404644
34	0x3d8d00df	0.06884932
35	0x3d918d67	0.071070485
36	0x3d1f6175	0.0389113
37	0xbe03722a	-0.12836519
38	0xbd896967	-0.06709557
39	0xbd761337	-0.06007692
40	0xbdb640ce	-0.08899079
41	0xbd46586e	-0.048424177
42	0xbd3161a9	-0.043306027
43	0xbd9c9083	-0.07644751
44	0x3c053546	0.008130377
45	0x3c3b2d52	0.011424379
46	0x3d365932	0.044518657
47	0x3d9eebf7	0.077598505
48	0x3d8cd873	0.06877222
49	0x3d149d97	0.036283102
50	0xbc4c71f6	-0.012478342
51	0xbcad96e1	-0.021190109
52	0xbc3fa327	-0.011696613
53	0x3da7c897	0.08192556
54	0xbd3e2c20	-0.0464288
55	0x3d70ae2a	0.058759846
56	0xbd12c940	-0.03583646
57	0x3cc629a9	0.024189787
58	0x3d970762	0.07374455
59	0x3de9ae92	0.1141025
60	0x3c215746	0.009847468
61	0x3d4ceee7	0.050032523
62	0x3d96efd1	0.0736996
63	0x3ddf190f	0.108934514
64	0x3d83faa8	0.06444293
65	0xbcfaa2ea	-0.030595262
66	0x3da08377	0.07837575
67	0xbc044359	-0.008072698
68	0xbcf794fb	-0.030222407
69	0x3d65a07b	0.05606125
70	0x3ce57228	0.028008536
71	0xbe1ffc0c	-0.15623492
72	0xbd6c37f2	-0.05767054
73	0x3d59373a	0.053031184
74	0xbd2f516b	-0.042802256
75	0x3c4a33bd	0.012341437
76	0x3db6be24	0.08922985
77	0xbcc163d7	-0.023607178
78	0xbe08a5ef	-0.13344549
79	0x3d156e5f	0.03648221
80	0xbcab116b	-0.020882329
81	0xbd9e87cc	-0.07740745
82	0xbdb3b507	-0.087747626
83	0x3d87b7bc	0.066268414
84	0x3d5b68a0	0.053566575
85	0x3c56b0f0	0.013103709
86	0x3b88cece	0.0041750437
87	0x3db16d28	0.08663398
88	0x3d8a9a3d	0.067677
89	0x3d80faf9	0.06297869
90	0xbdac1d53	-0.08404031
91	0x3afefb7b	0.0019453609
92	0xbdaf1947	-0.08549743
93	0xbd4e0613	-0.05029876
94	0x3dcb277b	0.0991964
95	0x3d3ba3fd	0.04581069
96	0xbd37baaf	-0.04485577
97	0x3d99d833	0.0751194
98	0x3cf842d3	0.030305302
99	0x3c6fa2cf	0.014626219

weight f4 [1, 100]
0	0xbeb6bc53	-0.35690555
1	0x3ec8be14	0.39207518
2	0xbee571db	-0.44813427
3	0x3ec357ac	0.38152826
4	0x3ee81f87	0.45336553
5	0x3f35991b	0.70936745
6	0x3e52b2ed	0.20576067
7	0xbdef8a60	-0.11696315
8	0x3e6cbba3	0.23118453
9	0xbec75cdd	-0.38938037
10	0x3f1de382	0.61675274
11	0x3f188103	0.59571856
12	0x3dc770f3	0.0973834
13	0x3ebdf040	0.3709736
14	0xbe664d72	-0.2249048
15	0x3e0a89ea	0.13529173
16	0x3e1163d9	0.14198245
17	0xbed9695d	-0.42463198
18	0x3f2dc893	0.67884177
19	0xbe3c4aca	-0.18387905
20	0x3c9fe78f	0.019519595
21	0x3f056a7b	0.521156
22	0x3d55fc68	0.052242666
23	0xbf0c09ab	-0.5470225
24	0x3e67b6a5	0.22628267
25	0x3ecdc4e2	0.40189272
26	0xbeb72cbf	-0.35776326
27	0xbe617b7f	-0.22019766
28	0x3e83e805	0.25762954
29	0x3ec6e6e3	0.38848028
30	0x3ebe75dc	0.37199295
31	0x3dcb971c	0.09940931
32	0xbe3c220d	-0.18372364
33	0x3e315e25	0.1732107
34	0x3e6bdd7f	0.23033713
35	0xbeb5888f	-0.35455748
36	0xbd9d77f3	-0.07688894
37	0x3ee8662f	0.4539046
38	0xbf160642	-0.586033
39	0x3e99e6ac	0.300588
40	0x3ec44676	0.38335007
41	0x3f40d24a	0.75320876
42	0x3ecf617a	0.40504056
43	0x3d801f2f	0.06255948
44	0x3ece7a50	0.40327692
45	0xbf0ac9b5	-0.5421403
46	0xbda39c88	-0.0798884
47	0xbea5938f	-0.3233914
48	0x3e3507e7	0.17678796
49	0xbf0705f8	-0.5274348
50	0xbeaae74f	-0.333796
51	0xbe363d4f	-0.17796825
52	0x3ec8750b	0.39151797
53	0xbeb6550d	-0.35611764
54	0x3e8647a0	0.2622652
55	0x3e9520e7	0.29126665
56	0xbe881628	-0.26579404
57	0x3e97aed5	0.29625574
58	0xbd1c0aac	-0.038096115
59	0xbf3f311b	-0.74684304
60	0xbf21582c	-0.63025165
61	0xbf0e357a	-0.5555035
62	0xbee4db33	-0.44698486
63	0xbf3879c6	-0.7206081
64	0x3e3d6763	0.1849647
65	0x3c127206	0.008938318
66	0xbe9aff2f	-0.30272815
67	0xbea8bb43	-0.3295537
68	0x3ed49112	0.4151693
69	0xbebde874	-0.3709141
70	0x3ea256b7	0.31706783
71	0x3f1d9f3d	0.61571103
72	0x3bec7788	0.0072163977
73	0xbdedb4aa	-0.116067246
74	0x3e311fea	0.1729733
75	0x3f097650	0.53696156
76	0xbee1f2eb	-0.44130644
77	0xbd17c823	-0.0370561
78	0x3eea690d	0.45783272
79	0xbda28383	-0.0793524
80	0xbf02b7ce	-0.51061714
81	0xbbf4169f	-0.0074489857
82	0x3e97f0b4	0.2967583
83	0x3d821412	0.06351484
84	0x3e88e848	0.26739717
85	0xbcb7e201	-0.022446634
86	0xbde0c06d	-0.10974202
87	0x3e8a5ce1	0.27023986
88	0xbd87df20	-0.066343546
89	0xbeb9cd6f	-0.36289546
90	0x3cecb5b0	0.02889523
91	0xbedf2dab	-0.4358953
92	0x3e93ce25	0.28868213
93	0x3ea8f51b	0.329995
94	0xbe9fb938	-0.31195998
95	0xbed45a90	-0.41475344
96	0x3e986aa1	0.2976885
97	0xbe6419d3	-0.22275476
98	0x3ed267b5	0.41094747
99	0xbef709dd	-0.48249713

weight f4 [15, 100]
0	0x3eefe880	0.4685707
1	0xbe90a56c	-0.28251207
2	0x3db9376d	0.09043775
3	0xbeb7b356	-0.3587901
4	0x3e15922b	0.1460654
5	0x3d9067e8	0.070510685
6	0xbde17895	-0.11009327
7	0x3e9ab79f	0.30218217
8	0x3e384af4	0.17997342
9	0xbef01d6a	-0.4689744
10	0xbf0b2ab2	-0.5436202
11	0x3dc57407	0.09641271
12	0x3f190239	0.59769017
13	0x3d6094eb	0.05482952
14	0x3d344c3b	0.04401801
15	0x3e95690f	0.29181716
16	0xbe7e435a	-0.2483038
17	0xbea7e7bf	-0.32793996
18	0x3e6431ef	0.22284673
19	0x3f3d9522	0.74055684
20	0x3dbd3873	0.092392825
21	0x3ed88be3	0.42294225
22	0x3ea9ce10	0.33165026
23	0x3eddd630	0.43327475
24	0xbf01a8b7	-0.50648063
25	0x3e373846	0.1789256
26	0x3e4ed627	0.2019888
27	0x3ed580cd	0.4169983
28	0xbf0c81b3	-0.54885405
29	0xbe8adc46	-0.2712118
30	0xbea612af	-0.3243613
31	0x3f05b0b8	0.52222776
32	0xbe4743dd	-0.19459482
33	0xbf1b9876	-0.6077951
34	0x3e3ca49d	0.1842217
35	0x3ed2fc7f	0.41208264
36	0xbf1b8a81	-0.60758215
37	0x3e9a52ab	0.30141196
38	0x3f0a2b53	0.5397236
39	0xbf0bb6e5	-0.5457595
40	0xbd3d5ad0	-0.046229184
41	0xbdc86578	-0.09784979
42	0xbedbfd30	-0.42966604
43	0xbf1873d4	-0.5955174
44	0x3ec64f1a	0.38732225
45	0x3ef4720a	0.47743255
46	0xbe934eac	-0.2877096
47	0xbe1e4a63	-0.15458064
48	0xbe5a772b	-0.21334521
49	0x3e6e74a2	0.2328668
50	0xbe9852bb	-0.29750618
51	0x3e6e5997	0.23276363
52	0x3e0544bf	0.13014506
53	0x3eb3477f	0.35015485
54	0xbef039f5	-0.46919218
55	0x3e7c9c02	0.24668887
56	0x3f1a563c	0.60287833
57	0x3e89f0e1	0.2694159
58	0x3e953960	0.29145336
59	0x3de4ff48	0.111815035
60	0xbe2853a7	-0.16438161
61	0xbee3edea	-0.44517452
62	0x3f0fdcff	0.5619659
63	0xbea27d91	-0.31736425
64	0x3f09fd2b	0.5390193
65	0x3db18cb4	0.08669415
66	0x3dcad890	0.09904587
67	0x3e530b7b	0.20609848
68	0x3f1e74c7	0.6189694
69	0x3e5d4ac3	0.2161055
70	0xbf0681f5	-0.5254205
71	0x3e0ffc66	0.14061126
72	0xbe590f6b	-0.21197288
73	0xbe58d312	-0.21174267
74	0xbecfca03	-0.4058381
75	0xbe8baa6f	-0.27278468
76	0xbee6943f	-0.45034978
77	0xbe8b8fc4	-0.27258122
78	0x3ea5c33a	0.3237551
79	0x3ed1f867	0.41009828
80	0x3ea7b533	0.32755432
81	0x3ea223df	0.31667992
82	0xbe92ebac	-0.28695428
83	0xbe7d1fd5	-0.24719174
84	0x3e4fb5d2	0.20284203
85	0xbeb5e1d3	-0.35523853
86	0xbdd49d3b	-0.10381552
87	0xbe19c8a3	-0.15017943
88	0x3e68152d	0.22664328
89	0x3e325379	0.17414655
90	0xbe2edf45	-0.17077358
91	0xbd707fa0	-0.058715463
92	0xbc8bdbf3	-0.017072653
93	0xbebca809	-0.3684695
94	0xbec00bcb	-0.37508997
95	0xbde3f23d	-0.11130188
96	0x3e6c674d	0.23086281
97	0xbe067bf8	-0.13133228
98	0x3ecb7601	0.39738467
99	0x3d5c410a	0.053772964
100	0xbef1556a	-0.47135478
101	0xbf1649d8	-0.58706427
102	0x3dc5d879	0.096604295
103	0x3ef2f102	0.474495
104	0x3ed2aa9b	0.41145787
105	0x3e9c6365	0.30544582
106	0xbf02e6da	-0.511335
107	0x3e11ed3b	0.14250652
108	0x3dcb7394	0.09934154
109	0xbe818d9c	-0.25303352
110	0x3e5553c8	0.20832741
111	0x3eb203ff	0.34768674
112	0xbedac44d	-0.4272789
113	0xbe53609a	-0.2064232
114	0xbf0bce2b	-0.5461146
115	0x3edd8878	0.4326818
116	0x3efafdba	0.49021703
117	0x3e0b3c33	0.13597183
118	0xbddb5ed2	-0.10711445
119	0xbea4fb7c	-0.32223117
120	0xbf0509cd	-0.5196808
121	0x3f0bd76b	0.54625577
122	0x3ecf7698	0.40520167
123	0xbe1144bf	-0.14186381
124	0xbd546848	-0.051857263
125	0x3e766dc7	0.24065314
126	0x3dafd0ae	0.08584724
127	0xbedf93df	-0.43667504
128	0x3e4675b7	0.19380842
129	0xbe46e3ed	-0.19422884
130	0xbf04006d	-0.5156315
131	0x3e0cd6a0	0.13753748
132	0x3eab9871	0.3351474
133	0x3f17fc3b	0.5936925
134	0x3e897aa9	0.26851395
135	0x3e7fd2b2	0.24982718
136	0xbe3930d6	-0.18085036
137	0xbf1c55af	-0.6106824
138	0x3e7d47ff	0.24734496
139	0x3e6ff527	0.23433362
140	0x3ea15346	0.31508845
141	0xbf026685	-0.5093768
142	0x3e8e8cc9	0.27841786
143	0x3e924da5	0.28574863
144	0xbee6024d	-0.4492363
145	0xbee9ebfd	-0.45687857
146	0xbe65c130	-0.22436976
147	0x3d94f8e3	0.07274034
148	0xbe478583	-0.19484524
149	0xbd2d50d2	-0.042313404
150	0xbecc19a3	-0.3986331
151	0xbebbc93b	-0.36676964
152	0x3f1d8f48	0.61546755
153	0xbdbee5d7	-0.09321182
154	0xbee7a652	-0.4524408
155	0xbefb89f8	-0.491287
156	0xbeaeab34	-0.34114993
157	0x3dde7122	0.10861422
158	0xbe9a0767	-0.30083773
159	0xbd9a9178	-0.07547277
160	0x3d007ea7	0.031370785
161	0xbed0bc02	-0.4076844
162	0x3e869c96	0.2629134
163	0x3e8befb5	0.2733132
164	0x3ef44e4a	0.4771598
165	0x3ecabf43	0.39599046
166	0xbe482753	-0.19546251
167	0x3edf79ca	0.43647605
168	0x3eb269b7	0.3484628
169	0xbdb103cc	-0.08643302
170	0x3f01e8cf	0.5074586
171	0x3ea26130	0.31714773
172	0x3f263642	0.6492654
173	0x3eabce19	0.33555678
174	0x3e95a9a3	0.29230985
175	0xbf07419f	-0.52834505
176	0xbed23bc0	-0.4106121
177	0x3e8c5c5c	0.27414215
178	0x3dd52177	0.104067735
179	0x3d8e76e2	0.06956269
180	0xbe53b8a3	-0.20675902
181	0xbc889a3b	-0.016675105
182	0xbd0077ec	-0.031364366
183	0xbea352e2	-0.31899172
184	0xbe485253	-0.19562654
185	0xbe7f5c40	-0.24937534
186	0xbe952fd0	-0.2913804
187	0xbe163771	-0.14669587
188	0xbefced3d	-0.49399748
189	0xbdef3c92	-0.11681475
190	0x3f00e56c	0.5035007
191	0xbde61c6f	-0.11235892
192	0x3e380f6f	0.17974637
193	0x3e51c3a2	0.20484784
194	0xbf02e8b9	-0.51136357
195	0x3f12f811	0.5740977
196	0x3e97a6eb	0.29619536
197	0xbd622e48	-0.05521992
198	0x3ee93f50	0.45556116
199	0x3e89ce1a	0.26915056
200	0x3e59c27d	0.21265598
201	0xbe48a840	-0.19595432
202	0xbefee88b	-0.4978679
203	0xbec0afbf	-0.37634084
204	0x3eaab97c	0.33344638
205	0xbf073883	-0.52820605
206	0x3e6b73af	0.22993349
207	0xbee2bae7	-0.4428322
208	0xbdf72acb	-0.12068709
209	0xbeb8db38	-0.3610475
210	0xbed35c60	-0.41281414
211	0xbf0ec68b	-0.557717
212	0x3eecc295	0.46242204
213	0xbf35090f	-0.7071695
214	0x3f224119	0.6338058
215	0xbe018eec	-0.12652177
216	0x3b1b2232	0.0023671505
217	0x3e8ee452	0.2790857
218	0x3ea0458c	0.3130306
219	0x3ec1c032	0.37841946
220	0x3f15c0ad	0.58497125
221	0xbdb2aded	-0.0872458
222	0x3e63e050	0.22253537
223	0x3ee11810	0.4396367
224	0xbf00b367	-0.50273746
225	0xbeaa14c8	-0.3321898
226	0xbf2007c2	-0.6251184
227	0x3eef1310	0.4669423
228	0x3dcac115	0.09900109
229	0x3ecca44a	0.39969093
230	0x3f3db423	0.7410299
231	0xbe386327	-0.18006574
232	0x3ed96928	0.4246304
233	0xbeea1ef0	-0.45726728
234	0xbeb6261f	-0.3557596
235	0x3e8b2bd7	0.27181885
236	0x3e3d198f	0.18466781
237	0x3d90bc00	0.07067108
238	0x3de3c448	0.11121422
239	0xbe2a1075	-0.1660784
240	0xbec0d906	-0.37665576
241	0x3ebfbc4f	0.37448356
242	0xbe1b638b	-0.15174691
243	0xbf181be6	-0.5941757
244	0x3d284ba2	0.041087754
245	0x3f1d4f5d	0.61449224
246	0xbf12a207	-0.57278484
247	0x3f2824a7	0.6568093
248	0xbea7fa52	-0.32808167
249	0x3e4b01fc	0.19824976
250	0x3f0f48fb	0.55970734
251	0xbf1c7e81	-0.6113053
252	0xbe8785a5	-0.2646915
253	0xbe97bb57	-0.29635116
254	0x3e82d8f0	0.25556135
255	0x3e61c50d	0.22047825

bias f4 [15]
0	0x3ee54af0	0.44783735
1	0x3e745545	0.23860653
2	0x3f461af3	0.7738487
3	0x3f74e37a	0.956596
4	0x3f717112	0.94313157
5	0x3f7bf437	0.9841952
6	0x3f63a83f	0.889286
7	0x3fc26aa2	1.5188792
8	0x3ecc6eac	0.39928186
9	0x3ebfcd9b	0.37461552
10	0x3f0385c7	0.51376003
11	0x3e99a2b9	0.3000696
12	0x3f056163	0.52101725
13	0x3e827358	0.25478625
14	0x3f01408b	0.5048911
